LSTM_TimeSeries/lightning_logs/version_197/checkpoints/epoch=3-step=520.ckpt (torch, 952859 bytes, 27 tensors)

model.lstm1.weight_ih_l0 f4 [416, 3]
000000 5c 87 be 3c 18 bd 3c 3c b8 0a 76 bd 2a c3 03 bd
       0.023257904 0.011519693 -0.060068816 -0.032168545
000010 0f 4f 70 bd ee 39 1e 3d d0 a7 db 3c d2 85 8e bd
       -0.058669146 0.038629465 0.026813418 -0.06959118
000020 ff 0b 81 3d 57 b4 53 bd 14 80 d0 bc 4f 6b a7 3d
       0.06301116 -0.051685657 -0.025451697 0.08174764
000030 27 70 bb bd de 52 2f 3d 01 c3 bb bd 7f 3f 57 bd
       -0.09152251 0.042803638 -0.091680534 -0.05255079
000040 85 ad 74 bd 21 02 8e 3d e0 de 55 3c e0 af 47 bd
       -0.059735794 0.06934 0.013053626 -0.04875171
000050 bd ff b5 bd ca 72 1e 3d 9a c0 28 3d 30 28 83 3b
       -0.08886669 0.03868369 0.041199304 0.0040025935
000060 6c 18 d6 bc 1c a5 b2 3c cf e0 b8 3d a8 6c 5e bc
       -0.026134692 0.021807246 0.09027254 -0.01357571
000070 13 e2 9c 3d 9d 2b a7 3d 26 31 19 3d 9b bb 81 3d
       0.07660308 0.081626154 0.037400387 0.06334611
000080 b0 2a 3e bc 78 94 97 bd a0 db 7d bb 00 c0 d1 36
       -0.011606857 -0.07401365 -0.0038735643 6.251037e-06
000090 fc dc e9 3c a0 9e af bd 80 bc c4 3b 46 14 1b 3d
       0.028547756 -0.08575177 0.0060039163 0.03786113
0000a0 a8 e5 0e 3c b3 b0 8f bd 10 29 65 bc aa 3a 93 bd
       0.0087217465 -0.070161246 -0.013986841 -0.07188924
0000b0 a0 8f 5b bc c8 f7 39 bc 60 bc d4 bb 6d c9 bb 3d
       -0.013400942 -0.01135058 -0.0064921826 0.09169278
0000c0 00 f2 67 39 a0 82 83 3c 32 5a 6a 3d a2 b1 20 3d
       0.00022120029 0.016053498 0.057214923 0.039231904
0000d0 1b 1d a5 bd e6 6b 5f 3d 48 90 39 bd 1f d0 c4 3d
       -0.08062192 0.05454626 -0.045303613 0.096100084
0000e0 c0 d4 6f bb dc dd 9f 3c b6 b8 a5 bd 08 cd 40 bc
       -0.0036595315 0.01951497 -0.080918714 -0.011767633
0000f0 10 07 aa bc 20 ad e3 3b 82 29 0f bd 19 45 81 3d
       -0.02075532 0.0069481283 -0.034951694 0.063120075
000100 91 81 b3 bd d1 02 bf 3d 85 ce 8f 3d 59 69 70 bd
       -0.08764947 0.09326709 0.07021812 -0.058694217
000110 1c e5 bf 3c 00 be 60 bc 5b 7a 57 bd cc 59 d9 bc
       0.023424678 -0.0137171745 -0.05260692 -0.026532076
000120 d4 58 15 bd f8 b2 70 bc 58 eb 35 bc 12 72 4c 3d
       -0.036461666 -0.014691107 -0.011103474 0.049913473
000130 58 f2 81 3c 05 fc a0 3d 20 62 74 bd a9 6f bd 3d
       0.015862629 0.07860569 -0.05966389 0.09249813
000140 72 bd 7d 3d 78 11 d1 3c 4f 20 4a bd d9 20 87 3d
       0.061948247 0.025521025 -0.049347218 0.06598062
000150 85 bc 91 3d 08 cd 1d bc 8e c1 99 bd 6e 29 55 3d
       0.07116035 -0.009631403 -0.07507621 0.052041464
000160 39 3a ad 3d 00 7a 13 39 a9 d1 2d bd 31 4b 95 3d
       0.08458371 0.00014064461 -0.042436276 0.07289732
000170 65 06 b2 3d f2 4f 29 3d c2 c8 4f 3d 30 4e c3 3c
       0.08692626 0.041336007 0.050728567 0.023840994
000180 80 70 b6 bc da 49 6b 3d 79 b7 c1 3d b6 64 23 3d
       -0.022270441 0.057443477 0.09458823 0.039890967
000190 80 77 d6 3a 63 d7 2b bd 60 fb bc 3c 8c 27 c0 bd
       0.0016362518 -0.041953456 0.023069084 -0.09382543
0001a0 70 75 a7 bc c4 29 ea bc 0e cd bb bd 6b 0f b4 3d
       -0.02044174 -0.028584369 -0.091699705 0.08792003
0001b0 b7 72 58 bd 00 7a c4 39 34 7d 12 bd 2b f7 a2 3d
       -0.052843776 0.0003747493 -0.035763934 0.079573
0001c0 82 8e 02 3d 5e 1f 7a 3d d8 af 81 bd 00 31 b6 39
       0.031874187 0.06106507 -0.06332368 0.00034750253
0001d0 c0 82 fd 3b 95 74 89 3d 16 5c 60 3d 5c e6 19 bd
       0.007736534 0.067116894 0.05477532 -0.037573203
0001e0 d8 8e 2b 3c 55 61 7c bd b6 50 14 3d a0 a1 16 3c
       0.010471068 -0.06161626 0.036209784 0.009193808
0001f0 10 18 a1 bd a3 5f a5 3d b8 a9 a4 3c 4e ab 7c bd
       -0.07865918 0.08074882 0.02010046 -0.061686806
000200 08 89 29 bc 00 0c 26 3a 6b 3c a1 3d 60 e5 a6 3b
       -0.010347612 0.00063341856 0.07872852 0.0050932616
000210 b6 45 0a 3d 93 bf ae 3d c0 22 e0 bc 23 31 99 3d
       0.033757888 0.08532634 -0.02736032 0.07480075
000220 d4 bf 7f bd 88 92 0b bd 88 91 84 bc 46 a1 0c 3d
       -0.0624388 -0.03407529 -0.016182676 0.03433349
000230 26 65 6d 3d 5a 64 7f 3d 80 2a 70 3a 85 f0 b3 3d
       0.05795779 0.062351562 0.00091616064 0.0878611
000240 f2 3f 3a 3d f2 a4 85 bd 32 b0 66 3d 46 d5 67 3d
       0.04547114 -0.065256014 0.056320377 0.056599878
000250 17 da 85 3d d0 63 9f 3b 54 09 dd 3c d5 af bc 3d
       0.06535738 0.0048641935 0.026981987 0.09213225
000260 70 bb ad 3b 4a 54 04 bd cf ab 89 bd 09 ac 86 3d
       0.0053018853 -0.032306947 -0.06722223 0.06575782
000270 c4 72 51 bd 86 54 bc bd 7c 58 b0 3c 87 31 ae 3d
       -0.05113484 -0.09195809 0.021526568 0.0850554
000280 74 2b 8d bc 02 3b 2c 3d 50 bf 95 3b 90 b2 d1 3b
       -0.017232634 0.04204846 0.0045699254 0.00639946
000290 ad f5 82 3d b1 25 c4 bd c9 83 af 3d 02 60 5f 3d
       0.06394515 -0.095775016 0.08570058 0.05453492
0002a0 c0 d6 0b bc 3a c7 34 3d a4 4d 6a bd c0 e8 81 bd
       -0.008535087 0.04413531 -0.05720295 -0.06343222
0002b0 e6 a2 41 3d eb ab c0 3d 50 66 b4 bc d0 12 d4 3b
       0.047274493 0.09407791 -0.022021443 0.006471969
0002c0 ce a6 2b 3d c0 35 6a 3c b8 96 06 3c 7f 02 a7 3d
       0.041907124 0.014295042 0.008214645 0.08154773
0002d0 9a 70 b3 bd 80 8a ad bc ce cc 5b 3d f0 85 b4 bc
       -0.087617114 -0.021184206 0.053662114 -0.022036523
0002e0 dc df ad bc ec 75 80 bd 9f 47 bd 3d 8a 4b 13 3d
       -0.021224909 -0.06272492 0.09242176 0.03596071
0002f0 75 ed 49 bd ea 33 1f 3d 42 a9 49 3d 42 aa 61 3d
       -0.049298722 0.03886787 0.049233682 0.05509401
000300 b6 02 12 3d d6 7c 1b 3d 0f 1e 3c bd 8e 5d 3c 3d
       0.035647117 0.03796085 -0.045927104 0.04598766
000310 00 5f d2 3a ef 31 a8 3d b6 6c 5a 3d b9 8c ae 3d
       0.0016050041 0.08212649 0.05332633 0.085229345
000320 80 86 90 3a b0 66 df bb 60 41 a1 3c 80 60 15 3c
       0.0011026412 -0.006817661 0.019684494 0.009117246
000330 d0 6c 25 3c 82 e1 4b 3d 67 1d 9c 3d b9 36 a1 3d
       0.010096744 0.049775608 0.076227956 0.07871766
000340 52 83 7a 3d 9c f4 d4 bc 8a 7a 72 3d 40 a0 cf bb
       0.061160393 -0.025995545 0.059198894 -0.006336242
000350 e8 ea 35 3c 1d 01 5f bd ab fe 62 bd e4 d8 d7 3c
       0.011103369 -0.05444442 -0.05541865 0.026348539
000360 d6 be 55 3d e9 68 89 3d f8 02 20 3c 3a 12 2d 3d
       0.05218395 0.06709463 0.009766333 0.04225371
000370 3c fb d1 bc 2c f7 ab 3c 30 1a e4 bc 13 86 c3 3d
       -0.025632493 0.020991884 -0.027844518 0.09547057
000380 60 5a e9 3b ee db b9 bd 35 1f b5 3d 20 c6 2f bb
       0.0071213692 -0.090751514 0.08843843 -0.0026820973
000390 ab b6 a6 3d d0 0a 81 bd 30 41 60 bc 6c 2a f2 3c
       0.0814031 -0.063008904 -0.013687417 0.029561244
0003a0 b0 60 4c bc 80 5d 78 bd 7c d3 04 bd f8 a5 19 3c
       -0.012474224 -0.060636044 -0.03242825 0.009377949
0003b0 00 fd bc bc 19 59 99 3d c0 13 fa ba ff 62 27 bd
       -0.023069859 0.07487697 -0.0019079372 -0.040865894
0003c0 55 7e 99 3d 5e 79 03 bd 70 99 ad bc 48 8f 8f 3c
       0.07494799 -0.032098167 -0.021191329 0.017524377
0003d0 c8 31 2b 3c 35 f3 c6 bd 74 f6 aa 3c db 8d be 3d
       0.0104488805 -0.09714357 0.020869471 0.093044005
0003e0 b8 a2 1a bc b0 bc d4 bc 36 96 57 3d d6 68 02 bd
       -0.009438209 -0.02596888 0.052633487 -0.03183826
0003f0 36 17 22 3d ff fc 89 3d d6 4c 02 3d 40 62 7d 3b
       0.039572917 0.06737708 0.031811558 0.0038663298

model.lstm1.weight_hh_l0 f4 [416, 104]
000000 ea 7e 14 3d 13 01 82 bd 0c 98 f2 3c b9 a9 19 bd
       0.036253847 -0.06347861 0.029613517 -0.037515376
000010 5b f5 26 bd a8 91 a2 bd 30 4d 35 3c e8 01 a6 3c
       -0.040761333 -0.07937938 0.011065766 0.02026458
000020 b0 86 4a bc c8 72 a4 bc 2f 8b 30 bd dc 01 95 3c
       -0.012361214 -0.020074263 -0.043101486 0.018189363
000030 68 b7 a5 bc 68 33 0c bc 38 e2 ea bc 45 f7 b1 3d
       -0.020229056 -0.008557178 -0.028672323 0.08689741
000040 df 47 66 bd c0 7c 4e bb 77 64 68 bd 91 0e 7b bd
       -0.056220885 -0.0031507462 -0.056736436 -0.06129319
000050 b8 0b 24 3c a0 3f 44 bc b0 79 b1 3c 91 23 44 bd
       0.01001256 -0.01197806 0.02166447 -0.04788548
000060 36 f7 44 3d 00 80 d9 38 8d 8e 8b 3d 0a ab 92 bd
       0.04808732 0.00010371208 0.06814299 -0.07161529
000070 4a 3c 03 3d 00 06 81 3c 52 04 18 3d 10 9f a7 3c
       0.032039918 0.015749931 0.037113495 0.02046159
000080 20 0a bd bb 2a a2 09 bd 58 c5 8b 3c 19 eb 24 bd
       -0.0057690293 -0.033601917 0.017061874 -0.04026327
000090 d5 b6 90 3d ed 5b 8b 3d 10 a1 48 bd 80 d7 93 3c
       0.070661224 0.06804643 -0.048981726 0.018047094
0000a0 c2 fb 06 3d 45 b4 87 3d 40 e6 68 3c 60 23 43 bd
       0.03295494 0.066261806 0.014215052 -0.047641158
0000b0 6b 66 93 3d 09 82 9f 3d b0 09 a4 3c 24 6a ff 3c
       0.07197269 0.07788474 0.02002415 0.031178541
0000c0 18 91 8f 3c ca a5 04 3d 16 94 7f 3d 4a f7 0c 3d
       0.01752524 0.03238467 0.062397085 0.03441552
0000d0 3a ef 02 3d 54 c1 89 bd 1c 57 b4 3c cc d4 cc bc
       0.031966425 -0.067263275 0.022014193 -0.025003813
0000e0 dc 07 85 bd 38 dd 09 bc 27 a2 aa 3d b9 3e c1 3d
       -0.0649564 -0.008414559 0.08331709 0.094357915
0000f0 64 7c f2 3c 67 b9 bb 3d 22 ec 04 3d c1 c6 35 bd
       0.02960033 0.09166222 0.032451756 -0.044379
000100 58 88 fa bc 55 53 b6 bd 10 c2 91 bb 39 2f a5 bd
       -0.030582592 -0.08902613 -0.004448183 -0.08065648
000110 2c fe 03 bd 43 d6 27 bd 72 66 5c 3d 28 66 e3 bc
       -0.03222482 -0.04097582 0.053808637 -0.027758673
000120 41 f3 66 bd 20 35 04 bd 70 78 af bd 7f 34 c1 bd
       -0.05638433 -0.032277226 -0.085678935 -0.09433841
000130 60 22 0b 3c 87 d5 ad 3d 11 a4 99 3d 28 30 74 bc
       0.008492082 0.08487993 0.07501996 -0.0149040595
000140 bd 71 b8 3d 28 07 85 bd e5 95 b5 3d 0e 88 1a bd
       0.09006069 -0.064955056 0.08866481 -0.037727408
000150 5a 74 39 3d f9 1c c7 3d 6d f4 90 3d 8e 2d 14 3d
       0.045276977 0.09722323 0.070778705 0.036176257
000160 a4 d9 b3 bc 5f d4 9f bd 7a 33 73 3d 3e 06 42 3d
       -0.021954365 -0.078041784 0.059375264 0.047369234
000170 34 e4 58 bd f0 5f bd bd ba 62 55 bd 97 7a 89 3d
       -0.052952006 -0.09246814 -0.052096106 0.06712835
000180 f8 58 83 bc 5d 76 81 3d 94 39 e8 3c a6 8b 26 bd
       -0.016033635 0.06321404 0.028347768 -0.040660523
000190 19 d1 37 bd e0 f7 0e bc 90 44 93 3b eb 49 b7 3d
       -0.044877145 -0.00872609 0.0044942573 0.089496456
0001a0 8c 52 ab 3c e0 a6 9e 3b f6 84 56 3d fa ea 40 3d
       0.020913385 0.0048416704 0.052372895 0.04709909
0001b0 de 97 8f bd ac 28 ac 3c 5d dd 97 bd 81 65 98 bd
       -0.07011388 0.021015488 -0.074152686 -0.07441235
0001c0 f4 06 d7 bc 6e 6f 3e bd 9c ff b6 bc 80 00 42 bb
       -0.026248433 -0.046492986 -0.02233868 -0.0029602349
0001d0 de 84 3d 3d 99 f3 b7 bd 12 c1 0d 3d aa b0 65 3d
       0.04626929 -0.089820094 0.034607954 0.056076683
0001e0 00 f6 f5 bb 40 e8 36 bb ff 17 c0 3d 14 8b ee bc
       -0.007506132 -0.0027909428 0.09379577 -0.029119052
0001f0 20 a1 bb 3c 08 76 95 bc 90 fb 3b 3c c1 a4 ab 3d
       0.022903979 -0.018244758 0.011473551 0.08381034
000200 c1 3c 83 3d c2 8b 0c 3d e0 0f be 3c 5c 9a bf 3c
       0.06408072 0.03431297 0.02320093 0.023389034
000210 42 e5 c2 bd 56 13 04 3d 53 52 41 bd 14 f6 0c bd
       -0.09516384 0.032245003 -0.04719765 -0.034414366
000220 2d b6 b3 3d a9 eb ae 3d 45 33 9d bd 0c 60 0e bd
       0.08774982 0.08541042 -0.076757945 -0.034759566
000230 00 d7 a5 39 92 07 a3 bd 9b dd ae 3d 38 0c 9d bd
       0.0003163144 -0.07960428 0.08538362 -0.07668346
000240 bc 1b ec 3c 34 3b bb 3c 02 86 20 3d 20 08 67 3b
       0.028821819 0.022855379 0.0391903 0.0035252646
000250 ac 63 e4 3c 3e 1b 7a 3d d6 e8 7a 3d e0 90 fa 3b
       0.027879559 0.061061136 0.061257206 0.007646665
000260 3e 04 99 bd c4 4f f3 3c ed 37 2f bd 10 d5 cf 3b
       -0.07471512 0.029701121 -0.042777944 0.0063425377
000270 6b db 85 3d f9 4a 57 bd 04 35 a7 bc 71 8d a5 3d
       0.06535991 -0.052561734 -0.020411022 0.080836184
000280 e2 ee 88 bd b6 af 81 bd 9d ee 71 bd 09 42 a7 3d
       -0.06686188 -0.06332342 -0.05906545 0.08166892
000290 ea fd 94 bd db 12 82 3d c5 e1 b9 3d 1b 6e b1 3d
       -0.07274993 0.06351253 0.09076265 0.08663579
0002a0 d0 a5 45 3c 3e 25 33 3d c5 ca c2 bd 03 c7 b2 3d
       0.012063459 0.04373669 -0.095113315 0.08729365
0002b0 64 6f 8d bd bc 52 bb bc 6a 0f 7d 3d 75 55 73 bd
       -0.06906012 -0.0228666 0.061782278 -0.05940767
0002c0 63 43 c6 3d 76 43 2b 3d 54 e6 e8 3c cf 08 bb 3d
       0.09680822 0.041812383 0.028430142 0.091325395
0002d0 fc 3d f6 3c 6f e2 1d bd 78 ac 57 3c 1d 6a 4f bd
       0.030058853 -0.038546022 0.013163678 -0.050638307
0002e0 e0 fa 1b 3c 76 d7 87 bd 04 e9 d1 3c cb f7 9e 3d
       0.0095202625 -0.06632893 0.025623806 0.077621065
0002f0 00 a6 71 39 00 9d 0e 3a 98 9c 47 3c d9 65 48 bd
       0.00023045391 0.0005440265 0.012183331 -0.048925254
000300 e8 16 45 bc 39 92 6d bd e4 19 9c 3c 05 c4 99 bd
       -0.012029387 -0.058000777 0.019055314 -0.07508091
000310 25 05 c4 3d aa ed 45 3d 02 c2 11 3d 06 7c 3b 3d
       0.09571294 0.048322357 0.03558541 0.045772575
000320 09 5a 6f bd 1a 93 61 3d 39 a1 b0 3d 8a 1a 74 3d
       -0.058435474 0.055071928 0.08624501 0.059595622
000330 8d c2 11 bd 56 cd 68 3d 7d bf 94 3d 15 d7 aa bd
       -0.03558593 0.05683645 0.07263086 -0.08341805
000340 e7 e9 8b 3d a4 42 97 3c 1b f4 95 3d 58 95 2e 3c
       0.06831723 0.018464394 0.0732195 0.0106557235
000350 20 33 96 bd f0 b2 a9 bb f8 88 27 bc 61 ec be 3d
       -0.0733397 -0.0051788017 -0.010225527 0.093224294
000360 85 11 b1 3d 93 67 21 bd 80 d7 18 ba d0 cf 82 bb
       0.0864592 -0.039405417 -0.0005830452 -0.0039920583
000370 d7 52 96 bd 94 ff 9e bc 57 23 8f 3d 60 7f ce 3b
       -0.07340019 -0.019408979 0.069891624 0.0063018054
000380 1a b3 b4 bd d4 4e a7 bc 3f 07 4a bd 24 b8 bf 3c
       -0.088232234 -0.02042333 -0.049323317 0.023403235
000390 2c a1 f2 3c 42 ee 27 3d 94 fd ba 3c 88 47 de bc
       0.029617868 0.040998705 0.022825994 -0.027133718
0003a0 e0 32 1b bc 7e 8c 1f 3d 32 fd 73 3d 03 72 b4 3d
       -0.009472579 0.038952343 0.059567638 0.088108085
0003b0 42 89 4a 3d c3 6a 48 bd c5 d3 c4 bd 70 0d 68 bc
       0.049447306 -0.04892994 -0.09610704 -0.01416336
0003c0 a8 e7 11 3c 45 ba 8f 3d 58 6f 33 bc ae 44 5c 3d
       0.008905329 0.0701795 -0.010951839 0.053776436
0003d0 96 bc 31 bd 8f 8f c2 bd 00 50 77 3a fe e2 4d 3d
       -0.04339274 -0.09500038 0.0009434223 0.050265305
0003e0 a8 48 42 bc 31 2f 82 bd 59 90 82 bd a1 00 90 3d
       -0.011858143 -0.06356657 -0.063751884 0.0703137
0003f0 b2 b2 6a 3d df c5 ae 3d 00 75 de 39 b6 7f a8 bd
       0.057299323 0.08533835 0.0004243031 -0.08227484

model.lstm1.bias_ih_l0 f4 [416]
000000 16 6e 18 3d e4 a1 b6 3c 38 a9 b6 bd 06 ec 6f 3d
       0.03721436 0.022293992 -0.08918995 0.0585747
000010 d8 01 be 3c cd 35 a9 bd ce 2f b1 bd f0 60 ec bb
       0.023194239 -0.08262215 -0.08651696 -0.0072137043
000020 80 87 62 bc 18 78 99 bc 7f de 6c bd c4 05 9b 3c
       -0.013826251 -0.018734023 -0.057829376 0.018923648
000030 15 fc c0 3d ca d1 4a 3d 58 28 52 bc 97 ba b5 bd
       0.09423081 0.049516477 -0.0128270015 -0.0887348
000040 ce a1 54 3d 52 2c 3d 3d 60 d6 45 bb 3a bd 75 3d
       0.05191212 0.046184845 -0.0030187592 0.059994914
000050 00 7f be 39 ee ef 37 3d 91 15 b3 3d 20 ba e0 bc
       0.00036334246 0.04490655 0.08744348 -0.027432501
000060 ca 3e 68 3d 90 02 37 3c 38 ca 25 bc f0 4a 9f bd
       0.056700505 0.011170045 -0.0101190135 -0.07777965
000070 10 3e 08 bc de 76 7d 3d a6 39 94 bd 7a b3 13 3d
       -0.008315578 0.06188094 -0.07237558 0.036059834
000080 d0 c2 ca 3b c0 5e 62 3c 90 a5 57 bd a2 18 aa bd
       0.0061877742 0.0138165355 -0.052648127 -0.083054796
000090 3e d2 0a bd f9 f0 42 bd cd 78 84 bd f8 25 9e 3c
       -0.03389191 -0.04759309 -0.064683534 0.019305214
0000a0 a3 16 45 bd b3 c0 c8 bd 34 af 98 3c 30 2e ad bb
       -0.04811729 -0.098023795 0.01863823 -0.005285047
0000b0 57 8e 12 bd a8 a7 8f bc 5e d8 04 bd 34 12 b4 bc
       -0.035780277 -0.017536 -0.032432906 -0.021981336
0000c0 d2 09 b5 bd 3a 3c 09 3d b0 17 74 bd 90 3e 00 bd
       -0.08839764 0.033504702 -0.059592903 -0.031309664
0000d0 23 3d 86 bd ac c2 c0 3c 70 66 a5 bb 78 90 69 bc
       -0.0655463 0.023530327 -0.005047612 -0.014255635
0000e0 be 93 40 3d d8 3e 84 bd 04 53 e9 bc ba c1 bf bd
       0.047015898 -0.06457299 -0.028481968 -0.09363122
0000f0 f1 44 85 3d 52 71 21 3d d8 cf 4f bc f4 ef aa 3c
       0.0650729 0.03941471 -0.012683831 0.020866372
000100 d1 4b c0 bd 7c 1a b9 3c 0e cb 17 3d 30 b1 39 3c
       -0.09389461 0.022595637 0.037058882 0.011333749
000110 b1 b3 9c bd 9e 5c 2d 3d f3 c2 be 3d c8 08 d4 3c
       -0.07651461 0.042324655 0.09314527 0.025883093
000120 08 b8 3e bd 30 9d 8e bb 18 b0 88 bd 21 6a 68 bd
       -0.046562225 -0.0043522343 -0.06674212 -0.056741837
000130 d8 0d 67 3c 5e 29 c6 bd 40 84 82 ba 1c a8 d2 bc
       0.014102422 -0.09675859 -0.0009957626 -0.025714926
000140 28 1b 4d bc fe f4 31 bd 5c cc a0 3c 14 0f b3 3c
       -0.012518682 -0.043446533 0.019628696 0.021857776
000150 90 8e 83 bc 22 9f 16 3d cc cf fb bc 10 4a 04 3c
       -0.01605919 0.036772855 -0.030738734 0.0080742985
000160 58 a7 05 bd ff c7 c2 3d 10 a3 7b bd 8a aa 0b 3d
       -0.032630295 0.095108025 -0.061434805 0.034098186
000170 2c f5 71 bd b8 5d 9b 3c 5a 2c 5d 3d 44 5d c4 3c
       -0.059071705 0.018965587 0.053997375 0.023970254
000180 b0 f0 ad bb 08 de 44 bc 98 9e c0 bd 1d 4e 97 bd
       -0.005308233 -0.012015827 -0.09405249 -0.07387946
000190 78 44 71 bc 8c af d7 3c 08 49 65 bc 05 5f b0 3d
       -0.014725797 0.026328824 -0.013994463 0.086118735
0001a0 00 a6 e8 3a 20 ad 41 3b b1 4f af 3d 03 bb 90 3d
       0.0017749667 0.0029552653 0.08560122 0.0706692
0001b0 be 3c 62 3d 39 97 91 bd e7 35 b4 3d 83 61 98 3d
       0.05523371 -0.071089216 0.087993436 0.07440474
0001c0 34 fb ae 3c 22 54 9b bd 45 85 9b 3d cb a0 8f 3d
       0.021360017 -0.075844064 0.075937785 0.07013091
0001d0 00 5b 5e 3a 52 48 7e 3d f2 98 c5 bd 52 2d 22 3d
       0.0008482188 0.06208069 -0.09648313 0.039594002
0001e0 22 24 45 bd f0 2d 78 bc 80 1d d6 bc a3 58 89 3d
       -0.048130162 -0.015147671 -0.026137114 0.06706359
0001f0 8a 46 9e bd bb 5d af bd 8f 59 7b bd 80 49 b7 bc
       -0.07728298 -0.085627995 -0.061364707 -0.022373915
000200 ee 80 3a 3d c0 56 4e 3c 5c e5 0c bd 33 86 b3 3d
       0.045533113 0.012593925 -0.03439842 0.08765831
000210 40 d2 00 bb 35 db b0 bd 84 93 84 bd 28 e7 28 3c
       -0.0019656569 -0.086355604 -0.06473449 0.010309018
000220 a2 01 27 3d 1f 9f b6 bd 46 f6 43 3d 10 b8 12 bd
       0.04077304 -0.08917069 0.047842287 -0.035820067
000230 d4 4e 97 bc af 54 90 bd e1 c7 87 3d 21 ad 82 bd
       -0.018470205 -0.07047402 0.06629921 -0.06380678
000240 1a 33 0b bd 3b 6a b8 3d 1f b2 b9 bd 81 e3 97 bd
       -0.03398428 0.09004637 -0.09067177 -0.0741644
000250 2b 66 9c 3d a7 17 a9 3d 76 44 6f 3d d3 8d b0 3d
       0.076366745 0.082564645 0.0584149 0.08620801
000260 40 d2 4c bc 4b d1 ad bd 04 6c aa bd 80 d9 6a bb
       -0.012501299 -0.08487185 -0.083213836 -0.0035835207
000270 78 1d 63 bc a8 8b 0e bd 83 ab bf 3d 17 61 b5 3d
       -0.013862006 -0.034801155 0.09358885 0.08856409
000280 c6 da 76 bd 78 1d 0a 3c c0 7f 25 3b 57 24 70 bd
       -0.060267232 0.008429877 0.0025253147 -0.058628406
000290 36 0a 2d 3d ad 58 9b 3d 45 81 9c 3d 7a 63 ac bd
       0.042246066 0.07585273 0.07641844 -0.08417411
0002a0 70 fb 92 3b 02 d5 b1 bd e3 85 97 3d f2 08 16 3d
       0.00448554 -0.08683206 0.07398584 0.036629625
0002b0 23 16 92 3d 54 25 35 bd c9 07 32 bd c2 20 3d 3d
       0.071331285 -0.044225052 -0.043464456 0.04617382
0002c0 50 34 ab bb b7 96 51 bd d0 0c c6 3b b9 6f bb bd
       -0.005224742 -0.051169124 0.006044008 -0.09152169
0002d0 1a d9 10 bd 7c 68 8c bd 47 35 19 bd 71 d1 96 3d
       -0.035363294 -0.06855866 -0.037404325 0.073641665
0002e0 f0 02 5e 3c 17 61 3e bd c2 d1 6f 3d ca 83 13 3d
       0.013550505 -0.04647931 0.05854965 0.036014356
0002f0 e6 6c 35 3d 20 a0 5c bc 3a 9a 30 3d 87 06 85 3d
       0.044293307 -0.013465911 0.043115832 0.064953856
000300 8f f3 36 bd 6a e1 6c bd fe 5e 23 3d b1 eb 19 bd
       -0.04466587 -0.05783216 0.039885513 -0.03757829
000310 dd 66 6c bd d7 da a1 3d cc 14 80 3c 12 8e be bd
       -0.057715286 0.079030685 0.015634917 -0.093044415
000320 35 8b aa 3d f4 59 c2 3c 60 33 6b 3b 1b 6d b6 bd
       0.08327333 0.023724534 0.0035888776 -0.08907529
000330 e3 17 a9 3d f0 9e a9 3b ec f1 6c bd 5d d4 c1 3d
       0.08256509 0.0051764175 -0.057847902 0.09464333
000340 8e 81 05 bd 6a ae 39 3d 44 b8 11 bd 3c a6 ee 3c
       -0.032594256 0.04533235 -0.03557612 0.029132001
000350 c8 6a 0e 3c 9a 29 1d 3d 94 9c a3 3c ce 32 2a 3d
       0.008692451 0.038369752 0.019972123 0.041552357
000360 d8 87 a4 3c 9e ba 63 3d 19 d3 30 bd 80 29 1c 3c
       0.020084307 0.055597894 -0.04317007 0.009531379
000370 78 48 9b bd eb a3 8e 3d cf 57 bb 3d 37 bb af bd
       -0.07582182 0.069648586 0.091476075 -0.0858063
000380 61 da a1 3d 61 58 a2 bd 22 eb 26 bd 76 96 18 3d
       0.079029806 -0.07927013 -0.040751584 0.037252866
000390 a0 04 3f bb 7e 92 21 3d f5 ac 2c bd e4 dc bb 3c
       -0.0029147044 0.039446346 -0.042157132 0.022932477
0003a0 c0 1a 9a ba 9b 0d 97 3d a0 05 24 3b 45 50 36 bd
       -0.001175724 0.07375642 0.0025027767 -0.044510145
0003b0 01 0d 8a 3d a0 68 b5 bd f4 1e c9 3c 46 74 84 bd
       0.067407615 -0.08857846 0.024550892 -0.0646749
0003c0 50 36 36 bc 4d 3a c1 bd 52 fd 51 bd 00 ec f9 38
       -0.011121348 -0.09434948 -0.051266976 0.00011917204
0003d0 84 9f a7 3c 26 08 af bd 27 a6 c4 bd be d2 99 bd
       0.020461805 -0.08546476 -0.096020035 -0.07510899
0003e0 f6 eb 6b 3d 62 a7 5e 3d f4 3e b8 3c 8e 23 c2 bd
       0.057598077 0.054358847 0.022490956 -0.09479438
0003f0 c5 37 5f bd 34 f5 a8 bd 2a 5a 34 3d a4 a3 7b bd
       -0.054496545 -0.08249894 0.0440313 -0.061435357

model.lstm1.bias_hh_l0 f4 [416]
000000 f4 e0 a9 3c 63 6b 94 bd de 4c b1 bd be e9 41 3d
       0.020737149 -0.07247045 -0.086572394 0.047342055
000010 14 ef 39 bd 44 3c d4 bc c6 68 65 3d af b2 85 bd
       -0.04539402 -0.025907643 0.056008123 -0.06528222
000020 47 24 74 bd 77 23 c8 3d 60 81 10 3c 85 cd 13 bd
       -0.05960491 0.097723894 0.008819908 -0.03608467
000030 08 fc c9 3c 6c 50 d7 3c 00 14 e5 bb e7 b2 4e bd
       0.02465631 0.026283465 -0.0069909096 -0.050463583
000040 c4 9c ff 3c 95 fa 99 bd e9 aa b6 3d 54 18 fd 3c
       0.031202681 -0.07518498 0.08919317 0.03089539
000050 d3 dc 1c bd a1 0b a5 bd 81 1e 9a 3d d0 4a cd bc
       -0.038296532 -0.08058859 0.075253494 -0.025060087
000060 cc b3 d9 bc 0a 2a a0 bd 07 4e 69 bd 3b 4a c5 3d
       -0.026574992 -0.07820518 -0.05695918 0.09633299
000070 c0 5c c7 3b ec ec f5 3c 6a 06 a9 bd 92 b5 41 bd
       0.0060840547 0.0300202 -0.082531765 -0.0472923
000080 8a 34 56 3d c2 ca 73 3d 56 b5 b5 bd cf 1c 8a bd
       0.0522962 0.059519537 -0.08872478 -0.06743776
000090 d8 97 1f bd c4 a9 b5 bd 9b dc 84 bd 76 13 84 bd
       -0.03896317 -0.08870271 -0.0648739 -0.064490244
0000a0 d5 24 a4 3d 2a c9 35 3d 42 85 0b 3d 16 34 8c bd
       0.08014838 0.044381298 0.03406263 -0.06845872
0000b0 a0 d0 8e bb 84 7c da bc af 92 8e bd 60 72 5d 3c
       -0.004358366 -0.026670702 -0.069615714 0.013516039
0000c0 e8 c8 e8 bc 72 a2 87 bd a0 3a ff 3b f8 24 bd 3c
       -0.028416112 -0.06622781 0.007788971 0.023088917
0000d0 ac db 0f bd d4 22 87 bd 9c cd 95 3c f4 88 c7 3c
       -0.035121605 -0.0659844 0.018286519 0.024357297
0000e0 60 d0 c4 3c 55 2b 9f bd 99 ac b8 3d f8 70 70 3c
       0.024025142 -0.07771937 0.090172954 0.014675371
0000f0 d8 01 83 bd 2c 4f e5 bc b6 56 64 3d fc 3d 9b bc
       -0.06396836 -0.027991854 0.055746756 -0.018950455
000100 6d 84 b7 3d 50 96 13 3c 8e 38 74 3d 08 f2 b8 bd
       0.08960805 0.009008005 0.059624247 -0.09030539
000110 27 7f ba 3d 70 d9 91 bd 20 42 d0 bc f6 73 03 3d
       0.09106284 -0.07121551 -0.025422156 0.03209301
000120 1b 41 c0 3d 7a ba 0b 3d f7 09 84 3d a2 94 a6 bd
       0.09387418 0.034113385 0.06447213 -0.08133818
000130 86 df 20 3d 77 07 c7 3d 60 82 2c bc 19 b0 96 bd
       0.03927567 0.09718221 -0.010529131 -0.07357807
000140 ba 70 6b 3d 80 05 17 3b 06 34 40 3d 90 08 de bc
       0.05748055 0.002304405 0.046924613 -0.027103692
000150 a1 f6 bf 3d a2 4a 7f 3d d5 b5 bb 3d c8 81 9e bd
       0.093732126 0.062327035 0.09165541 -0.077395976
000160 63 81 5f bd 8b 76 c5 3d 61 51 83 3d 36 97 4a 3d
       -0.054566752 0.09641751 0.06412006 0.049460612
000170 78 2c 9a 3c 16 ae 30 3d b8 e4 d8 3c 14 0b fb 3c
       0.018820032 0.04313477 0.02647625 0.03064493
000180 ae 79 52 3d cc 02 f5 bc 46 3e 5f 3d 9b d5 40 bd
       0.051385574 -0.02990856 0.054502748 -0.04707871
000190 0a 0c 73 bd 9e 50 61 3d a1 28 bc 3d 60 a0 49 3b
       -0.059337653 0.055008523 0.09187437 0.0030765757
0001a0 35 2b 83 3d 8c d3 c7 3c 2f d3 99 3d 11 0c 35 bd
       0.064047255 0.024392866 0.07510983 -0.04420096
0001b0 78 32 f9 bc 23 d8 ab 3d c0 5d 91 3a e2 6a 00 bd
       -0.030419573 0.08390834 0.0011090562 -0.03135193
0001c0 b2 56 56 3d 72 b0 41 3d 14 cf f5 bc 10 f4 91 3b
       0.052328773 0.047287412 -0.03000597 0.0044541433
0001d0 e8 81 a8 bc 25 ad bb 3d d0 a4 79 3c b6 c6 be bd
       -0.020569757 0.09163884 0.015237048 -0.09315245
0001e0 a2 fe 6d 3d ee 2b 3a 3d ab 89 b8 3d 8b 2f a1 3d
       0.058104165 0.04545205 0.09010633 0.07870396
0001f0 bc 7d 8f 3c 20 29 16 3c fb 32 9e 3d 01 bd b5 bd
       0.01751601 0.009165078 0.077245675 -0.0887394
000200 f3 d2 bf 3d 00 9c c5 38 56 0b 4a 3d 60 fb 52 bd
       0.09366407 9.422749e-05 0.049327217 -0.05150926
000210 5a 69 a0 bd fe 4a 04 bd 11 f3 3a bd 00 17 80 39
       -0.07832594 -0.03229808 -0.045641962 0.000244312
000220 50 64 95 bd d0 27 d1 bb b0 40 53 bc 6a 59 28 bd
       -0.07294524 -0.00638292 -0.012893841 -0.041100897
000230 e0 64 ea bb 32 45 ba bd 21 d6 94 bd 6c fe fe 3c
       -0.0071531385 -0.09095229 -0.07267404 0.031127177
000240 e2 51 51 3d d9 62 35 bd 40 29 c3 bb 88 52 59 bd
       0.05110348 -0.04428372 -0.005955845 -0.053057224
000250 96 26 2a 3d d6 5b 0d bd 78 53 60 bc d9 5d 6a bd
       0.041540705 -0.03451141 -0.0136917755 -0.057218406
000260 60 2b 07 3b 78 3e b3 bc 75 29 9b 3d 76 96 4d 3d
       0.0020625219 -0.021880373 0.07576267 0.05019232
000270 c4 ef 26 bd bc 40 48 bd be fb 23 3d 20 76 53 3c
       -0.040756002 -0.04888986 0.040035002 0.012906581
000280 94 43 fe bc 57 40 81 bd 36 c6 07 bd 0a db 65 3d
       -0.031038083 -0.063111 -0.033148013 0.056117095
000290 a0 0d 3e bc 5a 66 1c 3d 5b bb 18 bd 50 88 a1 3c
       -0.011599928 0.038183548 -0.03728805 0.01971832
0002a0 7d db 51 bd 44 72 86 3c 05 84 92 bd 1b 0c ba 3d
       -0.05123471 0.016411908 -0.07154087 0.0908434
0002b0 94 e1 a8 3c 82 60 73 3d 2b 23 32 bd 50 35 ba bc
       0.020615377 0.05941821 -0.04349057 -0.0227305
0002c0 d5 8d b3 3d 17 3b 8f 3d 74 c2 89 bd f4 6b fe bc
       0.08767287 0.06993692 -0.06726542 -0.031057335
0002d0 d1 9b 86 3d e6 7c 08 3d cd f8 8a 3d 22 55 58 3d
       0.06572688 0.033322237 0.06785736 0.052815564
0002e0 66 0e 61 3d 8b 90 83 bd db 8d 9e 3d 8a ac 2c 3d
       0.054945372 -0.06424054 0.077419005 0.042156734
0002f0 9e 49 1c 3d b7 62 3d bd 40 07 b1 bd bb 58 83 3d
       0.038156144 -0.04623672 -0.08643961 0.06413408
000300 dd 0f b0 bd d0 c4 e5 bb 3d 7f 5c bd 31 03 c0 3d
       -0.08596776 -0.0070119873 -0.05383228 0.09375609
000310 b6 c7 5f 3d 00 9d 58 3c 41 9e 32 bd 3c c3 f3 3c
       0.05463382 0.0132210255 -0.043607954 0.029756181
000320 69 8a 21 bd 3c 95 e9 3c c0 05 c5 3b 3e dc 99 bd
       -0.03943864 0.028513543 0.0060126483 -0.07512711
000330 92 08 24 3d 4d 61 9e 3d 62 25 25 3d ac f0 c8 3c
       0.040047236 0.077334024 0.040318854 0.024528824
000340 9e 07 2e 3d 88 59 00 bd 30 4b d8 bc 0b 05 b1 3d
       0.042487733 -0.031335384 -0.02640304 0.0864354
000350 33 55 7a bd c4 18 3f bd 95 14 9a 3d 00 67 64 3a
       -0.06111641 -0.046654478 0.07523457 0.0008712858
000360 3a b0 93 bd f8 ec 7c 3c 00 3e 23 bb 46 7d 64 3d
       -0.07211347 0.015437357 -0.002490878 0.055783533
000370 9c 64 24 bd 9e 97 0a bd 4b b1 86 3d f1 c9 ab bd
       -0.04013501 -0.033836 0.06576785 -0.08388127
000380 b3 a8 b6 bd 23 08 b8 3d 66 81 96 bd 0e 26 45 3d
       -0.089188956 0.08985927 -0.073488995 0.048131995
000390 b6 31 a9 bd 08 05 90 bd 8c db fb 3c 39 67 c2 bd
       -0.08261435 -0.0703221 0.030744337 -0.094923444
0003a0 81 ce c0 3d b7 21 92 3d 14 02 ca bc b6 37 09 3d
       0.094143875 0.07135337 -0.024659194 0.033500396
0003b0 e1 e5 89 3d d0 9c c4 3b f8 d8 60 bd 53 0d 8e bd
       0.06733299 0.006000139 -0.054894418 -0.06936135
0003c0 3f 95 b5 3d 3e 04 47 3d 42 09 6c 3d c3 68 53 bd
       0.08866357 0.04858803 0.057626016 -0.05161358
0003d0 22 92 1f 3d 78 e3 6e bc 46 f1 5f 3d 91 55 a0 3d
       0.038957722 -0.0145806 0.054673456 0.078288205
0003e0 de 09 03 3d 3c 60 6c bd c1 54 42 bd 50 be 91 bb
       0.031991832 -0.057708964 -0.04744411 -0.004447736
0003f0 22 8d 45 3d 90 11 a5 bc 30 c8 cf 3b 06 28 74 3d
       0.048230298 -0.020149976 0.006341003 0.05960848

model.lstm2.weight_ih_l0 f4 [208, 104]
000000 51 5f 00 be 00 4f e2 3b 60 74 2e 3c d9 74 f9 bd
       -0.1253636 0.00690639 0.010647863 -0.1218049
000010 e6 aa f0 3d 1e ef 39 bd ea 4c f5 3d 30 74 75 3c
       0.11751346 -0.045394056 0.11977561 0.014981315
000020 28 6f 1e 3d fa e5 01 be 44 d0 4f 3d 00 16 90 3c
       0.038680226 -0.12685385 0.050735727 0.017588615
000030 00 5c 55 3c 08 17 a9 bc 96 c4 c7 bd a8 b1 de 3c
       0.013022423 -0.020640865 -0.09754293 0.027184322
000040 00 72 13 bc 8f 42 00 be 0a 5d eb 3d 00 55 57 3b
       -0.008999348 -0.1252539 0.11492355 0.003285706
000050 c6 c9 0e bd e0 4b 15 3c 0e bf 32 bd c0 26 3b bb
       -0.034860395 0.009112328 -0.043639235 -0.0028557032
000060 8c 87 a5 3d 4c d9 d9 3d 80 ed ec ba 50 2b 79 3c
       0.08082494 0.10637149 -0.0018076152 0.01520808
000070 dc 03 0d 3d 98 ec 46 3d a9 cf 01 3e d8 f8 35 3d
       0.03442751 0.048565477 0.12676872 0.04442677
000080 1a dd f6 3d ba c1 a9 3d 1c e7 8a 3d 68 49 24 3d
       0.120538905 0.082889035 0.06782362 0.04010907
000090 80 12 c2 3d 20 f2 52 3d c0 79 a2 bb 68 ec d3 3d
       0.09476185 0.05150044 -0.0049583614 0.10347825
0000a0 34 11 cf 3d d4 5e e1 3d 24 23 42 3d 00 1c a0 3b
       0.10110703 0.11004415 0.047396794 0.0048861504
0000b0 80 4b f7 3a 40 9a 71 bc b6 78 e7 3d d8 de 59 3d
       0.0018867105 -0.014746249 0.11302321 0.053191036
0000c0 d8 cb 01 3d b2 ba 9e bd 15 5d d7 bd 54 b2 a6 bc
       0.03168854 -0.07750453 -0.10515801 -0.020348705
0000d0 41 9b 87 bd 9d a7 f6 bd 40 dc 3a bc 2e 14 f9 3d
       -0.06621409 -0.120436884 -0.011405051 0.12162052
0000e0 b4 22 1e 3d fa e3 a4 bd 16 77 2f bd 80 96 03 be
       0.038607314 -0.080512956 -0.04283818 -0.1285038
0000f0 ec a6 47 bd 80 c7 ba 3c 4e ae eb bd 14 45 60 3d
       -0.048743173 0.022800207 -0.11507855 0.054753378
000100 6c 11 d9 3d e9 86 90 bd e0 8f ae bb 62 82 a8 bd
       0.10599026 -0.07056982 -0.00532721 -0.082279935
000110 02 e7 b4 3d 08 7b 4d 3d c0 2a 91 3c c4 30 c6 bd
       0.08833124 0.05016616 0.01772058 -0.0967727
000120 d0 2b bc 3d 05 3f aa bd 34 d8 5a bd 08 f1 e0 3c
       0.09188044 -0.08312801 -0.053428844 0.027458683
000130 40 42 dd 3b 96 d2 f0 3d ae 0f 0c bd 00 ca d0 bd
       0.0067522824 0.11758916 -0.03419464 -0.101947784
000140 da 82 f3 3d 52 37 0c be e5 01 00 be 06 72 7c bd
       0.11890192 -0.13692978 -0.12500723 -0.06163218
000150 aa d2 1a bd 8e 49 83 bd 00 db e4 bb c8 30 70 3d
       -0.03779856 -0.06410514 -0.0069841146 0.05864027
000160 a9 1f de bd 00 04 87 bd 84 0c 65 3d 76 f1 12 bd
       -0.108458824 -0.0659256 0.05592014 -0.035874806
000170 74 f0 d7 3d 00 d4 73 bc 8a 25 e2 bd 70 24 13 3c
       0.1054391 -0.014882088 -0.11042316 0.008980855
000180 ab fd 87 bd 80 26 e2 3b 90 12 35 3c 34 ae 09 bd
       -0.0664018 0.006901562 0.011051789 -0.0336134
000190 a3 a6 02 3e 10 b0 b7 3d 3c cc ba 3d 82 02 c8 3d
       0.1275888 0.08969128 0.09120986 0.09766103
0001a0 00 7d d3 bc c0 41 97 3d 40 c4 40 3c 34 bf 21 3d
       -0.02581644 0.07385588 0.01176554 0.039488986
0001b0 5a 6d c2 bd 78 33 0e bd 4b 61 06 be 1e d0 c9 3d
       -0.094935134 -0.034717053 -0.13123052 0.09854148
0001c0 f4 5c 8e bc f2 5f bf 3d d8 e2 fc bd a0 7b bb 3b
       -0.017378308 0.09344472 -0.123479545 0.0057215244
0001d0 da 98 0b bd 76 da b1 bd 81 94 08 3e b4 b7 67 3d
       -0.034081317 -0.08684246 0.133379 0.056571677
0001e0 75 bd 0b 3e ab ff 04 be aa 4f d3 3d 2f e3 a3 bd
       0.13646491 -0.12988155 0.10317929 -0.08002316
0001f0 78 bd 9d 3c 22 1b f6 3d 10 13 a7 bd b0 4d 3b bc
       0.019255385 0.12016894 -0.08157933 -0.011432096
000200 74 32 d2 bd 00 66 f2 3c af 81 03 3e a0 71 cd 3b
       -0.102635294 0.029589653 0.12842439 0.0062696487
000210 10 f5 e9 bc 66 48 f5 bd f6 3a fe 3d 72 81 f4 3d
       -0.028559238 -0.119766995 0.1241359 0.11938752
000220 73 ff 09 3e 8e a7 8b 3d 58 5d 9a bd c8 ad 54 bd
       0.13476352 0.06819068 -0.07537335 -0.051923543
000230 ec 7a b4 bd e0 4f 9a bc a8 79 e5 bd ba c4 cf bd
       -0.08812508 -0.018836915 -0.11204845 -0.101449445
000240 3e 1e 89 bd 60 95 6c bd 4c a5 d6 bd 58 c4 c1 bc
       -0.06695221 -0.057759643 -0.104807466 -0.023653194
000250 30 15 6b 3c 6e 52 a2 3d d0 d4 cd 3d 1c 2e ad bd
       0.014348313 0.079258785 0.100503564 -0.0845606
000260 30 5e 89 3c 00 69 0d 3b b4 40 b6 bc ae 89 ed 3d
       0.016768545 0.0021577477 -0.02224765 0.11598526
000270 1e ea d6 3d b0 41 12 bc e2 8b 44 bd 41 4c fd bd
       0.10493873 -0.008926794 -0.047984965 -0.1236806
000280 b9 ff 9a bd b4 e5 81 bd 90 94 c4 bd f4 ae 28 3d
       -0.075683065 -0.063426405 -0.095986485 0.041182473
000290 8e 96 eb 3d a2 cc ea bd de a2 f5 bd 80 43 cb ba
       0.115033254 -0.11464812 -0.11993955 -0.0015507787
0002a0 b0 75 9e bd fa da c0 bd 20 c4 00 3c ac c5 e1 bd
       -0.07737291 -0.094167665 0.00785926 -0.11024031
0002b0 b0 c5 22 bc c6 38 96 bd 44 45 63 3d 94 8f eb bc
       -0.009934828 -0.073350474 0.05548598 -0.028754987
0002c0 5b 53 83 bd e7 22 c2 bd e3 fb 8b bd 3c 54 ca bd
       -0.06412383 -0.09479313 -0.06835153 -0.09879348
0002d0 2a bd c7 3d 5d c8 04 3e ba 22 ca bd 38 88 bc 3d
       0.09752877 0.12967058 -0.09869905 0.09205669
0002e0 52 43 e2 3d 28 6e a4 bc b6 92 c4 bd 92 7f f0 3d
       0.110479966 -0.020072058 -0.095982954 0.11743082
0002f0 1d 4f e7 bd 82 be 9f bd e6 5e d2 bd 38 ac f0 3c
       -0.112943865 -0.07800008 -0.10272007 0.029378995
000300 7e d8 86 3d bc 8b a7 bd 10 f0 60 3c 30 9d ff 3c
       0.06584261 -0.08180949 0.01372911 0.031202883
000310 27 bd 01 3e 06 a8 e4 3d 6c f7 4e bd 74 f6 61 3d
       0.12669812 0.111648604 -0.05052893 0.055166677
000320 93 1c ed bd 50 7d 7b bd e8 a8 ab 3d a2 72 f6 3d
       -0.11577716 -0.061398804 0.08381826 0.12033583
000330 90 ea 57 bc 54 30 73 3d a8 0b 87 3c ec 7f c9 bd
       -0.013178483 0.05937226 0.01648505 -0.09838852
000340 7f 16 0c be 18 56 e6 3c 80 64 6f 3c 70 51 9a 3c
       -0.13680457 0.028117225 0.014611363 0.01883766
000350 1f b1 0b be 2a c8 c1 3d 62 be f0 bd e0 26 68 3d
       -0.13641785 0.094620064 -0.11755063 0.0566777
000360 a8 cc e2 3c 52 1f be 3d 9a 1d df 3d 30 dd 1a bc
       0.027685478 0.092833176 0.10894318 -0.009452149
000370 80 fa 15 3d 48 8b d1 bc ba 08 ea 3d 12 c7 85 3d
       0.03661585 -0.02557911 0.11427446 0.0653211
000380 00 03 f2 3b 0e 3e 07 be 94 10 92 bc 40 20 c9 bc
       0.0073856115 -0.13207266 -0.01783017 -0.02455151
000390 08 bb bd 3c e2 bb 12 bd a8 9f d7 3d f0 e9 7c 3d
       0.023160473 -0.03582371 0.10528499 0.061746538
0003a0 f2 5a 8e 3d 02 bd b1 3d 26 26 85 3d 0a 65 b5 bd
       0.0695094 0.086786285 0.06501417 -0.08857162
0003b0 02 52 05 bd 08 12 8e 3d 00 d0 20 3b 54 d4 88 bd
       -0.032548912 0.06937033 0.002453804 -0.066811234
0003c0 a8 9c 89 3c 94 a9 09 3d e2 40 c3 3d ed 7b 0d be
       0.016798332 0.033608988 0.0953386 -0.13816805
0003d0 42 4b 91 bd e0 c2 be 3d e8 27 42 3d 54 97 07 be
       -0.070944324 0.09314513 0.04740134 -0.13241321
0003e0 5c 3e c9 3d a8 ab d3 bc 9e 72 f7 bd b8 e6 e1 3c
       0.09826347 -0.025838688 -0.12082408 0.027575836
0003f0 dc 4c ac bd 77 a1 8c bd 80 9b 48 bc 42 0a b8 3d
       -0.08413097 -0.068667345 -0.012244105 0.089863315

model.lstm2.weight_hh_l0 f4 [208, 52]
000000 4c c5 09 bd 00 45 c7 3a c4 c5 da bd 38 83 84 bd
       -0.033635423 0.0015203059 -0.10682252 -0.064703405
000010 ed 62 b9 bd 5c ad 4a 3d 4a bc 8f 3d f4 02 e3 3d
       -0.09052072 0.049481735 0.07018335 0.11084548
000020 98 65 3b bd 70 57 b8 3d 04 34 dd bd d5 1e 01 be
       -0.045751184 0.090010524 -0.10800937 -0.12609418
000030 90 95 53 3d a0 8c d4 bd e0 a5 90 3d 18 e6 b5 3d
       0.051656306 -0.103783846 0.07062888 0.088817775
000040 29 bc 9f bd b2 8d 46 bd 68 39 63 bc 68 b3 db bc
       -0.077995606 -0.048474975 -0.013868667 -0.026818946
000050 40 b7 1b 3d 74 de c1 bc a4 58 e5 bd 74 88 41 bd
       0.038016558 -0.023665644 -0.111985475 -0.047249272
000060 ca 73 bb bd 19 1d e2 bd 35 c7 b6 bd de dc e1 3d
       -0.091529444 -0.11040706 -0.089247145 0.11028455
000070 04 a0 b9 3d aa 48 c0 3d f0 2d 0a bc 00 0b 54 bc
       0.09063724 0.093888596 -0.008433804 -0.012942076
000080 2e a7 db 3d 74 54 6c bd a4 3b 70 3d e8 68 38 bd
       0.10725246 -0.05769773 0.058650628 -0.04502192
000090 0c bb 09 3d eb b6 b2 bd be 5b 3c bd b8 80 f8 3c
       0.033625647 -0.08726295 -0.04598593 0.030334815
0000a0 49 c0 ca bd 44 63 00 bd 88 00 83 3d 6b f2 07 3e
       -0.09899957 -0.031344667 0.06396586 0.13276069
0000b0 2e 53 81 3d e4 f7 0d be 80 e4 6c 3b 08 a4 e3 3c
       0.063146934 -0.13864094 0.0036146939 0.027788177
0000c0 11 c7 cb bd a8 23 3a 3d e9 4a 00 be 56 4d bb bd
       -0.09950078 0.04544416 -0.12528576 -0.0914561
0000d0 ca e5 03 be ee 7f f8 3d d8 2c c8 3d c4 9f a2 bd
       -0.12880626 0.12133776 0.09774178 -0.07940629
0000e0 26 f5 66 bd d0 d9 9c 3d 80 6d 13 bc 70 4f 4a bd
       -0.056386136 0.07658732 -0.008998275 -0.049392164
0000f0 39 1b 04 be fe 97 cd bd 18 55 81 bd e0 52 c3 3b
       -0.1290101 -0.10038756 -0.063150585 0.005960807
000100 7d 4b e0 bd 1c c5 d3 bd e2 4e f6 3d d8 f3 4f 3d
       -0.10951898 -0.1034033 0.120267645 0.050769657
000110 6f c6 bf bd 14 c6 54 3d d4 9d e5 bc 2a b9 e6 3d
       -0.0936402 0.051946715 -0.02802936 0.11265786
000120 66 00 d8 bd 00 c0 51 bb 3b 76 03 3e 70 3c 33 3d
       -0.10546951 -0.003200531 0.1283807 0.04375881
000130 76 3d ea 3d e0 d9 77 3d f6 10 cc bd 96 57 06 bd
       0.11437504 0.060510516 -0.099641725 -0.032798372
000140 3e c8 f5 bd 61 c3 ba bd a6 aa a9 3d b8 01 ee bd
       -0.12001084 -0.09119297 0.08284502 -0.116214216
000150 00 50 6e 3c d8 3f a2 bc 34 10 89 3d 64 a1 d8 3d
       0.014545441 -0.019805834 0.066925436 0.10577658
000160 a4 ff 98 bd 0b db 08 be 60 2e ab 3d 58 22 cb bd
       -0.074706346 -0.13364808 0.08358455 -0.0991866
000170 a0 2e be 3c 78 36 d5 bc d2 95 2f bd a6 22 ef bd
       0.023215592 -0.02602695 -0.04286749 -0.116765305
000180 00 b6 cd 3b ce 20 af bd a0 b9 b7 bd c0 3c cb 3d
       0.0062777996 -0.08551179 -0.08970952 0.099236965
000190 b5 2a 0d 3e 82 e2 d8 bd 02 ac a0 3d a0 d1 b6 bb
       0.13785823 -0.10590078 0.07845308 -0.0055791885
0001a0 80 b0 d2 3d 20 2d 49 3d d2 78 fd bd fe b3 e4 bd
       0.10287571 0.0491153 -0.1237656 -0.11167143
0001b0 32 e7 c5 bd 58 27 a9 3c 38 85 13 bd e0 bc 5f 3d
       -0.09663238 0.020648643 -0.03601572 0.054623485
0001c0 42 6e 1b bd 9c d5 86 3d 0a 53 5c bd 00 88 5a bb
       -0.037946947 0.065837115 -0.05379013 -0.0033345222
0001d0 f0 44 76 3c 9f 9f f9 bd f8 1a be 3d c2 19 e7 3d
       0.015031084 -0.121886484 0.09282488 0.1128421
0001e0 88 ee 90 3c e1 6e 8b bd a8 2c d0 3d 7c cb d4 bd
       0.017691866 -0.06808258 0.101647675 -0.10390374
0001f0 c6 1b 9c bd e2 a6 ca bd 00 64 6b b9 6a 14 e3 bd
       -0.07622485 -0.098951116 -0.000224486 -0.11087878
000200 e2 87 fd 3d 3c 6f d9 bc e6 1b da 3d 74 63 d4 bd
       0.12379433 -0.026542298 0.106498525 -0.10370532
000210 9f c6 05 be 78 ca ac bc 10 6e 55 bc e0 f3 70 bd
       -0.13064049 -0.021092638 -0.013026729 -0.058826327
000220 00 9c 92 bb aa ee 72 bd ce 63 8c 3d d0 c0 03 3d
       -0.004474163 -0.05930964 0.06854974 0.032166302
000230 4b 01 95 bd e0 29 16 bc 40 08 13 3c b0 e2 ac bd
       -0.07275637 -0.009165257 0.008974135 -0.08441675
000240 3c 98 c8 3d c0 ac bf 3c 2a 66 62 bd 0b 6c 06 3e
       0.097946614 0.023397803 -0.055273212 0.13127153
000250 90 36 5b 3c 00 56 7b bd 36 6f 9b 3d 88 cc 9e 3d
       0.013379708 -0.061361313 0.07589571 0.07753855
000260 60 5c fe 3b c2 1b 8f 3d e6 3c 07 bd 60 0a 72 3c
       0.007762477 0.06987716 -0.03301706 0.014772981
000270 46 62 f6 bd 8d df e1 bd e3 54 02 3e 66 88 fb 3d
       -0.12030463 -0.11028967 0.12727694 0.12281875
000280 a2 33 05 be 43 17 09 be fa 1e e9 3d e0 45 2e bd
       -0.13007978 -0.1338778 0.113828614 -0.042547107
000290 84 e3 11 bd b5 24 c0 bd bc a8 c4 3d 7a 4a b1 3d
       -0.035617366 -0.09382001 0.09602496 0.086567834
0002a0 c0 25 b8 3c b4 10 4f 3d 84 53 46 3d fa f4 a7 bd
       0.022478938 0.05055304 0.04841949 -0.082010224
0002b0 00 e9 fa 3b 2a 10 33 bd c2 5a b1 3d e8 e4 cd 3d
       0.0076571703 -0.043716587 0.08659889 0.10053426
0002c0 44 55 2c 3d 8d 9a d7 bd 30 86 0b bc 9c 04 d5 bd
       0.042073503 -0.10527525 -0.0085158795 -0.1040127
0002d0 f3 53 06 3e c4 79 75 3d d6 4f f2 bd 10 fd f4 3c
       0.13117962 0.059930578 -0.11831634 0.029905826
0002e0 60 07 4a 3d 5c 5a 18 3d e0 f6 42 3c 64 57 a1 bc
       0.04932344 0.03719555 0.01189968 -0.019694991
0002f0 10 fa 1f bc 48 4b f5 3c 60 00 a1 bd cc be b4 bc
       -0.009764209 0.029943123 -0.078614 -0.022063635
000300 b2 31 d4 bd 10 22 24 3c 08 09 9f 3c 9e 81 c4 3d
       -0.10361041 0.010017887 0.019413486 0.09595035
000310 1a cb 92 bd ba 2b 8b bd 84 a5 5a bd 17 0b f9 bd
       -0.07167645 -0.067954496 -0.053380504 -0.12160318
000320 a6 4d 56 bd 34 5a 58 3d ae c7 f4 3d 24 16 e3 bd
       -0.052320145 0.0528204 0.119521484 -0.11088207
000330 d5 6e 03 3e e8 1d cc 3c 5c 07 a4 3d da d9 06 bd
       0.12835248 0.024916604 0.08009216 -0.032922603
000340 38 91 cc bd a7 3e 0c 3e b0 8d 0d bc a4 48 b5 bc
       -0.09988636 0.13695775 -0.008639738 -0.022129364
000350 30 09 2b 3d 80 a6 1b 3b d0 7c 53 3c c0 de 8b 3d
       0.04175681 0.0023750365 0.012908176 0.068295956
000360 3f 9d 04 3e 42 ae 9b 3d f6 35 b8 bd 9b bd 07 3e
       0.1295061 0.076015964 -0.08994667 0.13255922
000370 84 db 7f bd b0 bf 22 bd 06 e7 fc 3d f0 d7 32 3c
       -0.062465206 -0.03973359 0.12348752 0.010915741
000380 6c 0d 2f 3d 5b 06 d0 bd f4 68 d8 bc ba 8a 37 bd
       0.04273741 -0.10157462 -0.026417233 -0.044810034
000390 94 91 fb bd 08 29 dc bd f4 7d 82 bc f0 6a d2 bd
       -0.12283626 -0.107500136 -0.0159292 -0.10274303
0003a0 d0 97 88 bc 10 99 54 bc f0 f9 2b 3d b0 84 bd bd
       -0.016673952 -0.012975946 0.041986406 -0.09253824
0003b0 40 fb 45 bd e8 28 6a 3d c9 b8 97 bd ac 1e 86 3d
       -0.048335314 0.057167917 -0.07408292 0.06548819
0003c0 00 f8 94 38 38 56 ca bd 72 73 0e bd a8 5e ce bc
       7.1033835e-05 -0.09879726 -0.034778066 -0.02519162
0003d0 45 86 03 3e 48 cb 31 3d f4 4a d4 bd 49 76 09 3e
       0.12844189 0.043406755 -0.10365859 0.13424028
0003e0 c4 89 25 3d 28 c2 f1 bc 6e 14 f1 3d de a6 cf bd
       0.040414587 -0.029511526 0.11771475 -0.10139249
0003f0 78 ed d1 3d 04 fc 4a 3d 7e 0e 8a 3d 0a 54 80 3d
       0.10250372 0.049556747 0.067410454 0.06266029

model.lstm2.bias_ih_l0 f4 [208]
000000 c7 ea fa bd 1b 40 06 3e 9c d7 15 3d 16 f1 af bd
       -0.122518115 0.13110392 0.036582574 -0.08590905
000010 1a e6 66 bd 68 e7 d1 bc 95 a4 00 be ec 94 2e 3d
       -0.056371786 -0.025623038 -0.12562783 0.04262249
000020 1b a0 fc bd d0 41 1a bc 5e 65 87 bd 02 e8 e3 3d
       -0.12335225 -0.009415105 -0.06611131 0.11128236
000030 80 91 2c bd 6a b3 dd bd 04 20 a7 3d 30 28 2e 3c
       -0.042130947 -0.10825236 0.08160403 0.010629699
000040 40 bb 4a 3b e4 f9 75 3d 21 1f 03 3e 80 0e a9 bd
       0.0030934364 0.060052767 0.12804843 -0.08254719
000050 c6 5f 4c bd 37 73 05 be 42 03 7e bd e4 88 08 bd
       -0.049896024 -0.13032232 -0.062014826 -0.033333674
000060 6c dd 7f 3d 90 bf 32 3d b6 f0 af 3d 0c 15 75 bd
       0.062467024 0.04363972 0.08590834 -0.059834525
000070 20 1a 1f bc 30 a7 94 3c 40 3b 4b 3c 60 4d 35 3d
       -0.0097108185 0.018146127 0.012404263 0.044263244
000080 3a 2c fd bd 82 f3 26 bd 84 6c cc bd 99 c8 90 bd
       -0.12361951 -0.04075957 -0.09981635 -0.07069511
000090 00 89 28 3d 02 aa d6 3d d0 a7 0b bc 64 de 74 bd
       0.04114628 0.10481645 -0.008523896 -0.0597824
0000a0 00 93 51 3a 9f 8d 03 be 6e 86 a0 3d 62 fd 30 bd
       0.0007994622 -0.12846993 0.078381404 -0.043210395
0000b0 c4 65 dd 3d e1 df 00 3e 00 77 5e bd 03 88 f9 bd
       0.10810426 0.12585403 -0.054312706 -0.12184145
0000c0 3c ce 94 3d f6 4f f6 bd 08 ed 05 be d8 97 c0 3d
       0.072658986 -0.1202697 -0.13078701 0.09403962
0000d0 12 72 f8 bd 52 ca 33 bd db e9 97 bd 00 ba 83 3a
       -0.12131132 -0.04389412 -0.07417651 0.0010049939
0000e0 5f ba 05 be 07 92 08 3e 96 de 77 bd 60 94 fc 3b
       -0.13059376 0.13336955 -0.06051501 0.0077081174
0000f0 a0 77 61 3c 70 36 77 3d d6 51 f8 3d 05 77 04 3e
       0.013761431 0.06035465 0.12124984 0.12936027
000100 36 5a ec bd 14 fd 83 3d 4c 97 fe bc 45 f4 c0 bd
       -0.11540644 0.06444755 -0.031078003 -0.09421591
000110 96 13 ee 3d 51 47 89 bd 4a 28 60 bd f8 59 13 3d
       0.116248295 -0.06703056 -0.054725923 0.035974473
000120 ca b7 b7 3d 8e fd 78 bd ba fb 9e 3d e0 67 6a 3c
       0.08970602 -0.060788684 0.07762857 0.014306992
000130 d0 15 17 3c 90 77 60 bd 7e b5 f9 3d 09 bf 86 bd
       0.009221509 -0.054801524 0.1219282 -0.06579406
000140 f0 16 1c bc 74 d1 1f bd 2e 9f f1 3d c0 3b 1c 3c
       -0.009526953 -0.03901811 0.11797939 0.00953573
000150 e0 98 60 bd da f2 8a 3d c5 e4 0a 3e c4 33 16 bd
       -0.054833293 0.067846015 0.13563831 -0.03667046
000160 48 0d c8 bc be e1 a8 3d 52 a7 88 3d b4 84 e3 3d
       -0.024420395 0.08246182 0.06672539 0.111092955
000170 70 18 9e 3d 30 8e 33 3c d0 73 a8 bd 10 4b 19 3d
       0.07719505 0.010959193 -0.082252145 0.0374251
000180 00 8e 6a bb 60 09 d0 bd 86 e4 a8 bd e0 b9 bc 3d
       -0.0035790205 -0.10158038 -0.082467124 0.0921514
000190 88 d8 b6 3d 1a 05 99 3d a0 07 85 3d ef 2b 01 3e
       0.08928019 0.07471676 0.06495595 0.12614416
0001a0 20 9f b4 3c 6e 95 ee bd 1c 0e 32 bd b0 7d 1a bc
       0.022048533 -0.11649595 -0.043470487 -0.00942938
0001b0 6a 4f cd 3d dc 50 ca bd 00 2b 05 bc 3c db 9f bd
       0.10024913 -0.09878704 -0.008127928 -0.078054875
0001c0 5c 7c d5 3d dc be c7 bc 56 e0 df 3d b0 e9 cf 3d
       0.1042411 -0.024383001 0.109314606 0.10151994
0001d0 04 20 1b 3d 1c a8 88 bc c7 bb 0b 3e 8e d0 ec 3d
       0.03787233 -0.016681723 0.1364585 0.11563216
0001e0 10 29 36 bc c6 33 0c be c4 20 be 3d 20 26 ff bd
       -0.0111181885 -0.13691625 0.09283593 -0.12458444
0001f0 be 38 f8 3d c4 15 d1 bc cc 42 d4 bd 7e 42 fd 3d
       0.12120198 -0.025523074 -0.10364303 0.12366198
000200 3a 7b dc 3d b0 7b b8 3d f1 b5 db bd 28 d0 c7 bd
       0.10765691 0.090079665 -0.10728062 -0.097564995
000210 60 17 15 3d 78 37 83 bc 22 73 c7 bd 0a bf ea bd
       0.036399245 -0.01601766 -0.09738757 -0.11462219
000220 a6 01 23 bd 5e ee 6a bd 6e 8a 20 bd 8a 8b ab bd
       -0.039796494 -0.05735623 -0.039194517 -0.08376224
000230 46 51 41 bd 2c ed fb bd 00 58 54 b9 62 95 e2 3d
       -0.04719665 -0.12301096 -0.00020250678 0.11063649
000240 f6 5c 5b bd 6a b4 2c bd 8e 85 ba bd cf 82 d9 bd
       -0.05355545 -0.042164244 -0.09107505 -0.10620653
000250 14 9e a2 bc cf 82 ec bd 8a 51 fe 3d cc 6f 88 bd
       -0.019850768 -0.11548387 0.12417896 -0.066619486
000260 a8 70 00 be 5f 6d cf bd 2e 99 70 bd b8 4c 86 3c
       -0.12542975 -0.10128283 -0.058739834 0.016394004
000270 28 09 10 bd e9 e3 0b 3e b8 89 a7 3c b6 74 3a bd
       -0.035164982 0.1366116 0.020451412 -0.04552146
000280 5e ce 94 3d 2c 31 33 bd c9 6c d6 bd 07 fc df bd
       0.07265924 -0.043748066 -0.10469968 -0.10936742
000290 80 f5 64 3b 36 e8 bd bd 10 c8 b8 bc 38 71 d0 3c
       0.0034936368 -0.09272806 -0.022556335 0.025444612
0002a0 00 40 b4 3d b8 4b cf 3c 4e d7 a6 3d 7a ca 65 bd
       0.088012695 0.02530466 0.08146535 -0.0561013
0002b0 b8 90 79 bc 6c 33 69 3d 99 be 01 be 01 d1 07 3e
       -0.015232258 0.056933805 -0.12670363 0.13263322
0002c0 88 59 32 bd 28 21 9c 3c 0c 3f 2b 3d 6c ee 4d 3d
       -0.043542415 0.019058779 0.041808173 0.050276205
0002d0 2a 00 e8 3d a8 eb c0 3d 24 d7 06 be fe 04 e7 3d
       0.11328156 0.09419948 -0.13168007 0.11280249
0002e0 ca 87 6e bd c2 c8 d2 3d d2 03 c8 3d cc f8 a6 3d
       -0.058234967 0.10292198 0.09766354 0.08152923
0002f0 60 b3 e8 bc 80 66 4c bd f9 9c c0 bd 10 e1 90 bc
       -0.028405845 -0.04990244 -0.0940494 -0.017685443
000300 99 38 a1 bd 50 34 c4 3c e0 b4 bd bc a0 12 85 bb
       -0.07872123 0.023950726 -0.023157537 -0.004061058
000310 fd bc 0d 3e fc 00 bb 3d f0 86 75 bc dc d7 8c bc
       0.13841625 0.09131047 -0.014985785 -0.017192774
000320 80 d4 3b bd 22 63 af bd 93 f0 c2 bd 06 2a 81 bd
       -0.045856953 -0.0856383 -0.09518542 -0.063068435
000330 ac 61 70 3d 78 e9 cb 3d e8 1f d6 bd fc ca aa bd
       0.058686897 0.0995664 -0.104553044 -0.083394974
