LSTM_TimeSeries/lightning_logs/version_149/checkpoints/epoch=2-step=390.ckpt (torch, 670107 bytes, 27 tensors)

model.lstm.weight_ih_l0 f4 [416, 9]
00000000: 09e6 213d c7c9 c53c 335c 90bd 724f 7abc
00000010: 16f5 30bd 0584 a73c d7c2 693d 955a 2cbd
00000020: ec6a 7a3d 3787 c8bc 20c9 9cba 6314 af3d
00000030: 6222 7bbd 58d6 8d3d 77c1 bcbd 9d58 52bc
00000040: 9ad2 bdbc 794f 983d 2de8 833d e8a0 a8bb
00000050: 5ee5 54bd 6f07 be3d 477f b33d 2321 b13c
00000060: 6c08 213d 4702 af3d a0dd 013e 6819 1c3d
00000070: fbee fc3d 1a9a f73d 129a c03d 204a e63d
00000080: 4aa1 a33c 5589 a5bb 7fd3 803d 7a68 083d
00000090: 0656 8b3d b79f 51bd 4f04 b43c 0c46 a33d
000000a0: 4469 3d3d 1a89 6bbd adc8 2e3d d3a6 99bc
000000b0: bbe1 703b 7c61 31bd 7fd7 43bd fca2 603d
000000c0: 4156 0fbd bb02 a2bc 1fb7 9e3b 5919 f33b
000000d0: 4905 e2bd 2219 a43c 3ac2 71bc b5bc ed3d
000000e0: 1219 b33a 9f76 3d3d 2452 67bd 0d80 b2bc
000000f0: 2839 593c 61ea 323d 0e1d 09bd dce6 de3d
00000100: d5d2 41bd a1b8 f13d cfac f73d d786 84bc
00000110: 7d8f 233d 69ff 4c3d 8304 073c 8329 32bb
00000120: c5b3 8dbb e631 783c abbe 95bb 366a b43d
00000130: d0e9 3f3d 1d73 a83d a4df 04bc 21b8 0f3e
00000140: 9827 8f3d a20f 703d 3d79 9dbc 3366 9f3d
00000150: 3093 e73d 187b c53c b696 85bd d0a8 d43d
00000160: 4a4f 0a3e e3b8 0e3c dadc aabc d391 bd3d
00000170: c809 a63d 406e 853d b3e1 943d fb2d 913c
00000180: 5353 3a3c 1e92 b53d f6f0 bd3d f450 a93d
00000190: d9f0 233d 556e 96bc ce1b 973d 9246 5abd
000001a0: 346e 03bc 13f2 0a3d e7c8 02bd 4ea7 dc3d
000001b0: 0b09 91bc 70bf 073d e053 c8bc d636 f83d
000001c0: 9b8c 863d 5395 903d e0fe 19bc 5994 503d
000001d0: 13a1 913c 74f2 a83d 573e 943d 5702 6bbb
000001e0: 7d61 1a3d b122 40bd 2fd6 7c3d 8a1b b63c
000001f0: 5329 77bd 9576 be3d 7845 6d3d e008 e7bc
00000200: b28a ad3b ed8d 2f3d 8389 eb3d be50 933c
00000210: a8fb bc3d 5810 0e3e 9a60 4fbc 962c da3d
00000220: 8770 15bd 536d d2bc f1aa a03c bbbb 7c3d
00000230: a879 733d 4c3a e03d 8c80 383d 2d43 c93d
00000240: d129 293d db46 a5bd 316a 903d b25d 993d
00000250: 053f 823d 5244 813b 290e 113d 0c4b e03d
00000260: e82f 963c eda4 1a3c b6db f3bc 59f7 b23d
00000270: 72d0 80bb b89b 56bd a49f 1b3d 6c14 143e
00000280: d414 253d 3ffc 793d 9d72 593d 8d69 4e3d
00000290: a52c ba3d d0a0 33bd ceb8 063e 1b3d 983d
000002a0: 039c 603d 4e21 db3d b338 e0bc 62c7 eabc
000002b0: a763 a13d 1c75 cc3d e810 693c a1fe 1f3d
000002c0: 3472 303d 05d0 863d 432b 683d ca33 be3d
000002d0: 8f8a 84bd 1c34 13bb cfdd 513d aa8b 943b
000002e0: 0de1 49ba 4c16 9abd bd44 063e 46d5 983d
000002f0: 56a9 59bd 8858 a33d a7a1 b13d 30a9 983d
00000300: 97cc aa3d 6427 9f3d c862 0abd 6887 d83d
00000310: 8b2f 753d fcf7 cd3d 9e5d 623d 9a35 b13d
00000320: 0c2c ed3b 0f2b 04bc 0144 b83c 7256 453c
00000330: 55e4 94bc 3b05 273d 7505 a93d 7c0b f23d
00000340: 347b c73d 15c4 cbbb 407f dc3d 27e1 093d
00000350: 2c8e fa3c 30e9 823b a286 073b 6ddc 3b3d
00000360: 3c4d 973d 2b81 ac3d 2be9 253c ffda 913d
00000370: 125e dcbb 4827 cc3b f770 6a3c 77f1 093e
00000380: 38b4 533a ae60 bcbd af41 b43d 01ad c9bc
00000390: c6c3 aa3d 6667 7dbd ab92 f3bc c74d e93c
000003a0: 822b 62bc a39a 9ebd 8017 6aba 50ff 193d
000003b0: 5fd1 86bc 4127 e03d c5e4 e03c 8bbf 32bd
000003c0: 6c55 fd3d 3474 4f3c a6cb 8cbc 1cf9 853d
000003d0: 4480 5f3d 630f 8bbd 00e0 973d 52e1 0e3e
000003e0: ab1d 513c 1151 1b3d f681 eb3d cff7 9dbb
000003f0: dfe3 963d 7769 c63d 3f8c 253d 982c 353d
0.03952602 0.024144066 -0.070488356 -0.01527773 -0.043202482 0.020448694 0.05707058 -0.042078573
0.061137125 -0.024478538 -0.0011961795 0.0854881 -0.061312087 0.069256485 -0.09216588 -0.01283851
-0.023171712 0.07437033 0.064407684 -0.0051461346 -0.051976554 0.092787616 0.087645106 0.021622246
0.039314672 0.08545356 0.126822 0.038110167 0.123502694 0.120899394 0.094043866 0.11244607
0.01997437 -0.0050517716 0.0629034 0.03330276 0.06803517 -0.051177707 0.02197471 0.07972345
0.046242967 -0.057503797 0.042671848 -0.018756306 0.003675564 -0.04330586 -0.047812935 0.054842934
-0.034994368 -0.019776693 0.004843607 0.007418793 -0.11036164 0.020031516 -0.01475578 0.11608259
0.0013664088 0.046255704 -0.05647482 -0.021789575 0.013258256 0.043680552 -0.033474974 0.10883877
-0.047320206 0.11802793 0.120935075 -0.016177578 0.039931763 0.050048266 0.008240822 -0.0027185387
-0.0043244087 0.015148615 -0.0045698485 0.08809321 0.04685384 0.08225081 -0.008109961 0.14035083
0.06989974 0.05860866 -0.01922285 0.07783165 0.11307371 0.024106547 -0.065228865 0.10383761
0.13506809 0.008711073 -0.020857263 0.092563294 0.081073344 0.06515169 0.07269611 0.01772212
0.011372405 0.0886576 0.09274475 0.08267394 0.040024612 -0.018363157 0.0737835 -0.053289957
-0.00802188 0.033922266 -0.031929877 0.10774098 -0.017704507 0.033141553 -0.024454057 0.12119834
0.06569787 0.07059731 -0.009399146 0.050922725 0.017777001 0.08249369 0.07238453 -0.003585955
0.03769063 -0.046908084 0.0617277 0.022229929 -0.060342144 0.092999615 0.05792758 -0.028202474
0.005296075 0.04285996 0.11500838 0.017982837 0.09227687 0.13873422 -0.012657309 0.10653035
-0.036484268 -0.025686895 0.019612761 0.06170247 0.059442192 0.10948619 0.045044467 0.09827266
0.041299645 -0.08070155 0.070515044 0.07488574 0.06359676 0.003944912 0.035413895 0.10951814
0.01833339 0.009438735 -0.029767852 0.08738584 -0.0039310986 -0.0523946 0.037994042 0.14460915
0.040303066 0.061031576 0.05308782 0.05039363 0.090905465 -0.043854535 0.13156435 0.0743353
0.054836284 0.10699712 -0.027370786 -0.028659526 0.07880335 0.09983274 0.014225222 0.039061192
0.043077663 0.06582645 0.056681883 0.09287222 -0.064717405 -0.002246148 0.051236924 0.004533251
-0.00077010767 -0.07523784 0.13112159 0.07462554 -0.053140007 0.0797587 0.08673411 0.07454145
0.08339804 0.07771185 -0.03378561 0.10572702 0.059859794 0.10057065 0.05526506 0.08652802
0.007237917 -0.008066907 0.022493364 0.012044536 -0.018175283 0.040776473 0.08252994 0.11818597
0.09740296 -0.006218443 0.107664585 0.033661988 0.030585371 0.0039950833 0.0020679613 0.04586451
0.07387778 0.08423074 0.010126392 0.07121848 -0.0067250812 0.0062302686 0.0143091595 0.13471018
0.0008075866 -0.09198128 0.08801591 -0.024618628 0.08338122 -0.061866187 -0.029733023 0.02847947
-0.013804318 -0.07744338 -0.00089298934 0.037597 -0.016457258 0.10944987 0.027452836 -0.0436397
0.123698086 0.012661982 -0.01718695 0.065416545 0.054565683 -0.06790044 0.074157715 0.1395314
0.012763421 0.037919108 0.114993975 -0.004820801 0.07367682 0.096880846 0.040416952 0.04423198

model.lstm.weight_hh_l0 f4 [416, 104]
00000000: d18a 903d 781e 9d3c e909 89bd 45a1 b93d
00000010: 9b63 92bd 5a14 a3bd 25b8 a63d dcdc dd3c
00000020: 40d7 82bb 7504 6dbd c8b5 113c a09d 8cbd
00000030: f4d5 48bd f43a 903c de17 0a3d 6014 d53c
00000040: 6354 af3d 73e1 8a3d 46d7 563d 5d58 b2bd
00000050: e2d1 0d3d f9c4 813d 3464 b33c eb86 8b3d
00000060: b875 f9bc 42ed 573d 5b89 2dbd ee43 7b3d
00000070: 2eef 763d 4b58 ba3d dcba eb3c 5e45 673d
00000080: 19a3 43bd 401a 303b 37fe 89bd 8ccb a3bd
00000090: 0414 e3bc 1503 ae3d f4e4 c5bd ea90 64bd
000000a0: 7608 5b3d 2fcc be3d 988b 443c d947 bf3d
000000b0: c008 95ba de3f 0fbd 8096 33bd a47a 8b3c
000000c0: 6118 c13d 1424 a63c b71b af3d 954f 883d
000000d0: 0264 043d b3c8 8a3d 40a7 97bd ce5a 163d
000000e0: 90b5 a5bb e290 56bd 8369 c73d ad21 873d
000000f0: 88a3 c5bc e548 1cbd ca5e 203d 80e4 6cba
00000100: 033e c8bd ceb4 7c3d 0002 b0ba a0d8 c4bc
00000110: d6ae 84bd 61fd 5fbd 20b8 d7bb 309e c33c
00000120: 1e8a 233d 793a b33d d558 883d 6c75 a43c
00000130: c483 b9bd 4074 afbd 635c 8a3d 609c d2bc
00000140: e5d6 863d 2429 adbc 325d 0b3d cc24 ae3c
00000150: 6f38 963d 5eb0 9cbd e695 763d 3ae7 403d
00000160: 1842 2e3c e2ee aabd 57a2 16bd 9c3d c6bc
00000170: 605f 9e3b edb7 873d 1694 673d 7462 993c
00000180: b66f 703d 9613 273d 867a 00bd d00e 633c
00000190: f675 4b3d 5280 a0bd 20d7 7a3c 0cee dfbc
000001a0: a942 b63d bf65 c7bd 1579 813d 6686 58bd
000001b0: a020 f4bb 1ac5 623d 7859 3ebc fe6d 9bbd
000001c0: ce2d babd f939 2fbd 2a3f 6d3d 9660 c4bd
000001d0: 4726 b63d e0ad 603c 95a9 b73d 9cde c93c
000001e0: 8031 f2bc 808f 553c 19cb 20bd 735a bc3d
000001f0: 6c77 fa3c b081 14bd 499e 2abd 50ac 9fbb
00000200: ab24 813d ad00 c83d a3e0 a3bd c03b d5ba
00000210: f896 bbbd 8429 d7bc 9faa 62bd 5029 8ebd
00000220: 8556 7ebd 99dd 9c3d af10 abbd bc9c f63c
00000230: 9176 c53d 085a a1bd 5c77 863c 686d 743c
00000240: 9b32 b53d 56e4 0a3d d0ff 30bd 888b 4bbd
00000250: 431f 8c3d 5414 e23c 41c0 40bd 00f8 30b9
00000260: 64bd 18bd 5440 81bd facf 68bd fb7e b33d
00000270: 6bec 89bd 1256 a7bd a643 84bd dbaa 8cbd
00000280: 19a7 903d 502d 8abc 3990 a3bd 32c1 20bd
00000290: e210 283d 5237 3cbd 2e32 4d3d 8d3b 863d
000002a0: c0b9 5cbc c6df 753d 7050 e9bc c0f1 c5bd
000002b0: 0008 edb8 1032 893b 09e3 b73d cebb 3b3d
000002c0: ea67 7cbd a91f 5bbd e1a0 9fbd 9201 043d
000002d0: 18b4 9ebd 0f18 72bd 1918 62bd 7a6b c7bd
000002e0: 7922 8d3d 09e3 a1bd 3cdf bb3c 06a7 8bbd
000002f0: 1b98 c5bd 34c0 85bd 9cf6 b2bd 7852 1fbc
00000300: bf8e 8a3d e85f 42bc f59d 85bd 6ac4 80bd
00000310: 19e6 35bd 5c08 8f3c 40c4 163b 2ecc b4bd
00000320: 2037 b13c c41e e03c 0785 bd3d 1467 88bd
00000330: d845 82bd dbb4 923d 4139 b93d 0070 86bb
00000340: f932 9fbd a893 16bd d67b acbd 30ae e53b
00000350: a1b8 6bbd e4b9 df3c ceb9 023d 22b4 3d3d
00000360: 7039 ba3c 60f2 82bc 14b0 cc3c 0463 bebd
00000370: f24c 79bd 2762 c53d 763f 583d 9e71 27bd
00000380: 3087 95bd 2b24 c1bd a84f 2cbc 0ccf b6bc
00000390: 9514 bc3d 6213 2c3d f0b5 483c 8154 ba3d
000003a0: afbb 4fbd 7f23 803d 9fe6 c43d 275d bbbd
000003b0: 512b afbd e821 73bc 5c70 c73c 04a3 9dbc
000003c0: 9079 683c 284f bb3c de7f 0dbd 03a4 9ebd
000003d0: f025 28bc 3676 663d 1d37 b53d bff3 c13d
000003e0: 44b3 f8bc 3eba 8abd c040 55bc 99fd adbd
000003f0: 38b7 cdbc 5805 12bc a519 a13d 1cf9 83bd
0.07057727 0.019179568 -0.06691343 0.09063963 -0.071479045 -0.07962866 0.081405915 0.027082853
-0.003992945 -0.05786558 0.008893438 -0.06866002 -0.049032167 0.017606236 0.033714168 0.026010692
0.08561017 0.06781282 0.052451394 -0.0870826 0.034623988 0.06336398 0.021898367 0.06812843
-0.03045164 0.0527165 -0.04236732 0.06134408 0.060286693 0.09098872 0.028775625 0.056462638
-0.047762964 0.0026871115 -0.06737941 -0.07997808 -0.027719505 0.084966816 -0.0966281 -0.055802263
0.053474866 0.09316289 0.011996172 0.09339876 -0.0011370406 -0.034973018 -0.0438447 0.017026253
0.09428478 0.020280875 0.08550208 0.06655804 0.032321937 0.067765616 -0.07404947 0.03670769
-0.0050570443 -0.052384265 0.09736922 0.0659822 -0.02412583 -0.038155455 0.039152898 -0.00090367347
-0.09777453 0.061695866 -0.001342833 -0.024029076 -0.0647866 -0.054685 -0.0065832287 0.02387914
0.03992664 0.08751387 0.06657568 0.020075522 -0.090583354 -0.08567095 0.067559026 -0.025709331
0.06583957 -0.021137781 0.034024425 0.02125778 0.073349826 -0.07650827 0.060201548 0.047095515
0.010635875 -0.083463445 -0.036775913 -0.0241993 0.004833147 0.06626878 0.05653771 0.018723704
0.058700286 0.040790163 -0.031366847 0.013858512 0.049673043 -0.07836975 0.015310079 -0.02733519
0.08899433 -0.097362034 0.06321923 -0.052862547 -0.0074501783 0.055363752 -0.011618011 -0.07589339
-0.09090768 -0.042779896 0.057921566 -0.09588735 0.088940196 0.01371333 0.08967892 0.024642281
-0.029564619 0.013034701 -0.03925619 0.09196939 0.030574523 -0.036256492 -0.04165486 -0.004872836
0.06305822 0.09765754 -0.080018304 -0.0016268417 -0.091596544 -0.026264913 -0.0553385 -0.069414735
-0.06209423 0.07659454 -0.083527915 0.030104034 0.09641755 -0.078785 0.016414337 0.014918663
0.08847543 0.033909164 -0.04321271 -0.049693614 0.068419 0.027597584 -0.047058348 -0.00016877055
-0.037289992 -0.06311098 -0.056838967 0.08764454 -0.06734546 -0.081707135 -0.064582154 -0.068685256
0.07063121 -0.01686731 -0.07986493 -0.039246745 0.041031726 -0.045951195 0.050096683 0.06554327
-0.013472021 0.06002786 -0.028480738 -0.09665251 -0.00011302531 0.004186876 0.089788504 0.0458334
-0.061622538 -0.05349699 -0.07794357 0.03222806 -0.07749194 -0.059104975 -0.055198763 -0.097372964
0.06891341 -0.07904632 0.022933595 -0.068189666 -0.096481524 -0.065308005 -0.08738443 -0.009724252
0.06765508 -0.011863686 -0.065242685 -0.06287463 -0.04440889 0.01746004 0.0023005158 -0.08828007
0.021632731 0.02735842 0.092538886 -0.066602856 -0.06360978 0.07163402 0.090441234 -0.004102707
-0.07773394 -0.03676191 -0.08422057 0.00700929 -0.057549123 0.02731032 0.03191548 0.046314366
0.022732466 -0.015984714 0.024986304 -0.092962295 -0.060864396 0.09637862 0.052794896 -0.04087984
-0.073011756 -0.094307266 -0.010517038 -0.022315525 0.09183613 0.042010672 0.0122504085 0.09098149
-0.0507161 0.0625677 0.096143 -0.09148627 -0.08553184 -0.014839627 0.02434557 -0.019242771
0.014189139 0.022864893 -0.03454577 -0.077461265 -0.010262951 0.05626508 0.08848403 0.09470319
-0.030358918 -0.06773804 -0.013015926 -0.084956355 -0.02511178 -0.008912407 0.078662194 -0.06443998

model.lstm.bias_ih_l0 f4 [416]
00000000: 02a3 1d3d 3b2a 813d 4414 983d 9184 abbc
00000010: 696a 7bbd bc55 9ebc 3baa d43c e3e1 70bb
00000020: 68fd 8abd 25b3 c83d e29b 34bd 18c9 7fbd
00000030: 5c6d 2c3d 97ce 943d 8473 573d f753 76bd
00000040: 61f4 bc3d ba76 c03d db45 ad3d 6fe8 9abc
00000050: e766 62bd 6a16 003d dec5 963d 9863 4f3d
00000060: 7f3e 8cbd 409e 8dbd 1345 a1bd aaed 8b3c
00000070: be56 893d a8fb de3c 015b 843d 3857 073c
00000080: 93a8 58bd 58e6 23bd 4255 c03d 14d6 133d
00000090: 08bc 563d da42 a33c a8a7 373d a130 99bc
000000a0: 8c95 dbbc f6f8 6a3d d4bc 3ebd 0bc2 9b3d
000000b0: d5e5 e8bd 7000 01be e868 77bd adb9 c0bc
000000c0: fbf9 c139 e91a ab3d a802 2dbd ada7 83bd
000000d0: 726d 603d 357d 8d3d 2cb8 173d edd9 cc3b
000000e0: 105e f1ba 6b65 0c3e d413 fd3d 8a03 ab3d
000000f0: 68d3 233d 84d9 663d 2339 0fbc 301f 47bb
00000100: 3f33 713d be17 85bd 7b5c 383c 6dcc e1bd
00000110: df2b 6f3b 6ce2 423d 2db2 89bd ee3b 383b
00000120: e908 bb3d ae04 183d 45cd 97bd cc0f adbd
00000130: f0e7 d83d e8e0 89bd 43b6 5a3d 9caa 913d
00000140: 3164 4b3d 248b a2bd 7e98 3e3d e717 df3d
00000150: 2b13 9f3d 79a8 123e 00a4 073d a73f afbd
00000160: 6103 d0bd e1a3 cabd 5d02 0a3e c9bd 483d
00000170: 28e8 d53d 431f e43d 3822 85bc 4edd 4f3d
00000180: 9c58 2c3d 2a58 63bd 11c9 4c3d ad61 65bd
00000190: 5238 a9bc a2aa b93d fff4 4b3c bb8a 2b3d
000001a0: 96ab 663d 7df9 a63d c030 96bb 5856 7d3c
000001b0: 2837 debc 0369 29bd deff 653d ee57 8ebd
000001c0: 404a 823c 9c27 9abd e975 953d 6093 2cbd
000001d0: 0ed7 82bd 3845 86bd 2056 be3b 22f0 093d
000001e0: c2e0 583d 4906 4cbd 35e2 c03d 4235 6ebd
000001f0: 18d7 17bc 9eb8 393d 4abf 173d 218d b3bd
00000200: 36bb 183d a947 a8bd 03fb 8a3d f83d a8bc
00000210: b9f2 bd3d 6b06 a93d 3102 c13d 6210 263d
00000220: 6118 883d decb 713d cc17 a9bd a666 acbd
00000230: 4ecf 5f3d c43c 903c 34f3 f13c b45d 84bd
00000240: 58bc b13c ea44 513d e94c 9abd e27c 453d
00000250: 92fd 18bd 121e 92bd 9093 c0bd de01 773d
00000260: d41b 11bd fa02 613d 2832 75bc ce5f 8bbd
00000270: 2166 8dbd d0ed 0d3c 422a 4f3d 3ab8 7b3d
00000280: 18d8 6c3c 3808 49bd cc7d b0bd a596 c7bd
00000290: 536f bfbd 6f5d 863d 4189 8b3d 4dbb 7cbd
000002a0: 80eb 87bb 068f 4d3d 6c36 9f3c 1756 c03d
000002b0: 34e3 c1bc 7d88 9dbd 503c 9bbd 6f71 b33d
000002c0: 99bf 883d 38ca 51bc 53c1 b1bd d73f 9d3d
000002d0: c5c2 c53d 168a 0e3d 0040 5c38 1fa9 a83d
000002e0: 5378 af3d 172d 12bd d82f 86bd c431 18bd
000002f0: c071 e93a 7ea2 99bd dc21 c73c b616 51bd
00000300: ad9b aa3d ff5f b93d 32cc 193d 8410 f73c
00000310: e916 b2bd 20f7 b4bb 1640 85bd ef8d af3d
00000320: 1c09 c7bc 208d 6fbc 28e9 c6bd b080 973c
00000330: 598b 82bd e04c 8fbc 2aa2 0d3d 2f33 bd3d
00000340: dbe1 86bd 9be5 a4bd 9814 51bd ecd9 553d
00000350: a638 ba3d 6d69 90bd d5e4 dbbd 95e8 db3c
00000360: 174a a93d 03f6 79bd ff2e 85bd 71c0 3d3d
00000370: 2f7d fcbb 1c65 50bd 6a10 4fbd 72c0 b23b
00000380: f059 f8bb 8b21 9bbd d071 0d3d 4281 12bd
00000390: 22fc f3bc c431 b0bc 4dca b73c a9fe 603d
000003a0: 35c2 34bd 5b47 cc3c 9313 d53c 73d1 9bbc
000003b0: c339 283d 223c a83b 7167 1b3c 6ff2 a03d
000003c0: 5b16 1e3d 9d80 8dbc e8cb f13c 5f92 e2bc
000003d0: 6807 7c3c 9169 a93d 7c80 033d aa36 89bd
000003e0: 0845 f73c 0094 883d c3cf a93d 7e3b 7c3c
000003f0: 5aad e83c 9da5 1ebd 4ccc 0cbd a0ee 943d
0.038485534 0.06306883 0.0742574 -0.020937236 -0.061380778 -0.01932799 0.025960078 -0.0036755733
-0.06786615 0.09799794 -0.044093974 -0.062447637 0.04209648 0.072659664 0.0526004 -0.06013867
0.09226299 0.09397645 0.084605895 -0.018909661 -0.055273917 0.031271376 0.07361959 0.05063209
-0.06847858 -0.069149494 -0.07874503 0.0170811 0.06705998 0.027219608 0.0646267 0.008260541
-0.05289514 -0.040014595 0.09391262 0.036092833 0.052425414 0.019929338 0.044837624 -0.018699946
-0.026804708 0.057366334 -0.0465668 0.0760537 -0.11371962 -0.12597823 -0.06040278 -0.023526037
0.0003699808 0.08354742 -0.04223886 -0.06428466 0.054791875 0.06908647 0.037040874 0.0062515647
-0.0018414874 0.13710563 0.123572975 0.083502844 0.039996535 0.056359783 -0.00874165 -0.003038358
0.058886763 -0.06498669 0.011252518 -0.11025319 0.0036494655 0.047579214 -0.067234375 0.0028111893
0.09132559 0.037113838 -0.07412199 -0.08450279 0.105911136 -0.067323506 0.053396475 0.07112619
0.049656097 -0.07936695 0.046532147 0.10893231 0.07767328 0.1432208 0.033115387 -0.085570626
-0.101568945 -0.09894539 0.13477464 0.04900912 0.10444671 0.11138775 -0.016251668 0.050748162
0.042076692 -0.055504 0.04999644 -0.056001354 -0.020656738 0.09065749 0.012448548 0.04188035
0.05631598 0.08153055 -0.004583448 0.0154624805 -0.02712591 -0.041359913 0.056152217 -0.06950365
0.015904546 -0.07527086 0.0729788 -0.042132735 -0.06388675 -0.06556171 0.0058086067 0.033676274
0.05294872 -0.04981068 0.094181456 -0.05815626 -0.009267591 0.04534208 0.03704766 -0.087671526
0.037287913 -0.08216793 0.06786158 -0.020537362 0.09274811 0.08253177 0.09424246 0.040542968
0.06645275 0.059032314 -0.08256492 -0.08418016 0.05464106 0.0176071 0.029534914 -0.06463185
0.021696255 0.051091112 -0.07534201 0.0482148 -0.0373512 -0.07134642 -0.09403145 0.060304515
-0.03542693 0.05493448 -0.014965571 -0.06805383 -0.06904245 0.008662656 0.05057741 0.06145499
0.014455818 -0.049080104 -0.08617744 -0.0974553 -0.09347405 0.0656079 0.068132885 -0.06170206
-0.004147947 0.050185226 0.01943513 0.0939142 -0.02366791 -0.07692049 -0.07579863 0.0876187
0.06677169 -0.01280456 -0.08679452 0.07678192 0.0965629 0.034799658 5.2511692e-05 0.08235382
0.08567872 -0.035687532 -0.06552094 -0.037156835 0.0017810389 -0.07501696 0.024308138 -0.05104705
0.08330474 0.09051513 0.03754825 0.030159242 -0.08695776 -0.0055226237 -0.06506364 0.085719936
-0.024296336 -0.014621049 -0.0971244 0.01849398 -0.06374235 -0.017492712 0.03457848 0.09238278
-0.06586047 -0.08051606 -0.05104503 0.05220978 0.09092836 -0.07051358 -0.107370056 0.026844302
0.08266085 -0.06102563 -0.065031044 0.046326105 -0.0077053527 -0.050877675 -0.050552763 0.00545507
-0.0075790808 -0.07574757 0.03453237 -0.0357678 -0.029783312 -0.021508105 0.022435332 0.054930363
-0.044130523 0.024936369 0.02601031 -0.019020772 0.04107071 0.0051341215 0.009485112 0.078587405
0.03859554 -0.017273242 0.029516175 -0.027657686 0.015382625 0.08272088 0.032104954 -0.066998795
0.030184284 0.06668854 0.082915805 0.015395043 0.028402973 -0.03873216 -0.03437452 0.072720766

model.lstm.bias_hh_l0 f4 [416]
00000000: a6b5 babd 2f30 863d 8197 663d 8d9f c8bb
00000010: fd85 303d 9c46 c7bd 622d c3bd 5013 a53d
00000020: 3029 883d 114e aabc 161c b53d d207 97bc
00000030: 3a2b aa3d 0928 ae3d 224e e93c 3716 67bd
00000040: 2c3b c2bc 875c 3a3d 21fc 02bd 546e a9bd
00000050: 7ff1 8b3d 55c9 2fbc b986 bc3d aca7 6d3d
00000060: b987 54bb c2f4 abbd 1b2d 043c c3ce c13d
00000070: 4985 5ebc 8fce 1e3d a48e 333d 495c 4a3d
00000080: a319 4dbd 40ca 0cbd 9cfe 4d3d d3a8 a7bd
00000090: 3ada f6bc 9d98 8b3d 1693 f8bc 259a 74bd
000000a0: 2a84 49bd f3ef 13bd 4dd9 d13d 9022 57bc
000000b0: 9697 f6bd 05cb 6b3d 22b0 32bd 992f 56bd
000000c0: ca6d 1dbb 3182 96bd 956e 82bd 4b32 8d3d
000000d0: 899f 96bd c1fb 833d ca9d 19bd e0b1 fe3b
000000e0: afe5 873d 88d7 a9bc bf7c 033e 0d6d 34bd
000000f0: f31a 943d d1f6 843d 641a 9cbc 1ff0 d33c
00000100: 474b 493e 2485 8c3c 2ea1 93bd 577e ddbd
00000110: 95c3 e73d d026 223c ecfe 2a3c c659 193c
00000120: b5ee 61bd 82ca a6bc 9a88 22ba b04b 0c3d
00000130: bc72 f03d 4366 433d 6796 4f3d 4d5d 80bd
00000140: ad14 d93a 3785 4e3c b3ed 0e3d bc59 053d
00000150: 6533 bf3d 37fe f73d 7b0b 6e3b e5a9 9dbd
00000160: 4066 21bd 5f1d 72ba 2517 033e 9068 a8bd
00000170: 8dd4 99bc ba8a d83d 45cf 39bd 32be ef3c
00000180: 2e8b 343d 7c87 12bc 9521 4b3c 65e9 2c3d
00000190: c158 cf3d 6ed8 b83c 01b1 563d e851 d6bd
000001a0: eb20 933d b65d 2b3d d05c 7abc 47e1 56bd
000001b0: 0c2d c73c c054 c7bd ea18 01bd 9cab cc3c
000001c0: 72bf 7b3d f476 b5bc f8c6 0d3c 430b 34bd
000001d0: 33d0 a93d f865 113c 58c6 05bc d42a 43bd
000001e0: fe51 2d3d 8289 7bbd 7c85 3abd 96f8 5abd
000001f0: 88d3 0d3c fe6a 1c3d f3b3 13bd c0af fa3b
00000200: 3eb9 793d 5a13 723d 167c 403d c056 2d3c
00000210: d2e9 05bd 6431 d8bc c4ed fc3c e363 67bd
00000220: ccf8 eabc d9fd aa3d 3c5c bebc 68be b83c
00000230: 33df a7bd 381a 67bd bef5 86bd 77d4 36bd
00000240: e64f 4f3d 6a4a 96bd a87f bebc 1c8b dabc
00000250: e554 56bd cbf7 8abd 954c 873d 1848 f1bc
00000260: 70a5 15bc 12ff b7bd 80bf 93bc 24af f93c
00000270: d9e8 c03d 5007 8cbb 5d01 9ebd 9890 92bd
00000280: feb9 3d3d 32cf 233d b86c c6bc 5664 9bbd
00000290: e8f5 003c f06d ec3b 18a9 16bc 61c9 3fbd
000002a0: 070c 2bbd f68d 233d 9853 b13c 2b15 26bd
000002b0: f8b8 b23c bf42 b13d d82d 59bd 713a 873d
000002c0: a2e4 a1bd 35ec a2bd 272e a23d d57e 963d
000002d0: 094a ba3d 54be eabc fde9 a73d 72e7 553d
000002e0: bf79 5abd f2f4 353d fc61 d5bc ec6c 5ebd
000002f0: 06db 723d 1684 09bd 1488 fc3c f2b3 91bd
00000300: bc12 9fbc 187a b83c cc43 0ebd 0035 bbba
00000310: b8c6 b6bd 2239 0e3d 5339 31bd 1a0e c6bd
00000320: fb1e c53d 60a2 4a3c 66fa 06bd ab71 4bbd
00000330: 1e1e a1bd 1150 ba3d ae40 6e3d a5bd 913d
00000340: 6b7d d03d 78e6 d63a 7f55 b53c 582d 86bd
00000350: 1fa0 b3bc 94cc 673d 1361 843d c865 303d
00000360: 45af fcbb ae14 793d 9ccb d7bc cf94 0cbd
00000370: 58d4 aabd 2d2f c53d 3414 61bd 59ef e23c
00000380: b809 793d c7c7 ac3d 491a bbbd d207 6a3d
00000390: 69eb 2d3d 1a7b e0bc b673 ca3d cfde 6bbd
000003a0: 6f1b da3c 0d37 58bd 8eb2 83bc b5d7 cd3d
000003b0: 77f3 6e3d 44f6 9ebc bd65 5b3d 568e 3a3d
000003c0: 8776 2dbd 80e6 04bc 0603 91bd a609 a23d
000003d0: 3465 1dbd d3a3 88bc 16e8 cfbd 2ee0 ca3d
000003e0: 8128 53bc 43e1 313d a055 83bd 486a 28bc
000003f0: 4750 abbb 3c7e b23d d762 54bd a26d 813d
-0.09116678 0.06552159 0.05629683 -0.0061225356 0.04309653 -0.097302645 -0.095301405 0.08060324
0.06648481 -0.020789178 0.088432476 -0.018436346 0.08309026 0.0850373 0.02847964 -0.05641767
-0.023709856 0.045498397 -0.03197873 -0.082729965 0.06833171 -0.010729154 0.09205384 0.058021232
-0.003242953 -0.08396293 0.008067395 0.09463265 -0.013581582 0.03877121 0.043837205 0.049404416
-0.050073277 -0.034372568 0.050291643 -0.081864975 -0.030133355 0.06816218 -0.030343574 -0.059717316
-0.049198307 -0.036117505 0.10246525 -0.013130799 -0.120406315 0.05756666 -0.043625005 -0.052291486
-0.0024021738 -0.07349051 -0.06368748 0.06894358 -0.07354648 0.064445026 -0.037503995 0.007772669
0.066356055 -0.020732656 0.12840556 -0.04404931 0.07231703 0.06492389 -0.019055553 0.025871335
0.19657622 0.01715333 -0.07208477 -0.10815113 0.11316601 0.009896949 0.010436755 0.009359783
-0.05515929 -0.020360235 -0.0006200165 0.03425187 0.11740634 0.047704946 0.050680544 -0.06267796
0.0016561948 0.012605003 0.034894656 0.03255628 0.093359746 0.121090345 0.003632276 -0.076984204
-0.039404154 -0.0009235944 0.12801798 -0.08223069 -0.01877811 0.10573335 -0.045363683 0.029265497
0.044078045 -0.008943435 0.012398143 0.04221477 0.1012435 0.02256414 0.052414898 -0.10464841
0.07184013 0.041837417 -0.015280917 -0.052460935 0.024313472 -0.09732962 -0.0315179 0.024984173
0.061461873 -0.022151448 0.008653395 -0.043956053 0.08291664 0.008874409 -0.008164965 -0.047648266
0.042314522 -0.061410435 -0.045537457 -0.053459726 0.00865639 0.038187973 -0.036060285 0.0076503456
0.060967676 0.059100486 0.046993338 0.010579765 -0.03269369 -0.026390739 0.030875094 -0.056491744
-0.028683089 0.08349199 -0.02323734 0.02255173 -0.08196869 -0.05642149 -0.0658984 -0.044636216
0.050613306 -0.07338412 -0.02325423 -0.02667766 -0.052327055 -0.06785544 0.06606404 -0.029453322
-0.009133682 -0.08984198 -0.01803565 0.030479021 0.09419412 -0.0042733327 -0.07715104 -0.07156485
0.046319954 0.03999252 -0.024221763 -0.07587497 0.007871129 0.007215254 -0.0091955885 -0.04682291
-0.041759517 0.039930306 0.021646306 -0.04054753 0.021816716 0.08655309 -0.053022236 0.06602944
-0.079049364 -0.07955209 0.07918959 0.0734841 0.09096152 -0.028655209 0.081989266 0.052222677
-0.053338762 0.04442305 -0.0260477 -0.054303095 0.05929091 -0.033573233 0.030826606 -0.071144
-0.019418113 0.022519156 -0.034732625 -0.0014282763 -0.08924621 0.034722455 -0.04326756 -0.096706584
0.0962505 0.012367815 -0.032953642 -0.04966895 -0.078670725 0.09097303 0.058167152 0.0711625
0.101801716 0.0016395589 0.022135494 -0.065516174 -0.021926938 0.056591585 0.06463828 0.043065816
-0.0077113234 0.060810737 -0.026342206 -0.034321602 -0.083412826 0.09628139 -0.054950908 0.02770202
0.060800284 0.08436542 -0.09135873 0.057136364 0.042460833 -0.02740245 0.09885351 -0.057585534
0.02662441 -0.052786876 -0.016076352 0.100509085 0.058337655 -0.019404538 0.053563822 0.0455459
-0.042349365 -0.008111596 -0.07080655 0.079119965 -0.038426593 -0.01667968 -0.10151689 0.0990604
-0.012888075 0.043427717 -0.06412816 -0.010279246 -0.0052280757 0.087154835 -0.051852074 0.06319739

model.fc_layers.0.weight f4 [52, 104]
00000000: 6ddc 823c a194 20bd 713a e73d 7a16 793d
00000010: 008a db3b 8c3c b13d 9405 86bd 68f4 c63b
00000020: 63f6 c23d 7aa4 c33c 291b 8f3d 681a 8fbd
00000030: 78bb 23bd acac d2bd d3c9 33bd 20ae e1b8
00000040: 75e8 38bd 37e4 f23d a63d 3e3c 4af7 8b3d
00000050: cff2 b13d 721c f73c 7bbb 283d e155 4dbc
00000060: 40af 9cbd 8c18 52bd c0da d83d e51b 793c
00000070: 963f 933d d171 5bbd e56b 27bd 97cd cdbd
00000080: 92fd ae3d 4ad2 dfbd 9139 993d 6680 8fbd
00000090: 462f 9bbd bd73 d2bd 09b8 8c3c 2477 c1bd
000000a0: e465 a63b ad54 d03c f1c4 53bd 3416 063e
000000b0: 0f6b 9dbd da1e 83bc 0e3d b23d 6876 6fbd
000000c0: b377 923d 3bf1 403d e609 763b f24b a63d
000000d0: 7ed3 3bbd 9dfc 6c3d 3098 cdbb 828b 533d
000000e0: c0e2 563b 5966 a4bc 5360 b8bc c7f4 99bc
000000f0: 5818 9fbc f9d6 0cbe 09c5 e43d 79f4 96bd
00000100: c674 d23d 593a b0bd 2e88 c5bc 3414 4fbd
00000110: 9c88 21bc ec9a 253d 79a8 d43c 7719 cabd
00000120: 3c2d ae3c a25c 853d e692 a73d d309 983c
00000130: c7f3 eb3d e4db 733d 370c a0bc 9c00 b03d
00000140: 4948 79bd bb2c 58bc 22a4 5d3c 0b13 b03c
00000150: 4c11 c43d 9037 f9bd 0d8b d23d abf7 8ebd
00000160: 3e02 bdbd 4b77 63bc f679 823d 8879 7abd
00000170: fd70 41bd 0a5a 0fbd 52f4 7bbb 2e23 853d
00000180: 3770 9bbc 3823 89bc d525 7e3c 0f38 8fbd
00000190: d36e 9abd 26bb 14bd 2f79 823d eff1 833d
000001a0: b9d5 b53d c950 b83d e912 98bd 9516 17bd
000001b0: ba39 62bb 52b9 b13d 1a4f 38bc 4dc0 92bc
000001c0: 7cf1 ee3b 4d1d 2a3d b2df 84bd d94b 89bd
000001d0: 5f6f e1bc cd1c fcbc e09e 8f3d 7f9e d4bc
000001e0: 77f8 6a3d e747 98bd efaa a8bc 69d9 8d3d
000001f0: eb2b d83b ab47 c9bc 9ca8 ce3d d18d 0cbc
00000200: 3780 d13b e2af 4ebd 32be 6cbd 5bf5 933d
00000210: b55c ddbc 5792 9d3d 43e8 2d3c 5b7b a73d
00000220: bc8f 19bd 315f c1bc c23f 31bd ec65 be3d
00000230: 206d 3eb8 bc6b bf3c f8d8 b8bd a963 07bd
00000240: bb5c 8d3c 7e88 84bd 792d 153d 5ef8 5b3d
00000250: d16f a7bd 5d3e e3bc 1376 12bd 9710 e8bc
00000260: f5f4 f83c c701 37bd 47a4 183a 58ab 9b3d
00000270: 8b0e b33d 08f9 15bd 3822 453d 3e76 8e3d
00000280: 9b94 503d 10d8 9fbc b0b9 423d a5cf 9f3d
00000290: 4665 74bd 8482 5abd f224 2abc 314f 44bd
000002a0: 7044 1cbe 1ee3 e93d e863 383c eedf 4e3d
000002b0: d6a1 c83c ed1e 983d ba92 31bb 4c7a 873d
000002c0: b713 5ebd 9040 ad3a 49b1 1bbc 17aa 90bd
000002d0: f2f5 d9bd 53b1 a43d 9747 84bd b09c 13bd
000002e0: 818b a7bd ee02 4a3c ac01 b23d e303 d13d
000002f0: c62f 173d 6778 1abd 22d1 853d 6415 2a3d
00000300: c633 743c 3397 a73c 9e9c 8b3d b633 84bd
00000310: 027d dfbd 8355 633d eb86 1d3d fd66 913d
00000320: 7f17 8dbc cdc1 a23d 67f3 b2bd 620e 86bd
00000330: 7490 263d 0c49 383d 9f61 95bc 4003 c33d
00000340: d7b0 b63d 0564 373d a696 543d d9ed 24bd
00000350: 0cf2 fcbc 91c5 733d 469d ea3d 7edd c73d
00000360: 6a93 943d 939b e83d 6b31 053d 50f7 c9bd
00000370: a4b4 aebd b21e b63c 5276 393d eb6b 923d
00000380: dd34 a2bd f6aa e73d 0299 043e 9ee2 67bc
00000390: 1a67 26bd 6c54 303d 139e fdbd d844 68bd
000003a0: 4fe4 9a3d 7be8 13bd d651 97bb 423e 96bd
000003b0: 9ad8 efbc 5c1b 583c 04de 72bd 9212 26bc
000003c0: 6f98 89bd c920 b4bd 4938 29bb ce76 12bd
000003d0: 3fc9 4fbc 7c59 eebd 0d9e 403d e7e2 fcbd
000003e0: 1121 993d a21b 58bd abee 0cbc b7d5 c23d
000003f0: 8869 87bc c0b6 373d 8408 593d cde7 793d
0.015974248 -0.039204244 0.11290444 0.06081245 0.0066998005 0.086541265 -0.06544033 0.006071616
0.09519651 0.02388214 0.06987602 -0.069874585 -0.039973706 -0.10286841 -0.043893646 -0.000107612694
-0.045143563 0.11859935 0.011611378 0.06834276 0.0868889 0.030164931 0.04119442 -0.012532682
-0.07650614 -0.05129294 0.10588598 0.0152044045 0.071898624 -0.05357534 -0.04087438 -0.10048979
0.085444584 -0.10928781 0.07481683 -0.07006912 -0.07577376 -0.102759816 0.017177599 -0.094465524
0.0050780643 0.025431002 -0.05170149 0.13094407 -0.076864354 -0.016005922 0.087030515 -0.05846253
0.07151737 0.047105055 0.003754252 0.08119954 -0.04585599 0.0578581 -0.0062742457 0.051646717
0.0032788962 -0.020068334 -0.022506868 -0.018793477 -0.019420788 -0.1375388 0.11170394 -0.07370848
0.10276179 -0.08604879 -0.024112787 -0.050556377 -0.00985923 0.04043095 0.02595924 -0.09868138
0.021261804 0.06511809 0.081823155 0.018559372 0.11521106 0.059535876 -0.019537074 0.08593866
-0.060859952 -0.013194258 0.013527902 0.021493455 0.095736116 -0.12168801 0.10280428 -0.06980833
-0.09228943 -0.013883422 0.063709185 -0.061151057 -0.047226895 -0.034997977 -0.0038445187 0.065008506
-0.018974407 -0.016740426 0.01551195 -0.06993114 -0.07540669 -0.03631129 0.0637077 0.064426295
0.08878655 0.089997835 -0.07425482 -0.03688677 -0.003451927 0.08677925 -0.011249328 -0.017913962
0.007291971 0.04153185 -0.06487979 -0.0670392 -0.027518926 -0.030775452 0.07012725 -0.025954483
0.05736586 -0.07435589 -0.02058932 0.06926233 0.0065970323 -0.024570307 0.100907534 -0.008578734
0.006393458 -0.050460704 -0.057798572 0.07224532 -0.027021745 0.07693928 0.010614458 0.08177825
-0.03749059 -0.023604961 -0.043273695 0.09296784 -4.540116e-05 0.023366801 -0.090257585 -0.033054028
0.017256131 -0.06471346 0.03642032 0.05370366 -0.08175624 -0.027739698 -0.035757136 -0.028328223
0.030390242 -0.04467943 0.0005822819 0.076010406 0.08743008 -0.036614448 0.048128337 0.06956147
0.05092297 -0.019512206 0.047540367 0.07803277 -0.059666894 -0.053347126 -0.010384785 -0.047927085
-0.15260482 0.11420272 0.011254288 0.050506525 0.024491232 0.074277736 -0.0027095512 0.06615123
-0.05421802 0.0013218094 -0.009502717 -0.07063692 -0.106426135 0.080416344 -0.06458967 -0.0360381
-0.08180905 0.0123298 0.08691725 0.102058195 0.036910795 -0.03771248 0.065340295 0.041524306
0.014904922 0.02045784 0.06816982 -0.064551756 -0.10912515 0.055501472 0.038458746 0.070997216
-0.017223118 0.07947121 -0.087378316 -0.06545712 0.040665105 0.044991538 -0.018235026 0.09522104
0.08920448 0.04477312 0.051901482 -0.04026589 -0.030877136 0.059514586 0.11455779 0.09759043
0.072546795 0.113577984 0.03251783 -0.09861624 -0.08530548 0.022231434 0.045278855 0.0714949
-0.07920239 0.11311905 0.12948993 -0.014153151 -0.04062567 0.04304926 -0.12383666 -0.05670628
0.07563078 -0.036110383 -0.00461791 -0.073360935 -0.029278088 0.013190117 -0.05929376 -0.010136263
-0.067185275 -0.08795316 -0.0025820902 -0.035757832 -0.012682258 -0.116381615 0.04702573 -0.12347966
0.0747701 -0.052760728 -0.008601825 0.09513419 -0.016529813 0.04485202 0.052986637 0.061012078

model.fc_layers.0.bias f4 [52]
00000000: a73a b93d 023f 223d de54 e53b dae9 abbc
00000010: 1d95 98bc 3509 663c ecbf 9a3d cc29 253c
00000020: be4a 893b cc5b 253a 50ed 6fbc e88b a3bd
00000030: f795 33bd 9fc0 7ebd 1acf 6f3d 3d28 0dbd
00000040: e2dc 553d ef4f d2bc 0831 bf3d 647e 953d
00000050: 6066 2f3d b55e 0bbd e99a 3f3d 8b35 7fbd
00000060: 1641 7bba 8c55 bbbd f030 d83c 423b 793d
00000070: f390 713d f0f2 84bd 3d7d 723b 849c b43d
00000080: bd83 68bd 50bf 6bbd e118 98bb 12a4 b53d
00000090: 483a 8abc 1828 083d 233a 47bd 125c ac3d
000000a0: b15b 9a3c ec07 18bb 4b89 7abd 69b6 1dbd
000000b0: 9cef 40bd 67ef d53c eb2f 52bc c2dc ac3c
000000c0: 1b15 043d 3418 3b3b 3fa5 14bd 6ad5 853d
0.0904439 0.03961087 0.0069986423 -0.020985533 -0.01862579 0.014040281 0.075561374 0.010080766
0.004189818 0.0006307929 -0.014643982 -0.079856694 -0.04384419 -0.062195417 0.058547117 -0.034462202
0.052212603 -0.025672881 0.09335524 0.07299498 0.04282224 -0.034025867 0.046778593 -0.062306922
-0.00095845887 -0.09147176 0.026390523 0.06084753 0.058976125 -0.06491649 0.0037000917 0.088189155
-0.05676626 -0.057555497 -0.0046416377 0.088691846 -0.016873494 0.03324136 -0.048639428 0.084159985
0.01884255 -0.0023198081 -0.06116609 -0.038504038 -0.04710351 0.026115132 -0.012828807 0.02110136
0.03224669 0.0028548362 -0.036290403 0.06534846

model.fc_layers.1.weight f4 [26, 52]
00000000: d5f0 b0bd 3941 963d cb91 103e 06e4 073d
00000010: 7022 053d 7047 acbd 034d 3ebd e590 283d
00000020: 0628 c83d 9028 babd 9dd4 153e bc85 d8bd
00000030: b25e 32bd d6c0 dc3d 9dde e03d a3c3 d03d
00000040: 5fa4 aebd 2070 f7bd 2350 5cbd 2e2c cdbc
00000050: b835 303d 794c b43d 0760 f73d d137 98bd
00000060: 8d93 5ebd 4726 143c 2a26 b43c 58f8 b7bc
00000070: 3e71 e53c 0cae 8b3d 4a4b 4cbd bdba 87bd
00000080: 5b44 b5bd a07d 72bd 47f8 183e 4680 833d
00000090: 9705 d93d abc9 833d abca a03d 544b 0c3e
000000a0: d875 80bd 549f 383d ec1b fcbd d5c5 073c
000000b0: 10cd 9dbd e5c1 66bd d023 bebc b393 02be
000000c0: 051e dbbd f563 013d de24 bf3d e594 0e3c
000000d0: 7a67 e5bd b989 0ebd f929 aebd ad77 d13d
000000e0: 9dfa b6bd 9f9e 19be b415 b4bd 3a69 2d3d
000000f0: aa23 04bd 6a2c 123d ad1a 11be de64 51bd
00000100: 4ccf ed3d 3dee cdbd bd0f 9b3d f28b 073d
00000110: 1333 cabd 92d5 9a3c f8ae 0fbd 3460 18bd
00000120: 06df 603c 2eb1 e5bd 5804 0fbe d485 a6bd
00000130: 8cfa 473d c489 e1bd 0f4d 78bc 558d 38bc
00000140: 879e f3bc 0d55 ab3d 0fea 8d3d 2e42 bb3d
00000150: 043f 153e 22aa 31bd 0214 1fbe 6a5c b2bc
00000160: 425a 673d 7b62 6cbd 0de5 ba3d 8da0 0bbe
00000170: f519 e13d 9ecf 113e 6657 50bd 1fff 95bc
00000180: 9428 403a 5080 9ebd cd65 07bc 6bc7 b1bd
00000190: aa87 da3d bd38 e5bd 08c3 03be 1215 e7bd
000001a0: 34ba e83d 9ea4 ee3b 6bf0 6bbc c253 d9bd
000001b0: 5f64 973d a940 cbbd 24b4 76bd 0d7e 5bbd
000001c0: 3718 85bd fb51 88bd a439 9bbd eaeb c03d
000001d0: 79c5 cabd f0bb b2bd 7251 efbb 8926 a83d
000001e0: 0bbb e13d fd96 083e 3092 98bd 7312 dc3c
000001f0: 03df cebc 491b 0abe a622 bd3c 2093 ff3c
00000200: 63f1 0d3e c794 143e 435e 7c3c bdd6 dd3d
00000210: 9baf 17be afd4 053e 4ff0 8d3d c729 cf3d
00000220: 4d41 d73d 7b2b 0b3e 53e6 87bd 7b1d 06bd
00000230: ad72 7c3d 0674 85bd ad2b 9dbd 2ae4 353d
00000240: 5f38 cc3d b6aa 743a 6d09 febd 2c0d 55bd
00000250: be24 143e 7362 cb3d 3e20 fcbd e8aa 853c
00000260: 222b 9e3d 2371 b43d dc89 d63d 3c9f 0e3d
00000270: a303 e9bc 82b7 8ebd e7f7 073e 596c 133d
00000280: 0a8e b8bd ecf3 353d 5fc9 c8bd 6a1b fcbd
00000290: 4a51 593c f989 0ebe cc08 7fbc 9db2 4c3c
000002a0: 530b 84bd bbad c83d 4ded c53d 6c4e 9bbd
000002b0: c4b3 df3d edd4 49bd ff53 713c 6cf5 613d
000002c0: 3095 ea3d d6db 5fbd 0ceb 0cbd 0642 19bb
000002d0: 682a 62bd 03e8 09bd 94c6 07be 8c7e b9bd
000002e0: 59bf 6dbd d9a4 3abd 4e8b debc 1558 b43d
000002f0: 7436 013e 8feb 463d d939 93bd 5ba1 a33c
00000300: 35a5 91bd f45b 99bd 7e12 ac3d 1082 49bc
00000310: 7cf8 b5bc 3040 b63d 63f8 0dbd 5066 2c3d
00000320: d664 35bd 8176 093b 1f04 95bd 9618 adbd
00000330: d5d4 463d b6d0 bebd 3df0 06be ce22 bb3d
00000340: 1c45 5fbd ff9a 28bd 395d 383d 97f0 3abd
00000350: 5865 4f3c 5889 c83d 1e6b 84bd 35f5 c73c
00000360: c3e1 a8bd 9aaf 48bd 5a61 da3c c924 59bd
00000370: 570f 853d 0370 18be ed71 6c3c d6a7 c6bc
00000380: 4db5 12be 6467 f7bd fbb6 623d 3ff7 01be
00000390: ff4b c93c e7da 153d e3be ef3d 2167 0dbd
000003a0: e900 16be e053 19be 7808 ff3d e9bf 393d
000003b0: 7d81 d5bc a105 87bc ca5d cdbc 1d62 9abc
000003c0: 2bd4 00bd 1e30 ee3d 88a4 e43c 155e 5c3d
000003d0: 5905 e8bd 1020 af3d 9727 9abc ec12 a4bd
000003e0: 7ef7 8c3d 0611 b4bd 50b2 8a3d 01f8 0c3d
000003f0: 9a4e c23d b0b6 3abd ca23 ea3d 2b7e 1dbe
-0.08639685 0.07336659 0.14118116 0.033176444 0.032503545 -0.08412063 -0.046460163 0.041153807
0.09773259 -0.09089768 0.14631887 -0.10572383 -0.04354734 0.10778968 0.1097996 0.10193565
-0.08527445 -0.12081933 -0.05378736 -0.02504548 0.04301998 0.088036485 0.12078863 -0.07432521
-0.054339934 0.009042329 0.021990854 -0.022457287 0.0280081 0.06820306 -0.04987649 -0.066274144
-0.088509284 -0.059201837 0.1493846 0.064209506 0.10596769 0.064349495 0.07851156 0.1370061
-0.06272477 0.045073822 -0.12310013 0.008286913 -0.07705128 -0.056337256 -0.023210436 -0.12751655
-0.10699085 0.031589467 0.09333204 0.008702491 -0.11201377 -0.03479931 -0.085040994 0.102279045
-0.089345194 -0.15001915 -0.08793202 0.04233668 -0.032260574 0.035686888 -0.14170332 -0.051121585
0.11611804 -0.10055206 0.07571361 0.033092447 -0.09873023 0.018900666 -0.035078973 -0.03720112
0.013725048 -0.11215435 -0.13966501 -0.081309944 0.048822924 -0.11012605 -0.015155091 -0.011264165
-0.029738678 0.083658315 0.06929409 0.09143482 0.1457482 -0.043375142 -0.15534976 -0.021772582
0.05648256 -0.057711106 0.09125719 -0.13635464 0.10991279 0.14239356 -0.0508646 -0.018310128
0.00073302654 -0.077393174 -0.008264017 -0.08680614 0.10670407 -0.111924626 -0.12867367 -0.11283316
0.113636404 0.0072828075 -0.014400582 -0.10611679 0.07392191 -0.09924442 -0.06023039 -0.05358701
-0.06498759 -0.066562615 -0.075793535 0.09419997 -0.09900946 -0.087272525 -0.00730341 0.08210475
0.11022004 0.13338847 -0.07449758 0.026864266 -0.025252825 -0.13486971 0.02308781 0.031198084
0.13861613 0.14509879 0.015403333 0.10831974 -0.14813082 0.13069414 0.06930601 0.1011539
0.10510502 0.13590805 -0.06635728 -0.03274296 0.0616328 -0.0651627 -0.07674346 0.044407047
0.099716894 0.0009333299 -0.124041416 -0.052014515 0.14467141 0.09930887 -0.12310837 0.016316846
0.07723071 0.088106416 0.10475513 0.034819826 -0.028444117 -0.06968595 0.13278161 0.035992
-0.09011467 0.044422075 -0.098040335 -0.12309916 0.01326401 -0.1391982 -0.015566062 0.012493757
-0.064474724 0.097987615 0.09664402 -0.07583317 0.109229594 -0.049275327 0.014729499 0.055165693
0.114542365 -0.05465301 -0.034403846 -0.00233853 -0.055216223 -0.03366853 -0.13259345 -0.0905734
-0.05804381 -0.045567367 -0.027166035 0.08805863 0.12618428 0.04856449 -0.07188768 0.019974401
-0.07111589 -0.07488242 0.084019646 -0.012299076 -0.022213213 0.088989615 -0.03466071 0.04208976
-0.044285618 0.0020975175 -0.07276177 -0.08451955 0.048542816 -0.09317152 -0.13177581 0.09137498
-0.054509267 -0.04116344 0.04501078 -0.0456396 0.01265844 0.09791821 -0.064657435 0.024408916
-0.08246186 -0.04899559 0.026657749 -0.053013597 0.064970665 -0.14886479 0.014431459 -0.024249952
-0.14326973 -0.12080267 0.055350285 -0.12691973 0.02457237 0.036585715 0.117063306 -0.03452218
-0.14648785 -0.14973402 0.12452787 0.045349035 -0.026062721 -0.016482176 -0.025069136 -0.018845612
-0.03145234 0.116302714 0.027910486 0.05380066 -0.11329145 0.08551037 -0.018817706 -0.080114216
0.06883143 -0.087923095 0.06772292 0.034416202 0.09487648 -0.04558438 0.114326075 -0.1538016

model.fc_layers.1.bias f4 [26]
00000000: f123 adbd 862d 573d 5105 c8bd 905f 8dbd
00000010: 55e8 193d 9bc0 e6bd 6602 4f3c 1f3b 823d
00000020: b01b 053e ace6 febd 4cc7 183d 2102 c43d
00000030: 645b 933d 83b0 083e ef1c 05be b24b d2bc
00000040: 0d38 5a3c 1ffe e0bc 870b a63d 27e2 a23c
00000050: 9b04 783c 9979 673c c5df c6bd f33c bd3c
00000060: 1aed b83d 8e1e 34bd
-0.08454121 0.05253365 -0.09766639 -0.06902993 0.037575085 -0.11267205 0.012634849 0.06358933
0.12998843 -0.12446341 0.03729944 0.095707186 0.07195166 0.13348584 -0.12999319 -0.02567086
0.013319028 -0.027464924 0.081076674 0.019883228 0.015137817 0.014128112 -0.097106494 0.023100352
0.090295985 -0.04397445

model.fc_layers.2.weight f4 [1, 26]
00000000: ab1a 5b3d fa12 e9bd 4924 ccbd 0251 b4bb
00000010: f015 b13d f4de abbd f9be 4abd 31ec dbbd
00000020: ccc3 ed3d 0a45 b93c 7604 cabd 7e40 88bc
00000030: 52d6 223e 5c00 133d 2d8d edbd 819b aabd
00000040: d714 f93d a0b7 713b fd4f 8ebd 84f0 c6bd
00000050: 05d2 adbd 171d b53d bf9a 05be 9f02 2fbe
00000060: de5c 063e 356e 31be
0.05349223 -0.113805726 -0.09967858 -0.005502821 0.08646762 -0.08392134 -0.049498532 -0.10738409
0.11609611 0.022615928 -0.09864132 -0.016632315 0.15902069 0.035889015 -0.11599193 -0.08330441
0.12162178 0.003688313 -0.0694885 -0.097138435 -0.08487324 0.08843439 -0.13047312 -0.17090844
0.13121364 -0.17327197

exp_avg f4 [416, 9]
00000000: d029 7a37 0eb1 8537 dfd1 8137 441f 8d37
00000010: 7e86 8837 65d1 2e37 a0da 6e37 d80c 7937
00000020: bdcf 0e37 3adc aa37 12ea a837 4cf6 b637
00000030: 297e aa37 7e01 ad37 c6f1 8237 fcba a137
00000040: 0280 a637 bb10 4b37 08d4 5939 54a1 6339
00000050: 221f 5f39 669e 6c39 a4dd 6b39 7e66 0e39
00000060: 86ef 5a39 bcaa 5939 cefa ed38 a0ee aa39
00000070: bcde ae39 5e4a ac39 6fc3 b439 0a59 b739
00000080: f132 5439 03f1 a739 96f1 a639 f43d 2f39
00000090: 2dbc c938 6e5c cd38 d848 d538 5917 d638
000000a0: 68bc d538 d3a1 8538 fee4 c638 ad95 c738
000000b0: 6671 6b38 047f 7cb4 71f4 b0b4 a036 80b4
000000c0: e149 bdb4 8cba a8b4 bdbb beb3 1db5 92b4
000000d0: 7285 84b4 b8aa d3b3 8a17 2638 b282 3438
000000e0: 82a1 3d38 4725 3e38 7cc5 3738 760b eb37
000000f0: 9e7e 3638 eeb2 3038 7ce0 e837 acb4 3239
00000100: 1ee3 3239 60c7 3339 8b8f 3739 746f 3b39
00000110: 48e8 e838 5ec4 2e39 3d28 2f39 ef05 be38
00000120: e0f3 0539 fdb6 0339 f63d 0539 3bda 0639
00000130: 286d 0a39 8801 b538 715c fa38 a8ff 0039
00000140: 6c80 8d38 18dc 5638 e4e6 5838 5041 5438
00000150: 3a2f 5c38 c308 6038 df6f 0938 e480 4d38
00000160: 10c2 4e38 4e52 db37 d890 2837 820f 2637
00000170: 073a 3537 1a0a 2b37 336a 2937 8a06 fc36
00000180: b4af 1e37 886e 2537 8642 d436 58c5 de38
00000190: ea61 e338 7eea de38 2cb7 e938 c83e ee38
000001a0: 6b41 8f38 b4ec d738 7a5a d838 3a22 6238
000001b0: e4da 0739 4819 0539 660c 0939 63b0 0839
000001c0: 9414 0d39 f45a b338 2df0 0139 5588 0339
000001d0: 587c 9138 7e2e 9d37 69ed b037 6f84 9237
000001e0: c2d5 c237 1581 bb37 8af6 0337 4a53 c637
000001f0: 4584 b237 c7ed 0237 3ecb 2839 4ebf 2939
00000200: 9a8e 2e39 d05d 2f39 9cef 3039 927c df38
00000210: 4809 2239 581f 2439 20fd b938 54a3 a238
00000220: e845 a638 0fa0 a738 b4c8 ae38 bd0a ae38
00000230: 1abf 5038 e715 a638 20eb a438 76ab 3838
00000240: 0e33 a037 7afc b337 c741 9737 f4e9 b237
00000250: 2c5d b437 56ab 3237 b356 a437 bf51 a037
00000260: 3f55 fd36 fded eb38 2725 f038 f475 f138
00000270: 427c f738 36e5 fb38 2c89 9838 fb2f e738
00000280: 40b1 e638 d0b8 7d38 1ca1 2c39 57d6 3139
00000290: 0915 2d39 22e0 3839 a8ee 3839 9dca dd38
000002a0: c0ea 2939 c6b5 2a39 4a51 ba38 be50 aa38
000002b0: bc69 ac38 de5f af38 909d b438 645d b438
000002c0: 8e14 6738 96a0 a538 fe44 a938 97c6 4438
000002d0: a4bb 7337 e602 7937 1805 7c37 2a5b 7f37
000002e0: c24b 8237 9020 2b37 fe8c 6e37 2e62 6d37
000002f0: c783 0e37 2207 3939 ae78 3a39 be66 3439
00000300: d215 3e39 1e7c 4239 a8ae ee38 6555 2e39
00000310: 54ad 3039 e9fd b738 cd07 2737 70eb 7d37
00000320: 204d 3737 dcf3 8937 95ed 7d37 f495 0736
00000330: 62b5 7e37 999e 5037 9668 9736 4b9b 3339
00000340: 15b9 3739 a785 3039 45d4 3e39 0c6c 3e39
00000350: dc11 dc38 6ed1 2d39 ac02 2d39 485e b638
00000360: 8256 b437 f49e bd37 1852 be37 1a07 c537
00000370: 32e4 c837 175e 6e37 3e98 b437 ca10 b037
00000380: 00ed 4137 e7e0 82b6 baf6 72b6 00bb 7eb6
00000390: 8229 80b6 e19f 83b6 cd96 20b6 f8b9 67b6
000003a0: fddb 70b6 8fc3 0bb6 b697 fb37 7ece ff37
000003b0: a50c 0438 6380 0438 b589 0638 95f6 b037
000003c0: 46ef f437 b019 fa37 7799 9037 d240 1339
000003d0: 6aec 1739 2c9c 1139 7240 1c39 50d0 1d39
000003e0: 0661 ba38 96f9 0e39 e0ac 1039 0c94 9438
000003f0: c8e2 c138 da49 c238 9e32 c938 7366 c738
1.4910896e-05 1.5937283e-05 1.5475727e-05 1.6823069e-05 1.6275091e-05 1.0419962e-05 1.4236808e-05 1.4844547e-05
8.512227e-06 2.036813e-05 2.0136158e-05 2.1810782e-05 2.0324327e-05 2.0623902e-05 1.5609792e-05 1.9279767e-05
1.984835e-05 1.2103638e-05 0.0002077372 0.00021708506 0.00021278535 0.00022565722 0.00022493914 0.00013580357
0.0002087933 0.00020758336 0.00011347757 0.00032602716 0.00033353816 0.00032861804 0.00034477885 0.0003497082
0.00020236873 0.0003203229 0.00031841983 0.0001671238 9.619477e-05 9.792378e-05 0.000101702 0.00010208664
0.00010191725 6.372076e-05 9.484029e-05 9.516939e-05 5.6133977e-05 -2.3515537e-07 -3.296041e-07 -2.3881603e-07
-3.5257747e-07 -3.142817e-07 -8.881714e-08 -2.7326396e-07 -2.468401e-07 -9.856507e-08 3.9599407e-05 4.3037064e-05
4.5211527e-05 4.5334247e-05 4.381452e-05 2.801952e-05 4.3510103e-05 4.212831e-05 2.7761089e-05 0.00017042708
0.0001706001 0.00017145043 0.00017505714 0.00017875229 0.00011105888 0.00016667086 0.0001670429 9.061011e-05
0.00012774719 0.00012561302 0.0001270695 0.00012860533 0.0001320137 8.631038e-05 0.000119381475 0.0001230227
6.7473244e-05 5.1226554e-05 5.1713447e-05 5.0605566e-05 5.249607e-05 5.341392e-05 3.2767533e-05 4.8995847e-05
4.9294962e-05 2.614516e-05 1.0047304e-05 9.897982e-06 1.0801951e-05 1.0194746e-05 1.0097911e-05 7.5109465e-06
9.458443e-06 9.860501e-06 6.3258367e-06 0.00010622543 0.000108424414 0.000106294625 0.00011144424 0.00011360418
6.8309564e-05 0.00010296088 0.00010316535 5.3914475e-05 0.00012956146 0.00012693286 0.00013069957 0.0001303568
0.00013454474 8.5523265e-05 0.00012391871 0.00012543921 6.9372996e-05 1.8737508e-05 2.1091388e-05 1.7466225e-05
2.3226141e-05 2.2352246e-05 7.86561e-06 2.3642224e-05 2.1280846e-05 7.803966e-06 0.00016097442 0.00016188362
0.00016647056 0.00016724248 0.0001687393 0.00010656672 0.00015452981 0.00015651935 8.8686356e-05 7.755184e-05
7.928518e-05 7.992994e-05 8.3343504e-05 8.298967e-05 4.976904e-05 7.9195765e-05 7.863925e-05 4.4028704e-05
1.909726e-05 2.1456031e-05 1.8031233e-05 2.1328196e-05 2.1501059e-05 1.0649519e-05 1.9590696e-05 1.9111552e-05
7.5499115e-06 0.00011250002 0.00011451012 0.00011513746 0.000118010226 0.000120113065 7.273475e-05 0.000110238754
0.0001100027 6.049202e-05 0.00016463216 0.00016959883 0.00016506402 0.00017631103 0.00017636514 0.00010575841
0.00016204547 0.00016280179 8.8843124e-05 8.121271e-05 8.221294e-05 8.362507e-05 8.612417e-05 8.600464e-05
5.5093835e-05 7.8977246e-05 8.071399e-05 4.6914993e-05 1.4527617e-05 1.4842231e-05 1.50215565e-05 1.522041e-05
1.5532485e-05 1.0199976e-05 1.4218733e-05 1.414916e-05 8.494541e-06 0.00017645632 0.00017783299 0.00017204412
0.0001812794 0.00018547519 0.000113812566 0.00016625745 0.00016849238 8.7734144e-05 9.955792e-06 1.5134792e-05
1.0925607e-05 1.6445229e-05 1.51352915e-05 2.0203852e-06 1.5181811e-05 1.24346925e-05 4.512326e-06 0.00017128621
0.00017521188 0.00016834457 0.00018198889 0.00018160063 0.00010493744 0.00016576584 0.00016499561 8.6959975e-05
2.1497955e-05 2.2604574e-05 2.2687993e-05 2.3487537e-05 2.394812e-05 1.42078125e-05 2.1528565e-05 2.0988653e-05
1.1558877e-05 -3.900484e-06 -3.6204424e-06 -3.7957798e-06 -3.8195294e-06 -3.9227166e-06 -2.3929636e-06 -3.452993e-06
-3.5890837e-06 -2.0826444e-06 2.9992178e-05 3.0494524e-05 3.148303e-05 3.1590822e-05 3.207634e-05 2.1095659e-05
2.9198487e-05 2.9814284e-05 1.72376e-05 0.0001404316 0.00014488553 0.00013886456 0.00014901327 0.00015050289
8.887243e-05 0.00013635153 0.00013797311 7.084766e-05 9.2451985e-05 9.264397e-05 9.593855e-05 9.508142e-05
