LSTM_TimeSeries/lightning_logs/version_214/checkpoints/epoch=19-step=2600.ckpt (torch, 952859 bytes, 27 tensors)

model.lstm1.weight_ih_l0 f4 [416, 3]
00000000: 6a6e a23d 9241 723d 11f6 623d 6b53 863c
00000010: 93b4 60bc f7fc 223e 6e03 db3a 3d53 b8bd
00000020: ea63 933d 8b87 febc 0bd2 5cbc 6681 2f3e
00000030: 6c41 fabc 42e8 df3d 652c 613d da20 20bc
00000040: fa32 81bc c90b 403e 780b aa3d 1330 763c
00000050: b823 6c3d 375f e63d 1cf1 db3d 5393 183e
00000060: 0aad da3c 7880 7f3d 3deb 523e accd f63c
00000070: bb7f db3d 1073 3f3e 4b67 8d3d fd79 a83d
00000080: e6fb 943d 9aa5 5dbd a212 0b3d 5cfb d43d
00000090: 4e87 863d 3a63 80bd 5465 c63d 11f1 e63d
000000a0: 58b9 bb3d 435a c73d 169e 2e3d af27 afbc
000000b0: 96eb fe3d b158 9abc 64ed a6bc f31b 1b3e
000000c0: 4896 b53c 10e1 4f3d 1334 2a3e 0eb7 e13d
000000d0: 6776 fcbb dea9 4e3e ca1a e03c 525c 283e
000000e0: 3481 243e c8ac b13d 2b2f a0bc 7b6b 083e
000000f0: b226 b93b c58f d73c fe45 603d 5d03 073e
00000100: 3a63 59bc b3e9 803e 3f56 0e3e ea95 c63c
00000110: 2b40 433e 01ac 6e3d 3ed7 3c3c 298e ef3d
00000120: aa83 c0bc 85e3 0f3b 57da a53d ce48 933d
00000130: 58c1 fd3c 89ff 313e aa51 9a3c a124 313e
00000140: 9366 603e 47c6 293d 3f89 69bc 3792 2d3e
00000150: 9f64 df3d fe2f 9d3c 6f41 0c3d e8a8 6fbd
00000160: 1e33 113c c258 f2bd 5fa1 313d ad21 263e
00000170: b447 803e ec88 193b baf3 3a3d 8535 2abd
00000180: 3ca2 3c3b dc13 a63d c046 4a3e 5300 cf3d
00000190: 207e 9f3d 2439 ad3d cebb 35bd 2969 07be
000001a0: d35e 09be 26a1 2f3d a2c9 a9bc ece0 743e
000001b0: f263 6f3c 944d 863d 907a dd3d 4fc9 113e
000001c0: a39f b93d de15 593e f77a 1abb 650a 7e3d
000001d0: c645 193e 1347 113e d7a3 083e e05e f13d
000001e0: 50b7 b83c 0d5f 69bd 80c1 b63d e2f3 513d
000001f0: e501 a9bc 4a89 593e 2269 963d 3210 073c
00000200: 9c96 033e c53d 893d 9859 093e d031 173e
00000210: d8c6 8c3d 7b84 073e 6f80 a83d 4329 153e
00000220: b20b 6a3b 0bd3 ec3d 2f58 72bc 102a 913d
00000230: 33f7 2d3e 9a7f 083e d558 933d e042 713e
00000240: 0c23 c23d 418f dcbc fef9 2b3e d468 023e
00000250: b5a5 083e bd25 143e fd4a cbbc 108b 0c3e
00000260: e903 b5bc d133 af3c 5036 3bbc 01c7 4e3e
00000270: 52e2 09bc 2855 59bd 4795 033e 0d1e 203e
00000280: 50e1 593d a371 4c3e 6d5c 9bbd 2ca2 25bd
00000290: b3ba b3bc 6b95 02bd f6f4 123e ac62 493e
000002a0: c0c9 433d 5362 b03d 00ab 903d 4ec6 e83b
000002b0: 997e 033e 690b 783e c9e2 853c 3773 643d
000002c0: 3bef 2c3e e3f3 893d 0d30 573d ea29 503e
000002d0: 767c 20bd 4bff 623c 699a 333e 5453 203c
000002e0: 710c a63a 9572 0e3d e997 2c3e 280f dd3d
000002f0: 3b0d df3d 1c8a ba3d 6e92 a93d 6e2f 2b3e
00000300: d719 523d 2191 ed3d 976f 763d 1e68 8d3d
00000310: c4e2 ad3c ef76 353e 7038 233d e383 b93d
00000320: e15d 363d bba6 773d 6dbb d53d e6f1 1c3e
00000330: 0dba c03d 08b1 0e3e 8db9 6a3e 9c17 c53d
00000340: 1430 bb3d ef97 b93d 2646 eb3c e43a 0fbd
00000350: 23b9 663c 151f bf3c 86ad 283d 35b9 393e
00000360: 3249 fc3d eb03 073e 9b86 1f3e 12d9 923c
00000370: 45b9 2ebc 3c6b c33d c359 583d 9954 3c3e
00000380: 1f1c 283e 314a 64bc 7dfc 203e 57a4 193e
00000390: 008f 0e3e 1946 7dbc 4930 e33d 6324 bc3d
000003a0: aed3 3c3d 2ff7 a83d b9d8 9f3c 3914 833d
000003b0: ac2d c03d f867 1b3e b217 943d 8811 e73d
000003c0: 7215 103e c26a 023d bc67 fb3d f258 acbc
000003d0: 7ea7 ae3d 2d9a e8bd 0cdf a23d 15bc 0e3e
000003e0: f119 f93d bc14 443d b280 e93d 7818 ed3d
000003f0: b189 ee3d 9b47 1f3e efc9 433e 0468 683d
0.07931216 0.059144564 0.05541045 0.016397199 -0.013714927 0.15916811 0.0016709396 -0.090002514
0.071967915 -0.031070491 -0.0134778125 0.17139205 -0.030548774 0.109329715 0.05497398 -0.009773457
-0.015771378 0.18754496 0.08302969 0.01502611 0.05765125 0.112486295 0.10739347 0.1489995
0.02669384 0.062378377 0.20597549 0.030127369 0.10717722 0.18696237 0.06904467 0.082263924
0.07274608 -0.054113008 0.033953317 0.103995055 0.06568776 -0.06268926 0.096872956 0.112764485
0.09166211 0.09734013 0.04263123 -0.021381227 0.12447278 -0.01884112 -0.020376869 0.1514738
0.022166386 0.050751746 0.16621427 0.11021243 -0.0077045443 0.20181987 0.027356524 0.16441467
0.16064912 0.086755335 -0.019553741 0.1332225 0.005650365 0.026313672 0.05475425 0.13184877
-0.013268286 0.25178298 0.13900088 0.024241406 0.19067447 0.058269504 0.011525927 0.11697037
-0.023500282 0.002195568 0.08098286 0.07191621 0.030975983 0.17382635 0.018837769 0.17299129
0.21914129 0.041448858 -0.014253913 0.16950308 0.10907864 0.019187924 0.03424209 -0.05851069
0.008862285 -0.118333355 0.043366786 0.16223784 0.25054705 0.002342756 0.045642592 -0.041554946
0.0028783223 0.081092566 0.19753551 0.10107484 0.07787728 0.08458164 -0.044368558 -0.13223709
-0.13415079 0.042878293 -0.020726029 0.23913926 0.014611231 0.065577656 0.108143926 0.1423695
0.090636514 0.21199748 -0.0023571828 0.06202163 0.14968023 0.14187269 0.1334375 0.11785674
0.022548348 -0.056975413 0.08923626 0.051257975 -0.020630786 0.21243778 0.07344271 0.008243607
0.12850422 0.06701235 0.13413084 0.14765096 0.06873864 0.13234131 0.08227622 0.14566521
0.0035712537 0.11563691 -0.014791532 0.07088101 0.1698883 0.13329926 0.07194678 0.23560667
0.09479341 -0.026923778 0.16794583 0.12735301 0.13344462 0.14467521 -0.02481603 0.13724923
-0.022096591 0.021387013 -0.011426523 0.20193101 -0.008415775 -0.053059727 0.12849914 0.15636463
0.05319339 0.19965224 -0.07585988 -0.040437862 -0.021939611 -0.031880777 0.14351258 0.19666547
0.047799826 0.08612504 0.07063866 0.007103718 0.12841262 0.24223103 0.016343491 0.05577394
0.16888134 0.06735971 0.05253606 0.20328489 -0.039181195 0.013854812 0.17539372 0.009785492
0.0012668503 0.034777243 0.16854824 0.107939065 0.108911954 0.091083735 0.08279882 0.16717312
0.051294174 0.11599947 0.060165014 0.069046244 0.021226294 0.17721151 0.039848745 0.090583585
0.044523124 0.06046174 0.10436139 0.15326652 0.09410486 0.1393472 0.22922345 0.09623644
0.091400295 0.09062182 0.028719973 -0.03496827 0.014082226 0.02333025 0.04118111 0.18137057
0.123186484 0.13185088 0.15578692 0.017925773 -0.010664289 0.09541938 0.05281998 0.18391646
0.16416977 -0.013933704 0.15721317 0.15004097 0.13921738 -0.015458607 0.11093194 0.09186628
0.04610031 0.082502715 0.019512521 0.064003415 0.09383711 0.1517638 0.07231082 0.11282641
0.1407068 0.031840093 0.12275645 -0.021038506 0.0852804 -0.11357532 0.07952699 0.13938935
0.12163151 0.047871336 0.114015 0.11576933 0.11647356 0.15554659 0.1912 0.056739822

model.lstm1.weight_hh_l0 f4 [416, 104]
00000000: ea7e 143d 1301 82bd 0c98 f23c b9a9 19bd
00000010: 5bf5 26bd a891 a2bd 304d 353c e801 a63c
00000020: b086 4abc c872 a4bc 2f8b 30bd dc01 953c
00000030: 68b7 a5bc 6833 0cbc 38e2 eabc 45f7 b13d
00000040: df47 66bd c07c 4ebb 7764 68bd 910e 7bbd
00000050: b80b 243c a03f 44bc b079 b13c 9123 44bd
00000060: 36f7 443d 0080 d938 8d8e 8b3d 0aab 92bd
00000070: 4a3c 033d 0006 813c 5204 183d 109f a73c
00000080: 200a bdbb 2aa2 09bd 58c5 8b3c 19eb 24bd
00000090: d5b6 903d ed5b 8b3d 10a1 48bd 80d7 933c
000000a0: c2fb 063d 45b4 873d 40e6 683c 6023 43bd
000000b0: 6b66 933d 0982 9f3d b009 a43c 246a ff3c
000000c0: 1891 8f3c caa5 043d 1694 7f3d 4af7 0c3d
000000d0: 3aef 023d 54c1 89bd 1c57 b43c ccd4 ccbc
000000e0: dc07 85bd 38dd 09bc 27a2 aa3d b93e c13d
000000f0: 647c f23c 67b9 bb3d 22ec 043d c1c6 35bd
00000100: 5888 fabc 5553 b6bd 10c2 91bb 392f a5bd
00000110: 2cfe 03bd 43d6 27bd 7266 5c3d 2866 e3bc
00000120: 41f3 66bd 2035 04bd 7078 afbd 7f34 c1bd
00000130: 6022 0b3c 87d5 ad3d 11a4 993d 2830 74bc
00000140: bd71 b83d 2807 85bd e595 b53d 0e88 1abd
00000150: 5a74 393d f91c c73d 6df4 903d 8e2d 143d
00000160: a4d9 b3bc 5fd4 9fbd 7a33 733d 3e06 423d
00000170: 34e4 58bd f05f bdbd ba62 55bd 977a 893d
00000180: f858 83bc 5d76 813d 9439 e83c a68b 26bd
00000190: 19d1 37bd e0f7 0ebc 9044 933b eb49 b73d
000001a0: 8c52 ab3c e0a6 9e3b f684 563d faea 403d
000001b0: de97 8fbd ac28 ac3c 5ddd 97bd 8165 98bd
000001c0: f406 d7bc 6e6f 3ebd 9cff b6bc 8000 42bb
000001d0: de84 3d3d 99f3 b7bd 12c1 0d3d aab0 653d
000001e0: 00f6 f5bb 40e8 36bb ff17 c03d 148b eebc
000001f0: 20a1 bb3c 0876 95bc 90fb 3b3c c1a4 ab3d
00000200: c13c 833d c28b 0c3d e00f be3c 5c9a bf3c
00000210: 42e5 c2bd 5613 043d 5352 41bd 14f6 0cbd
00000220: 2db6 b33d a9eb ae3d 4533 9dbd 0c60 0ebd
00000230: 00d7 a539 9207 a3bd 9bdd ae3d 380c 9dbd
00000240: bc1b ec3c 343b bb3c 0286 203d 2008 673b
00000250: ac63 e43c 3e1b 7a3d d6e8 7a3d e090 fa3b
00000260: 3e04 99bd c44f f33c ed37 2fbd 10d5 cf3b
00000270: 6bdb 853d f94a 57bd 0435 a7bc 718d a53d
00000280: e2ee 88bd b6af 81bd 9dee 71bd 0942 a73d
00000290: eafd 94bd db12 823d c5e1 b93d 1b6e b13d
000002a0: d0a5 453c 3e25 333d c5ca c2bd 03c7 b23d
000002b0: 646f 8dbd bc52 bbbc 6a0f 7d3d 7555 73bd
000002c0: 6343 c63d 7643 2b3d 54e6 e83c cf08 bb3d
000002d0: fc3d f63c 6fe2 1dbd 78ac 573c 1d6a 4fbd
000002e0: e0fa 1b3c 76d7 87bd 04e9 d13c cbf7 9e3d
000002f0: 00a6 7139 009d 0e3a 989c 473c d965 48bd
00000300: e816 45bc 3992 6dbd e419 9c3c 05c4 99bd
00000310: 2505 c43d aaed 453d 02c2 113d 067c 3b3d
00000320: 095a 6fbd 1a93 613d 39a1 b03d 8a1a 743d
00000330: 8dc2 11bd 56cd 683d 7dbf 943d 15d7 aabd
00000340: e7e9 8b3d a442 973c 1bf4 953d 5895 2e3c
00000350: 2033 96bd f0b2 a9bb f888 27bc 61ec be3d
00000360: 8511 b13d 9367 21bd 80d7 18ba d0cf 82bb
00000370: d752 96bd 94ff 9ebc 5723 8f3d 607f ce3b
00000380: 1ab3 b4bd d44e a7bc 3f07 4abd 24b8 bf3c
00000390: 2ca1 f23c 42ee 273d 94fd ba3c 8847 debc
000003a0: e032 1bbc 7e8c 1f3d 32fd 733d 0372 b43d
000003b0: 4289 4a3d c36a 48bd c5d3 c4bd 700d 68bc
000003c0: a8e7 113c 45ba 8f3d 586f 33bc ae44 5c3d
000003d0: 96bc 31bd 8f8f c2bd 0050 773a fee2 4d3d
000003e0: a848 42bc 312f 82bd 5990 82bd a100 903d
000003f0: b2b2 6a3d dfc5 ae3d 0075 de39 b67f a8bd
0.036253847 -0.06347861 0.029613517 -0.037515376 -0.040761333 -0.07937938 0.011065766 0.02026458
-0.012361214 -0.020074263 -0.043101486 0.018189363 -0.020229056 -0.008557178 -0.028672323 0.08689741
-0.056220885 -0.0031507462 -0.056736436 -0.06129319 0.01001256 -0.01197806 0.02166447 -0.04788548
0.04808732 0.00010371208 0.06814299 -0.07161529 0.032039918 0.015749931 0.037113495 0.02046159
-0.0057690293 -0.033601917 0.017061874 -0.04026327 0.070661224 0.06804643 -0.048981726 0.018047094
0.03295494 0.066261806 0.014215052 -0.047641158 0.07197269 0.07788474 0.02002415 0.031178541
0.01752524 0.03238467 0.062397085 0.03441552 0.031966425 -0.067263275 0.022014193 -0.025003813
-0.0649564 -0.008414559 0.08331709 0.094357915 0.02960033 0.09166222 0.032451756 -0.044379
-0.030582592 -0.08902613 -0.004448183 -0.08065648 -0.03222482 -0.04097582 0.053808637 -0.027758673
-0.05638433 -0.032277226 -0.085678935 -0.09433841 0.008492082 0.08487993 0.07501996 -0.0149040595
0.09006069 -0.064955056 0.08866481 -0.037727408 0.045276977 0.09722323 0.070778705 0.036176257
-0.021954365 -0.078041784 0.059375264 0.047369234 -0.052952006 -0.09246814 -0.052096106 0.06712835
-0.016033635 0.06321404 0.028347768 -0.040660523 -0.044877145 -0.00872609 0.0044942573 0.089496456
0.020913385 0.0048416704 0.052372895 0.04709909 -0.07011388 0.021015488 -0.074152686 -0.07441235
-0.026248433 -0.046492986 -0.02233868 -0.0029602349 0.04626929 -0.089820094 0.034607954 0.056076683
-0.007506132 -0.0027909428 0.09379577 -0.029119052 0.022903979 -0.018244758 0.011473551 0.08381034
0.06408072 0.03431297 0.02320093 0.023389034 -0.09516384 0.032245003 -0.04719765 -0.034414366
0.08774982 0.08541042 -0.076757945 -0.034759566 0.0003163144 -0.07960428 0.08538362 -0.07668346
0.028821819 0.022855379 0.0391903 0.0035252646 0.027879559 0.061061136 0.061257206 0.007646665
-0.07471512 0.029701121 -0.042777944 0.0063425377 0.06535991 -0.052561734 -0.020411022 0.080836184
-0.06686188 -0.06332342 -0.05906545 0.08166892 -0.07274993 0.06351253 0.09076265 0.08663579
0.012063459 0.04373669 -0.095113315 0.08729365 -0.06906012 -0.0228666 0.061782278 -0.05940767
0.09680822 0.041812383 0.028430142 0.091325395 0.030058853 -0.038546022 0.013163678 -0.050638307
0.0095202625 -0.06632893 0.025623806 0.077621065 0.00023045391 0.0005440265 0.012183331 -0.048925254
-0.012029387 -0.058000777 0.019055314 -0.07508091 0.09571294 0.048322357 0.03558541 0.045772575
-0.058435474 0.055071928 0.08624501 0.059595622 -0.03558593 0.05683645 0.07263086 -0.08341805
0.06831723 0.018464394 0.0732195 0.0106557235 -0.0733397 -0.0051788017 -0.010225527 0.093224294
0.0864592 -0.039405417 -0.0005830452 -0.0039920583 -0.07340019 -0.019408979 0.069891624 0.0063018054
-0.088232234 -0.02042333 -0.049323317 0.023403235 0.029617868 0.040998705 0.022825994 -0.027133718
-0.009472579 0.038952343 0.059567638 0.088108085 0.049447306 -0.04892994 -0.09610704 -0.01416336
0.008905329 0.0701795 -0.010951839 0.053776436 -0.04339274 -0.09500038 0.0009434223 0.050265305
-0.011858143 -0.06356657 -0.063751884 0.0703137 0.057299323 0.08533835 0.0004243031 -0.08227484

model.lstm1.bias_ih_l0 f4 [416]
00000000: 00f7 833d d4ef 433d 4d8b 1abe 2025 333d
00000010: ece9 8e3d c865 72bd 9082 2abd 8c5b 2a3d
00000020: 1cd6 1bbb b49d d7bc 1b12 8dbd ab03 593d
00000030: bfa7 9c3d 364a e43d b115 d93b ea47 04be
00000040: 5f83 783d a1b6 da3d 44b9 083d 6299 c93d
00000050: 3b3a d4ba 0b14 c93d f925 183e 9ca6 a23c
00000060: 57c0 5a3d b835 84bc 8931 8b3d 26ea 86bd
00000070: bc96 b43b b6db d0bc 4a1d ac3c 66df f33b
00000080: 6089 133c 1356 df3d 5041 f03c 123a e3bc
00000090: 8462 423c 0758 9cbc 63d7 efbc ae1d ae3d
000000a0: 6b8f a0bd c6f9 62bd bcd5 973d 8329 dd3c
000000b0: 327d c83b 493e dd3c 9e98 aebc 2ebf 093d
000000c0: f828 a9bd 7da5 b63d 41d0 b03d 6618 ddbb
000000d0: c1a5 73bd 1042 913d e36e 91bd ea5f 903c
000000e0: fc00 643d 3af3 333c 9a4f cf3b 0cac a4bd
000000f0: 3c9b 9e3d a1a3 b13c 1e10 253d df76 ab3c
00000100: 55d7 6f3d d42d 8d3b 1bbb ca3c 0a7e c13d
00000110: 1c73 b63c 9582 2b3d e80b 8a3d 4687 063e
00000120: 761d b43a c3e9 f2bc 48a1 c03c d47c a9bb
00000130: 71ee 2f3d 1707 88bd 6bfe 173d fdb6 103d
00000140: ed08 fa3c 4b21 173e 06c1 013d 4679 7f3d
00000150: f1f3 853d 344e 593d 4dc0 e2bc 0996 873c
00000160: 8ffa eebc d818 e13d 9bac 93bd 68a4 403c
00000170: 2349 37bc cfb5 d03d b2d3 093e 74f3 8abc
00000180: 73f3 75bd 33ae 033e 45dc 10be f2d6 8dbd
00000190: a8d7 f0bc 1443 6d3e 0b8b b43c 92e2 d33d
000001a0: 00a6 e83a 20ad 413b b14f af3d 03bb 903d
000001b0: be3c 623d 3997 91bd e735 b43d 8361 983d
000001c0: 34fb ae3c 2254 9bbd 4585 9b3d cba0 8f3d
000001d0: 005b 5e3a 5248 7e3d f298 c5bd 522d 223d
000001e0: 2224 45bd f02d 78bc 801d d6bc a358 893d
000001f0: 8a46 9ebd bb5d afbd 8f59 7bbd 8049 b7bc
00000200: ee80 3a3d c056 4e3c 5ce5 0cbd 3386 b33d
00000210: 40d2 00bb 35db b0bd 8493 84bd 28e7 283c
00000220: a201 273d 1f9f b6bd 46f6 433d 10b8 12bd
00000230: d44e 97bc af54 90bd e1c7 873d 21ad 82bd
00000240: 1a33 0bbd 3b6a b83d 1fb2 b9bd 81e3 97bd
00000250: 2b66 9c3d a717 a93d 7644 6f3d d38d b03d
00000260: 40d2 4cbc 4bd1 adbd 046c aabd 80d9 6abb
00000270: 781d 63bc a88b 0ebd 83ab bf3d 1761 b53d
00000280: c6da 76bd 781d 0a3c c07f 253b 5724 70bd
00000290: 360a 2d3d ad58 9b3d 4581 9c3d 7a63 acbd
000002a0: 70fb 923b 02d5 b1bd e385 973d f208 163d
000002b0: 2316 923d 5425 35bd c907 32bd c220 3d3d
000002c0: 5034 abbb b796 51bd d00c c63b b96f bbbd
000002d0: 1ad9 10bd 7c68 8cbd 4735 19bd 71d1 963d
000002e0: f002 5e3c 1761 3ebd c2d1 6f3d ca83 133d
000002f0: e66c 353d 20a0 5cbc 3a9a 303d 8706 853d
00000300: 8ff3 36bd 6ae1 6cbd fe5e 233d b1eb 19bd
00000310: dd66 6cbd d7da a13d cc14 803c 128e bebd
00000320: 358b aa3d f459 c23c 6033 6b3b 1b6d b6bd
00000330: e317 a93d f09e a93b ecf1 6cbd 5dd4 c13d
00000340: dadb 26bd 3b9b 373d 0dfd e13b d3a6 75bc
00000350: 7595 af3c 0d57 383d b6de eeba d601 0d3d
00000360: e9ff c83c 52cd 4b3d 644a d6bc 7157 73bd
00000370: dbc1 4dbd 80b8 7d3d 2b9d a13d 6d5a b7bc
00000380: 85e5 c03d b18a 93bd f2ed efbc 3e37 8c3c
00000390: 6a71 4e3d f566 233d 9bfe 06bd e199 2b3d
000003a0: ef43 48bd 50af 2a3d 23b1 db3a 4145 72bd
000003b0: 01b9 b83c 1496 99bd b102 aa3c 0214 5fbd
000003c0: b58a 29bd 9214 fabd c534 3cbc 6bca 0f3c
000003d0: 231c d838 7763 9dbd c33c c4bd d953 adbd
000003e0: 4495 223d df65 943d c208 ca3b 2150 9ebd
000003f0: db22 90bc 51de 7ebd e0d0 84ba f4f7 56bd
0.06443596 0.04783614 -0.15092202 0.043736577 0.06978211 -0.059179097 -0.04162842 0.041591212
-0.0023778742 -0.026320316 -0.06888219 0.052982014 0.076491825 0.11146967 0.0066249003 -0.12918058
0.06067216 0.10679365 0.033379808 0.098437086 -0.001619167 0.09818276 0.14858235 0.019854836
0.053406086 -0.016138896 0.067965575 -0.06587629 0.005511133 -0.025495391 0.02101006 0.0074424027
0.009004921 0.10905089 0.029328018 -0.027737651 0.011864308 -0.019084943 -0.02927751 0.08501755
-0.07839855 -0.055413984 0.074138135 0.026997333 0.00611844 0.027007239 -0.021313008 0.03362959
-0.08259767 0.08918283 0.08633471 -0.0067472933 -0.059484247 0.070926785 -0.07101228 0.01762386
0.055665 0.010983283 0.006326628 -0.08040628 0.07744452 0.02168447 0.040298574 0.020930706
0.058554966 0.0043084417 0.024747422 0.09447868 0.022271685 0.04187258 0.06740552 0.1313754
0.001374169 -0.029652482 0.023514405 -0.0051723514 0.042952005 -0.06641977 0.037107866 0.03533076
0.030521834 0.14758794 0.031678222 0.062371515 0.06540669 0.053053096 -0.027679587 0.016551035
-0.02917221 0.10991067 -0.07210656 0.0117579475 -0.011186871 0.10190927 0.13459662 -0.01696179
-0.060046624 0.1285942 -0.14146526 -0.06925763 -0.029399708 0.2317012 0.022038957 0.10345949
0.0017749667 0.0029552653 0.08560122 0.0706692 0.05523371 -0.071089216 0.087993436 0.07440474
0.021360017 -0.075844064 0.075937785 0.07013091 0.0008482188 0.06208069 -0.09648313 0.039594002
-0.048130162 -0.015147671 -0.026137114 0.06706359 -0.07728298 -0.085627995 -0.061364707 -0.022373915
0.045533113 0.012593925 -0.03439842 0.08765831 -0.0019656569 -0.086355604 -0.06473449 0.010309018
0.04077304 -0.08917069 0.047842287 -0.035820067 -0.018470205 -0.07047402 0.06629921 -0.06380678
-0.03398428 0.09004637 -0.09067177 -0.0741644 0.076366745 0.082564645 0.0584149 0.08620801
-0.012501299 -0.08487185 -0.083213836 -0.0035835207 -0.013862006 -0.034801155 0.09358885 0.08856409
-0.060267232 0.008429877 0.0025253147 -0.058628406 0.042246066 0.07585273 0.07641844 -0.08417411
0.00448554 -0.08683206 0.07398584 0.036629625 0.071331285 -0.044225052 -0.043464456 0.04617382
-0.005224742 -0.051169124 0.006044008 -0.09152169 -0.035363294 -0.06855866 -0.037404325 0.073641665
0.013550505 -0.04647931 0.05854965 0.036014356 0.044293307 -0.013465911 0.043115832 0.064953856
-0.04466587 -0.05783216 0.039885513 -0.03757829 -0.057715286 0.079030685 0.015634917 -0.093044415
0.08327333 0.023724534 0.0035888776 -0.08907529 0.08256509 0.0051764175 -0.057847902 0.09464333
-0.04073701 0.044825774 0.006896621 -0.014993387 0.021433571 0.045004893 -0.0018224332 0.03442558
0.02453609 0.049756356 -0.02615852 -0.059409562 -0.050233703 0.06194353 0.078913055 -0.022381986
0.094187774 -0.07204188 -0.029288266 0.017116185 0.05040113 0.03989311 -0.032957654 0.041894797
-0.04889291 0.041671097 0.0016761165 -0.059148077 0.022549154 -0.07499328 0.020753236 -0.05446244
-0.041392047 -0.12210955 -0.011487191 0.008776288 0.000103049235 -0.07684987 -0.09581902 -0.08463258
0.039693132 0.07245993 0.006165595 -0.07730127 -0.017594745 -0.062223736 -0.001013305 -0.05248256

model.lstm1.bias_hh_l0 f4 [416]
00000000: 5b70 443d e037 40bd 20dd 17be ee22 053d
00000010: cd7a 9c3a df82 21bb c7a2 ce3d 62fb 86bc
00000020: d53f 45bd fa99 b83d a156 12bb 30cc 04bb
00000030: 22ac e23b 6ab5 b43d 5129 4c3c a62e babd
00000040: ebaf 233d dbd0 6ebc 149b 003e de00 8e3d
00000050: a4fb 24bd fcbd dfbc 60aa 0b3e e815 b63c
00000060: ebb0 f4bc d617 d8bd 000f ad3c 0eab dd3d
00000070: fc1b a33c 37ee 6abd 79d4 313c 8a76 9bbd
00000080: 85be 613d f277 1e3e 0823 ddbb b995 46bc
00000090: 6a98 de3b af8e 76bd 9b66 f1bc 952f a03a
000000a0: 9141 4c3d 6328 b23d 946c b73d ab2d 14bd
000000b0: e9c3 193d 6969 923c 4c99 6fbd 7092 8d3d
000000c0: ad45 b9bc f1d8 2cbc d767 1d3e 012e 433d
000000d0: 360e eebc 4746 98bc 414a 43bd 8658 663d
000000e0: 68d5 053d 6fc2 0dbb 51f6 ff3d 3c8f e43c
000000f0: 0b57 53bd f246 3bbd 67ad de3d 23b7 9abc
00000100: e9dd 773e 9007 18bc 11cb 413d 06a2 eabb
00000110: d967 423e 7cc6 92bd 098f 51bd 2be3 0c3e
00000120: c436 113e 0c65 103c 1c71 1e3e 72dd f3bc
00000130: 4285 8b3d d394 023e e5e3 e13c bb54 4dbc
00000140: fcdd cd3d b3fa 453e bf8e 713d 84b5 5b3c
00000150: 1567 333e e0fc a03d a6f9 c13d 8025 8dbd
00000160: 4757 51bd 5ac7 e33d 88ec 5a3d 932b de3c
00000170: 789c 883d b51a 013e 644a db3d 378b 28bc
00000180: 64ba 5bbb 67b7 e23d 2552 e83b 38e7 2dbd
00000190: 6193 97bd a450 853e 43fa 023e 1142 a73c
000001a0: 352b 833d 8cd3 c73c 2fd3 993d 110c 35bd
000001b0: 7832 f9bc 23d8 ab3d c05d 913a e26a 00bd
000001c0: b256 563d 72b0 413d 14cf f5bc 10f4 913b
000001d0: e881 a8bc 25ad bb3d d0a4 793c b6c6 bebd
000001e0: a2fe 6d3d ee2b 3a3d ab89 b83d 8b2f a13d
000001f0: bc7d 8f3c 2029 163c fb32 9e3d 01bd b5bd
00000200: f3d2 bf3d 009c c538 560b 4a3d 60fb 52bd
00000210: 5a69 a0bd fe4a 04bd 11f3 3abd 0017 8039
00000220: 5064 95bd d027 d1bb b040 53bc 6a59 28bd
00000230: e064 eabb 3245 babd 21d6 94bd 6cfe fe3c
00000240: e251 513d d962 35bd 4029 c3bb 8852 59bd
00000250: 9626 2a3d d65b 0dbd 7853 60bc d95d 6abd
00000260: 602b 073b 783e b3bc 7529 9b3d 7696 4d3d
00000270: c4ef 26bd bc40 48bd befb 233d 2076 533c
00000280: 9443 febc 5740 81bd 36c6 07bd 0adb 653d
00000290: a00d 3ebc 5a66 1c3d 5bbb 18bd 5088 a13c
000002a0: 7ddb 51bd 4472 863c 0584 92bd 1b0c ba3d
000002b0: 94e1 a83c 8260 733d 2b23 32bd 5035 babc
000002c0: d58d b33d 173b 8f3d 74c2 89bd f46b febc
000002d0: d19b 863d e67c 083d cdf8 8a3d 2255 583d
000002e0: 660e 613d 8b90 83bd db8d 9e3d 8aac 2c3d
000002f0: 9e49 1c3d b762 3dbd 4007 b1bd bb58 833d
00000300: dd0f b0bd d0c4 e5bb 3d7f 5cbd 3103 c03d
00000310: b6c7 5f3d 009d 583c 419e 32bd 3cc3 f33c
00000320: 698a 21bd 3c95 e93c c005 c53b 3edc 99bd
00000330: 9208 243d 4d61 9e3d 6225 253d acf0 c83c
00000340: 56ad 0c3d a06c 02bd 99a4 833c 2c4d 2d3d
00000350: 3225 46bd 5deb 23bd ede3 5a3d 8efa ccbb
00000360: 3692 8abd b937 1d3c f8e7 6d3c 6292 57bc
00000370: 3455 6ebc d026 2abd 2aed 593d 6295 a7bc
00000380: 939d 97bd cfd5 c63d ae0e 7ebd 6c56 e53c
00000390: 7a03 f0bc ed1a 8fbd 219c 233d 9091 9bbd
000003a0: f929 3e3d 90d7 203d a3c7 d0bc 6085 9a3c
000003b0: 7f1c b83c 7471 a03c 2c67 70bd 2a46 72bd
000003c0: 5a2d 6f3d 639f aa3c b07c c73d 0df3 2fbd
000003d0: e25c 983c a17a c3bb 1bc4 603d 75d4 8c3d
000003e0: facb 663c b63b 22bd 9899 82bd fbbb 553c
000003f0: b759 ae3d e26c 0339 9b87 1ebd f169 8c3d
0.047958713 -0.046928287 -0.14830446 0.032504015 0.0011938453 -0.0024644656 0.10089641 -0.01647729
-0.048156578 0.09013744 -0.0022329467 -0.0020263307 0.0069174925 0.088236645 0.0124610225 -0.09090929
0.03996269 -0.014576162 0.12559158 0.06933759 -0.040279046 -0.027312271 0.13639212 0.022227243
-0.029869517 -0.10551421 0.021125317 0.10823642 0.019910805 -0.057356086 0.01085388 -0.07590969
0.055113334 0.15475443 -0.006748561 -0.012120658 0.0067930715 -0.060194667 -0.029467871 0.0012221212
0.049867216 0.086991094 0.089562565 -0.036176365 0.03754035 0.01787253 -0.058495805 0.06912696
-0.022616232 -0.01054977 0.15371643 0.047651295 -0.02905951 -0.018588198 -0.047678236 0.056236766
0.032674223 -0.0021630784 0.12498153 0.02790033 -0.051596683 -0.045721956 0.108729176 -0.018886155
0.24205746 -0.009279147 0.0473128 -0.007160428 0.18984927 -0.07166764 -0.0511618 0.13758533
0.14181048 0.008813154 0.15472835 -0.02976868 0.06812526 0.12752084 0.027574489 -0.012532408
0.10052106 0.19333915 0.058974024 0.013409976 0.17519791 0.07860732 0.09471445 -0.06891918
-0.051108625 0.11122008 0.05344823 0.027120387 0.06670469 0.12607844 0.10707548 -0.010287098
-0.0033527846 0.110701375 0.0070898705 -0.042456836 -0.07401157 0.26038086 0.1279078 0.020417245
0.064047255 0.024392866 0.07510983 -0.04420096 -0.030419573 0.08390834 0.0011090562 -0.03135193
0.052328773 0.047287412 -0.03000597 0.0044541433 -0.020569757 0.09163884 0.015237048 -0.09315245
0.058104165 0.04545205 0.09010633 0.07870396 0.01751601 0.009165078 0.077245675 -0.0887394
0.09366407 9.422749e-05 0.049327217 -0.05150926 -0.07832594 -0.03229808 -0.045641962 0.000244312
-0.07294524 -0.00638292 -0.012893841 -0.041100897 -0.0071531385 -0.09095229 -0.07267404 0.031127177
0.05110348 -0.04428372 -0.005955845 -0.053057224 0.041540705 -0.03451141 -0.0136917755 -0.057218406
0.0020625219 -0.021880373 0.07576267 0.05019232 -0.040756002 -0.04888986 0.040035002 0.012906581
-0.031038083 -0.063111 -0.033148013 0.056117095 -0.011599928 0.038183548 -0.03728805 0.01971832
-0.05123471 0.016411908 -0.07154087 0.0908434 0.020615377 0.05941821 -0.04349057 -0.0227305
0.08767287 0.06993692 -0.06726542 -0.031057335 0.06572688 0.033322237 0.06785736 0.052815564
0.054945372 -0.06424054 0.077419005 0.042156734 0.038156144 -0.04623672 -0.08643961 0.06413408
-0.08596776 -0.0070119873 -0.05383228 0.09375609 0.05463382 0.0132210255 -0.043607954 0.029756181
-0.03943864 0.028513543 0.0060126483 -0.07512711 0.040047236 0.077334024 0.040318854 0.024528824
0.034344994 -0.031841874 0.016069697 0.042309925 -0.048375316 -0.04001938 0.053440023 -0.0062554544
-0.06766169 0.009595805 0.014520638 -0.013157459 -0.014546681 -0.04154092 0.053204693 -0.020456973
-0.07403102 0.097087495 -0.06202572 0.02799531 -0.029298533 -0.069875576 0.039943818 -0.07596123
0.046426747 0.039268076 -0.02548582 0.018862426 0.022474525 0.019585349 -0.058692142 -0.059148945
0.05839286 0.020827955 0.09740579 -0.0429564 0.018598977 -0.0059655462 0.05487452 0.068764605
0.014086718 -0.039607726 -0.06376952 0.013045306 0.085132055 0.00012533696 -0.038703542 0.06856144

model.lstm2.weight_ih_l0 f4 [208, 104]
00000000: 4eb8 adbd d8c5 393d 7224 0abb 11ce a7bd
00000010: 6984 643d 1e16 b3bd 9d07 353e b90d 963d
00000020: 57fc ac3a 169c cebd 2f41 eb3c a755 b33d
00000030: 3dcf 1fbc 0aac 423d dd3d 4fbd a270 debb
00000040: b392 30bd 7eea 3fbe fc87 6e3d 4343 703d
00000050: 0990 9fbd 9e58 72bd de90 e3bd b119 7abd
00000060: 79a9 033e 66b7 0b3e cf24 943d f6df 443d
00000070: b78e b93d 011f 3f3c 1722 543e 5584 9d3c
00000080: cf99 2e3e c81f 1a3e 8e8f 993d 8f9b e4bc
00000090: 1219 1d3e bac8 79bb 97df 61bd d510 303e
000000a0: c9c4 d43d 7571 483d 5c7c e03d 1f50 49bd
000000b0: 0f37 81bd f47f 97bd 2033 313e 248b 3bbc
000000c0: 5f9d 783d c64f 95bc 8404 0dbd bc95 8abd
000000d0: 2b7a c2bd 81d1 3abe 50dc c53c 9ee3 883d
000000e0: 19ba 973d 3b20 19be 50bb d6bd 1443 29be
000000f0: b3c2 1cbb fa45 343d 5287 50bd 18e1 d33c
00000100: 3867 d6bc dd2f 22bd 548f 943c c025 16be
00000110: 6f6e 2b3e f506 a43b 725d 0a3c c195 32be
00000120: e84b f53c 0c3e e4bd 8c66 07be cf3f b53d
00000130: 911b 2cbd dc46 2a3e ddc2 a2bd d343 10bd
00000140: 7a38 353e 6c89 b3bc 1f24 b4bd 928b f0bb
00000150: 83fc e1bd 948b d9bd 3db0 4bbd cf94 af3c
00000160: 35f5 a3bd 9feb bfbd 3a1a 993d bc91 ccbc
00000170: c2c0 273e d8c8 753d d8c1 6dbd d283 c7bc
00000180: df1d b0bd fca1 7ebd 6848 683d 40da 28bb
00000190: 4003 023e 6e1e 483e 66f1 073d 0dd0 783d
000001a0: 0909 e33c 788f 013e e0ee 9abb fe59 b83d
000001b0: f9fe 2dbe a4c7 b9bd 4412 7bbd 38e7 2e3e
000001c0: 99c9 87bd f209 043e 56f2 1fbe 02a0 be3d
000001d0: 9087 84bd 96dd 89bb bff0 423e b041 7c3c
000001e0: ca3b b73d 73e5 54be cc3e 0f3d 457e 44bc
000001f0: 5673 14bd 89b1 193d 3a87 28be a178 aabd
00000200: de2c 30bd 979c 893d 4988 623e 8cdd 583d
00000210: c07d 273d ec27 0fbe 5fb9 653e 342d d93d
00000220: 200f 4a3e 613c 223e 25de d7bd 5289 09be
00000230: b567 85bc 6a16 b0bd 2be9 32be 46bd 8fbc
00000240: ca2c 70bd dd92 0abe b9ca d6bc 4313 b9bd
00000250: dc2a 8bbd 9407 ec3b 0c7b 323e f969 28be
00000260: 0ed6 663d f06a 9d3d 0205 a23d e8ca 683d
00000270: 4ca9 853d 2c54 adbd ea0e c7bc a401 43be
00000280: 9e07 febc d935 1abe 9121 32be b1a2 d3bb
00000290: 4ac9 313e a738 b4bd 47b2 29bd d574 27bd
000002a0: c36d 72be c54f 5bbd 7ba0 3d3d a0b8 46be
000002b0: 78c2 b73d ddf8 03be 6195 6f3d 9ec9 02be
000002c0: 0082 0fbe 0d6f 07be c402 2abe 483f c0bc
000002d0: 3f8d 0b3d de3c 423e 01ed 22be 28b8 313e
000002e0: eadd 393e 9764 023e d844 46bd 2fc8 3c3e
000002f0: 9329 50be 2431 07be 6c95 1ebe 3633 c5bc
00000300: d01d d53d 7510 febd 3f3f 2c3d 2204 4d3d
00000310: 0139 4c3e f721 523e 792f bd3c 25c0 523c
00000320: f3ab fcbd af4b 1fbe 0bcd eb3d 916b 243e
00000330: e354 abbc fe41 4e3e aaac 60bd 6774 16be
00000340: 9e9b 8ebe 39d8 dabd 2fac 063e 4c76 b4bd
00000350: 912a 87bc 6f65 6e3e 7c4d 75be 73ef a8bd
00000360: 525a 113e 9300 953b 47b8 653e 8a57 52be
00000370: d74a db3d a5b4 1fbe 47c1 0f3d 351d 0f3e
00000380: b8f2 fa3d 69de 023d fb61 913d c068 12be
00000390: 3c96 273e f42f c03d 3399 803e 6de2 493e
000003a0: 78c1 5dbd 6d17 eb3c a3b6 05be c9b5 5ebe
000003b0: 19aa 2cbe 351f c83c 5d35 55be 3874 fabd
000003c0: 992f ddbd afa7 5bbe 6084 ad3e 4d27 b2ba
000003d0: 5e67 4bbe 1eb7 443e 3870 233e fc5b 93be
000003e0: f9f8 5e3d 7171 153e b0d8 94be f20f 163e
000003f0: 4612 dc3d c4ae 503d cc7a 14be be15 7c3e
-0.08482419 0.045354694 -0.0021078852 -0.08193601 0.05579034 -0.08744453 0.17678685 0.07326836
0.0013197762 -0.10088365 0.028717605 0.08756571 -0.009753999 0.04752735 -0.050596107 -0.006788329
-0.043108653 -0.18741795 0.058235154 0.058657896 -0.077911444 -0.059166543 -0.111116156 -0.061059657
0.12857617 0.1364418 0.07233583 0.04806515 0.09060424 0.011665107 0.20716129 0.01922814
0.17050861 0.15051186 0.07498084 -0.027906207 0.15341595 -0.0038114027 -0.055144873 0.17193921
0.10389096 0.048936326 0.1096122 -0.049148675 -0.0630933 -0.07397452 0.17304659 -0.011446748
0.060696956 -0.018226516 -0.034428135 -0.06766841 -0.09495958 -0.18243982 0.024152905 0.066840395
0.07408542 -0.14953701 -0.10484946 -0.16529495 -0.002391976 0.044012047 -0.0509103 0.025864169
-0.026172265 -0.039596427 0.01813475 -0.14662838 0.16741346 0.005005712 0.008445131 -0.17439939
0.029943421 -0.11144647 -0.13222712 0.08850061 -0.042018477 0.16628593 -0.079473235 -0.035220932
0.17697325 -0.021916114 -0.08795952 -0.007340857 -0.11034491 -0.106223255 -0.04972862 0.021433262
-0.08005754 -0.09371113 0.074757054 -0.024971835 0.16382125 0.060005993 -0.058046192 -0.024354849
-0.085994475 -0.0621662 0.056709677 -0.0025764853 0.12696552 0.19542858 0.0331892 0.060745288
0.02771427 0.12652385 -0.004728183 0.0900154 -0.16991796 -0.090712816 -0.061296716 0.1708039
-0.066302486 0.12894419 -0.15619788 0.09307863 -0.06471169 -0.0042073233 0.1903715 0.0153965205
0.08946951 -0.20790653 0.034971997 -0.011992996 -0.036242805 0.037522826 -0.16457835 -0.083237894
-0.04301154 0.0671932 0.22122301 0.05294566 0.04089141 -0.13980073 0.22433995 0.10604325
0.19732332 0.15843345 -0.105404176 -0.1343129 -0.016284803 -0.08598025 -0.17471759 -0.017546307
-0.058636464 -0.13532586 -0.026219713 -0.09036877 -0.06795284 0.007203052 0.17429751 -0.16446675
0.056356482 0.07686412 0.079111114 0.05683413 0.065264314 -0.0846332 -0.024299104 -0.19043595
-0.031009492 -0.15059604 -0.17395617 -0.0064586033 0.17361942 -0.08799868 -0.041429784 -0.040882904
-0.23674683 -0.05354287 0.046295624 -0.19406366 0.08972639 -0.12887903 0.05849207 -0.12772223
-0.14014435 -0.13225956 -0.16602618 -0.023467675 0.03407025 0.18968531 -0.15910722 0.17355406
0.1815106 0.12733684 -0.0484055 0.18435739 -0.2032836 -0.1320234 -0.15486687 -0.02407227
0.10406077 -0.12405483 0.042052504 0.05005277 0.1994362 0.20520769 0.023093926 0.012863194
-0.12337484 -0.15556215 0.11513718 0.16056658 -0.0209145 0.20142362 -0.054852165 -0.14692841
-0.27853101 -0.106857724 0.1315162 -0.08811626 -0.01649979 0.23280881 -0.23955339 -0.08248796
0.1419461 0.0045471876 0.22433577 -0.20541206 0.10707634 -0.15596254 0.035096433 0.13975985
0.12253326 0.031950388 0.070987664 -0.14297771 0.16365904 0.09384146 0.25116882 0.19715281
-0.054139584 0.028697694 -0.13057952 -0.21749033 -0.16861762 0.024428943 -0.20821138 -0.12229198
-0.10800094 -0.21450685 0.33890057 -0.0013592035 -0.1986365 0.19210479 0.15960777 -0.28781116
0.054436658 0.14594056 -0.2907157 0.1465452 0.10745673 0.05094792 -0.14499968 0.24617669

model.lstm2.weight_hh_l0 f4 [208, 52]
00000000: 4cc5 09bd 0045 c73a c4c5 dabd 3883 84bd
00000010: ed62 b9bd 5cad 4a3d 4abc 8f3d f402 e33d
00000020: 9865 3bbd 7057 b83d 0434 ddbd d51e 01be
00000030: 9095 533d a08c d4bd e0a5 903d 18e6 b53d
00000040: 29bc 9fbd b28d 46bd 6839 63bc 68b3 dbbc
00000050: 40b7 1b3d 74de c1bc a458 e5bd 7488 41bd
00000060: ca73 bbbd 191d e2bd 35c7 b6bd dedc e13d
00000070: 04a0 b93d aa48 c03d f02d 0abc 000b 54bc
00000080: 2ea7 db3d 7454 6cbd a43b 703d e868 38bd
00000090: 0cbb 093d ebb6 b2bd be5b 3cbd b880 f83c
000000a0: 49c0 cabd 4463 00bd 8800 833d 6bf2 073e
000000b0: 2e53 813d e4f7 0dbe 80e4 6c3b 08a4 e33c
000000c0: 11c7 cbbd a823 3a3d e94a 00be 564d bbbd
000000d0: cae5 03be ee7f f83d d82c c83d c49f a2bd
000000e0: 26f5 66bd d0d9 9c3d 806d 13bc 704f 4abd
000000f0: 391b 04be fe97 cdbd 1855 81bd e052 c33b
00000100: 7d4b e0bd 1cc5 d3bd e24e f63d d8f3 4f3d
00000110: 6fc6 bfbd 14c6 543d d49d e5bc 2ab9 e63d
00000120: 6600 d8bd 00c0 51bb 3b76 033e 703c 333d
00000130: 763d ea3d e0d9 773d f610 ccbd 9657 06bd
00000140: 3ec8 f5bd 61c3 babd a6aa a93d b801 eebd
00000150: 0050 6e3c d83f a2bc 3410 893d 64a1 d83d
00000160: a4ff 98bd 0bdb 08be 602e ab3d 5822 cbbd
00000170: a02e be3c 7836 d5bc d295 2fbd a622 efbd
00000180: 00b6 cd3b ce20 afbd a0b9 b7bd c03c cb3d
00000190: b52a 0d3e 82e2 d8bd 02ac a03d a0d1 b6bb
000001a0: 80b0 d23d 202d 493d d278 fdbd feb3 e4bd
000001b0: 32e7 c5bd 5827 a93c 3885 13bd e0bc 5f3d
000001c0: 426e 1bbd 9cd5 863d 0a53 5cbd 0088 5abb
000001d0: f044 763c 9f9f f9bd f81a be3d c219 e73d
000001e0: 88ee 903c e16e 8bbd a82c d03d 7ccb d4bd
000001f0: c61b 9cbd e2a6 cabd 0064 6bb9 6a14 e3bd
00000200: e287 fd3d 3c6f d9bc e61b da3d 7463 d4bd
00000210: 9fc6 05be 78ca acbc 106e 55bc e0f3 70bd
00000220: 009c 92bb aaee 72bd ce63 8c3d d0c0 033d
00000230: 4b01 95bd e029 16bc 4008 133c b0e2 acbd
00000240: 3c98 c83d c0ac bf3c 2a66 62bd 0b6c 063e
00000250: 9036 5b3c 0056 7bbd 366f 9b3d 88cc 9e3d
00000260: 605c fe3b c21b 8f3d e63c 07bd 600a 723c
00000270: 4662 f6bd 8ddf e1bd e354 023e 6688 fb3d
00000280: a233 05be 4317 09be fa1e e93d e045 2ebd
00000290: 84e3 11bd b524 c0bd bca8 c43d 7a4a b13d
000002a0: c025 b83c b410 4f3d 8453 463d faf4 a7bd
000002b0: 00e9 fa3b 2a10 33bd c25a b13d e8e4 cd3d
000002c0: 4455 2c3d 8d9a d7bd 3086 0bbc 9c04 d5bd
000002d0: f353 063e c479 753d d64f f2bd 10fd f43c
000002e0: 6007 4a3d 5c5a 183d e0f6 423c 6457 a1bc
000002f0: 10fa 1fbc 484b f53c 6000 a1bd ccbe b4bc
00000300: b231 d4bd 1022 243c 0809 9f3c 9e81 c43d
00000310: 1acb 92bd ba2b 8bbd 84a5 5abd 170b f9bd
00000320: a64d 56bd 345a 583d aec7 f43d 2416 e3bd
00000330: d56e 033e e81d cc3c 5c07 a43d dad9 06bd
00000340: 3891 ccbd a73e 0c3e b08d 0dbc a448 b5bc
00000350: 3009 2b3d 80a6 1b3b d07c 533c c0de 8b3d
00000360: 3f9d 043e 42ae 9b3d f635 b8bd 9bbd 073e
00000370: 84db 7fbd b0bf 22bd 06e7 fc3d f0d7 323c
00000380: 6c0d 2f3d 5b06 d0bd f468 d8bc ba8a 37bd
00000390: 9491 fbbd 0829 dcbd f47d 82bc f06a d2bd
000003a0: d097 88bc 1099 54bc f0f9 2b3d b084 bdbd
000003b0: 40fb 45bd e828 6a3d c9b8 97bd ac1e 863d
000003c0: 00f8 9438 3856 cabd 7273 0ebd a85e cebc
000003d0: 4586 033e 48cb 313d f44a d4bd 4976 093e
000003e0: c489 253d 28c2 f1bc 6e14 f13d dea6 cfbd
000003f0: 78ed d13d 04fc 4a3d 7e0e 8a3d 0a54 803d
-0.033635423 0.0015203059 -0.10682252 -0.064703405 -0.09052072 0.049481735 0.07018335 0.11084548
-0.045751184 0.090010524 -0.10800937 -0.12609418 0.051656306 -0.103783846 0.07062888 0.088817775
-0.077995606 -0.048474975 -0.013868667 -0.026818946 0.038016558 -0.023665644 -0.111985475 -0.047249272
-0.091529444 -0.11040706 -0.089247145 0.11028455 0.09063724 0.093888596 -0.008433804 -0.012942076
0.10725246 -0.05769773 0.058650628 -0.04502192 0.033625647 -0.08726295 -0.04598593 0.030334815
-0.09899957 -0.031344667 0.06396586 0.13276069 0.063146934 -0.13864094 0.0036146939 0.027788177
-0.09950078 0.04544416 -0.12528576 -0.0914561 -0.12880626 0.12133776 0.09774178 -0.07940629
-0.056386136 0.07658732 -0.008998275 -0.049392164 -0.1290101 -0.10038756 -0.063150585 0.005960807
-0.10951898 -0.1034033 0.120267645 0.050769657 -0.0936402 0.051946715 -0.02802936 0.11265786
-0.10546951 -0.003200531 0.1283807 0.04375881 0.11437504 0.060510516 -0.099641725 -0.032798372
-0.12001084 -0.09119297 0.08284502 -0.116214216 0.014545441 -0.019805834 0.066925436 0.10577658
-0.074706346 -0.13364808 0.08358455 -0.0991866 0.023215592 -0.02602695 -0.04286749 -0.116765305
0.0062777996 -0.08551179 -0.08970952 0.099236965 0.13785823 -0.10590078 0.07845308 -0.0055791885
0.10287571 0.0491153 -0.1237656 -0.11167143 -0.09663238 0.020648643 -0.03601572 0.054623485
-0.037946947 0.065837115 -0.05379013 -0.0033345222 0.015031084 -0.121886484 0.09282488 0.1128421
0.017691866 -0.06808258 0.101647675 -0.10390374 -0.07622485 -0.098951116 -0.000224486 -0.11087878
0.12379433 -0.026542298 0.106498525 -0.10370532 -0.13064049 -0.021092638 -0.013026729 -0.058826327
-0.004474163 -0.05930964 0.06854974 0.032166302 -0.07275637 -0.009165257 0.008974135 -0.08441675
0.097946614 0.023397803 -0.055273212 0.13127153 0.013379708 -0.061361313 0.07589571 0.07753855
0.007762477 0.06987716 -0.03301706 0.014772981 -0.12030463 -0.11028967 0.12727694 0.12281875
-0.13007978 -0.1338778 0.113828614 -0.042547107 -0.035617366 -0.09382001 0.09602496 0.086567834
0.022478938 0.05055304 0.04841949 -0.082010224 0.0076571703 -0.043716587 0.08659889 0.10053426
0.042073503 -0.10527525 -0.0085158795 -0.1040127 0.13117962 0.059930578 -0.11831634 0.029905826
0.04932344 0.03719555 0.01189968 -0.019694991 -0.009764209 0.029943123 -0.078614 -0.022063635
-0.10361041 0.010017887 0.019413486 0.09595035 -0.07167645 -0.067954496 -0.053380504 -0.12160318
-0.052320145 0.0528204 0.119521484 -0.11088207 0.12835248 0.024916604 0.08009216 -0.032922603
-0.09988636 0.13695775 -0.008639738 -0.022129364 0.04175681 0.0023750365 0.012908176 0.068295956
0.1295061 0.076015964 -0.08994667 0.13255922 -0.062465206 -0.03973359 0.12348752 0.010915741
0.04273741 -0.10157462 -0.026417233 -0.044810034 -0.12283626 -0.107500136 -0.0159292 -0.10274303
-0.016673952 -0.012975946 0.041986406 -0.09253824 -0.048335314 0.057167917 -0.07408292 0.06548819
7.1033835e-05 -0.09879726 -0.034778066 -0.02519162 0.12844189 0.043406755 -0.10365859 0.13424028
0.040414587 -0.029511526 0.11771475 -0.10139249 0.10250372 0.049556747 0.067410454 0.06266029

model.lstm2.bias_ih_l0 f4 [208]
00000000: f9b9 cdbd 7a1f 223e 4392 883c 1c4b 86bd
00000010: 96cb 34bc 2881 8bbc 328e cdbd 0907 883d
00000020: 5a6b 1bbe c2d7 f6bc c4ce 1cbd 2482 9d3d
00000030: 220c 51bc 5752 a7bd d9d3 bd3d 2b44 efbb
00000040: e435 15bc ab6d 6a3d 96c3 213e d390 c0bd
00000050: 08a5 5ebc 0aa7 d8bd e080 f9bc 0896 b8bc
00000060: eb65 bf3d df55 5d3d 3b3b da3d 12c7 b1bd
00000070: 0cce c7bb f4f7 973c 1e9a 5f3d 7724 ad3d
00000080: e606 c0bd 19a1 b7bd def5 94bd d13f 34bd
00000090: 8f36 b73d d13d 073e a9ca 873c d70a a2bd
000000a0: 5ae1 093c 804d cebd 5124 853d 919c 5aba
000000b0: da1a 133d f964 273e 3141 babc 10af 04be
000000c0: 7134 e13d 84be e8bd b33a 09be 2010 8f3d
000000d0: 1272 f8bd 52ca 33bd dbe9 97bd 00ba 833a
000000e0: 5fba 05be 0792 083e 96de 77bd 6094 fc3b
000000f0: a077 613c 7036 773d d651 f83d 0577 043e
00000100: 365a ecbd 14fd 833d 4c97 febc 45f4 c0bd
00000110: 9613 ee3d 5147 89bd 4a28 60bd f859 133d
00000120: cab7 b73d 8efd 78bd bafb 9e3d e067 6a3c
00000130: d015 173c 9077 60bd 7eb5 f93d 09bf 86bd
00000140: f016 1cbc 74d1 1fbd 2e9f f13d c03b 1c3c
00000150: e098 60bd daf2 8a3d c5e4 0a3e c433 16bd
00000160: 480d c8bc bee1 a83d 52a7 883d b484 e33d
00000170: 7018 9e3d 308e 333c d073 a8bd 104b 193d
00000180: 008e 6abb 6009 d0bd 86e4 a8bd e0b9 bc3d
00000190: 88d8 b63d 1a05 993d a007 853d ef2b 013e
000001a0: 5311 963c acb4 e9bd d444 4dbd 6d61 91bc
000001b0: 3c2d d43d f4c3 e2bd 9c6a cfbb adc0 a6bd
000001c0: 3005 fb3d 8589 e7bc d268 ec3d 4136 b63d
000001d0: da61 1c3d 3aef 13bc 2ed2 043e ad08 003e
000001e0: 091b acbb 96a5 1dbe f7e1 b83d bb1e 08be
000001f0: ab13 fb3d be7c fbbc 95da e0bd 1b7e 063e
00000200: 0bdf e53d 5d23 b83d 7b09 d1bd 9c22 c1bd
00000210: f272 ca3c 5a09 b1bc ee06 c3bd 6ef0 e1bd
00000220: 6c85 33bd 28aa 92bd 67d9 33bd 051c aebd
00000230: 63ad 28bd b118 f4bd a44d c8ba d832 f33d
00000240: 6012 5fbd 986c 1cbd a273 c4bd d876 cabd
00000250: 90ff edbb fcf6 ebbd 272a 013e 2d2b 86bd
00000260: 0b58 04be 9820 cbbd 38fe 74bd 401c 273c
00000270: 70c5 5bbc afcc 2b3e 7aad 563a 953c d9bc
00000280: 8918 ef3d d9f4 1bbd 7425 a5bd 0396 b3bd
00000290: 5f10 cebc 2b07 ebbd 4cfa 9e3b 4bb9 b2bb
000002a0: 6af6 ea3d 1e70 503d 510e c13d f151 9cbd
000002b0: 2695 ebbc 9f8b 573d 8ac2 ccbd 32da f73d
000002c0: 40a5 24bc 208d 2b3d 9fd8 933d 0a1d 833d
000002d0: ce2d 113e b7fb d13d b0eb e6bd dfdc aa3d
000002e0: ce5e 63bd 498b cd3d 1524 0d3e fda2 f63d
000002f0: 85d6 01ba d03b cabd 2f88 8bbd ce5a f63b
00000300: 23b0 0abd 001c 583d 7817 863a d017 d2bc
00000310: d4e7 123e 9e6b f33d 7018 d9bc e443 b73c
00000320: 23e5 efbd 3d00 51bd b4bb 85bd d557 92bd
00000330: e05b c23d d708 d53d e9eb e0bd b79d dfbd
-0.10045237 0.1583232 0.016671306 -0.06557295 -0.011034867 -0.01702936 -0.10036887 0.06641967
-0.1517767 -0.030132178 -0.038283125 0.07690838 -0.01275924 -0.08170002 0.09268922 -0.0073018274
-0.009107087 0.057233494 0.15797266 -0.09402623 -0.013589151 -0.10578735 -0.03045696 -0.022532478
0.09345611 0.05403697 0.106558286 -0.08680548 -0.0060975607 0.01855085 0.054590337 0.08454221
-0.09376316 -0.08966274 -0.07273458 -0.044006173 0.08945953 0.13207175 0.016576128 -0.07912224
0.008415544 -0.10073376 0.065010674 -0.000833937 0.03591428 0.16347112 -0.022736164 -0.12957406
0.109963305 -0.11364463 -0.13401298 0.069854975 -0.12131132 -0.04389412 -0.07417651 0.0010049939
-0.13059376 0.13336955 -0.06051501 0.0077081174 0.013761431 0.06035465 0.12124984 0.12936027
-0.11540644 0.06444755 -0.031078003 -0.09421591 0.116248295 -0.06703056 -0.054725923 0.035974473
0.08970602 -0.060788684 0.07762857 0.014306992 0.009221509 -0.054801524 0.1219282 -0.06579406
-0.009526953 -0.03901811 0.11797939 0.00953573 -0.054833293 0.067846015 0.13563831 -0.03667046
-0.024420395 0.08246182 0.06672539 0.111092955 0.07719505 0.010959193 -0.082252145 0.0374251
-0.0035790205 -0.10158038 -0.082467124 0.0921514 0.08928019 0.07471676 0.06495595 0.12614416
0.018318808 -0.114114136 -0.050114468 -0.017746652 0.1036019 -0.11072531 -0.0063298475 -0.08142219
0.12256849 -0.028263817 0.115434304 0.08897067 0.038179256 -0.009029204 0.12970802 0.1250331
-0.0052522463 -0.15395197 0.090274744 -0.13292973 0.12259611 -0.03069913 -0.10979191 0.13134043
0.11224183 0.0899112 -0.102068864 -0.09430429 0.024713013 -0.021610904 -0.09522806 -0.110321864
-0.043828413 -0.07161361 -0.043908503 -0.08501438 -0.04118098 -0.11918772 -0.0015281928 0.11874932
-0.054460883 -0.0381895 -0.09592368 -0.09885949 -0.0072631314 -0.11521718 0.12613736 -0.06551204
-0.1292421 -0.09918326 -0.059812754 0.010199606 -0.013413772 0.167773 0.0008189302 -0.026518146
0.116746016 -0.0380753 -0.08063784 -0.08768847 -0.02515429 -0.114759766 0.004851615 -0.0054542175
0.11472781 0.050888173 0.09426559 -0.076328166 -0.028757643 0.052623387 -0.09998043 0.12102164
-0.010049164 0.041882634 0.072190516 0.06402023 0.1417763 0.10253089 -0.112754226 0.08342909
-0.055510335 0.10036332 0.13783295 0.12042806 -0.00049529254 -0.098746896 -0.06813084 0.007518149
-0.033859383 0.052761078 0.0010230383 -0.02564612 0.14346248 0.11885761 -0.02650091 0.02237124
-0.11713626 -0.051025618 -0.06529942 -0.07145659 0.0949018 0.10402077 -0.10982496 -0.109187536

model.lstm2.bias_hh_l0 f4 [208]
00000000: 1bbe 773d f3b3 35bd 4b81 1fbe 96f2 bfbd
00000010: bc4c 943d edf7 913d a158 62bc e99d 99bd
00000020: 35cd 57bd e20e c7bd 5485 053e 0af1 ccbd
00000030: b917 123e f494 7fbb fb7d f03d fea8 1b3d
00000040: 36fd a2bd 581f 10be 2bc3 9b3d e9fc b9bd
00000050: e2df 1a3e 5c67 bfbd 354d 753d ad10 d6bb
00000060: 117f 9dbd 9d30 06bd c9ad 76bd b408 cb3d
00000070: b032 07be 3e50 f23d 4843 543d eabb 2d3e
00000080: 139f fe3c af6e 34bd 726d 203e ad5e ac3d
00000090: d5a2 8d3d b254 9fbd 66ea 75bd 6e97 a73c
000000a0: ac56 4d3d 3044 b03d 7e61 9c3d de2d ddbc
000000b0: c6a0 c8bd 9e13 55bd 893a 293e 1802 0abe
000000c0: f109 b3bd a406 9c3d 89db d43d 56c9 ba3d
000000d0: 0037 e4bd 527b 9c3d bfa0 023e b254 9ebd
000000e0: 64c9 97bd 2e43 47bd a60d 75bd 482a 853c
000000f0: b189 053e 572e dabd 82e3 d93d ec46 01bd
00000100: 4cc1 efbc 4c8d cd3d 807e ba3c 743f 6bbd
00000110: 3a2d 43bd 802e 6b3d 3621 d03d 488e fb3c
00000120: 209b f33b 0c48 973d 79ab 083e efba aabd
00000130: 4c49 febc 3ce9 a83d 4033 683b c6eb debd
00000140: c02f 6f3c 0073 b03b 1cc1 10bd 74c5 ebbc
00000150: 1673 ddbd 445f 53bd 9831 7f3d c870 ab3d
00000160: 7cce 303d 80e4 c5bd d0c1 ab3d 60cb 11bc
00000170: 1c15 2cbd 5820 ac3d f005 ac3d 16f6 72bd
00000180: 06d4 fd3d a43e 153d f2cb b3bd 07e4 dcbd
00000190: 8c8e b2bd 5461 b4bc a0f0 a73b 8280 9c3d
000001a0: ff0a 063e bc8a b2bd 7121 00be dbc9 aebd
000001b0: 7e9c e6bd 36ea a7bd b709 973d d779 cd3d
000001c0: 80e3 61bd 9f33 9fbd 4978 41bd 35fe ec3d
000001d0: 7e43 993c 404f a43d 165a 143d adf7 c9ba
000001e0: 1c81 f33c 71ae 053d abb8 b5bd f4cb da3d
000001f0: 424e a0bd 93c5 5d3d dca1 8a3c 47e3 8a3d
00000200: f26a cbbc 61be e2bb e516 df3d 44ee a8bd
00000210: 1a84 8cbd 0c9a a8bd 5b11 7e3d 86cd 023e
00000220: ce9c 0dbe 14a7 aebc 9631 9abd 4b1e 80bc
00000230: 636d 803d 7ee9 cfbd abfd 2e3d 31d1 c23b
00000240: e6c7 48bd 53da c43d 2463 a7bd 4197 113e
00000250: bad1 f03d 39ed 0c3e 0135 8e3b d440 b4bc
00000260: adfc 3c3d a949 083e 764e f63c b167 09be
00000270: 1a29 6ebc 597c 5cbc 6475 eabc 145e 2f3c
00000280: 8c97 323d da51 163d 582e 20bc 7026 e4bc
00000290: 21cb 86bd f15e 71bd 066e 07bd 4028 73ba
000002a0: 83e4 f83d 2bbd db3d d10f d1bd 36b1 4cbc
000002b0: 4ef2 f6bd c2f0 c03d 8eb0 9bbd 0466 5dbc
000002c0: 399d 483d 3367 86bd 05cc d3ba 84d0 043e
000002d0: 7c98 243e 3611 0d3e 643e d9bd f68d 7d3d
000002e0: c716 f4bc e769 93bd d53c 16bd 7ce0 243e
000002f0: 395d a53c 42e1 b63d 8a89 8abd 600f 8e3d
00000300: 09a3 383e 4042 243e a2bc e73d 098a adbd
00000310: 8446 b53d ed1f 26bd dc85 af3d 6fe4 05bd
00000320: 2747 623c 5299 bbbd 8a78 bebd 9424 f73c
00000330: 517d d1bb a66f debb 05da 83bd b884 18be
0.060484033 -0.044361066 -0.15576665 -0.093724415 0.072411984 0.07127366 -0.013815076 -0.07500822
-0.052685935 -0.097196355 0.13039142 -0.10006912 0.14266862 -0.0038998695 0.11742779 0.03800296
-0.079584524 -0.14074457 0.07605585 -0.09081442 0.15124467 -0.09345886 0.059888083 -0.0065327496
-0.076902516 -0.032761205 -0.06022433 0.09913769 -0.1320293 0.11831711 0.051821977 0.16966215
0.031081712 -0.04405087 0.1566675 0.084164955 0.06915823 -0.07779826 -0.060037993 0.02045795
0.050131485 0.08606756 0.07635783 -0.02699941 -0.0979629 -0.05202066 0.16526236 -0.13477361
-0.087421305 0.07618454 0.103934355 0.09120433 -0.11143303 0.07640709 0.12756632 -0.07730998
-0.07411459 -0.048648052 -0.05982747 0.016255513 0.13040806 -0.1065337 0.10639097 -0.031561777
-0.029266976 0.10036716 0.022765398 -0.05743356 -0.047650553 0.057417393 0.101625845 0.030707493
0.007434264 0.07386789 0.13346662 -0.08336436 -0.03104081 0.08247611 0.0035430938 -0.10884814
0.014598787 0.005384803 -0.035340413 -0.028780676 -0.108129665 -0.051604524 0.062303156 0.08371121
0.04316567 -0.096627235 0.08386576 -0.008898586 -0.04201232 0.084046066 0.0839957 -0.059316717
0.12393956 0.036436692 -0.08779134 -0.1078568 -0.08718595 -0.022019066 0.0051251203 0.076416984
0.13090132 -0.08717868 -0.12512757 -0.085345946 -0.11260317 -0.08198969 0.073749 0.10033005
-0.0551486 -0.07773518 -0.047233853 0.11571924 0.01870894 0.08022928 0.036218725 -0.0015408896
0.02972465 0.032637063 -0.08873113 0.10683432 -0.078274265 0.0541435 0.016922884 0.06781631
-0.024831269 -0.0069196676 0.10893039 -0.082485706 -0.06861134 -0.08232507 0.06202827 0.12773713
-0.13829347 -0.021319903 -0.07528989 -0.015639445 0.06270864 -0.10151957 0.042722385 0.0059453477
-0.049018763 0.096119545 -0.081732064 0.14217855 0.11758752 0.13762368 0.0043398147 -0.022003569
0.046139408 0.13309349 0.03006671 -0.13418461 -0.014536167 -0.013457381 -0.02862043 0.010703582
0.043601558 0.036699153 -0.009776674 -0.02785036 -0.065817125 -0.058928434 -0.03306391 -0.0009275712
0.1215296 0.1072944 -0.10208095 -0.012493422 -0.12057935 0.09420921 -0.076020345 -0.013513092
0.048978064 -0.065626524 -0.0016158825 0.12970167 0.16073793 0.13776097 -0.10607603 0.061902963
-0.029796017 -0.07197934 -0.036679108 0.16101259 0.020186054 0.08929683 -0.06764515 0.06936526
0.18030943 0.16040897 0.11315276 -0.08473594 0.088513404 -0.04055779 0.085704535 -0.032688554
0.013810909 -0.09160103 -0.09300335 0.030168809 -0.0063931127 -0.006788212 -0.06438068 -0.14894378

model.fc_layers.weight f4 [1, 52]
00000000: 0404 953d 9306 2ebe 1645 503d 3364 1fbe
00000010: c2a5 113e 5d4a 7d3d b800 8b3d 7894 3a3d
00000020: a1ab dcbc c4d6 ca3d 3f41 ef3d 2888 2fbd
00000030: 9f7b 933d e4f0 c43d 2aa0 603d fc25 61bd
00000040: e320 75bd 4f58 323d d386 523d d66e 413d
00000050: 3c48 9c3d 3588 d5bd dc04 22be 29dd a6bd
00000060: 0161 d63d 1dbd 15be c219 1e3e cedc 483d
00000070: 5863 093d ecaf b73d a90d d43d 2d3b d53d
00000080: ad44 08be 7eb1 a23c 2216 07be 806b c7bd
00000090: 5f5e 0a3e 4d9f 28be e7e4 7c3d bdf7 88bd
000000a0: 10b1 c33d f052 c33d 3cc0 d33d d168 e53d
000000b0: b53b a3bc 48a8 9f3d 4f44 e83d 163c 063e
000000c0: dae3 2dbe 3908 943d e57b b33d 0728 d13d
0.072761565 -0.16994695 0.050847135 -0.15565567 0.14223388 0.061838496 0.067872465 0.045551747
-0.026937308 0.099042445 0.116823666 -0.042854458 0.07201313 0.09616259 0.054840244 -0.054967865
-0.059845816 0.04354125 0.05139811 0.047224842 0.07630965 -0.1042637 -0.15822166 -0.08147652
0.10467721 -0.14622922 0.15439513 0.0490387 0.033542007 0.08969101 0.10354168 0.104116775
-0.13307448 0.019860025 -0.13192037 -0.09737301 0.13512562 -0.16467018 0.061741736 -0.06687877
0.09555256 0.095373034 0.103394 0.11201633 -0.019925931 0.07795769 0.11341154 0.13108858
-0.1698145 0.07228131 0.087638654 0.10212713
