LSTM_TimeSeries/lightning_logs/version_45/checkpoints/epoch=0-step=130.ckpt (torch, 670619 bytes, 30 tensors)

model.lstm.weight_ih_l0 f4 [416, 9]
0	0x3d1b6f24	0.03794779
1	0x3ce7fde7	0.028319312
2	0xbd81c3df	-0.063361876
3	0xbc73a478	-0.014870755
4	0xbd2409ab	-0.040048283
5	0x3d483822	0.048881657
6	0x3d531a79	0.05153892
7	0xbd3c72f2	-0.046008058
8	0x3d8b6618	0.06806582
9	0xbc89dd49	-0.01682915
10	0x3c486a22	0.012232335
11	0x3dd7f90a	0.10545547
12	0xbd52b523	-0.051442277
13	0x3da86d61	0.08223987
14	0xbd8d3859	-0.06895513
15	0xbbbcaad8	-0.005757671
16	0xbc5c4697	-0.013444564
17	0x3dc4ab96	0.0960304
18	0x3d2f3a05	0.04277994
19	0xbc917944	-0.01775802
20	0xbd8f4fcf	-0.06997644
21	0x3d952524	0.07282475
22	0x3d9973d5	0.07492796
23	0x3c9e19e8	0.019299462
24	0x3c52cbf7	0.012866012
25	0x3d79e32f	0.061007675
26	0x3de17db6	0.110103056
27	0x3cb9dce0	0.02268833
28	0x3dec155b	0.11527511
29	0x3dd89398	0.10575026
30	0x3da290c8	0.07937771
31	0x3dd59f0d	0.10430727
32	0x3c797516	0.015225669
33	0xbcd98328	-0.026551798
34	0x3d3121b8	0.043245047
35	0x3ce81651	0.028330954
36	0x3d7296ff	0.059226032
37	0xbd54ba21	-0.05193532
38	0x3cc99fdb	0.024612358
39	0x3d9771b8	0.07394737
40	0x3d360653	0.044439625
41	0xbd409e13	-0.04702575
42	0x3ceca994	0.028889455
43	0xbcf4267b	-0.029803505
44	0x3c3f9e1c	0.011695411
45	0x3ccb29cc	0.024800204
46	0x3d043a9d	0.03228246
47	0x3dea44c5	0.11438898
48	0x3d2ace6f	0.041700777
49	0x3d68b34c	0.056811616
50	0x3da77fae	0.0817865
51	0x3db19128	0.086702645
52	0xbd08d29b	-0.033403974
53	0x3daa87bf	0.08326673
54	0xbc2eb791	-0.010663883
55	0x3e08852d	0.13332053
56	0x3c9cc59a	0.019137193
57	0x3d73ee23	0.059553277
58	0xbd2ae151	-0.041718785
59	0x3c7d9ed5	0.015479763
60	0x3ccabb21	0.024747433
61	0x3d53fb68	0.05175343
62	0xbbaf31f6	-0.005346532
63	0x3dcaf6c7	0.0991035
64	0xbd4a6d8f	-0.04942089
65	0x3deea0d4	0.11651769
66	0x3de49e24	0.111629754
67	0xbc98a616	-0.018633883
68	0x3d4264f0	0.047459543
69	0x3d079072	0.03309674
70	0xbbc52b7e	-0.0060171476
71	0x3a70f0f4	0.0009191178
72	0xbb68642f	-0.0035460105
73	0x3cae6f43	0.021293288
74	0x3c2fe537	0.010735801
75	0x3db50265	0.08838347
76	0x3d595d40	0.053067446
77	0x3dd3a5de	0.10334371
78	0xbc80e558	-0.01573436
79	0x3e0b96a3	0.13631682
80	0x3db53a4d	0.088490106
81	0x3d77af39	0.06046984
82	0xbc36bc92	-0.011153357
83	0x3db24995	0.08705441
84	0x3de6941a	0.11258717
85	0x3cf74045	0.030182013
86	0xbd4658fa	-0.0484247
87	0x3dcc1851	0.099655755
88	0x3e06f808	0.13180554
89	0x3cddf0f3	0.027092433
90	0xbc872e53	-0.016501581
91	0x3dd0d382	0.10196592
92	0x3dcbb7f8	0.09947199
93	0x3d96324f	0.07333814
94	0x3da6d9dc	0.08147022
95	0x3d1f9caa	0.038967766
96	0x3c87ad5d	0.016562158
97	0x3dc41e10	0.095760465
98	0x3de56c29	0.112022705
99	0x3d9873dc	0.074439734
100	0x3d1e9e46	0.03872516
101	0xbc910866	-0.0177042
102	0x3d80abe8	0.062827885
103	0xbd62c13d	-0.055360068
104	0x3ba4f9cf	0.0050346623
105	0x3c852601	0.016253473
106	0xbd3f0527	-0.046635773
107	0x3dec5a9a	0.115407184
108	0xbc9fa357	-0.019487066
109	0x3d17f3fd	0.03709792
110	0xbc6a00da	-0.01428243
111	0x3df346ac	0.11878714
112	0x3d8f77af	0.0700525
113	0x3dad8bc8	0.08473927
114	0xbc8eaba2	-0.017415825
115	0x3d3d1657	0.046163883
116	0x3d07de5e	0.03317105
117	0x3d89d82f	0.06730687
118	0x3d653091	0.05595452
119	0xbd2f4e05	-0.042799015
120	0x3c4f3a9b	0.01264825
121	0xbd773949	-0.060357366
122	0x3d11e725	0.035620827
123	0x3c3ff042	0.011714997
124	0xbd9bcc8a	-0.07607372
125	0x3da17769	0.07884104
126	0x3d303a07	0.04302409
127	0xbd15f9d6	-0.036615215
128	0xbb96e655	-0.0046050944
129	0x3cf22f69	0.029563623
130	0x3ddad35b	0.10684844
131	0x3c5b94e9	0.013402202
132	0x3d8d981d	0.06913779
133	0x3df4ce14	0.11953369
134	0xbc958d74	-0.018255927
135	0x3da79b8e	0.081839666
136	0xbd5c1e59	-0.05373988
137	0xbd2593a2	-0.040423997
138	0xbbc1e362	-0.0059169987
139	0x3d36421a	0.044496633
140	0x3d677f79	0.05651805
141	0x3d9ca3bb	0.076484166
142	0x3c7fba15	0.01560833
143	0x3db2ff20	0.087400675
144	0x3d62d202	0.05537606
145	0xbd58137a	-0.05275295
146	0x3d67f6ea	0.05663196
147	0x3d901a09	0.07036216
148	0x3da1dcf6	0.07903473
149	0x3b6c10f5	0.003602085
150	0x3d4665e0	0.048437
151	0x3de88b4a	0.11354692
152	0x3bc579b1	0.0060264696
153	0x3b515cc9	0.0031946173
154	0xbce83b37	-0.028348548
155	0x3db8cb18	0.09023112
156	0xbc265689	-0.0101524675
157	0xbd52c1fa	-0.05145452
158	0x3d46d6c8	0.048544675
159	0x3e07b8be	0.13254067
160	0x3cf71774	0.03016255
161	0x3d910977	0.070818834
162	0x3c2e2543	0.010629001
163	0x3c62959f	0.013829618
164	0x3d8cebb6	0.06880896
165	0xbdb3ccb3	-0.08779278
166	0x3dc572e7	0.096410565
167	0x3d717ca6	0.058956765
168	0x39d172dc	0.00039949163
169	0x3d6207c1	0.055183176
170	0xbd5b6d08	-0.053570777
171	0xbd26c014	-0.040710524
172	0x3d95bc65	0.07311324
173	0x3ddea4ac	0.108712524
174	0x3bd87de1	0.006606803
175	0x3d08b97d	0.03338002
176	0x3d68a4aa	0.05679766
177	0x3d4924f8	0.04910752
178	0x3d2d0f0c	0.042250678
179	0x3dcaddd7	0.09905594
180	0xbd855857	-0.0651099
181	0x3b6d1a49	0.0036178997
182	0x3d7d7c4d	0.06188612
183	0x3bb3a52f	0.005482338
184	0x3bc1e075	0.00591665
185	0xbd5a6f76	-0.053328954
186	0x3e02ebde	0.12785289
187	0x3d9240e6	0.07141285
188	0xbd177d13	-0.036984514
189	0x3d531c85	0.05154087
190	0x3d83644d	0.06415615
191	0x3d67ffcf	0.056640442
192	0x3d595e80	0.053068638
193	0x3d5e62c3	0.054293405
194	0xbd365ef0	-0.044524133
195	0x3d8ebb06	0.06969266
196	0x3cd07995	0.0254486
197	0x3dad98bc	0.084763974
198	0x3d2ecc9d	0.042675603
199	0x3d9a7983	0.07542708
200	0xbbe45b55	-0.0069688954
201	0xbc89d774	-0.016826369
202	0x3c2ae318	0.01043012
203	0x37e25adc	2.698361e-05
204	0x3bb5509e	0.005533292
205	0x3d2f75f8	0.042837113
206	0x3d8d355e	0.068949446
207	0x3dd3da8f	0.10344421
208	0x3db721ca	0.089419916
209	0xbc2f58fe	-0.01070237
210	0x3db82a2e	0.0899242
211	0x3cbe1ce2	0.023207132
212	0x3cd71aef	0.02625796
213	0xbc81071e	-0.015750464
214	0xbc976766	-0.018481921
215	0x3d3467fa	0.044044472
216	0x3d6b7080	0.057480335
217	0x3d97cf17	0.07412546
218	0x3bcbe4f2	0.006222361
219	0x3d4fa5dc	0.050695285
220	0xbc875ac6	-0.016522776
221	0x3c93587e	0.017986532
222	0xbc78524f	-0.015156343
223	0x3ddf2129	0.10894997
224	0x3ad390b8	0.0016141152
225	0xbd75cd53	-0.060010266
226	0x3dfae996	0.12251584
227	0x3c81679b	0.015796473
228	0x3df1d7d0	0.11808741
229	0xbce10622	-0.027468745
230	0x3c2cff49	0.010558912
231	0x3d938dc6	0.072047755
232	0x3cf2d89b	0.029644301
233	0xbd15998a	-0.03652338
234	0xbd1d4071	-0.038391534
235	0x3b94b348	0.0045379736
236	0xbcc2fdf2	-0.023802731
237	0x3d8f505e	0.06997751
238	0xbbe3e7e7	-0.006955135
239	0xbd428d01	-0.047497753
240	0x3d9af92f	0.07567059
241	0xbd0a3e13	-0.033750605
242	0xbcc6cc13	-0.024267232
243	0x3d579693	0.052633833
244	0x3d4470de	0.0479592
245	0xbd987145	-0.074434794
246	0x3d7f268a	0.062292613
247	0x3e07b7c7	0.13253699
248	0x3c8ba591	0.017046722
249	0x3ca54ea8	0.020179108
250	0x3dc90808	0.09815985
251	0xbb6a630e	-0.0035764608
252	0x3ce34882	0.027744535
253	0x3d6af0d5	0.05735858
254	0x3bfab6c3	0.0076511814
255	0xbbb1378d	-0.0054082335

model.lstm.weight_hh_l0 f4 [416, 104]
0	0x3d908ad1	0.07057727
1	0x3c9d1e78	0.019179568
2	0xbd8909e9	-0.06691343
3	0x3db9a145	0.09063963
4	0xbd92639b	-0.071479045
5	0xbda3145a	-0.07962866
6	0x3da6b825	0.081405915
7	0x3cdddcdc	0.027082853
8	0xbb82d740	-0.003992945
9	0xbd6d0475	-0.05786558
10	0x3c11b5c8	0.008893438
11	0xbd8c9da0	-0.06866002
12	0xbd48d5f4	-0.049032167
13	0x3c903af4	0.017606236
14	0x3d0a17de	0.033714168
15	0x3cd51460	0.026010692
16	0x3daf5463	0.08561017
17	0x3d8ae173	0.06781282
18	0x3d56d746	0.052451394
19	0xbdb2585d	-0.0870826
20	0x3d0dd1e2	0.034623988
21	0x3d81c4f9	0.06336398
22	0x3cb36434	0.021898367
23	0x3d8b86eb	0.06812843
24	0xbcf975b8	-0.03045164
25	0x3d57ed42	0.0527165
26	0xbd2d895b	-0.04236732
27	0x3d7b43ee	0.06134408
28	0x3d76ef2e	0.060286693
29	0x3dba584b	0.09098872
30	0x3cebbadc	0.028775625
31	0x3d67455e	0.056462638
32	0xbd43a319	-0.047762964
33	0x3b301a40	0.0026871115
34	0xbd89fe37	-0.06737941
35	0xbda3cb8c	-0.07997808
36	0xbce31404	-0.027719505
37	0x3dae0315	0.084966816
38	0xbdc5e4f4	-0.0966281
39	0xbd6490ea	-0.055802263
40	0x3d5b0876	0.053474866
41	0x3dbecc2f	0.09316289
42	0x3c448b98	0.011996172
43	0x3dbf47d9	0.09339876
44	0xba9508c0	-0.0011370406
45	0xbd0f3fde	-0.034973018
46	0xbd339680	-0.0438447
47	0x3c8b7aa4	0.017026253
48	0x3dc11861	0.09428478
49	0x3ca62414	0.020280875
50	0x3daf1bb7	0.08550208
51	0x3d884f95	0.06655804
52	0x3d046402	0.032321937
53	0x3d8ac8b3	0.067765616
54	0xbd97a740	-0.07404947
55	0x3d165ace	0.03670769
56	0xbba5b590	-0.0050570443
57	0xbd5690e2	-0.052384265
58	0x3dc76983	0.09736922
59	0x3d8721ad	0.0659822
60	0xbcc5a388	-0.02412583
61	0xbd1c48e5	-0.038155455
62	0x3d205eca	0.039152898
63	0xba6ce480	-0.00090367347
64	0xbdc83e03	-0.09777453
65	0x3d7cb4ce	0.061695866
66	0xbab00200	-0.001342833
67	0xbcc4d8a0	-0.024029076
68	0xbd84aed6	-0.0647866
69	0xbd5ffd61	-0.054685
70	0xbbd7b820	-0.0065832287
71	0x3cc39e30	0.02387914
72	0x3d238a1e	0.03992664
73	0x3db33a79	0.08751387
74	0x3d8858d5	0.06657568
75	0x3ca4756c	0.020075522
76	0xbdb983c4	-0.090583354
77	0xbdaf7440	-0.08567095
78	0x3d8a5c63	0.067559026
79	0xbcd29c60	-0.025709331
80	0x3d86d6e5	0.06583957
81	0xbcad2924	-0.021137781
82	0x3d0b5d32	0.034024425
83	0x3cae24cc	0.02125778
84	0x3d96386f	0.073349826
85	0xbd9cb05e	-0.07650827
86	0x3d7695e6	0.060201548
87	0x3d40e73a	0.047095515
88	0x3c2e4218	0.010635875
89	0xbdaaeee2	-0.083463445
90	0xbd16a257	-0.036775913
91	0xbcc63d9c	-0.0241993
92	0x3b9e5f60	0.004833147
93	0x3d87b7ed	0.06626878
94	0x3d679416	0.05653771
95	0x3c996274	0.018723704
96	0x3d706fb6	0.058700286
97	0x3d271396	0.040790163
98	0xbd007a86	-0.031366847
99	0x3c630ed0	0.013858512
100	0x3d4b75f6	0.049673043
101	0xbda08052	-0.07836975
102	0x3c7ad720	0.015310079
103	0xbcdfee0c	-0.02733519
104	0x3db642a9	0.08899433
105	0xbdc765bf	-0.097362034
106	0x3d817915	0.06321923
107	0xbd588666	-0.052862547
108	0xbbf420a0	-0.0074501783
109	0x3d62c51a	0.055363752
110	0xbc3e5978	-0.011618011
111	0xbd9b6dfe	-0.07589339
112	0xbdba2dce	-0.09090768
113	0xbd2f39f9	-0.042779896
114	0x3d6d3f2a	0.057921566
115	0xbdc46096	-0.09588735
116	0x3db62647	0.088940196
117	0x3c60ade0	0.01371333
118	0x3db7a995	0.08967892
119	0x3cc9de9c	0.024642281
120	0xbcf23180	-0.029564619
121	0x3c558f80	0.013034701
122	0xbd20cb19	-0.03925619
123	0x3dbc5a73	0.09196939
124	0x3cfa776c	0.030574523
125	0xbd1481b0	-0.036256492
126	0xbd2a9e49	-0.04165486
127	0xbb9fac50	-0.004872836
128	0x3d8124ab	0.06305822
129	0x3dc800ad	0.09765754
130	0xbda3e0a3	-0.080018304
131	0xbad53bc0	-0.0016268417
132	0xbdbb96f8	-0.091596544
133	0xbcd72984	-0.026264913
134	0xbd62aa9f	-0.0553385
135	0xbd8e2950	-0.069414735
136	0xbd7e5685	-0.06209423
137	0x3d9cdd99	0.07659454
138	0xbdab10af	-0.083527915
139	0x3cf69cbc	0.030104034
140	0x3dc57691	0.09641755
141	0xbda15a08	-0.078785
142	0x3c86775c	0.016414337
143	0x3c746d68	0.014918663
144	0x3db5329b	0.08847543
145	0x3d0ae456	0.033909164
146	0xbd30ffd0	-0.04321271
147	0xbd4b8b88	-0.049693614
148	0x3d8c1f43	0.068419
149	0x3ce21454	0.027597584
150	0xbd40c041	-0.047058348
151	0xb930f800	-0.00016877055
152	0xbd18bd64	-0.037289992
153	0xbd814054	-0.06311098
154	0xbd68cffa	-0.056838967
155	0x3db37efb	0.08764454
156	0xbd89ec6b	-0.06734546
157	0xbda75612	-0.081707135
158	0xbd8443a6	-0.064582154
159	0xbd8caadb	-0.068685256
160	0x3d90a719	0.07063121
161	0xbc8a2d50	-0.01686731
162	0xbda39039	-0.07986493
163	0xbd20c132	-0.039246745
164	0x3d2810e2	0.041031726
165	0xbd3c3752	-0.045951195
166	0x3d4d322e	0.050096683
167	0x3d863b8d	0.06554327
168	0xbc5cb9c0	-0.013472021
169	0x3d75dfc6	0.06002786
170	0xbce95070	-0.028480738
171	0xbdc5f1c0	-0.09665251
172	0xb8ed0800	-0.00011302531
173	0x3b893210	0.004186876
174	0x3db7e309	0.089788504
175	0x3d3bbbce	0.0458334
176	0xbd7c67ea	-0.061622538
177	0xbd5b1fa9	-0.05349699
178	0xbd9fa0e1	-0.07794357
179	0x3d040192	0.03222806
180	0xbd9eb418	-0.07749194
181	0xbd72180f	-0.059104975
182	0xbd621819	-0.055198763
183	0xbdc76b7a	-0.097372964
184	0x3d8d2279	0.06891341
185	0xbda1e309	-0.07904632
186	0x3cbbdf3c	0.022933595
187	0xbd8ba706	-0.068189666
188	0xbdc5981b	-0.096481524
189	0xbd85c034	-0.065308005
190	0xbdb2f69c	-0.08738443
191	0xbc1f5278	-0.009724252
192	0x3d8a8ebf	0.06765508
193	0xbc425fe8	-0.011863686
194	0xbd859df5	-0.065242685
195	0xbd80c46a	-0.06287463
196	0xbd35e619	-0.04440889
197	0x3c8f085c	0.01746004
198	0x3b16c440	0.0023005158
199	0xbdb4cc2e	-0.08828007
200	0x3cb13720	0.021632731
201	0x3ce01ec4	0.02735842
202	0x3dbd8507	0.092538886
203	0xbd886714	-0.066602856
204	0xbd8245d8	-0.06360978
205	0x3d92b4db	0.07163402
206	0x3db93941	0.090441234
207	0xbb867000	-0.004102707
208	0xbd9f32f9	-0.07773394
209	0xbd1693a8	-0.03676191
210	0xbdac7bd6	-0.08422057
211	0x3be5ae30	0.00700929
212	0xbd6bb8a1	-0.057549123
213	0x3cdfb9e4	0.02731032
214	0x3d02b9ce	0.03191548
215	0x3d3db422	0.046314366
216	0x3cba3970	0.022732466
217	0xbc82f260	-0.015984714
218	0x3cccb014	0.024986304
219	0xbdbe6304	-0.092962295
220	0xbd794cf2	-0.060864396
221	0x3dc56227	0.09637862
222	0x3d583f76	0.052794896
223	0xbd27719e	-0.04087984
224	0xbd958730	-0.073011756
225	0xbdc1242b	-0.094307266
226	0xbc2c4fa8	-0.010517038
227	0xbcb6cf0c	-0.022315525
228	0x3dbc1495	0.09183613
229	0x3d2c1362	0.042010672
230	0x3c48b5f0	0.0122504085
231	0x3dba5481	0.09098149
232	0xbd4fbbaf	-0.0507161
233	0x3d80237f	0.0625677
234	0x3dc4e69f	0.096143
235	0xbdbb5d27	-0.09148627
236	0xbdaf2b51	-0.08553184
237	0xbc7321e8	-0.014839627
238	0x3cc7705c	0.02434557
239	0xbc9da304	-0.019242771
240	0x3c687990	0.014189139
241	0x3cbb4f28	0.022864893
242	0xbd0d7fde	-0.03454577
243	0xbd9ea403	-0.077461265
244	0xbc2825f0	-0.010262951
245	0x3d667636	0.05626508
246	0x3db5371d	0.08848403
247	0x3dc1f3bf	0.09470319
248	0xbcf8b344	-0.030358918
249	0xbd8aba3e	-0.06773804
250	0xbc5540c0	-0.013015926
251	0xbdadfd99	-0.084956355
252	0xbccdb738	-0.02511178
253	0xbc120558	-0.008912407
254	0x3da119a5	0.078662194
255	0xbd83f91c	-0.06443998

model.lstm.bias_ih_l0 f4 [416]
0	0x3d6f58b3	0.0584342
1	0x3db6b732	0.089216605
2	0x3d84b742	0.06480266
3	0xbcd6106a	-0.026130874
4	0xbd4fc3da	-0.050723888
5	0x3d464c53	0.048412632
6	0x3d582cda	0.05277715
7	0x3b39fa71	0.0028378034
8	0xbd3d8161	-0.046265963
9	0x3df1db3c	0.11809394
10	0xbca7ed2f	-0.02049884
11	0xbd541b98	-0.051784128
12	0x3d73e624	0.05954565
13	0x3d2f891b	0.042855363
14	0x3d50587b	0.05086563
15	0xbd892f3d	-0.06698463
16	0x3db01b0c	0.08598909
17	0x3dd58862	0.104264036
18	0x3d820fc4	0.06350663
19	0xbbed66d0	-0.007244922
20	0xbd12615a	-0.035737373
21	0x3c9d81d6	0.01922695
22	0x3d577a96	0.05260714
23	0x3d5cf76f	0.05394691
24	0xbd83df5e	-0.06439088
25	0xbcd8b3cf	-0.026452927
26	0xbdaf04a1	-0.08545805
27	0x3c9675ec	0.018366776
28	0x3d3353ec	0.043781206
29	0x3d18fa67	0.037348177
30	0x3d9b034f	0.075689904
31	0xbc4855e1	-0.012227506
32	0xbca03067	-0.01955433
33	0xbd17b5c6	-0.037038587
34	0x3de32862	0.11091687
35	0x3d82dd71	0.06389893
36	0x3d809130	0.06277692
37	0x3ccad01f	0.024757443
38	0x3d562411	0.05228049
39	0xbc9762f9	-0.018479811
40	0xbd1067a1	-0.03525508
41	0x3d88082b	0.06642183
42	0xbcf0bbd4	-0.029386438
43	0x3dbd2f13	0.09237494
44	0xbda70c05	-0.081565894
45	0xbdbd9d41	-0.092585094
46	0xbd066063	-0.032806765
47	0x3b88e8ae	0.004178128
48	0x3b3afe89	0.0028533062
49	0x3ddbee29	0.10738785
50	0xbd008665	-0.03137817
51	0xbda931d1	-0.08261455
52	0x3d5fd336	0.054644786
53	0x3dc5be76	0.09655468
54	0x3d13df17	0.036101427
55	0xbc863700	-0.016383648
56	0x3d4c0514	0.04980953
57	0x3ddf2e5a	0.10897513
58	0x3dc29cfc	0.09502599
59	0x3dce7dea	0.1008261
60	0x3d844973	0.06459322
61	0x3d3a287b	0.04544876
62	0x3c8c35dd	0.017115528
63	0xbb073a53	-0.002063413
64	0xbd2669ec	-0.04062836
65	0xbd94467d	-0.07240007
66	0x3d423f1e	0.047423474
67	0xbdaea4da	-0.08527537
68	0xbc916a79	-0.017750965
69	0x3d5bd769	0.053672228
70	0xbd56a4de	-0.052403323
71	0x3ce53774	0.027980544
72	0x3ddc2b99	0.10750503
73	0x3d340783	0.043952476
74	0xbd8c8234	-0.06860772
75	0xbdd27148	-0.10275513
76	0x3da92143	0.08258297
77	0xbd523d58	-0.051328033
78	0x3d87f00a	0.06637581
79	0x3daabe08	0.08337027
80	0x3d91e6b0	0.07124078
81	0xbdc3e0a0	-0.09564328
82	0x3d40b534	0.04704781
83	0x3d64b025	0.055832047
84	0x3d9be7d5	0.07612578
85	0x3d9e920e	0.077427015
86	0x3d52707a	0.051376797
87	0xbd902171	-0.070376284
88	0xbd9098ca	-0.07060392
89	0xbd428111	-0.04748637
90	0x3e00a24c	0.12561911
91	0x3d240fa3	0.040053975
92	0x3ddbdbce	0.10735284
93	0x3dbf5666	0.09342651
94	0xbbaadebf	-0.0052145417
95	0x3d9ad74e	0.07560597
96	0x3d85093b	0.06495901
97	0xbd1dd7df	-0.03853595
98	0x3d7a9e08	0.061185867
99	0xbcf71cb1	-0.030165048
100	0xbd65f622	-0.056142934
101	0x3dc463e5	0.09589366
102	0x3d38806a	0.04504434
103	0x3dbe7b66	0.0930088
104	0x3d66ab96	0.05631598
105	0x3da6f97d	0.08153055
106	0xbb9630c0	-0.004583448
107	0x3c7d5658	0.0154624805
108	0xbcde3728	-0.02712591
109	0xbd296903	-0.041359913
110	0x3d65ffde	0.056152217
111	0xbd8e57ee	-0.06950365
112	0x3c824a40	0.015904546
113	0xbd9a279c	-0.07527086
114	0x3d9575e9	0.0729788
115	0xbd2c9360	-0.042132735
116	0xbd82d70e	-0.06388675
117	0xbd864538	-0.06556171
118	0x3bbe5620	0.0058086067
119	0x3d09f022	0.033676274
120	0x3d58e0c2	0.05294872
121	0xbd4c0649	-0.04981068
122	0x3dc0e235	0.094181456
123	0xbd6e3542	-0.05815626
124	0xbc17d718	-0.009267591
125	0x3d39b89e	0.04534208
126	0x3d17bf4a	0.03704766
127	0xbdb38d21	-0.087671526
128	0x3d18bb36	0.037287913
129	0xbda847a9	-0.08216793
130	0x3d8afb03	0.06786158
131	0xbca83df8	-0.020537362
132	0x3dbdf2b9	0.09274811
133	0x3da9066b	0.08253177
134	0x3dc10231	0.09424246
135	0x3d261062	0.040542968
136	0x3d881861	0.06645275
137	0x3d71cbde	0.059032314
138	0xbda917cc	-0.08256492
139	0xbdac66a6	-0.08418016
140	0x3d5fcf4e	0.05464106
141	0x3c903cc4	0.0176071
142	0x3cf1f334	0.029534914
143	0xbd845db4	-0.06463185
144	0x3cb1bc58	0.021696255
145	0x3d5144ea	0.051091112
146	0xbd9a4ce9	-0.07534201
147	0x3d457ce2	0.0482148
148	0xbd18fd92	-0.0373512
149	0xbd921e12	-0.07134642
150	0xbdc09390	-0.09403145
151	0x3d7701de	0.060304515
152	0xbd111bd4	-0.03542693
153	0x3d6102fa	0.05493448
154	0xbc753228	-0.014965571
155	0xbd8b5fce	-0.06805383
156	0xbd8d6621	-0.06904245
157	0x3c0dedd0	0.008662656
158	0x3d4f2a42	0.05057741
159	0x3d7bb83a	0.06145499
160	0x3c6cd818	0.014455818
161	0xbd490838	-0.049080104
162	0xbdb07dcc	-0.08617744
163	0xbdc796a5	-0.0974553
164	0xbdbf6f53	-0.09347405
165	0x3d865d6f	0.0656079
166	0x3d8b8941	0.068132885
167	0xbd7cbb4d	-0.06170206
168	0xbb87eb80	-0.004147947
169	0x3d4d8f06	0.050185226
170	0x3c9f366c	0.01943513
171	0x3dc05617	0.0939142
172	0xbcc1e334	-0.02366791
173	0xbd9d887d	-0.07692049
174	0xbd9b3c50	-0.07579863
175	0x3db3716f	0.0876187
176	0x3d88bf99	0.06677169
177	0xbc51ca38	-0.01280456
178	0xbdb1c153	-0.08679452
179	0x3d9d3fd7	0.07678192
180	0x3dc5c2c5	0.0965629
181	0x3d0e8a16	0.034799658
182	0x385c4000	5.2511692e-05
183	0x3da8a91f	0.08235382
184	0x3daf7853	0.08567872
185	0xbd122d17	-0.035687532
186	0xbd862fd8	-0.06552094
187	0xbd1831c4	-0.037156835
188	0x3ae971c0	0.0017810389
189	0xbd99a27e	-0.07501696
190	0x3cc721dc	0.024308138
191	0xbd5116b6	-0.05104705
192	0x3daa9bad	0.08330474
193	0x3db95fff	0.09051513
194	0x3d19cc32	0.03754825
195	0x3cf71084	0.030159242
196	0xbdb216e9	-0.08695776
197	0xbbb4f720	-0.0055226237
198	0xbd854016	-0.06506364
199	0x3daf8def	0.085719936
200	0xbcc7091c	-0.024296336
201	0xbc6f8d20	-0.014621049
202	0xbdc6e928	-0.0971244
203	0x3c9780b0	0.01849398
204	0xbd828b59	-0.06374235
205	0xbc8f4ce0	-0.017492712
206	0x3d0da22a	0.03457848
207	0x3dbd332f	0.09238278
208	0xbd9d9160	-0.07693744
209	0xbddb96de	-0.10722135
210	0xbd3146a0	-0.043280244
211	0x3d924c5b	0.0714347
212	0x3decf77f	0.11570644
213	0xbcbe5c4b	-0.023237368
214	0xbd75fc83	-0.060055267
215	0x3d4a9450	0.049457848
216	0x3ddf8ec5	0.10915903
217	0xbd0c6f97	-0.034286108
218	0xbdb49953	-0.08818307
219	0x3c357f9d	0.011077789
220	0xbcfa0327	-0.030519081
221	0xbd902559	-0.070383735
222	0xbd6b87cb	-0.05750255
223	0x3ca0992c	0.019604288
224	0xba61f602	-0.0008619727
225	0xbd49817a	-0.049195744
226	0x3cd13acc	0.025540732
227	0xbc46a1cd	-0.012123537
228	0xbd581a95	-0.052759726
229	0xbc8d2f6e	-0.01723453
230	0x3cd38614	0.02582077
231	0x3d067159	0.03282294
232	0xbd15a6f5	-0.036536176
233	0xbca530bc	-0.02016484
234	0x3d162860	0.0366596
235	0xbd32a118	-0.043610662
236	0x3ceb4bb9	0.02872263
237	0xbc9c1158	-0.019051239
238	0x3d0b1a67	0.033960726
239	0x3d52d5d5	0.051473457
240	0x3b1f7075	0.0024328504
241	0xbd2705a8	-0.04077688
242	0x3d8d2da4	0.06893471
243	0xbcb07ed1	-0.021544846
244	0x3d2167cd	0.039405633
245	0x3d493cff	0.049130436
246	0x3d821b3c	0.06352851
247	0xbdb9abaa	-0.090659454
248	0x3d5b5ef8	0.053557366
249	0x3da4b2ea	0.08041938
250	0x3d5254f1	0.051350538
251	0x3d163754	0.03667386
252	0x3d895c4c	0.06707057
253	0xbd19455e	-0.03741967
254	0xbc7f8286	-0.015595084
255	0x3dce407f	0.100708954

model.lstm.bias_hh_l0 f4 [416]
0	0xbd91dac9	-0.07121808
1	0x3dbbbd26	0.091669366
2	0x3d3fdd7f	0.046842095
3	0xbc39678f	-0.011316194
4	0x3d5c2c8c	0.05375342
5	0xbcf22c0a	-0.029562015
6	0xbd8c4185	-0.06848434
7	0x3db26a34	0.08711663
8	0x3db465e1	0.08808494
9	0xba35b790	-0.0006931955
10	0x3de56ec6	0.11202769
11	0xbbfeb390	-0.0077728704
12	0x3dcde78e	0.10053931
13	0x3d623c0b	0.055233043
14	0x3cdb1803	0.026744848
15	0xbd81905b	-0.06326362
16	0xbcf5a05f	-0.029983697
17	0x3d647fd9	0.055785988
18	0xbd596851	-0.053078
19	0xbd918aa7	-0.07106524
20	0x3db3f440	0.08786821
21	0xbcba8fae	-0.02277359
22	0x3d917e26	0.07104139
23	0x3d7b3b82	0.061336048
24	0x3a5d727e	0.00084475416
25	0xbd2906eb	-0.041266363
26	0x3ab185eb	0.0013543939
27	0x3dc470d9	0.095918365
28	0xbd16fae1	-0.03686035
29	0x3d484b26	0.048899792
30	0x3d60df16	0.05490025
31	0x3cece20f	0.028916387
32	0xbc891287	-0.016732467
33	0xbd0099ac	-0.031396553
34	0x3d89d273	0.06729593
35	0xbd5d6cce	-0.054058842
36	0xbca20d9c	-0.01978188
37	0x3d957bee	0.07299028
38	0xbcbb9a4f	-0.022900729
39	0xbd73b357	-0.059497204
40	0xbd6c2109	-0.057648692
41	0xbcddb128	-0.027062014
42	0x3df508c0	0.119645596
43	0x3b511835	0.0031905298
44	0xbdb4bdc5	-0.08825258
45	0x3dba4923	0.09095981
46	0xbc834f3d	-0.016028995
47	0xbcc96b44	-0.024587281
48	0x38aa3276	8.115631e-05
49	0xbd4b5de3	-0.049650084
50	0xbd5860ea	-0.0528268
51	0x3d4f504a	0.05061368
52	0xbd96ec99	-0.07369346
53	0x3dbc3d02	0.09191324
54	0xbd1d76e3	-0.038443457
55	0xbc738205	-0.014862542
56	0x3df1adb5	0.1180071
57	0xbd4824b3	-0.048863124
58	0x3dcc82a0	0.09985852
59	0xbcdaf09d	-0.026726061
60	0x3dc67aab	0.09691366
61	0x3d5d3cab	0.054012936
62	0x3bdee032	0.0068016285
63	0x3cdbecc6	0.0268463
64	0x3dc6c7f8	0.0970611
65	0x3c1f9444	0.009739939
66	0xbd131a72	-0.035913892
67	0xbdaa56c5	-0.08317331
68	0x3dbbef94	0.09176555
69	0x3c82fd68	0.015989974
70	0x3ccefe57	0.025267763
71	0x3d0d6e6a	0.034529127
72	0xbd1fa94b	-0.03897981
73	0xbc5d89b8	-0.013521604
74	0x3ba05fa9	0.004894216
75	0x3c831162	0.0159995
76	0x3dc0ac0f	0.094078176
77	0x3d827569	0.063700505
78	0x3d82601b	0.06365987
79	0xbd4e93ae	-0.050433807
80	0x3cbe63ab	0.023240885
81	0xbb7099f0	-0.0036712848
82	0x3d110a6e	0.035410337
83	0xbca84bcf	-0.02054396
84	0x3dbc080f	0.091812246
85	0x3d627eb4	0.055296615
86	0x3cb35a60	0.02189368
87	0xbd7d1761	-0.061789874
88	0xbc0a43c6	-0.00843901
89	0x3d4efe2a	0.05053536
90	0x3df36e2b	0.11886247
91	0xbdbabfa9	-0.091185875
92	0xbc8205fa	-0.01587199
93	0x3db3c1de	0.087772116
94	0xbd0c99f2	-0.0343265
95	0x3d5db06b	0.054123323
96	0x3d892283	0.06696036
97	0x3c037992	0.00802459
98	0x3cc13aa6	0.023587536
99	0x3d8b5e56	0.068051025
100	0x3d86abcb	0.06575736
101	0x3ce3bd73	0.027800297
102	0x3dae1a24	0.0850108
103	0xbd5b37bd	-0.053519953
104	0x3d9320eb	0.07184013
105	0x3d2b5db6	0.041837417
106	0xbc7a5cd0	-0.015280917
107	0xbd56e147	-0.052460935
108	0x3cc72d0c	0.024313472
109	0xbdc754c0	-0.09732962
110	0xbd0118ea	-0.0315179
111	0x3cccab9c	0.024984173
112	0x3d7bbf72	0.061461873
113	0xbcb576f4	-0.022151448
114	0x3c0dc6f8	0.008653395
115	0xbd340b43	-0.043956053
116	0x3da9d033	0.08291664
117	0x3c1165f8	0.008874409
118	0xbc05c658	-0.008164965
119	0xbd432ad4	-0.047648266
120	0x3d2d51fe	0.042314522
121	0xbd7b8982	-0.061410435
122	0xbd3a857c	-0.045537457
123	0xbd5af896	-0.053459726
124	0x3c0dd388	0.00865639
125	0x3d1c6afe	0.038187973
126	0xbd13b3f3	-0.036060285
127	0x3bfaafc0	0.0076503456
128	0x3d79b93e	0.060967676
129	0x3d72135a	0.059100486
130	0x3d407c16	0.046993338
131	0x3c2d56c0	0.010579765
132	0xbd05e9d2	-0.03269369
133	0xbcd83164	-0.026390739
134	0x3cfcedc4	0.030875094
135	0xbd6763e3	-0.056491744
136	0xbceaf8cc	-0.028683089
137	0x3daafdd9	0.08349199
138	0xbcbe5c3c	-0.02323734
139	0x3cb8be68	0.02255173
140	0xbda7df33	-0.08196869
141	0xbd671a38	-0.05642149
142	0xbd86f5be	-0.0658984
143	0xbd36d477	-0.044636216
144	0x3d4f4fe6	0.050613306
145	0xbd964a6a	-0.07338412
146	0xbcbe7fa8	-0.02325423
147	0xbcda8b1c	-0.02667766
148	0xbd5654e5	-0.052327055
149	0xbd8af7cb	-0.06785544
150	0x3d874c95	0.06606404
151	0xbcf14818	-0.029453322
152	0xbc15a570	-0.009133682
153	0xbdb7ff12	-0.08984198
154	0xbc93bf80	-0.01803565
155	0x3cf9af24	0.030479021
156	0x3dc0e8d9	0.09419412
157	0xbb8c0750	-0.0042733327
158	0xbd9e015d	-0.07715104
159	0xbd929098	-0.07156485
160	0x3d3db9fe	0.046319954
161	0x3d23cf32	0.03999252
162	0xbcc66cb8	-0.024221763
163	0xbd9b6456	-0.07587497
164	0x3c00f5e8	0.007871129
165	0x3bec6df0	0.007215254
166	0xbc16a918	-0.0091955885
167	0xbd3fc961	-0.04682291
168	0xbd2b0c07	-0.041759517
169	0x3d238df6	0.039930306
170	0x3cb15398	0.021646306
171	0xbd26152b	-0.04054753
172	0x3cb2b8f8	0.021816716
173	0x3db142bf	0.08655309
174	0xbd592dd8	-0.053022236
175	0x3d873a71	0.06602944
176	0xbda1e4a2	-0.079049364
177	0xbda2ec35	-0.07955209
178	0x3da22e27	0.07918959
179	0x3d967ed5	0.0734841
180	0x3dba4a09	0.09096152
181	0xbceabe54	-0.028655209
182	0x3da7e9fd	0.081989266
183	0x3d55e772	0.052222677
184	0xbd5a79bf	-0.053338762
185	0x3d35f4f2	0.04442305
186	0xbcd561fc	-0.0260477
187	0xbd5e6cec	-0.054303095
188	0x3d72db06	0.05929091
189	0xbd098416	-0.033573233
190	0x3cfc8814	0.030826606
191	0xbd91b3f2	-0.071144
192	0xbc9f12bc	-0.019418113
193	0x3cb87a18	0.022519156
194	0xbd0e43cc	-0.034732625
195	0xbabb3500	-0.0014282763
196	0xbdb6c6b8	-0.08924621
197	0x3d0e3922	0.034722455
198	0xbd313953	-0.04326756
199	0xbdc60e1a	-0.096706584
200	0x3dc51efb	0.0962505
201	0x3c4aa260	0.012367815
202	0xbd06fa66	-0.032953642
203	0xbd4b71ab	-0.04966895
204	0xbda11e1e	-0.078670725
205	0x3dba5011	0.09097303
206	0x3d6e40ae	0.058167152
207	0x3d91bda5	0.0711625
208	0x3db9cde7	0.09072476
209	0xbccd56ad	-0.025065744
210	0x3cf4f174	0.02990029
211	0xbd3d9be8	-0.046291262
212	0x3b3ad8f7	0.0028510669
213	0x3dd4b8a2	0.103867784
214	0x3de547a9	0.11195309
215	0x3d8682eb	0.06567939
216	0x3c99e706	0.018786918
217	0x3db34d87	0.087550215
218	0xbd4aba62	-0.049494155
219	0xbd8e7aac	-0.069569916
220	0xbdd98d44	-0.106226474
221	0x3d9d3c5f	0.076775305
222	0xbd7d8b9a	-0.061900713
223	0x3d2b6c3b	0.041851263
224	0x3d8a468d	0.06751738
225	0x3de32890	0.11091721
226	0xbdcd8482	-0.100350395
227	0x3da57052	0.08078064
228	0x3c9f9dc7	0.019484414
229	0xbcbd78c7	-0.02312888
230	0x3dd162a6	0.10223894
231	0xbda3360e	-0.079692945
232	0x3d0c28ef	0.034218725
233	0xbdc87987	-0.097888045
234	0xbbb1d53c	-0.005427031
235	0x3d9b7b7f	0.075919144
236	0x3d3c5f79	0.045989487
237	0xbd328b4b	-0.04358987
238	0x3d9fd32a	0.07803948
239	0x3c96fea2	0.018431965
240	0xbda0caf0	-0.07851207
241	0xbd017ef7	-0.031615224
242	0xbd0090bd	-0.031388033
243	0x3dae8e89	0.0852328
244	0xbc6bfcfe	-0.01440358
245	0xbd4de817	-0.050270166
246	0xbd8f8d16	-0.07009332
247	0x3d9a6b2c	0.07539973
248	0x3c2bc952	0.01048501
249	0x3d6a1f1e	0.057158582
250	0xbdc3faea	-0.095693424
251	0x3c343786	0.010999566
252	0x3d08f7f0	0.033439577
253	0x3db52e5b	0.08846732
254	0xbd077732	-0.033072658
255	0x3dbabf81	0.09118558

model.fc_layers.0.weight f4 [52, 104]
0	0x3d2c92af	0.042132076
1	0xbd7d01a0	-0.061769128
2	0x3ddba8d2	0.10725559
3	0x3d6f9dae	0.058499984
4	0x3c8cf43a	0.0172063
5	0x3deb4c0b	0.114891134
6	0xbd67dc9e	-0.05660688
7	0x3c5a75c5	0.0133337425
8	0x3de1b295	0.1102039
9	0x3d0e00fb	0.034668904
10	0x3d46a926	0.048501156
11	0xbd99eb5a	-0.07515593
12	0xbd6106be	-0.05493807
13	0xbdabe040	-0.08392382
14	0xbd54bed3	-0.051939797
15	0x3a2c7f5f	0.0006580259
16	0x3bb9fb80	0.005675733
17	0x3e00c644	0.12575632
18	0x3be3034f	0.0069278846
19	0x3d9c3c11	0.07628644
20	0x3d89a9b5	0.06721822
21	0x3d0a1021	0.033706788
22	0x3da283dc	0.079353064
23	0xbc6386f5	-0.013887157
24	0xbdba873e	-0.09107827
25	0xbd9edc1f	-0.077568285
26	0x3dcd8253	0.10034623
27	0x3c6e7709	0.014554747
28	0x3da0b2c4	0.07846597
29	0xbd72268b	-0.05911879
30	0xbd033647	-0.032034185
31	0xbdb13a3d	-0.08653686
32	0x3d959db0	0.07305467
33	0xbde50c95	-0.111840405
34	0x3da0e087	0.07855325
35	0xbd6cc350	-0.057803452
36	0xbd889c0a	-0.06670387
37	0xbdd35ef1	-0.10320843
38	0x3cb1f675	0.021723965
39	0xbdc6acea	-0.097009495
40	0xbc14f9d9	-0.009092771
41	0x3d2585b1	0.0404107
42	0xbd7a6360	-0.061129928
43	0x3e039f6a	0.1285378
44	0xbd7b7ea3	-0.061400067
45	0xbd12e60a	-0.035863914
46	0x3dc93352	0.09824242
47	0xbd086f21	-0.033309106
48	0x3dc0363c	0.093853444
49	0x3ce833fc	0.0283451
50	0x3c0bfb8f	0.008543863
51	0x3d98194a	0.074266985
52	0xbd7a131e	-0.061053388
53	0x3d9397a0	0.072066545
54	0xbc7bd8e9	-0.01537154
55	0x3a7af3c9	0.000957307
56	0x3cb348de	0.021885332
57	0xbdab58d5	-0.08366553
58	0xbd1998bf	-0.037499186
59	0xbd08d2b5	-0.03340407
60	0xbb13b07d	-0.0022535615
61	0xbe049aa7	-0.1294962
62	0x3df846d2	0.12122883
63	0xbd944109	-0.07238967
64	0x3d35980b	0.044334453
65	0xbd731cf3	-0.05935378
66	0xbd2d18bc	-0.042259917
67	0xbd9e4398	-0.07727736
68	0x3bddfd75	0.006774599
69	0x3d05832e	0.032595806
70	0x3c51467f	0.012773155
71	0xbda17dae	-0.078852996
72	0x3c4f7f49	0.0126646245
73	0x3d7f1958	0.06228003
74	0x3dadeea9	0.084927864
75	0x3c684d3e	0.014178572
76	0x3d9db133	0.07699814
77	0x3c25fbec	0.010130864
78	0xbbd68d0a	-0.006547575
79	0x3dc686d9	0.09693689
80	0xbd09627c	-0.033541188
81	0xbd5418ae	-0.05178135
82	0x3cbb6f52	0.02288023
83	0x3d4dcab3	0.050242137
84	0x3dd9c03b	0.10632368
85	0xbd9af2ea	-0.075658634
86	0x3deeba2a	0.11656602
87	0xbd32aea5	-0.043623585
88	0xbde00be1	-0.10939766
89	0x3bf3d453	0.0074410825
90	0x3d789362	0.06068743
91	0xbd5ab3b4	-0.053394035
92	0xbd3d6b44	-0.046244875
93	0xbd46011f	-0.048340913
94	0x3af2d6dc	0.0018527168
95	0x3d551ace	0.052027516
96	0xbd24e626	-0.04025855
97	0xbce91658	-0.028453037
98	0x3cbd17bf	0.023082612
99	0xbd340397	-0.043948736
100	0xbd48e9bf	-0.049051043
101	0xbd1489b0	-0.03626412
102	0x3dc2d53d	0.09513328
103	0x3d2c135f	0.04201066
104	0x3db3025c	0.087406844
105	0x3dbb79c0	0.09154081
106	0xbd5da469	-0.054111872
107	0xbcb41c50	-0.021986157
108	0xbb588ed6	-0.0033044121
109	0x3da3f526	0.08005743
110	0xbc18783e	-0.009306012
111	0xbbecc1c0	-0.0072252452
112	0x3c1dd88b	0.009634147
113	0x3d42e4a9	0.04758135
114	0xbd722e2f	-0.059126075
115	0xbd9e4018	-0.07727069
116	0xbcf0353c	-0.02932226
117	0xbd381297	-0.044939604
118	0x3d86b02a	0.065765694
119	0xbc91b6e5	-0.017787406
120	0x3d481f81	0.04885817
121	0xbd871317	-0.06595438
122	0xbc2a7fdb	-0.01040646
123	0x3d9bd7bc	0.076095074
124	0x3c041c10	0.008063331
125	0xbc557f5a	-0.013030851
126	0x3db2454d	0.08704624
127	0xbcad4112	-0.021149192
128	0x3b9f6d59	0.00486533
129	0xbd31af19	-0.043379877
130	0xbd4c3bcb	-0.04986171
131	0x3d6a9eef	0.057280477
132	0xbcc2f681	-0.023799183
133	0x3d84dce3	0.06487443
134	0x3c8a59a2	0.016888443
135	0x3d770d2b	0.060315292
136	0xbd27fe1e	-0.04101383
137	0xbd0aaf18	-0.03385839
138	0xbd0b3d85	-0.033994216
139	0x3dbf8c99	0.09352989
140	0x3c03a17d	0.008034107
141	0x3c2c6104	0.010521177
142	0xbda52f51	-0.080656655
143	0xbd3e98be	-0.046532385
144	0x3c79a3ca	0.015236804
145	0xbd83c067	-0.06433182
146	0x3ce217a5	0.027599165
147	0x3d8a1cc9	0.067437716
148	0xbd976be8	-0.07393628
149	0xbce71624	-0.0282088
150	0xbd00ca58	-0.03144297
151	0xbd1001c6	-0.03515794
152	0x3d12425a	0.03570781
153	0xbd2ea39d	-0.042636503
154	0x3c46c698	0.012132309
155	0x3dbcf7bc	0.09226939
156	0x3db4ab6f	0.08821761
157	0xbd068768	-0.032843977
158	0x3d51536b	0.051104944
159	0x3d99c9f1	0.075092204
160	0x3d793643	0.060842764
161	0x3bfd3f9a	0.007728529
162	0x3d8e832a	0.06958611
163	0x3d9ad36f	0.07559859
164	0xbd89358a	-0.06699665
165	0xbd920d3d	-0.07131431
166	0xbbc8451c	-0.006111754
167	0xbd6e9f63	-0.05825747
168	0xbdd42cdf	-0.10360121
169	0x3dded41f	0.10880303
170	0x3c162b40	0.009165585
171	0x3d79a364	0.060946837
172	0xbbeb3e95	-0.007179091
173	0x3d901a19	0.07036228
174	0xbbbecd81	-0.005822838
175	0x3d867168	0.06564599
176	0xbd716ee5	-0.058943648
177	0xbc42e3ec	-0.011895161
178	0xbb135a10	-0.0022484101
179	0xbd99a7bf	-0.07502698
180	0xbd9deff9	-0.07711787
181	0x3db0c7c7	0.086318545
182	0xbd8181fe	-0.06323622
183	0xbcf766c5	-0.030200372
184	0xbdc49cab	-0.096001945
185	0x3ce90b5b	0.028447798
186	0x3da8e97e	0.0824766
187	0x3dcadca5	0.09905366
188	0x3d30ce11	0.04316527
189	0xbd88002b	-0.06640657
190	0x3d8fe09d	0.070252635
191	0x3d43553d	0.04768871
192	0x3c4a1f56	0.012336573
193	0x3ccd68bf	0.02507436
194	0x3dae9c05	0.08525852
195	0xbd7df44b	-0.062000554
196	0xbdc115d3	-0.09427991
197	0x3dac10d0	0.08401644
198	0x3d2e957b	0.042623024
199	0x3d87ff46	0.066404864
200	0xbc67c425	-0.014145886
201	0x3d9a88d7	0.075456314
202	0xbd9f6ebd	-0.077847935
203	0xbd8e4f8a	-0.069487646
204	0x3cf7d7df	0.030254303
205	0x3d5b66d4	0.05356486
206	0xbcd018b3	-0.025402403
207	0x3db887fc	0.09010312
208	0x3de4f442	0.11179401
209	0x3cb63e25	0.02224643
210	0x3d281b41	0.041041616
211	0xbd33f649	-0.043936048
212	0xbca96867	-0.020679666
213	0x3db71c88	0.08940989
214	0x3dfd5cb6	0.12371199
215	0x3dd351bd	0.10318325
216	0x3db2d7fe	0.087326035
217	0x3dfe081f	0.12403893
218	0x3c27767a	0.010221118
219	0xbdd37836	-0.10325663
220	0xbdcd42ce	-0.100225076
221	0x3d1fe839	0.039039824
222	0x3d1ba364	0.03799762
223	0x3d902675	0.07038585
224	0xbd051819	-0.032493684
225	0x3df4a6be	0.11945866
226	0x3df431f5	0.11923591
227	0xbbc20ae6	-0.0059217094
228	0xbd7a0fa1	-0.06105006
229	0x3d3bd084	0.045853153
230	0xbdacf923	-0.084459566
231	0xbd6a5392	-0.057208605
232	0x3d765abd	0.06014513
233	0xbd82389e	-0.06358455
234	0xbc10361c	-0.008801963
235	0xbd958adc	-0.07301876
236	0xbcbba5b7	-0.022906167
237	0x3c0f406c	0.008743387
238	0xbd519f6c	-0.051177427
239	0x3be74235	0.007057453
240	0xbda60c06	-0.08107762
241	0xbdb4db39	-0.08830876
242	0x39aae9ce	0.00032599125
243	0xbce5af02	-0.028037552
244	0xbb983aec	-0.004645696
245	0xbdedc7fc	-0.116104096
246	0x3d50c9d9	0.050973747
247	0xbdffc4de	-0.12488721
248	0x3d7e2b72	0.06205315
249	0xbd1b851e	-0.037968747
250	0xbc8dd7e0	-0.017314851
251	0x3dc46c51	0.09590972
252	0xbab2cf18	-0.0013642041
253	0x3cbc14c1	0.022959115
254	0x3d7ae4c0	0.06125331
255	0x3db19525	0.08671025

model.fc_layers.0.bias f4 [52]
0	0x3de6545d	0.1124656
1	0x3d0d906d	0.034561563
2	0x3ceec61c	0.0291472
3	0xbd1bbc3d	-0.038021315
4	0xbba2d633	-0.004969382
5	0x3caf6f4a	0.021415371
6	0x3dcc8110	0.09985554
7	0xbc1a812e	-0.009430213
8	0x3c934cd8	0.017980978
9	0xb98239a3	-0.00024838475
10	0x3ba60e8a	0.005067651
11	0xbdba874f	-0.09107839
12	0xbd74753f	-0.059682127
13	0xbd62de5b	-0.055387836
14	0x3d9aeb82	0.07564451
15	0xbd0ef4c3	-0.03490139
16	0x3d84ba12	0.064808026
17	0xbcaac9c9	-0.020848172
18	0x3d86c723	0.06580951
19	0x3de37c36	0.11107676
20	0x3d775093	0.060379576
21	0xbc4c151a	-0.012456203
22	0x3d6349b2	0.055490203
23	0xbd1721bf	-0.036897417
24	0xbc9e2d6b	-0.019308766
25	0xbdb9074c	-0.09034595
26	0x3d5456c7	0.05184057
27	0x3d78b423	0.060718667
28	0x3d20e822	0.03928388
29	0xbd908c99	-0.07058067
30	0x3cfd9c4a	0.030958313
31	0x3dacc209	0.08435447
32	0xbdaa80f9	-0.08325381
33	0xbd24c443	-0.040226232
34	0x3c99d042	0.018776063
35	0x3dd2710a	0.10275467
36	0xbc9f5a21	-0.019452156
37	0x3d5c5da2	0.053800233
38	0xbd45ba11	-0.04827315
39	0x3dd90bb9	0.10597939
40	0x3a98d271	0.0011659396
41	0xbcc76186	-0.024338495
42	0xbdaa7fd5	-0.08325163
43	0xbc80587c	-0.015667193
44	0xbd852590	-0.06501305
45	0x3d374fdd	0.044753898
46	0xbd89b7bb	-0.06724497
47	0x3c61991c	0.013769414
48	0x3c73d76a	0.014882902
49	0xbc73c69d	-0.014878896
50	0xbd1ed500	-0.03877735
51	0x3d80cbe5	0.0628889

model.fc_layers.1.weight f4 [26, 52]
0	0xbd957d9f	-0.07299351
1	0x3d8e0b39	0.06935734
2	0x3e1c3730	0.15255427
3	0x3c2c9737	0.010534099
4	0x3c99cae1	0.018773498
5	0xbd9194c6	-0.071084544
6	0xbd0b52bb	-0.034014445
7	0x3cf69364	0.030099578
8	0x3e0d98ba	0.13827792
9	0xbdadde88	-0.0848971
10	0x3e20d85b	0.15707533
11	0xbdf4e1a7	-0.11957102
12	0xbd73259b	-0.059362035
13	0x3dce8a7b	0.10085007
14	0x3e03faeb	0.12888686
15	0x3d741294	0.05958803
16	0xbd543237	-0.0518057
17	0xbdcefda8	-0.10106975
18	0xbceac61b	-0.028658917
19	0xbbe9c74a	-0.007134353
20	0x3d77d121	0.060502175
21	0x3db92868	0.0904091
22	0x3e07bc57	0.1325544
23	0xbd9bbf64	-0.07604864
24	0xbd820fce	-0.06350671
25	0xbb33afb2	-0.0027417955
26	0x3d153a21	0.03643239
27	0xbc0c3e26	-0.008559739
28	0x3c97f3cc	0.018548869
29	0x3d2528af	0.040322002
30	0xbd14a760	-0.036292434
31	0xbd709670	-0.05873722
32	0xbdd1adad	-0.10238204
33	0xbd788b5d	-0.060679782
34	0x3e23f2b1	0.16010548
35	0x3d952d21	0.07283998
36	0x3dbce18a	0.09222706
37	0x3d97c1ea	0.07410033
38	0x3d93244d	0.07184658
39	0x3e194912	0.1496928
40	0xbdac2aea	-0.08406623
41	0x3cfe7161	0.031059923
42	0xbe25d8b8	-0.16195953
43	0x3c0de094	0.008659501
44	0xbdbbe069	-0.09173662
45	0xbd2576d8	-0.04039654
46	0xbd333c81	-0.043758873
47	0xbdd1e519	-0.10248775
48	0xbde3fc00	-0.111320496
49	0x3cce8cf6	0.0252137
50	0x3dd51822	0.104049936
51	0x3c8edaf2	0.017438386
52	0xbdfd1689	-0.12357814
53	0xbd142e87	-0.036177184
54	0xbdc286ce	-0.09498368
55	0x3dffa800	0.12483215
56	0xbd98b2cb	-0.07455977
57	0xbe2501b8	-0.16113937
58	0xbdc9e5e6	-0.09858303
59	0x3d50c5c9	0.050969873
60	0xbd8fe040	-0.07025194
61	0x3d067f3a	0.032836176
62	0xbe1a7608	-0.15084088
63	0xbd228417	-0.039676752
64	0x3e04bb64	0.12962109
65	0xbdc0cb36	-0.094137594
66	0x3d7072d9	0.058703277
67	0x3d99e8e9	0.07515127
68	0xbe07aa1e	-0.13248488
69	0x3af28ae1	0.0018504524
70	0xbd6f1c98	-0.05837688
71	0xbd5954c7	-0.053059366
72	0xbac9b11a	-0.0015387863
73	0xbde94a51	-0.11391128
74	0xbe193868	-0.14962924
75	0xbdab0eda	-0.08352442
76	0x3d66da97	0.056360807
77	0xbdcf6176	-0.10126011
78	0xbce588a9	-0.028019266
79	0xbcb9461e	-0.022616442
80	0xbc94c0a2	-0.01815826
81	0x3de3c2be	0.111211285
82	0x3d6ef4b0	0.05833882
83	0x3da74f97	0.081694774
84	0x3e21c088	0.15796101
85	0xbd359891	-0.04433495
86	0xbe282574	-0.16420537
87	0xbcea7824	-0.02862174
88	0x3d880993	0.06642451
89	0xbd87991e	-0.06621002
90	0x3dc0de35	0.09417383
91	0xbe16bb58	-0.14719903
92	0x3e0435ed	0.12911196
93	0x3e1dd544	0.15413386
94	0xbc394566	-0.01130805
95	0xbc9ec1f1	-0.019379588
96	0x3c59263e	0.013253747
97	0xbdb91592	-0.09037317
98	0x3c32b120	0.010906488
99	0xbde69604	-0.11259082
100	0x3de2590f	0.11052143
101	0xbddb511f	-0.10708832
102	0xbe0f97c4	-0.14022738
103	0xbdf8ff3c	-0.12158057
104	0x3e17c835	0.14822467
105	0x3cad7f24	0.02117879
106	0x3ca932bf	0.02065408
107	0xbe04c61d	-0.12966199
108	0x3d9781be	0.07397793
109	0xbd7ccf90	-0.061721385
110	0xbcc4aded	-0.024008716
111	0xbd810583	-0.062998794
112	0xbdbfe20f	-0.09369289
113	0xbd01dc6f	-0.031704362
114	0xbd1fdf02	-0.039031036
115	0x3d71e706	0.05905821
116	0xbe0861e7	-0.13318597
117	0xbdf7628f	-0.120793454
118	0x3c849efe	0.016189095
119	0x3d9fc845	0.0780187
120	0x3df6472c	0.12025294
121	0x3ddb1592	0.106974736
122	0xbdb4086c	-0.08790669
123	0x3d6b65f6	0.057470284
124	0x3bd54f53	0.0065097003
125	0xbe0832e5	-0.13300665
126	0x3d4e616c	0.050385877
127	0xbc088740	-0.008333027
128	0x3dc6f35e	0.09714387
129	0x3de990be	0.114045605
130	0x3d4dab97	0.05021247
131	0x3e0d57ed	0.13803072
132	0xbdf419fa	-0.11919017
133	0x3e00b803	0.12570195
134	0x3db2da02	0.08732988
135	0x3dfbd76c	0.12296948
136	0x3d8e5d9b	0.069514476
137	0x3dcf5863	0.1012428
138	0xbd1832e3	-0.037157904
139	0x3b43f698	0.002990162
140	0x3cc683db	0.024232795
141	0xbcdb5080	-0.026771784
142	0xbdc81462	-0.09769513
143	0x3da54b8c	0.0807105
144	0x3de8b44b	0.11362513
145	0xbd0044b5	-0.031315524
146	0xbe01fdad	-0.12694426
147	0xbd87311f	-0.06601166
148	0x3ddea3eb	0.108711086
149	0x3dfe7dbd	0.124263264
150	0xbe1a4780	-0.15066338
151	0x3bd47d1e	0.0064846417
152	0x3dda80bd	0.10669086
153	0x3d339d9e	0.043851487
154	0x3db16899	0.086625285
155	0x3d6e8f5c	0.058242187
156	0xbbabd4d5	-0.0052438774
157	0xbd854094	-0.06506458
158	0x3e2bc211	0.16773249
159	0x3c04250f	0.008065476
160	0xbda021c2	-0.07818939
161	0x3d95e555	0.07319132
162	0xbd9316b2	-0.07182063
163	0xbe179723	-0.14803748
164	0x3cb7f1e7	0.022454215
165	0xbddb49cd	-0.10707436
166	0x3ca7dcdc	0.020491056
167	0xbc480b11	-0.01220967
168	0xbdb7bb5a	-0.08971281
169	0x3da09b00	0.07842064
170	0x3de5b1c0	0.11215544
171	0xbdae3fd2	-0.085082665
172	0x3dcecf48	0.100981295
173	0xbd6b8bdb	-0.057506423
174	0xbcf7ec5b	-0.03026407
175	0x3d9aee78	0.075650156
176	0x3e0c0eab	0.1367747
177	0xbd0b2230	-0.03396815
178	0xbc8ba9e9	-0.017048793
179	0xbca537d9	-0.020168232
180	0xbdb571d4	-0.088596016
181	0xbd553426	-0.052051686
182	0xbdd920b3	-0.1060194
183	0xbd92c6d0	-0.07166827
184	0xbd703d11	-0.058651987
185	0xbd527c3d	-0.051388014
186	0xb89f0566	-7.582716e-05
187	0x3dbec270	0.0931443
188	0x3dcbe6c7	0.09956127
189	0x3d092720	0.033484578
190	0xbd4a8f6d	-0.049453188
191	0x3d31de01	0.04342461
192	0xbdc7a8bd	-0.09748981
193	0xbd345b0a	-0.044032134
194	0x3dad85d1	0.08472789
195	0x3c616525	0.013757025
196	0xbd18f52f	-0.0373432
197	0x3d7f2324	0.062289372
198	0xbcd6b838	-0.02621089
199	0x3d40a712	0.04703433
200	0xbd91199b	-0.07084962
201	0x3cb27e1a	0.021788646
202	0xbdbcea49	-0.09224374
203	0xbdcb8555	-0.099375404
204	0x3d7d51d8	0.06184563
205	0xbe0458f4	-0.12924558
206	0xbdf0f2d5	-0.117650665
207	0x3dcbce7c	0.09951493
208	0xbd8322d3	-0.064031266
209	0xbd1455bf	-0.036214586
210	0x3d108701	0.035285
211	0xbd41b444	-0.047291055
212	0x3aefd140	0.0018296614
213	0x3daf8c6a	0.08571704
214	0xbd9a5182	-0.07535078
215	0x3cfb0e9b	0.030646613
216	0xbd69c13e	-0.057069056
217	0xbd97ffa3	-0.07421806
218	0x3c743e9a	0.0149075035
219	0xbd2db13d	-0.042405356
220	0x3d98ab1e	0.07454513
221	0xbe0fb234	-0.14032823
222	0x3c47c763	0.012193534
223	0xbd35c19c	-0.044374093
224	0xbe04374c	-0.12911719
225	0xbdd7ab00	-0.105306625
226	0x3d9aa405	0.075508155
227	0xbe07c58e	-0.13258955
228	0x3c87bfb8	0.01657091
229	0x3d058dd7	0.032605972
230	0x3de1926e	0.11014257
231	0xbc59de45	-0.013297622
232	0xbe07293a	-0.1319932
233	0xbe0da237	-0.13831411
234	0x3deb8fe1	0.11502052
235	0x3d0ee70f	0.034888323
236	0xbd374bb9	-0.04474995
237	0xbcf7850a	-0.030214805
238	0xbd0ea71e	-0.034827344
239	0xbc5450a8	-0.012958683
240	0xbcb5756d	-0.02215072
241	0x3e0a153d	0.13484664
242	0x3c5ae797	0.013360879
243	0x3d2e5a6a	0.042566694
244	0xbdc7fe45	-0.09765295
245	0x3d978582	0.073985115
246	0xbc13cfe1	-0.00902173
247	0xbdba2e06	-0.090908095
248	0x3d6cbc00	0.05779648
249	0xbd9db758	-0.07700986
250	0x3d425d37	0.047452178
251	0x3d210343	0.03930975
252	0x3dd73de3	0.10509851
253	0xbd67e13a	-0.056611277
254	0x3ded808e	0.115967855
255	0xbe083c8c	-0.13304347

model.fc_layers.1.bias f4 [26]
0	0xbd893800	-0.06700134
1	0x3d17a16d	0.037019182
2	0xbd90b828	-0.07066375
3	0xbd67ae9b	-0.056563
4	0x3d076739	0.033057425
5	0xbe02d377	-0.1277598
6	0x3d3e860a	0.04651455
7	0x3dc3fa32	0.09569205
8	0x3e19a3ad	0.15003844
9	0xbe1ca5bc	-0.15297598
10	0x3cc64707	0.02420379
11	0x3df86818	0.12129229
12	0x3d41312b	0.04716603
13	0x3e206d6c	0.15666741
14	0xbe1b037f	-0.15138052
15	0x3b92f4e3	0.004484759
16	0x3cc3f146	0.02391876
17	0xbd7c2dec	-0.061567232
18	0x3d9afdaf	0.075679176
19	0x3c3c95cb	0.011510323
20	0x3be973a2	0.00712438
21	0x3cee9678	0.029124483
22	0xbdef7065	-0.116913594
23	0x3c355c77	0.011069409
24	0x3de45b56	0.111502334
25	0xbd657ec1	-0.056029085

model.fc_layers.2.weight f4 [3, 26]
0	0x3d458982	0.04822684
1	0xbe0d611d	-0.13806577
2	0xbdcac713	-0.09901252
3	0xbc633bf1	-0.013869272
4	0x3d9d1d6e	0.07671629
5	0xbdcd271e	-0.10017227
6	0xbd2bc1e5	-0.04193296
7	0xbdb9d1a5	-0.0907319
8	0x3e0d0984	0.13773161
9	0x3bf2a281	0.007404626
10	0xbdd8fdef	-0.10595309
11	0xbb88dc24	-0.0041766334
12	0x3e2b98b7	0.16757475
13	0x3d6ae4ed	0.057347227
14	0xbe06a4f3	-0.1314886
15	0xbdbd5233	-0.09244194
16	0x3e0c505a	0.13702527
17	0x3b8ee968	0.0043613203
18	0xbd78ad78	-0.060712308
19	0xbdaa0a27	-0.08302718
20	0xbda02466	-0.078194425
21	0x3dd4072d	0.10352931
22	0xbe18a487	-0.14906512
23	0xbe3eb565	-0.18623884
24	0x3e16fb10	0.1474421
25	0xbe3eb7fb	-0.1862487
26	0x3da013cb	0.07816275
27	0xbdf08a25	-0.11745099
28	0x3dddcef9	0.108304925
29	0x3dc89810	0.097946286
30	0xbba19bef	-0.004931919
31	0xbe246d42	-0.16057304
32	0x3e1eec05	0.15519722
33	0x3df3e0a1	0.11908079
34	0x3dc78e2b	0.09743913
35	0xbe1a9b85	-0.15098388
36	0xbd04d8a5	-0.03243317
37	0x3e44720a	0.19184127
38	0xbe26ce8c	-0.16289729
39	0x3d8acc74	0.067772776
40	0x3dd276a1	0.10276533
41	0x3d0806aa	0.03320948
42	0x3e490d50	0.19633985
43	0xbe504804	-0.20339972
44	0xbe1e83f1	-0.15480019
45	0xbdad1d5c	-0.084528655
46	0xbd984693	-0.07435336
47	0x3e373e8f	0.17894958
48	0x3b7b9c9a	0.0038392902
49	0xbdb93008	-0.09042364
50	0xbe01e002	-0.12683108
51	0xbd60aa05	-0.054849643
52	0x3dd68490	0.10474503
53	0xbd41dc87	-0.047329452
54	0x3d533704	0.05156614
55	0x3e167c51	0.1469586
56	0xbda12b2a	-0.07869561
57	0xbc4b4b64	-0.012408111
58	0x3e0b745f	0.13618611
59	0x3e30593e	0.17221543
60	0x3e50af6c	0.20379418
61	0x3cad9940	0.02119124
62	0x3c9bf47f	0.019037483
63	0xbd65ccd3	-0.05610354
64	0xbd6bd5b7	-0.05757686
65	0x3e50373a	0.20333567
66	0xbe10fabb	-0.14158146
67	0x3de46b3e	0.11153267
68	0xbdd52cc0	-0.10408926
69	0xbdc82167	-0.09771996
70	0x3e1f407c	0.15551943
71	0x3dedc0c4	0.11609033
72	0x3dc21fbc	0.09478709
73	0x3c60c6ce	0.013719274
74	0xbd7970bb	-0.060898524
75	0x3d91ac7f	0.07112979
76	0x3e419849	0.18905748
77	0x3d98dc80	0.07463932

model.fc_layers.2.bias f4 [3]
0	0xbe240fad	-0.16021605
1	0xbe1383da	-0.14405766
2	0x3dd4c2f0	0.10388744
