LSTM_TimeSeries/lightning_logs/version_172/checkpoints/epoch=14-step=1950.ckpt (torch, 640155 bytes, 27 tensors)

model.lstm.weight_ih_l0 f4 [416, 3]
000000 7e da 11 bd f8 1e a4 bc 93 a7 c0 bd a1 0c 14 bc
       -0.03560876 -0.020034298 -0.09406962 -0.009036214
000010 74 a4 4c bc 8a 3b f6 3d af 76 c6 3b 7e 0d 7e bd
       -0.012490381 0.12023075 0.0060566287 -0.062024586
000020 bf 4b 8a 3d 59 39 32 bd 49 37 34 bb e1 fa 1a 3e
       0.06752729 -0.043511722 -0.0027498773 0.15134765
000030 08 eb ff bd 08 ff b7 3d 8b e1 68 bd 75 5b 2b bd
       -0.124960005 0.0898419 -0.05685572 -0.041835267
000040 d5 e4 e8 bc 0e ff fa 3d 0d db 10 3d 8f e5 fc bb
       -0.028429428 0.12255679 0.035365153 -0.007717795
000050 bf 03 79 bb 53 66 b7 3b f9 20 70 3c 7c fe 05 bc
       -0.0037996618 0.005596915 0.014656299 -0.00817835
000060 8b a3 96 bc 83 0a 24 3d 29 cf 21 3e bb c7 20 3d
       -0.01838853 0.040049087 0.15801682 0.039252978
000070 14 8f 32 3e 05 64 11 3e 32 c6 12 3d 75 99 97 3d
       0.17437392 0.1419831 0.035833545 0.074023165
000080 d1 86 b0 3b a0 f6 49 bd ad 47 28 3d 4d 07 bc 3d
       0.005387165 -0.049307466 0.04108398 0.0918108
000090 8a 1f 01 3d 15 78 9b bd 06 ac 49 3d 02 44 6a bc
       0.03152422 -0.07591263 0.04923632 -0.014298441
0000a0 5c 11 aa 3d 0a 6a a7 bd 76 3c 9d ba d2 fb 17 bd
       0.08304092 -0.08174522 -0.0011996168 -0.03710539
0000b0 23 af 94 3d af 1e c8 bc 4f 3d a7 bb 64 62 07 3e
       0.07259967 -0.024428694 -0.005103744 0.13221127
0000c0 47 bf b6 bd b1 92 ad bd cf 42 33 bd 91 32 8b 3d
       -0.08923202 -0.08475245 -0.043764886 0.06796754
0000d0 97 cf 01 bd 79 15 14 3e 21 81 d0 bd b5 df 02 3d
       -0.031692114 0.14461316 -0.101808794 0.031951625
0000e0 48 ce 9d bd 20 81 ea 3c b6 8c 57 bd 6b 12 77 3d
       -0.07705361 0.028626025 -0.052624427 0.0603203
0000f0 17 fe 45 bb b3 b2 1d 3d 07 a8 36 3d 65 43 9b 3d
       -0.0030211264 0.0385005 0.044593837 0.07581214
000100 26 e9 07 bd 36 8a 3a 3e 6c b5 b9 3d 1c f3 60 3c
       -0.033181332 0.18216786 0.090678066 0.013729837
000110 30 2c f7 3d e9 28 10 3c 52 4d 6f bc 11 8f 68 3d
       0.12068975 0.008798816 -0.014605837 0.056777064
000120 fc 9d 96 bc a3 71 b8 3c 7a 9c 94 3d d2 15 46 3d
       -0.01838588 0.022515124 0.07256408 0.048360653
000130 bd ef fb 3c 82 27 0e 3e 83 8b 5d bd 9a 31 ca 3d
       0.030753965 0.13882259 -0.054088127 0.09872742
000140 dc 48 9c 3d da 52 27 3d 96 e6 c1 bc 5c a5 02 3e
       0.07631084 0.040850498 -0.023669522 0.12758392
000150 4c 78 bb 3d a3 1b d4 3c cb 3c ca 3b 4b fa 77 3d
       0.09153804 0.025892084 0.006171798 0.060541432
000160 23 26 de 3d 0f 38 8d 3d 43 e9 e1 3c 34 d8 2b 3e
       0.10847118 0.06895458 0.027577048 0.16781694
000170 12 bb 30 3e 91 52 93 3c b6 47 c8 3c 60 cf 69 bc
       0.17258862 0.017983707 0.024448257 -0.014270633
000180 55 7c f9 bb 79 2c ba 3d 3a 77 34 3e e6 95 ad 3d
       -0.0076136985 0.09090514 0.17623606 0.084758565
000190 85 ca 7e 3d 52 49 49 3d 21 94 21 3d 4b fa 3c bd
       0.062204856 0.04914219 0.039447907 -0.046137135
0001a0 52 20 8e 3d d1 8b 95 bd 4b fa cc bd 58 f2 b1 3d
       0.06939758 -0.073020585 -0.10008677 0.086888015
0001b0 71 ff ea bc 6c 14 34 3d 71 38 60 3d 93 e1 aa 3d
       -0.028686257 0.04396479 0.054741327 0.08343806
0001c0 b0 1c 8e 3d b9 5a 08 3e 84 0f aa bd 9c a4 a6 bc
       0.069390655 0.13315858 -0.083037406 -0.020342164
0001d0 8b db a0 bc e5 1e d2 3d 5b 50 e6 3d 23 40 80 3d
       -0.019635936 0.10259799 0.11245795 0.06262233
0001e0 02 f2 a6 3d 82 a7 2a 3d 93 34 11 3e f5 11 c0 3c
       0.08151628 0.041663654 0.14180212 0.023446063
0001f0 ad 9b fd bc 7e 34 1f 3e 1b 45 95 3a f4 80 e9 bc
       -0.030958021 0.15547368 0.0011388393 -0.028503872
000200 fe 01 5d bc 4f 12 3e 3c e3 08 da 3d 5b 37 9b 3d
       -0.0134892445 0.011601045 0.10646226 0.075789176
000210 aa dc 40 3d 72 65 f2 3d 9a 25 19 3d a8 04 ce 3d
       0.04708544 0.118357554 0.037389375 0.10059482
000220 2f bb 89 bc a8 eb 75 3d 53 03 c9 3b ee 0b b2 3d
       -0.016812889 0.060039192 0.0061344295 0.08693682
000230 38 6b 20 3e 46 a1 bd 3d 98 69 50 3d 04 d3 3b 3e
       0.156659 0.09259276 0.050881952 0.18342215
000240 ea e1 4a 3d 3e 66 55 bd 96 bf e8 3d a2 69 ae 3d
       0.049531855 -0.05209946 0.11364667 0.085162416
000250 37 b6 df 3d 44 15 be 3d 54 8c 81 3d 41 d1 18 3e
       0.109234266 0.092814 0.063255936 0.14923574
000260 c7 d9 8e 3d f2 35 67 bd fe d2 54 bd b7 8c e0 3d
       0.069751315 -0.05644793 -0.05195903 0.10964339
000270 a3 7c ff bc 8b b9 8d bd bb f7 67 3d 0b 4d e5 3d
       -0.031187361 -0.06920155 0.05663274 0.111963354
000280 36 8f 0e 3d 76 e6 0e 3e 99 c7 b4 3b a0 ec b7 3c
       0.034804545 0.13955101 0.005516958 0.022451699
000290 6b bc 01 3e 72 5a fa bd 6b 5f 6b 3d 9e bb b8 3c
       0.12669532 -0.12224282 0.057464045 0.0225504
0002a0 03 54 1a bc 7d 55 6b 3d b1 6c 98 3b 14 be ed bd
       -0.009419444 0.057454575 0.004651629 -0.1160852
0002b0 bd 27 d8 3c 01 b2 b6 3c 31 8c 28 be 59 cd 65 bd
       0.026386136 0.022301676 -0.16459729 -0.056104038
0002c0 28 64 a6 bd ea 9d 82 3c 76 d1 68 3c d9 07 e4 3d
       -0.08124572 0.01594444 0.014210096 0.11134309
0002d0 08 ad 46 be 9c 6b ee bd 49 3e 53 bd e8 3b 0e 3d
       -0.19401944 -0.116416186 -0.05157307 0.0347251
0002e0 9a 68 48 3d 91 c9 20 3c e5 9f 10 3d b4 5f 53 bc
       0.04892788 0.009813682 0.035308737 -0.012901235
0002f0 39 83 d5 bd 5a ed 21 3d 3d be ed 3d 63 e2 81 3d
       -0.10425419 0.039532997 0.11608551 0.06342008
000300 7e 0f 8d 3d 4f f3 bf 3d f5 a5 51 3d a6 ad 6c 3c
       0.068877205 0.09372579 0.05118366 0.014445698
000310 36 2a 6c bc b8 36 88 bb 77 80 07 bb 91 a4 ee 3c
       -0.014414361 -0.0041569136 -0.0020675936 0.029131206
000320 8d c7 5d bd f5 d7 98 bd 12 da 15 bd f1 29 ab bd
       -0.054145385 -0.074630655 -0.03658492 -0.08357609
000330 fd 77 36 3d ff c6 aa 3d 50 da 86 3d 14 d0 b0 3d
       0.044548023 0.08338737 0.065846086 0.08633438
000340 11 60 d0 3d 18 0d 6a 3d ea d7 8d 3d 3f ba 15 3d
       0.10174573 0.057141393 0.06925948 0.03655457
000350 b0 63 a4 3d f7 33 e9 3b 5c 6f e9 3c d5 fc 0a 3e
       0.080268264 0.0071167904 0.028495483 0.1357301
000360 ff c7 df 3c 37 27 2d 3d 76 69 9b bc 16 ee 45 3d
       0.027317045 0.042273726 -0.018971186 0.04832276
000370 a9 c5 5f 3c 5e 09 d6 3d 48 b4 ae 3c 83 7b 29 3e
       0.013657966 0.104510054 0.0213262 0.16551022
000380 52 da e0 3d c0 63 cd bd 47 ae c7 3d 5c 07 c1 3c
       0.10979141 -0.100287914 0.09750038 0.02356308
000390 cf b0 08 3d 89 9c 77 bd 27 63 72 bd f4 4e 2b 3d
       0.033371743 -0.060452018 -0.05917659 0.041823342
0003a0 db 87 af 3c d4 31 ac 3c 11 63 5b bc b9 43 2c 3d
       0.021427086 0.021019854 -0.0133903185 0.042056773
0003b0 9e 93 3b 3d 9d 8c a4 3d d9 68 cc 3c 19 5f 66 3c
       0.045795076 0.08034632 0.024952339 0.014060759
0003c0 3a 83 ce 3d fc c8 69 3c 35 4d 97 3d 4c 4a 24 bd
       0.10083623 0.01426911 0.07387773 -0.040109918
0003d0 fd 12 e7 bc 53 1d 66 be 6c b0 21 3d a4 ab 0b 3e
       -0.028207297 -0.22472124 0.03947489 0.13639694
0003e0 c0 1d c1 3b a8 20 92 bc 6c 85 9c 3d c0 e0 07 3d
       0.005893439 -0.017837837 0.07642636 0.033173323
0003f0 5d 87 ad 3d 3b 0a 0d 3e d6 fe 0d 3e 90 af 43 3c
       0.08473084 0.13773434 0.13866743 0.011943713

model.lstm.weight_hh_l0 f4 [416, 104]
000000 ea 7e 14 3d 13 01 82 bd 0c 98 f2 3c b9 a9 19 bd
       0.036253847 -0.06347861 0.029613517 -0.037515376
000010 5b f5 26 bd a8 91 a2 bd 30 4d 35 3c e8 01 a6 3c
       -0.040761333 -0.07937938 0.011065766 0.02026458
000020 b0 86 4a bc c8 72 a4 bc 2f 8b 30 bd dc 01 95 3c
       -0.012361214 -0.020074263 -0.043101486 0.018189363
000030 68 b7 a5 bc 68 33 0c bc 38 e2 ea bc 45 f7 b1 3d
       -0.020229056 -0.008557178 -0.028672323 0.08689741
000040 df 47 66 bd c0 7c 4e bb 77 64 68 bd 91 0e 7b bd
       -0.056220885 -0.0031507462 -0.056736436 -0.06129319
000050 b8 0b 24 3c a0 3f 44 bc b0 79 b1 3c 91 23 44 bd
       0.01001256 -0.01197806 0.02166447 -0.04788548
000060 36 f7 44 3d 00 80 d9 38 8d 8e 8b 3d 0a ab 92 bd
       0.04808732 0.00010371208 0.06814299 -0.07161529
000070 4a 3c 03 3d 00 06 81 3c 52 04 18 3d 10 9f a7 3c
       0.032039918 0.015749931 0.037113495 0.02046159
000080 20 0a bd bb 2a a2 09 bd 58 c5 8b 3c 19 eb 24 bd
       -0.0057690293 -0.033601917 0.017061874 -0.04026327
000090 d5 b6 90 3d ed 5b 8b 3d 10 a1 48 bd 80 d7 93 3c
       0.070661224 0.06804643 -0.048981726 0.018047094
0000a0 c2 fb 06 3d 45 b4 87 3d 40 e6 68 3c 60 23 43 bd
       0.03295494 0.066261806 0.014215052 -0.047641158
0000b0 6b 66 93 3d 09 82 9f 3d b0 09 a4 3c 24 6a ff 3c
       0.07197269 0.07788474 0.02002415 0.031178541
0000c0 18 91 8f 3c ca a5 04 3d 16 94 7f 3d 4a f7 0c 3d
       0.01752524 0.03238467 0.062397085 0.03441552
0000d0 3a ef 02 3d 54 c1 89 bd 1c 57 b4 3c cc d4 cc bc
       0.031966425 -0.067263275 0.022014193 -0.025003813
0000e0 dc 07 85 bd 38 dd 09 bc 27 a2 aa 3d b9 3e c1 3d
       -0.0649564 -0.008414559 0.08331709 0.094357915
0000f0 64 7c f2 3c 67 b9 bb 3d 22 ec 04 3d c1 c6 35 bd
       0.02960033 0.09166222 0.032451756 -0.044379
000100 58 88 fa bc 55 53 b6 bd 10 c2 91 bb 39 2f a5 bd
       -0.030582592 -0.08902613 -0.004448183 -0.08065648
000110 2c fe 03 bd 43 d6 27 bd 72 66 5c 3d 28 66 e3 bc
       -0.03222482 -0.04097582 0.053808637 -0.027758673
000120 41 f3 66 bd 20 35 04 bd 70 78 af bd 7f 34 c1 bd
       -0.05638433 -0.032277226 -0.085678935 -0.09433841
000130 60 22 0b 3c 87 d5 ad 3d 11 a4 99 3d 28 30 74 bc
       0.008492082 0.08487993 0.07501996 -0.0149040595
000140 bd 71 b8 3d 28 07 85 bd e5 95 b5 3d 0e 88 1a bd
       0.09006069 -0.064955056 0.08866481 -0.037727408
000150 5a 74 39 3d f9 1c c7 3d 6d f4 90 3d 8e 2d 14 3d
       0.045276977 0.09722323 0.070778705 0.036176257
000160 a4 d9 b3 bc 5f d4 9f bd 7a 33 73 3d 3e 06 42 3d
       -0.021954365 -0.078041784 0.059375264 0.047369234
000170 34 e4 58 bd f0 5f bd bd ba 62 55 bd 97 7a 89 3d
       -0.052952006 -0.09246814 -0.052096106 0.06712835
000180 f8 58 83 bc 5d 76 81 3d 94 39 e8 3c a6 8b 26 bd
       -0.016033635 0.06321404 0.028347768 -0.040660523
000190 19 d1 37 bd e0 f7 0e bc 90 44 93 3b eb 49 b7 3d
       -0.044877145 -0.00872609 0.0044942573 0.089496456
0001a0 8c 52 ab 3c e0 a6 9e 3b f6 84 56 3d fa ea 40 3d
       0.020913385 0.0048416704 0.052372895 0.04709909
0001b0 de 97 8f bd ac 28 ac 3c 5d dd 97 bd 81 65 98 bd
       -0.07011388 0.021015488 -0.074152686 -0.07441235
0001c0 f4 06 d7 bc 6e 6f 3e bd 9c ff b6 bc 80 00 42 bb
       -0.026248433 -0.046492986 -0.02233868 -0.0029602349
0001d0 de 84 3d 3d 99 f3 b7 bd 12 c1 0d 3d aa b0 65 3d
       0.04626929 -0.089820094 0.034607954 0.056076683
0001e0 00 f6 f5 bb 40 e8 36 bb ff 17 c0 3d 14 8b ee bc
       -0.007506132 -0.0027909428 0.09379577 -0.029119052
0001f0 20 a1 bb 3c 08 76 95 bc 90 fb 3b 3c c1 a4 ab 3d
       0.022903979 -0.018244758 0.011473551 0.08381034
000200 c1 3c 83 3d c2 8b 0c 3d e0 0f be 3c 5c 9a bf 3c
       0.06408072 0.03431297 0.02320093 0.023389034
000210 42 e5 c2 bd 56 13 04 3d 53 52 41 bd 14 f6 0c bd
       -0.09516384 0.032245003 -0.04719765 -0.034414366
000220 2d b6 b3 3d a9 eb ae 3d 45 33 9d bd 0c 60 0e bd
       0.08774982 0.08541042 -0.076757945 -0.034759566
000230 00 d7 a5 39 92 07 a3 bd 9b dd ae 3d 38 0c 9d bd
       0.0003163144 -0.07960428 0.08538362 -0.07668346
000240 bc 1b ec 3c 34 3b bb 3c 02 86 20 3d 20 08 67 3b
       0.028821819 0.022855379 0.0391903 0.0035252646
000250 ac 63 e4 3c 3e 1b 7a 3d d6 e8 7a 3d e0 90 fa 3b
       0.027879559 0.061061136 0.061257206 0.007646665
000260 3e 04 99 bd c4 4f f3 3c ed 37 2f bd 10 d5 cf 3b
       -0.07471512 0.029701121 -0.042777944 0.0063425377
000270 6b db 85 3d f9 4a 57 bd 04 35 a7 bc 71 8d a5 3d
       0.06535991 -0.052561734 -0.020411022 0.080836184
000280 e2 ee 88 bd b6 af 81 bd 9d ee 71 bd 09 42 a7 3d
       -0.06686188 -0.06332342 -0.05906545 0.08166892
000290 ea fd 94 bd db 12 82 3d c5 e1 b9 3d 1b 6e b1 3d
       -0.07274993 0.06351253 0.09076265 0.08663579
0002a0 d0 a5 45 3c 3e 25 33 3d c5 ca c2 bd 03 c7 b2 3d
       0.012063459 0.04373669 -0.095113315 0.08729365
0002b0 64 6f 8d bd bc 52 bb bc 6a 0f 7d 3d 75 55 73 bd
       -0.06906012 -0.0228666 0.061782278 -0.05940767
0002c0 63 43 c6 3d 76 43 2b 3d 54 e6 e8 3c cf 08 bb 3d
       0.09680822 0.041812383 0.028430142 0.091325395
0002d0 fc 3d f6 3c 6f e2 1d bd 78 ac 57 3c 1d 6a 4f bd
       0.030058853 -0.038546022 0.013163678 -0.050638307
0002e0 e0 fa 1b 3c 76 d7 87 bd 04 e9 d1 3c cb f7 9e 3d
       0.0095202625 -0.06632893 0.025623806 0.077621065
0002f0 00 a6 71 39 00 9d 0e 3a 98 9c 47 3c d9 65 48 bd
       0.00023045391 0.0005440265 0.012183331 -0.048925254
000300 e8 16 45 bc 39 92 6d bd e4 19 9c 3c 05 c4 99 bd
       -0.012029387 -0.058000777 0.019055314 -0.07508091
000310 25 05 c4 3d aa ed 45 3d 02 c2 11 3d 06 7c 3b 3d
       0.09571294 0.048322357 0.03558541 0.045772575
000320 09 5a 6f bd 1a 93 61 3d 39 a1 b0 3d 8a 1a 74 3d
       -0.058435474 0.055071928 0.08624501 0.059595622
000330 8d c2 11 bd 56 cd 68 3d 7d bf 94 3d 15 d7 aa bd
       -0.03558593 0.05683645 0.07263086 -0.08341805
000340 e7 e9 8b 3d a4 42 97 3c 1b f4 95 3d 58 95 2e 3c
       0.06831723 0.018464394 0.0732195 0.0106557235
000350 20 33 96 bd f0 b2 a9 bb f8 88 27 bc 61 ec be 3d
       -0.0733397 -0.0051788017 -0.010225527 0.093224294
000360 85 11 b1 3d 93 67 21 bd 80 d7 18 ba d0 cf 82 bb
       0.0864592 -0.039405417 -0.0005830452 -0.0039920583
000370 d7 52 96 bd 94 ff 9e bc 57 23 8f 3d 60 7f ce 3b
       -0.07340019 -0.019408979 0.069891624 0.0063018054
000380 1a b3 b4 bd d4 4e a7 bc 3f 07 4a bd 24 b8 bf 3c
       -0.088232234 -0.02042333 -0.049323317 0.023403235
000390 2c a1 f2 3c 42 ee 27 3d 94 fd ba 3c 88 47 de bc
       0.029617868 0.040998705 0.022825994 -0.027133718
0003a0 e0 32 1b bc 7e 8c 1f 3d 32 fd 73 3d 03 72 b4 3d
       -0.009472579 0.038952343 0.059567638 0.088108085
0003b0 42 89 4a 3d c3 6a 48 bd c5 d3 c4 bd 70 0d 68 bc
       0.049447306 -0.04892994 -0.09610704 -0.01416336
0003c0 a8 e7 11 3c 45 ba 8f 3d 58 6f 33 bc ae 44 5c 3d
       0.008905329 0.0701795 -0.010951839 0.053776436
0003d0 96 bc 31 bd 8f 8f c2 bd 00 50 77 3a fe e2 4d 3d
       -0.04339274 -0.09500038 0.0009434223 0.050265305
0003e0 a8 48 42 bc 31 2f 82 bd 59 90 82 bd a1 00 90 3d
       -0.011858143 -0.06356657 -0.063751884 0.0703137
0003f0 b2 b2 6a 3d df c5 ae 3d 00 75 de 39 b6 7f a8 bd
       0.057299323 0.08533835 0.0004243031 -0.08227484

model.lstm.bias_ih_l0 f4 [416]
000000 aa bc cc ba 8e a4 34 3d 69 35 f9 bd 73 1e 3b 3d
       -0.0015620191 0.044102244 -0.1216839 0.045683336
000010 e8 59 51 3d 0f 7b 9e bd a9 f1 9c bd c5 96 3b bd
       0.051111132 -0.07738315 -0.076632805 -0.045798082
000020 0b e6 f1 bc ea 41 eb 3d 54 23 a1 bd d4 f2 0a 3d
       -0.029528638 0.114871815 -0.078680664 0.033922985
000030 f0 27 8a 3d 54 fc 0e 3e b8 62 7f bc a6 33 fe bd
       0.06745899 0.13963443 -0.015587501 -0.12412195
000040 9c b8 3c bd 4d 38 95 3d 76 e6 2e bd a3 55 58 3d
       -0.046074495 0.07286129 -0.042700253 0.052816045
000050 c8 85 cc 3a bb 0b 91 3d b0 48 03 3e 14 d9 9a bc
       0.0015603835 0.070823155 0.12820697 -0.018902339
000060 61 f2 74 3d f2 bf 4f bc 8a 2d 02 bd 54 69 a9 bd
       0.059801463 -0.012680041 -0.03178171 -0.08272043
000070 9e 53 c5 bb 64 ec 4d 3d 80 65 35 3d 6e 57 5a ba
       -0.006021931 0.050274268 0.04428625 -0.0008329068
000080 7f 5d 88 3b 05 65 85 3d 35 53 15 bd b8 e5 be bd
       0.004161536 0.065134086 -0.036456306 -0.09321159
000090 5c e4 92 bc 4f 74 4f bd f1 27 ae bd 81 35 68 3d
       -0.017931156 -0.05064803 -0.08503712 0.05669165
0000a0 da 6d b7 3d aa c1 a2 bd b7 a6 ad 3d 9c 01 49 bc
       0.089564994 -0.07947095 0.08479064 -0.01226845
0000b0 45 5b a8 bc 6d 1a 3f bb 28 c5 56 bc 1a 44 97 3b
       -0.020551333 -0.0029160038 -0.013108529 0.0046162726
0000c0 a9 47 e3 bd 12 83 59 3d f0 40 fe 3c 9a d5 5e bd
       -0.110976525 0.053103514 0.031036824 -0.054402925
0000d0 27 c6 97 bd db e0 33 3d cc 43 dd bc fa 09 37 bd
       -0.074108414 0.04391561 -0.027009867 -0.04468725
0000e0 71 4d b0 3c 69 8d 62 bd b0 55 bf bd 5a 00 fd bd
       0.021521302 -0.05531064 -0.093425155 -0.12353583
0000f0 d8 dc 86 bc 54 de 0f 3e 18 a9 9f bd 74 8e e3 3d
       -0.016462728 0.14049655 -0.07795924 0.11111155
000100 17 89 81 bd 30 10 2e 3d 9e a6 e3 bc 6d be df bc
       -0.06324976 0.042495906 -0.02778941 -0.027312482
000110 9c f4 40 ba f7 bb 2d 3d e6 b6 f8 3d 7c 09 fc 3d
       -0.00073606684 0.042415585 0.1214426 0.123064965
000120 51 a2 99 bd 94 fa 05 bb ec 8f 45 bb e9 cd a1 bd
       -0.075016625 -0.0020443546 -0.0030145599 -0.07900602
000130 89 e0 0e 3d aa 61 c9 bd 14 b7 10 3c d6 9b 91 bc
       0.034882102 -0.09833081 0.008832712 -0.017774504
000140 16 fc 39 3b e9 a8 02 bd ec 0e d1 3d 55 10 2a 3c
       0.0028379015 -0.031899367 0.10207924 0.01037987
000150 ce 59 3e 3d bf 0c d9 3c c9 48 1d bd 90 1f 04 3a
       0.046472363 0.026495336 -0.03839949 0.00050401036
000160 7e 54 53 bd eb 8b 93 3d 22 6d a1 bd 75 e1 b1 bc
       -0.05159425 0.072044216 -0.078821436 -0.021713952
000170 f2 41 9e bd 37 1b 1f 3e 62 93 2c 3e 61 e0 ea bc
       -0.07727422 0.15537725 0.16853097 -0.028671445
000180 88 b7 a4 bc 7d 19 22 bd 4f 86 3d be b3 db ef bd
       -0.020107046 -0.03957509 -0.18508266 -0.11711826
000190 56 29 be 3d 33 bf 6a 3b 1a f6 63 bb 9f 42 88 3d
       0.09285228 0.003581953 -0.003478414 0.06653332
0001a0 00 a6 e8 3a 20 ad 41 3b b1 4f af 3d 03 bb 90 3d
       0.0017749667 0.0029552653 0.08560122 0.0706692
0001b0 be 3c 62 3d 39 97 91 bd e7 35 b4 3d 83 61 98 3d
       0.05523371 -0.071089216 0.087993436 0.07440474
0001c0 34 fb ae 3c 22 54 9b bd 45 85 9b 3d cb a0 8f 3d
       0.021360017 -0.075844064 0.075937785 0.07013091
0001d0 00 5b 5e 3a 52 48 7e 3d f2 98 c5 bd 52 2d 22 3d
       0.0008482188 0.06208069 -0.09648313 0.039594002
0001e0 22 24 45 bd f0 2d 78 bc 80 1d d6 bc a3 58 89 3d
       -0.048130162 -0.015147671 -0.026137114 0.06706359
0001f0 8a 46 9e bd bb 5d af bd 8f 59 7b bd 80 49 b7 bc
       -0.07728298 -0.085627995 -0.061364707 -0.022373915
000200 ee 80 3a 3d c0 56 4e 3c 5c e5 0c bd 33 86 b3 3d
       0.045533113 0.012593925 -0.03439842 0.08765831
000210 40 d2 00 bb 35 db b0 bd 84 93 84 bd 28 e7 28 3c
       -0.0019656569 -0.086355604 -0.06473449 0.010309018
000220 a2 01 27 3d 1f 9f b6 bd 46 f6 43 3d 10 b8 12 bd
       0.04077304 -0.08917069 0.047842287 -0.035820067
000230 d4 4e 97 bc af 54 90 bd e1 c7 87 3d 21 ad 82 bd
       -0.018470205 -0.07047402 0.06629921 -0.06380678
000240 1a 33 0b bd 3b 6a b8 3d 1f b2 b9 bd 81 e3 97 bd
       -0.03398428 0.09004637 -0.09067177 -0.0741644
000250 2b 66 9c 3d a7 17 a9 3d 76 44 6f 3d d3 8d b0 3d
       0.076366745 0.082564645 0.0584149 0.08620801
000260 40 d2 4c bc 4b d1 ad bd 04 6c aa bd 80 d9 6a bb
       -0.012501299 -0.08487185 -0.083213836 -0.0035835207
000270 78 1d 63 bc a8 8b 0e bd 83 ab bf 3d 17 61 b5 3d
       -0.013862006 -0.034801155 0.09358885 0.08856409
000280 c6 da 76 bd 78 1d 0a 3c c0 7f 25 3b 57 24 70 bd
       -0.060267232 0.008429877 0.0025253147 -0.058628406
000290 36 0a 2d 3d ad 58 9b 3d 45 81 9c 3d 7a 63 ac bd
       0.042246066 0.07585273 0.07641844 -0.08417411
0002a0 70 fb 92 3b 02 d5 b1 bd e3 85 97 3d f2 08 16 3d
       0.00448554 -0.08683206 0.07398584 0.036629625
0002b0 23 16 92 3d 54 25 35 bd c9 07 32 bd c2 20 3d 3d
       0.071331285 -0.044225052 -0.043464456 0.04617382
0002c0 50 34 ab bb b7 96 51 bd d0 0c c6 3b b9 6f bb bd
       -0.005224742 -0.051169124 0.006044008 -0.09152169
0002d0 1a d9 10 bd 7c 68 8c bd 47 35 19 bd 71 d1 96 3d
       -0.035363294 -0.06855866 -0.037404325 0.073641665
0002e0 f0 02 5e 3c 17 61 3e bd c2 d1 6f 3d ca 83 13 3d
       0.013550505 -0.04647931 0.05854965 0.036014356
0002f0 e6 6c 35 3d 20 a0 5c bc 3a 9a 30 3d 87 06 85 3d
       0.044293307 -0.013465911 0.043115832 0.064953856
000300 8f f3 36 bd 6a e1 6c bd fe 5e 23 3d b1 eb 19 bd
       -0.04466587 -0.05783216 0.039885513 -0.03757829
000310 dd 66 6c bd d7 da a1 3d cc 14 80 3c 12 8e be bd
       -0.057715286 0.079030685 0.015634917 -0.093044415
000320 35 8b aa 3d f4 59 c2 3c 60 33 6b 3b 1b 6d b6 bd
       0.08327333 0.023724534 0.0035888776 -0.08907529
000330 e3 17 a9 3d f0 9e a9 3b ec f1 6c bd 5d d4 c1 3d
       0.08256509 0.0051764175 -0.057847902 0.09464333
000340 84 d8 8c bd 80 41 71 3d 5e 5b aa 3b b1 6a 8b 3b
       -0.068772346 0.058900356 0.00519888 0.004254662
000350 86 89 73 3d bd dc 6e 3c 44 5b ac bb d5 13 9e bc
       0.059457324 0.014578995 -0.005259903 -0.019296566
000360 2c 31 e3 3c 67 67 7a 3d c3 55 e2 bc 17 09 95 bc
       0.027733408 0.06113377 -0.027628785 -0.018192811
000370 e5 3d 46 bd 00 9c cf 3c 8c 2f 90 3d d3 b3 14 bd
       -0.04839887 0.025342941 0.07040319 -0.036304306
000380 ca 48 8b 3d 76 60 85 bd 50 55 02 bd 32 68 62 bb
       0.06800993 -0.06512539 -0.03181964 -0.0034546969
000390 35 3d 83 3c 6a 9a 92 3d 22 7b 9d bc 6f 78 46 3d
       0.016020397 0.071583584 -0.019223753 0.0484547
0003a0 9d 89 ba bc 79 59 42 3d 35 b1 4b 3c 02 86 fa bc
       -0.022770697 0.04744861 0.012432386 -0.030581478
0003b0 1a 74 29 3d 1e eb 89 bd b2 ce 19 bb bc 06 2a bd
       0.04137049 -0.06734298 -0.0023469147 -0.04151033
0003c0 41 8c dc bc 2c a8 dc bd 8e 6e 86 bd 84 bf 63 3d
       -0.026922347 -0.10774264 -0.065640554 0.055602565
0003d0 2e 68 07 bb 40 7d 6f bd 50 b5 e0 bd 38 e5 b5 bd
       -0.0020661461 -0.058469057 -0.109720826 -0.08881611
0003e0 47 66 a2 3d ad df a0 3d d8 6d 5b bc 90 13 8c bd
       0.07929664 0.07855163 -0.013392888 -0.06839669
0003f0 3e a0 4f bc 81 42 72 bd 6b e5 e7 3c bd 11 3a bd
       -0.012672482 -0.059145454 0.028307637 -0.045427073

model.lstm.bias_hh_l0 f4 [416]
000000 f8 c6 93 bc 32 83 4f bd 0f d9 f3 bd 27 1c 0d 3d
       -0.018039212 -0.050662227 -0.11906635 0.034450676
000010 24 2c 8f bc e0 50 a9 bc 8b f2 86 3d e0 b7 d4 bd
       -0.017477103 -0.020668447 0.0658923 -0.10386634
000020 b4 3a 9a bd b7 e1 6c 3e 22 1f 45 bc 38 bb ac bc
       -0.07530728 0.23132978 -0.012031348 -0.021085367
000030 13 a5 0a bb 0b 64 ee 3d 62 c4 1f bc 7e d2 af bd
       -0.002115552 0.116401754 -0.009751411 -0.0858507
000040 08 c6 88 bd d9 b0 46 bd b5 cc 4a 3d 44 49 c2 3c
       -0.066783965 -0.0485085 0.04951163 0.023716576
000050 ab f5 17 bd aa ef 5f bd 4a 9a ed 3d c0 69 87 bc
       -0.03709952 -0.05467192 0.11601694 -0.016529918
000060 aa 4c c0 bc 61 02 d1 bd 73 04 a1 bd de 2b bb 3d
       -0.023474056 -0.10205532 -0.07862177 0.091392264
000070 b2 42 09 3c 16 d8 96 3c f1 cb 0b 3d 45 69 ac bd
       0.008377718 0.018413585 0.03413004 -0.08418516
000080 ca e7 4d 3d 8b fe e2 3d 2f 8c 94 bd e4 e9 9e bd
       0.05026988 0.110837065 -0.072533004 -0.07759455
000090 86 6f bc bc 4f eb bb bd bf 8b ae bd d0 08 de bc
       -0.023002397 -0.09175741 -0.08522748 -0.027103812
0000a0 07 0f 5f 3e a0 e3 80 3d 8b 3d cd 3d 55 81 9a bd
       0.21783076 0.06293416 0.10021504 -0.075441994
0000b0 cd 1a 32 3c 55 70 45 bc 4f fe 4d bd 2f 4e 24 3d
       0.010870648 -0.012050708 -0.050291356 0.040113624
0000c0 20 e0 50 bd 02 fe 3e bd a5 8f c9 3d e0 a2 92 b6
       -0.050994992 -0.04662896 0.09841851 -4.3701e-06
0000d0 bb ed 32 bd 23 c6 3a bd 7f e4 70 bb 93 0a c7 bb
       -0.04368375 -0.045599114 -0.0036757288 -0.0060742586
0000e0 2c 98 c0 ba 32 33 8c bd 71 ae ce 3c 46 83 79 bc
       -0.0014693788 -0.06845702 0.025229665 -0.015229052
0000f0 f6 fe 14 be 29 b0 95 3d 1a 1e 1c bc fe 02 92 3d
       -0.14550385 0.073089905 -0.009528661 0.07129477
000100 1c 47 f6 3d 1a d1 ec 3c 91 2e ab bb e1 0b 04 be
       0.12025282 0.028908301 -0.005224057 -0.12895156
000110 75 d8 2a 3e be a9 91 bd 8f 6d 3c 3b ac 60 04 3e
       0.16684134 -0.07112454 0.0028751825 0.12927502
000120 d0 fa 85 3d 80 2e 15 3d c8 46 03 3e 79 2d d4 bd
       0.06541979 0.0364213 0.1281997 -0.10360236
000130 7b fc 75 3d 2a cf c3 3d 25 aa 37 ba 01 6d 86 bd
       0.060055237 0.09560998 -0.00070062495 -0.065637596
000140 9c 2b 95 3d b9 f1 62 3c e5 7a 04 3e bb 07 1e bd
       0.072837085 0.0138515765 0.12937506 -0.03858159
000150 9e 03 20 3e e1 31 55 3d 77 05 ac 3d d4 02 ae bd
       0.1562638 0.05204952 0.0839948 -0.08496633
000160 4a 97 96 bd 77 3a 96 3d 9c 6b 3f 3d 62 20 d0 bb
       -0.07353075 0.0733537 0.046733484 -0.0063515166
000170 1e e3 21 3a 03 db 37 3e e8 64 10 3e 93 32 b4 bc
       0.00061755057 0.1795464 0.14100993 -0.021996772
000180 0a dc 15 3d 59 63 6b bd d7 9d 15 bd 64 f8 b8 bd
       0.0365868 -0.057467792 -0.03652748 -0.09031752
000190 b8 97 45 3d c0 24 04 3d 12 b2 d1 3d bb 3d 87 bc
       0.048240393 0.03226161 0.10239042 -0.016508928
0001a0 35 2b 83 3d 8c d3 c7 3c 2f d3 99 3d 11 0c 35 bd
       0.064047255 0.024392866 0.07510983 -0.04420096
0001b0 78 32 f9 bc 23 d8 ab 3d c0 5d 91 3a e2 6a 00 bd
       -0.030419573 0.08390834 0.0011090562 -0.03135193
0001c0 b2 56 56 3d 72 b0 41 3d 14 cf f5 bc 10 f4 91 3b
       0.052328773 0.047287412 -0.03000597 0.0044541433
0001d0 e8 81 a8 bc 25 ad bb 3d d0 a4 79 3c b6 c6 be bd
       -0.020569757 0.09163884 0.015237048 -0.09315245
0001e0 a2 fe 6d 3d ee 2b 3a 3d ab 89 b8 3d 8b 2f a1 3d
       0.058104165 0.04545205 0.09010633 0.07870396
0001f0 bc 7d 8f 3c 20 29 16 3c fb 32 9e 3d 01 bd b5 bd
       0.01751601 0.009165078 0.077245675 -0.0887394
000200 f3 d2 bf 3d 00 9c c5 38 56 0b 4a 3d 60 fb 52 bd
       0.09366407 9.422749e-05 0.049327217 -0.05150926
000210 5a 69 a0 bd fe 4a 04 bd 11 f3 3a bd 00 17 80 39
       -0.07832594 -0.03229808 -0.045641962 0.000244312
000220 50 64 95 bd d0 27 d1 bb b0 40 53 bc 6a 59 28 bd
       -0.07294524 -0.00638292 -0.012893841 -0.041100897
000230 e0 64 ea bb 32 45 ba bd 21 d6 94 bd 6c fe fe 3c
       -0.0071531385 -0.09095229 -0.07267404 0.031127177
000240 e2 51 51 3d d9 62 35 bd 40 29 c3 bb 88 52 59 bd
       0.05110348 -0.04428372 -0.005955845 -0.053057224
000250 96 26 2a 3d d6 5b 0d bd 78 53 60 bc d9 5d 6a bd
       0.041540705 -0.03451141 -0.0136917755 -0.057218406
000260 60 2b 07 3b 78 3e b3 bc 75 29 9b 3d 76 96 4d 3d
       0.0020625219 -0.021880373 0.07576267 0.05019232
000270 c4 ef 26 bd bc 40 48 bd be fb 23 3d 20 76 53 3c
       -0.040756002 -0.04888986 0.040035002 0.012906581
000280 94 43 fe bc 57 40 81 bd 36 c6 07 bd 0a db 65 3d
       -0.031038083 -0.063111 -0.033148013 0.056117095
000290 a0 0d 3e bc 5a 66 1c 3d 5b bb 18 bd 50 88 a1 3c
       -0.011599928 0.038183548 -0.03728805 0.01971832
0002a0 7d db 51 bd 44 72 86 3c 05 84 92 bd 1b 0c ba 3d
       -0.05123471 0.016411908 -0.07154087 0.0908434
0002b0 94 e1 a8 3c 82 60 73 3d 2b 23 32 bd 50 35 ba bc
       0.020615377 0.05941821 -0.04349057 -0.0227305
0002c0 d5 8d b3 3d 17 3b 8f 3d 74 c2 89 bd f4 6b fe bc
       0.08767287 0.06993692 -0.06726542 -0.031057335
0002d0 d1 9b 86 3d e6 7c 08 3d cd f8 8a 3d 22 55 58 3d
       0.06572688 0.033322237 0.06785736 0.052815564
0002e0 66 0e 61 3d 8b 90 83 bd db 8d 9e 3d 8a ac 2c 3d
       0.054945372 -0.06424054 0.077419005 0.042156734
0002f0 9e 49 1c 3d b7 62 3d bd 40 07 b1 bd bb 58 83 3d
       0.038156144 -0.04623672 -0.08643961 0.06413408
000300 dd 0f b0 bd d0 c4 e5 bb 3d 7f 5c bd 31 03 c0 3d
       -0.08596776 -0.0070119873 -0.05383228 0.09375609
000310 b6 c7 5f 3d 00 9d 58 3c 41 9e 32 bd 3c c3 f3 3c
       0.05463382 0.0132210255 -0.043607954 0.029756181
000320 69 8a 21 bd 3c 95 e9 3c c0 05 c5 3b 3e dc 99 bd
       -0.03943864 0.028513543 0.0060126483 -0.07512711
000330 92 08 24 3d 4d 61 9e 3d 62 25 25 3d ac f0 c8 3c
       0.040047236 0.077334024 0.040318854 0.024528824
000340 f9 c1 ce 3b e6 8c 91 bc 7b 78 6b 3c 70 24 7c 3d
       0.0063097444 -0.01776738 0.0143719865 0.061558187
000350 69 99 29 bc 8c 45 90 bd 85 cf 4c 3d 03 ab 75 bd
       -0.010351517 -0.07044515 0.050002594 -0.059977543
000360 ed 05 84 bd 1b d0 ab 3c 68 d1 55 3c ba dc e5 3c
       -0.06446443 0.020973256 0.013050415 0.028059352
000370 ee 45 50 bc cc 08 a0 bd 11 12 37 3d 4f d1 0c bd
       -0.012711985 -0.07814178 0.044694964 -0.0343793
000380 3b 3a cd bd 0e 00 d5 3d 7e 36 84 bd 65 48 f3 3b
       -0.10020872 0.10400401 -0.06455706 0.0074244016
000390 47 6a 82 bd b6 67 1c bd 1b dd 5b 3d 3a 22 8e bd
       -0.06367927 -0.038184844 0.05367766 -0.06940122
0003a0 7d 94 94 3d bb 81 38 3d 5a 54 71 bc f8 44 42 3d
       0.072548844 0.045045596 -0.014729584 0.047429055
0003b0 da 25 29 3d 28 1d df 3c 96 82 a7 bd d8 38 3d bd
       0.041295864 0.027235582 -0.08179204 -0.04619679
0003c0 e8 38 95 3d 64 28 10 3d 73 29 31 3d c4 9b 7d 3b
       0.07286245 0.03519477 0.04325242 0.003869758
0003d0 d1 97 86 3c b4 68 4b 3c e4 d2 27 3d 1a 43 84 3d
       0.016429814 0.0124151 0.040972605 0.06458111
0003e0 8e ea 5b 3d 19 48 09 bd e1 a7 aa bd 7f d0 b3 3c
       0.053690486 -0.033516023 -0.083328016 0.021950005
0003f0 56 6e b8 3d 04 f3 51 3b bb b9 19 bc eb dc 9a 3d
       0.0900542 0.0032035718 -0.0093826605 0.07561668

model.fc_layers.0.weight f4 [52, 104]
000000 de ee ba bd 11 3f 32 bd a7 e5 07 3c e7 26 79 bd
       -0.091275916 -0.043517176 0.0082944995 -0.060828116
000010 15 9d a4 3c eb 66 00 3c 95 59 f8 3d 2a 6a 12 3d
       0.020094434 0.007837038 0.121264614 0.035745777
000020 83 13 84 3c 6e 50 53 be e0 b4 29 3d f7 53 67 3d
       0.016122585 -0.2063615 0.04143226 0.05647656
000030 ba b8 04 3c 15 ee b1 3d c0 be 21 bd de 5d 9a 38
       0.008100683 0.08687989 -0.039488554 7.360776e-05
000040 9f e2 81 3a 87 1d 0b be 61 ca 58 3d 0e 36 1d 3d
       0.0009909457 -0.13585483 0.05292738 0.03838163
000050 ea 8d 55 bd 52 f0 63 bd d5 a4 bf bd af 55 22 bd
       -0.052137293 -0.05564911 -0.09357611 -0.039632495
000060 ce c5 b8 3d 8d c3 ba 3d ac 49 c8 3a 3a 9a 44 bc
       0.09022103 0.091193296 0.0015280745 -0.011999661
000070 81 71 73 3d 10 c1 33 3c 9c 51 50 3e 5d 3e eb 3c
       0.059434418 0.010971323 0.20343632 0.02871626
000080 69 95 f2 3d 80 e2 f7 3d 7e 6c b8 3d 28 a7 a0 bc
       0.11844904 0.12103748 0.09005068 -0.019610956
000090 ac a6 de 3d 2b 09 46 3b e3 4f cd 3b e5 56 03 3e
       0.10871634 0.0030217867 0.0062656268 0.12826116
0000a0 ed e5 36 bd 45 55 db 3c 14 c6 d1 3d cd 2a de bc
       -0.044652868 0.026774058 0.102428585 -0.027120018
0000b0 a8 c8 4a bd d3 64 52 bd 19 2e 04 3e 3a 60 49 bc
       -0.049507767 -0.051365685 0.1290821 -0.012291009
0000c0 3f 33 cf 3c bb 71 4a bc b3 0b e4 ba 05 49 0c bd
       0.02529299 -0.012356217 -0.0017398506 -0.034249324
0000d0 0b 88 5d bd 0b 4f 04 be 9e 05 8c 3c 9f fb 7f 3d
       -0.05408482 -0.12920777 0.017092522 0.062495824
0000e0 52 60 37 3d da 37 c8 bd b3 45 4f bd 4d 4d c9 bd
       0.044769593 -0.09776278 -0.05060358 -0.09829197
0000f0 94 02 fa bc 1a 59 8b bd d0 ac 7c bd ee f4 f3 3d
       -0.030518807 -0.06804104 -0.061688244 0.11911951
000100 32 26 b7 3c 00 fd 9e bd 29 71 b7 3b 19 e1 91 bd
       0.02235708 -0.077631 0.0055982065 -0.07123012
000110 75 99 08 3e 04 86 0b 3b eb a3 39 bd c1 80 24 be
       0.13339789 0.0021289596 -0.04532234 -0.1606474
000120 72 85 12 3d d3 bb c1 bd cc ae e2 bd fb 9f 4c 3d
       0.035771795 -0.09459653 -0.11068496 0.049957257
000130 c6 7e ea 3c 0b 79 e7 3d 6a e6 5e bd 9e 4b a3 bc
       0.028624903 0.11302384 -0.05441896 -0.019933518
000140 29 58 00 3e 01 91 2c bd 62 1e 16 be 97 0f 60 bc
       0.1253363 -0.042130474 -0.14660028 -0.013675592
000150 62 78 c9 bd 22 1e 85 bd 41 be ed bc cb b8 8f 3c
       -0.09837414 -0.06499888 -0.029021384 0.01754417
000160 32 e7 b1 bd 1a 1b 26 bd 29 0e 04 3d 7f 54 38 bd
       -0.08686675 -0.04055319 0.032240067 -0.045002457
000170 5e de d8 3d 4f dd db 3d c5 85 a2 3c d3 f1 22 bc
       0.10589288 0.10735571 0.019839177 -0.009945351
000180 fb 7e 6d bd 8f b9 64 3c e1 84 a9 3c be 33 d5 bc
       -0.057982426 0.013960256 0.020693244 -0.02602565
000190 47 c0 32 bc 8a 62 5e 3d d1 bc 9d 3c e3 a1 71 3d
       -0.0109101 0.054293193 0.019255074 0.058992278
0001a0 73 2e ac bc 16 53 3f 3c 3a ab 71 3c 1d 6b 39 3d
       -0.021018242 0.011677524 0.014750296 0.045268167
0001b0 74 9b 06 be 0d f9 09 3c 98 73 82 bd 07 9e be 3d
       -0.13145238 0.008421195 -0.06369704 0.09307485
0001c0 0d f7 6c bc c2 67 63 bd 29 86 9c bd d1 bf 29 3d
       -0.014463198 -0.055518873 -0.076427765 0.041442696
0001d0 b1 4d 86 bc 40 f9 53 3d ee 0b ed 3d e1 e2 e6 3c
       -0.016394468 0.051751375 0.11574541 0.028184356
0001e0 d9 05 d0 3d 5f 62 07 be 66 be 3a 3d 45 7f de bc
       0.10157365 -0.1322112 0.045591734 -0.027160296
0001f0 7e 7f c6 bb 8b b5 ea 3c d4 af e8 bd ca d3 1e bd
       -0.0060576787 0.02865102 -0.113616616 -0.038776197
000200 2a c2 41 bd 79 82 ea 3c 8d ac c8 3d a6 14 1d bc
       -0.04730431 0.028626667 0.097985364 -0.0095874425
000210 94 d5 f7 3b 31 93 cc bd 71 79 4a 3e a5 d0 af 3d
       0.0075633023 -0.09989012 0.19772889 0.08584718
000220 aa b9 f6 3d b4 dd d6 3d 94 20 9e bc fc 15 b0 bd
       0.12047131 0.10491505 -0.019302644 -0.08597943
000230 51 6e e0 bc 21 e0 22 bd c9 da 8f bd c5 33 b9 bc
       -0.027396353 -0.039764527 -0.07024152 -0.022607693
000240 42 c4 26 be 5d 0f ae bd f8 2f d3 ba ac 6b 22 bd
       -0.16285804 -0.08499024 -0.0016112318 -0.039653465
000250 9c 98 18 bd c3 91 b4 3c 6a 45 e7 3d 30 3b d4 bd
       -0.037254915 0.02204216 0.112925366 -0.103628516
000260 0d c2 ba 3b 2c 03 1b 3d f8 5f 86 3d 84 cb 8b 3d
       0.005699402 0.03784482 0.06561273 0.06825927
000270 87 64 96 3d 67 58 2e bd 75 e8 87 bc e2 34 e0 bd
       0.07343393 -0.042564776 -0.016590336 -0.109475866
000280 04 1a 35 bd b7 56 b0 bd c0 97 b6 bd 57 e2 e9 3c
       -0.044214264 -0.086102895 -0.08915663 0.02855031
000290 95 9d aa 3d f4 3d 29 be b6 f2 83 bd 80 1c b2 3d
       0.08330838 -0.1652754 -0.06442778 0.08696842
0002a0 24 da cd bd 2d 33 d2 bd 34 e3 7a 3c 18 6f bd bd
       -0.10051373 -0.10263667 0.0153129585 -0.09249705
0002b0 b6 3f 88 3d 1d c8 9e bd b1 19 64 bc 52 7b df bd
       0.06652777 -0.07753012 -0.013922141 -0.10912193
0002c0 95 af 9b bd a4 fb c2 bd ee 32 ee bd 98 c2 38 bd
       -0.07601849 -0.09520653 -0.11630808 -0.045107454
0002d0 33 f6 c7 3d 7a b3 e8 3d 16 99 bd bd 96 07 eb 3d
       0.09763756 0.113623574 -0.092577145 0.11476056
0002e0 ed 65 e6 3d 0e df 4e 3d 24 e2 09 be f2 38 d8 3d
       0.112499095 0.05050569 -0.13465172 0.105577365
0002f0 11 cb 15 be f7 aa 87 bd e8 fc b5 bd 37 54 99 3b
       -0.14628245 -0.06624406 -0.08886129 0.0046792286
000300 e3 9f 02 3d 55 5b 2f bd 53 fb 3f bb 55 b4 4b 3a
       0.03189076 -0.04281171 -0.0029294088 0.0007770707
000310 88 1e ef 3d 36 98 4a 3e 5e c7 94 3d 09 d8 cc 3c
       0.11675745 0.19784626 0.07264589 0.025005357
000320 ca 35 b2 bd 3a 8f 22 bd df 4a 90 3d 03 bf 9d 3d
       -0.08701666 -0.039687373 0.070455305 0.07702448
000330 d4 a8 dc bd 34 f0 26 3d 0a 45 da bc 36 7a 92 bd
       -0.10774389 0.04075642 -0.026644249 -0.07152216
000340 b5 99 c1 bd 4a c3 8c bc 8c 43 7d 3c f8 f1 e1 3c
       -0.094531454 -0.017182965 0.015457999 0.0275812
000350 52 04 22 be af 2c c8 3d 4b d9 6b bd 84 19 82 3d
       -0.1582196 0.09774148 -0.057580274 0.06352523
000360 61 76 a4 3c 71 db 54 bd a9 66 b4 3d 65 a4 dc 3c
       0.020075979 -0.051967088 0.08808643 0.026933858
000370 ab 41 11 3d f8 fc c0 3d 2f 63 ca 3d cf 72 17 3d
       0.035463016 0.0942325 0.09882199 0.036974724
000380 b3 bc 5b 3c 8b 31 05 be 5f 4a 17 bd ba 0b 12 3c
       0.013411689 -0.1300718 -0.03693616 0.008913929
000390 34 d5 2c b8 73 5f 9f bd 50 28 b6 3c 30 57 87 3c
       -4.1206556e-05 -0.07781877 0.02223602 0.016521066
0003a0 db 5a 91 3d f3 db 87 3d ab f4 59 3d a9 a1 97 bd
       0.070974074 0.06633749 0.05321185 -0.07403881
0003b0 c6 06 9d 3a 46 a8 16 3d b9 9b dc 3d cc cb 32 bd
       0.0011980168 0.03678157 0.10771889 -0.043651387
0003c0 45 a9 09 3d 2a b4 9c 3d 16 d8 c8 3d b4 18 14 be
       0.033608694 0.07651551 0.0980684 -0.14462548
0003d0 c3 4f 9b bc 7e ea 2e 3d f0 4d 32 3d 18 25 47 bd
       -0.018958932 0.042704098 0.04353136 -0.04861936
0003e0 6b e5 2a bd e8 7f 73 bd 79 b6 5d bc 96 60 59 b9
       -0.041722696 -0.059448153 -0.013532274 -0.00020730714
0003f0 c2 ca d4 bd 67 48 a1 bd 76 8f ef 3c 3d e0 c0 3c
       -0.103902355 -0.07875138 0.029243212 0.023544425

model.fc_layers.0.bias f4 [52]
000000 a2 cc b9 3d ae a0 73 3d 7c 3e b9 3d c5 63 07 bc
       0.09072234 0.059479408 0.09045121 -0.008263533
000010 f5 72 4c bd 1d 16 c1 3c 12 13 0f bd 5e 83 63 bd
       -0.04991432 0.023570115 -0.034930296 -0.055545203
000020 c7 a3 96 3d e5 16 5e 3c be fa 29 3c 7c 1e d4 3d
       0.07355457 0.013555263 0.010374723 0.10357377
000030 33 1b 11 bd d6 f9 77 bd bd 27 45 bd be e0 9f 3d
       -0.03542633 -0.060540996 -0.0481336 0.07806538
000040 8d c6 60 3c df 65 15 3d cd f6 78 3d 05 68 83 bd
       0.013719213 0.036474105 0.060782243 -0.064163245
000050 d1 9b 6a bd ed 4e 56 3d 8f 65 5f 3d ea 2c 91 bd
       -0.057277504 0.052321363 0.054540213 -0.07088645
000060 9d 37 14 bc 11 02 ee 3b 65 c1 13 bd c7 64 34 3d
       -0.009046462 0.00726343 -0.036073107 0.04404142
000070 f9 64 a7 3d d8 88 73 bd ad 9d 0f bc b6 34 69 bd
       0.08173556 -0.059456676 -0.00876562 -0.056935035
000080 85 6d 4a bd 9f 1e f7 3c 9f 4d 9d bd 48 a0 b4 3d
       -0.049420852 0.030165968 -0.07680821 0.08819634
000090 63 fc a1 3d 84 2c 7c 3d 9b 54 77 bc 63 a9 33 bc
       0.07909467 0.06156589 -0.015095855 -0.010965678
0000a0 d0 15 b4 bd 97 b8 c0 3c 76 d6 34 3d a9 06 53 bc
       -0.08793223 0.02352552 0.04414984 -0.012880006
0000b0 e8 72 e5 bc df c0 c0 3b d5 e1 b3 bc 9e b3 2d 3c
       -0.028008893 0.005882367 -0.021958271 0.010601906
0000c0 b8 17 7c 3c d6 b6 9f 3d 23 6c 81 bc 3f 15 20 3d
       0.015386514 0.07798545 -0.015798634 0.03908276

model.fc_layers.1.weight f4 [26, 52]
000000 1e 9e 1c be 03 34 3d bd 64 a9 b4 bd 12 a1 97 3d
       -0.15294692 -0.04619218 -0.08821371 0.074037686
000010 d5 4a 27 bc 15 ac d4 bb de fa 3e 3b 0b b2 dd 3d
       -0.010210712 -0.0064902403 0.0029141228 0.108249746
000020 eb 5f 0d be 62 07 db 3d 85 35 fa bd d9 a9 a9 bd
       -0.13806121 0.106947675 -0.12217239 -0.08284349
000030 a6 b5 66 bd c2 01 65 bb 1a 94 0f 3e 1b 37 d7 bd
       -0.056325577 -0.0034943675 0.1402134 -0.105085574
000040 87 72 b3 3c db 91 b3 3d 4b 78 34 3d 69 a9 de 3c
       0.021905197 0.08768054 0.044060033 0.02718039
000050 96 e3 d5 3c 22 fc 4f bb 87 30 30 3d 6d b2 cb bd
       0.026109498 -0.0031735976 0.04301503 -0.099461414
000060 56 ea e1 3d d2 52 88 3d 36 b7 15 3e bf 41 ae 3c
       0.11031024 0.06656422 0.1462067 0.021271585
000070 8f 20 10 be 4a 1e f0 3d c4 b1 d7 bd 6d 56 2b bd
       -0.1407492 0.11724527 -0.10531953 -0.04183047
000080 21 ce f9 3c b6 ac de bc b6 5f de 3d ac 5c 1d be
       0.030493798 -0.027181964 0.10858099 -0.15367383
000090 9b 68 23 bd 19 a7 ee bd a5 32 b7 bc 13 dc f2 3d
       -0.03989468 -0.11652965 -0.022363016 0.11858382
0000a0 33 b7 be bd 1d 35 80 3d 5f 7b c2 bc 0b 15 80 bc
       -0.09312286 0.062601306 -0.023740469 -0.015635034
0000b0 d0 e9 92 bd 4a ad ed bd 85 1b 1b be a0 ec d5 3d
       -0.071735024 -0.11605318 -0.15147217 0.10445523
0000c0 cd 62 12 bc 04 1e fe ba 26 94 ae bd 8d 2c c6 bc
       -0.008934689 -0.0019387607 -0.08524351 -0.024191165
0000d0 c6 7a ae bd 46 14 2b 3d 0d dd 1e 3e c1 a4 fd bd
       -0.08519511 0.04176738 0.15514012 -0.1238494
0000e0 16 17 59 bd 98 57 81 3d cc 85 25 3d c6 f6 bf bd
       -0.053000532 0.06315535 0.0404108 -0.0937324
0000f0 8f 2e da 3d eb e0 0e 3d 4d aa 54 bc 17 db 5e 3d
       0.106534116 0.034882467 -0.012980056 0.05440816
000100 4f f4 d8 3d 61 c4 5b bc 9b 05 9d bd 94 fd 05 bd
       0.10593473 -0.01341352 -0.07667085 -0.032712534
000110 ec 7f ba 3c 36 55 9c 3c 40 80 0f bc c9 97 04 3d
       0.022766076 0.0190836 -0.0087586045 0.032371316
000120 72 8b 1a be b5 85 6a bd 05 74 ba bd d5 1d fa bc
       -0.15092257 -0.05725642 -0.0910416 -0.030531803
000130 93 73 0c be 80 8e 2e bc 30 bb 52 3c 91 01 4e 3d
       -0.13715963 -0.010654092 0.012862012 0.050294463
000140 e1 a2 1f 3e 35 27 02 3c 5c 50 82 3d bb 04 d4 bc
       0.15589477 0.007943918 0.063629836 -0.025881162
000150 c4 a8 c9 bd 40 70 87 bd fb d0 8b bd 89 d5 1a bd
       -0.098466426 -0.06613207 -0.06826969 -0.0378013
000160 aa 64 21 bd 88 e8 e4 bc 4f 6b c3 3d 36 a7 c1 3d
       -0.03940264 -0.02794291 0.09541952 0.09455721
000170 1d 6d a7 3c 59 cf ac 3d 70 cc 0c 3d 1b 0b 53 bb
       0.020437771 0.08437986 0.034374654 -0.0032202664
000180 15 21 a7 bd ef cb 8f bd cc 6b f6 3d a4 0f 51 3d
       -0.08160607 -0.07021319 0.12032279 0.051040307
000190 6a 5b 2b 3d 30 13 9f 3c 1a b3 8a bd e3 b8 0f 3e
       0.041835226 0.019418329 -0.06772442 0.14035372
0001a0 ee 5c 85 bd 32 09 b7 bc 0d c2 b5 3d 18 f9 37 bd
       -0.065118656 -0.022343252 0.08874903 -0.04491529
0001b0 78 ce 56 3d 89 66 95 3d d3 ad 15 be 5f 4a 0c 3d
       0.052442998 0.07294948 -0.1461709 0.034250613
0001c0 05 93 e2 bd 97 b6 16 be e2 f7 cb bd 6d e6 0f 3e
       -0.11063198 -0.1471809 -0.09959389 0.14052744
0001d0 70 15 ac 3d c6 bb 9f 3d 81 c1 ec bd 0d 10 e3 bd
       0.084025264 0.07799487 -0.115603454 -0.11087046
0001e0 52 ac 3c bd 01 a7 5d bd d5 e1 03 3c 30 9e ff 3a
       -0.046062775 -0.054114345 0.008049448 0.00195021
0001f0 9f 50 a6 bd 89 2e 0f be 40 90 9e bd a9 79 9d 3d
       -0.08120846 -0.13982596 -0.07742357 0.076892205
000200 b4 b0 c1 3d 3a f0 9f bc ac 69 bb 3d 51 7b 85 3c
       0.094575316 -0.019523729 0.09151015 0.016294153
000210 6c 49 3b bd 72 0b 48 bd 8e b2 2d 3d 82 80 4b 3c
       -0.045724317 -0.04883904 0.04240661 0.012420775
000220 b4 bf 01 3d 0e 50 17 3d df 1e 9a 3d 4d f0 42 bd
       0.031676963 0.03694158 0.075254194 -0.04759245
000230 b8 e3 dd 3d 80 83 e4 bd 38 e6 9b bd 56 e3 d7 3d
       0.108344495 -0.11157894 -0.0761227 0.10541408
000240 78 43 cc 3d 01 a2 63 3d d3 8a 3b bc f4 6f 69 bd
       0.09973806 0.05557442 -0.0114466725 -0.056991532
000250 04 82 fa 3c 9c 8c cb bd 5a 36 00 bd 96 d3 62 bd
       0.030579574 -0.099389285 -0.031301834 -0.055377565
000260 53 d7 83 3d 3d e1 ff 3d 2b db 20 3d f0 ce c2 bd
       0.06437554 0.12494133 0.039271515 -0.095121264
000270 bc a6 54 3d dd c2 26 3e 14 5c b0 3c d2 d8 66 bb
       0.051916823 0.16285272 0.021528281 -0.003522445
000280 c4 e1 4c 3d d0 10 dd bd 71 52 a6 bd 6a 2e 8b 3d
       0.050019994 -0.10794222 -0.08121193 0.06795962
000290 98 44 4d 3b 25 a5 85 3d a4 ca 04 be 1d b6 8d 3b
       0.0031321403 0.065256394 -0.12967926 0.004324688
0002a0 74 fb 89 bd 8a b1 07 be c1 2e a2 3d 29 98 82 3c
       -0.06737414 -0.1325132 0.07919074 0.015941696
0002b0 07 78 ea 3d 90 05 0b 3e b4 f5 b4 3d de cb 3c bd
       0.11448675 0.1357634 0.08835927 -0.04609286
0002c0 78 10 1e be 21 65 de bd b9 04 c1 bd 9b 00 2a bd
       -0.1543597 -0.108591326 -0.09424729 -0.041504484
0002d0 7e aa be bc 2e 05 19 bd 26 05 1b bd e7 c5 88 3c
       -0.023274656 -0.037358455 -0.037846707 0.01669593
0002e0 64 7b f0 bb 86 d4 a3 bd c6 88 0a 3e a4 29 b3 bc
       -0.007338928 -0.0799952 0.13528737 -0.021870442
0002f0 b1 ea 0b be 04 db cb bd 2d 50 88 3b 40 a2 ee 3d
       -0.13663746 -0.09953883 0.0041599483 0.116520405
000300 15 67 33 3c ac 18 1d 3e 43 88 d3 3d 94 cd b8 bd
       0.01094987 0.15341443 0.10328724 -0.09023586
000310 c9 e9 f8 bd 07 5e e1 bc 36 e8 f1 3d 44 60 c9 bd
       -0.12153966 -0.027510656 0.11811869 -0.09832814
000320 a2 94 b8 3d be 15 9c 3d 35 7e e8 bc 6c 31 72 bd
       0.090127245 0.076213345 -0.028380493 -0.059129164
000330 42 56 d2 bd 38 16 df 3d 3d 29 0c 3e c4 64 8f 3d
       -0.102703586 0.1089291 0.13687606 0.070016414
000340 c0 36 12 be ce f5 78 bd 1c d7 1b 3d 39 4a a8 bd
       -0.14278698 -0.060781293 0.03804694 -0.08217282
000350 77 f2 8f 3d 7e ea 99 3d e8 ee 7a 3d b4 02 fd 3d
       0.070286684 0.07515429 0.061262995 0.12354031
000360 b6 71 99 3d 89 7b f1 3d fa 3c 42 bd f5 2a 2c 3c
       0.07492392 0.117911406 -0.047421433 0.010508289
000370 bb ba 2e 3d 3b bd 68 3d 0e ba d4 bd 57 9a 6e bd
       0.04265855 0.05682109 -0.103870496 -0.05825266
000380 f6 b1 03 bd b9 8b 3c 3d 63 f5 ff 3d d3 4d 2f 3d
       -0.03215214 0.046031687 0.12497976 0.04279883
000390 8e 54 e0 3c 07 52 9b 3d 95 dc 71 3d 56 c2 f2 3d
       0.027384069 0.07584005 0.059048254 0.11853473
0003a0 b1 84 d7 bc 05 3d 66 bd f2 5d d7 bd 9d c1 e4 bd
       -0.02630839 -0.056210537 -0.105159655 -0.11169741
0003b0 8f b9 d5 3d fa f1 0b 3e 60 b2 1d bd 52 6e c1 3c
       0.10435783 0.13666525 -0.03850019 0.023612175
0003c0 64 3c 78 3c eb 39 48 bd 96 d7 20 3e 91 29 e0 3c
       0.015151117 -0.04888336 0.1570724 0.02736357
0003d0 74 2e 12 3c f0 d5 df 3d 01 0e d6 3c 92 7c ac 3b
       0.008922208 0.10929477 0.026129724 0.0052638734
0003e0 20 c4 16 3d 28 c1 6a 3b 32 fc 49 bd 6f cb 57 3d
       0.036808133 0.0035820697 -0.049312778 0.052684244
0003f0 86 8e e2 3d 81 51 90 3d 0c 23 aa bd ca 55 48 3c
       0.110623404 0.07046796 -0.08307466 0.012227485

model.fc_layers.1.bias f4 [26]
000000 03 33 27 bd 94 63 d6 3d 62 05 82 3d f4 ed f4 3c
       -0.040820133 0.10468212 0.06348683 0.029898621
000010 01 bd 0c be 7b 60 7f 3d 81 c1 e0 3b 55 8b de bc
       -0.13743974 0.06234787 0.006859005 -0.027166048
000020 7f 2a d6 bc 17 48 0e be d5 4b 6b 3d ec 07 73 3d
       -0.02614331 -0.13894688 0.057445366 0.059333727
000030 12 0a b7 3d df 30 1a 3d b0 33 88 bd 88 03 b9 3d
       0.08937468 0.037644263 -0.066504836 0.09033877
000040 11 ac d1 bd 73 0a 2c 3d 74 51 35 3c cd 79 83 3d
       -0.10237897 0.042002153 0.011066783 0.06419716
000050 77 ff 3b 3d 7a 63 cc bd d6 68 0e be bb 9c da 3c
       0.045897927 -0.09979911 -0.13907179 0.026686063
000060 ea 8e 58 bc 8c 63 da bd
       -0.013217667 -0.10663518

model.fc_layers.2.weight f4 [1, 26]
000000 72 6a 33 be 81 94 11 3e ea fa 8f 3a 17 8d 00 3e
       -0.17521074 0.14216806 0.0010984812 0.12553822
000010 34 fb 40 be ec eb 74 3d 4f 7a 48 be ad 99 05 3e
       -0.18845826 0.059795305 -0.19577907 0.13046904
000020 da d7 16 be 2f 59 e0 bd 38 0b ce 3d 2f 53 e7 3d
       -0.14730778 -0.109545104 0.100607336 0.11295163
000030 ed fe f0 3c 62 6c 3f 3c b7 79 1a 3c a7 d6 dd bd
       0.029418433 0.011683555 0.009428433 -0.10831957
000040 ec 76 b4 ba 58 a7 16 3b e6 e5 1a be 32 9c 53 3d
       -0.0013768352 0.0022987928 -0.15126762 0.05166263
000050 49 87 d3 bd 8d 72 0b bc a7 02 11 be f9 44 2a be
       -0.10328538 -0.008511198 -0.14161168 -0.16627873
000060 cd 8d 1b 3e 39 0c b2 3d
       0.15190811 0.086937375
