LSTM_TimeSeries/lightning_logs/version_192/checkpoints/epoch=19-step=2600.ckpt (torch, 952859 bytes, 27 tensors)

model.lstm1.weight_ih_l0 f4 [416, 3]
0	0x3e140e3b	0.14458553
1	0x3dc4a733	0.09602203
2	0x3e01cbab	0.1267535
3	0xbc75e852	-0.015009003
4	0xbd456a32	-0.04819698
5	0x3d9c39a1	0.07628179
6	0x3e412ce4	0.1886478
7	0x3d9d8005	0.076904334
8	0x3eb602ac	0.35548913
9	0xbdddfd06	-0.10839276
10	0xbd636ffd	-0.055526722
11	0x3c6cd7d0	0.014455751
12	0xbd48c25c	-0.04901348
13	0x3da3166e	0.079632625
14	0xbb158e1c	-0.00228203
15	0xbdd39bd2	-0.10332455
16	0xbdea5f82	-0.11443998
17	0x3d0e7d90	0.034787714
18	0x3d2e0316	0.04248341
19	0xbd2020fb	-0.039093953
20	0xbcbce285	-0.023057232
21	0x3e0c848b	0.13722436
22	0x3dc011c5	0.09378389
23	0x3e3485e7	0.17629205
24	0xbb79079d	-0.0037998923
25	0x3d003a8d	0.03130584
26	0x3e0c558f	0.13704513
27	0xbb855a28	-0.0040695854
28	0x3daa4055	0.083130516
29	0x3de724e5	0.11286334
30	0x3d897eb5	0.067136206
31	0x3e00c5ff	0.1257553
32	0x3daf9be8	0.08574659
33	0x3cc617fc	0.024181359
34	0x3dce091c	0.10060331
35	0x3e30b4b4	0.17256433
36	0xbba371df	-0.0049879397
37	0xbdc7a512	-0.097482815
38	0xbcb31d56	-0.021864574
39	0x3decbbf3	0.11559286
40	0x3d7cbf22	0.061705716
41	0x3dd8bc5d	0.105828024
42	0xbb028c73	-0.001992014
43	0xbd92928c	-0.07156858
44	0x3cb068a0	0.021534264
45	0xbda8219d	-0.08209536
46	0xbcfdc2ac	-0.030976616
47	0xbc878e85	-0.01654745
48	0x3bc903f6	0.0061345054
49	0xba9f98b9	-0.0012176252
50	0x3d8f0f03	0.06985285
51	0x3e2e9a3d	0.17051025
52	0x3cbd2ff6	0.023094159
53	0x3e8e220e	0.27760357
54	0xbd06ad78	-0.032880276
55	0x3dc323f6	0.095283434
56	0x3d09577d	0.0335307
57	0x3d5132bb	0.05107377
58	0xbd91264f	-0.07087385
59	0x3d734729	0.059394035
60	0xbda0f1be	-0.07858609
61	0xbd422486	-0.047398113
62	0xbdae8d77	-0.08523076
63	0x3e149f38	0.14513862
64	0xbcd10889	-0.025516765
65	0x3e86d2e4	0.26332772
66	0x3e04238c	0.12904185
67	0x3c261091	0.010135786
68	0x3e3ef1a8	0.18646872
69	0x3d8ac337	0.067755155
70	0xbc246013	-0.0100326715
71	0x3df22582	0.1182356
72	0xbdb9ef9a	-0.090789035
73	0xbd7b9170	-0.061417997
74	0xbda9d0ad	-0.08291755
75	0x3d31768d	0.04332595
76	0x3ca1b0c5	0.01973761
77	0x3d8394fc	0.06424901
78	0x3e6f81f4	0.23389417
79	0x3e9de41b	0.30838093
80	0x3ef937a8	0.48675275
81	0x3e35655e	0.1771445
82	0x3d7d0625	0.061773438
83	0x3e9c016b	0.30469832
84	0x3d8ecd85	0.069727935
85	0xbc9de32f	-0.019273369
86	0xbd647199	-0.055772398
87	0x3f0715b5	0.527675
88	0x3f04c1aa	0.5185801
89	0x3f1a50ac	0.60279346
90	0x3ea86c81	0.32895282
91	0x3eb5f397	0.35537407
92	0x3f19b4d9	0.60041577
93	0x3f074b31	0.5284911
94	0x3efb0ea8	0.4903462
95	0x3f1dcc92	0.61640275
96	0xbc5dd7c3	-0.013540211
97	0x3d9df39e	0.07712482
98	0x3de476de	0.111554846
99	0x3ed8b9f7	0.4232938
100	0x3e9a7cb3	0.30173263
101	0x3ef5c9c0	0.48005486
102	0x3e6ae12e	0.22937462
103	0x3d9ca7de	0.076492056
104	0x3e8f2a9e	0.27962202
105	0x3d5925ee	0.05301469
106	0xbd1e172f	-0.03859633
107	0x3e7d0f9a	0.24712983
108	0xbc58f57d	-0.013242123
109	0x3cb28df1	0.021796199
110	0x3d452e6b	0.04813997
111	0x3dd457b3	0.1036829
112	0x3d4771c5	0.048692483
113	0x3da732d6	0.08163993
114	0xbcd0a1bc	-0.025467746
115	0x3cc0e1c8	0.02354516
116	0x3dcc57f8	0.09977716
117	0x3e5c1a1d	0.21494336
118	0x3e2790da	0.1636385
119	0x3e5eac24	0.21745354
120	0x3be19d2e	0.0068851924
121	0xbcfde3ee	-0.030992474
122	0x3d8eb568	0.06968194
123	0x3e027939	0.12741555
124	0x3d5eaf0f	0.054366168
125	0x3ea089e6	0.31355208
126	0x3e7534ec	0.2394597
127	0x3e0c9879	0.13730039
128	0x3eae5d8b	0.34055743
129	0x3d3ec153	0.046571087
130	0x3dc953ad	0.09830413
131	0x3dbe7d9f	0.09301304
132	0x3e95b73c	0.2924136
133	0x3e9402ef	0.28908488
134	0x3eb21aa4	0.3478595
135	0x3e1fc13a	0.15601054
136	0xbccd6927	-0.025074555
137	0x3df67a59	0.12035055
138	0xbced0016	-0.028930705
139	0xbb000f4c	-0.0019540368
140	0x3daff191	0.08590997
141	0x3e4afd5e	0.19823214
142	0x3dc653fa	0.09683986
143	0x3ea4fb80	0.3222313
144	0x3d9d2723	0.0767348
145	0xbd65ee55	-0.056135494
146	0x3dfec83c	0.124405354
147	0x3e520acb	0.2051193
148	0x3e30faf0	0.17283225
149	0x3e756063	0.2396255
150	0x3e814711	0.25249532
151	0x3e880e87	0.26573583
152	0x3eaa3362	0.33242327
153	0x3bda01ec	0.006653061
154	0xbd243f63	-0.040099513
155	0x3e0bfa98	0.13669813
156	0xbd6ee0c6	-0.05831983
157	0xbddafd26	-0.106928155
158	0x3cfe630a	0.031053085
159	0x3e015922	0.12631658
160	0x3be4705c	0.006971402
161	0x3dfe7a32	0.12425651
162	0xbd77e1ea	-0.060518183
163	0xbb00d746	-0.0019659563
164	0xbd589816	-0.052879415
165	0xbd877e91	-0.066159375
166	0x3dcf07cf	0.10108911
167	0x3df30a56	0.11867206
168	0x3ce1b86a	0.027553756
169	0x3d3b0721	0.045661096
170	0x3cf00f11	0.02930406
171	0x3e8b7f00	0.2724533
172	0x3ea92b8d	0.3304104
173	0x3f059166	0.52174985
174	0xbbc58d9f	-0.0060288454
175	0x3d1eeb25	0.03879847
176	0x3e0071e5	0.12543447
177	0x3d5bc491	0.053654257
178	0x3cc11a4d	0.023572112
179	0x3e2a538e	0.16633436
180	0xbdfc608f	-0.123231046
181	0xbd2356b9	-0.039877627
182	0x3ca8db14	0.020612277
183	0xbd14fbf3	-0.03637309
184	0xbcaf53f9	-0.021402346
185	0xbda4b80b	-0.08042916
186	0x3e2a76fa	0.16646948
187	0x3d90ac9d	0.07064173
188	0x3dc8f8ce	0.09813081
189	0x3d54601b	0.051849466
190	0x3d4446d3	0.047919106
191	0x3db72347	0.089422755
192	0x3e80b45b	0.251376
193	0x3e5b424f	0.21412013
194	0x3e7c11e2	0.24616197
195	0x3d16ec32	0.036846347
196	0xbc8f566a	-0.01749726
197	0x3dcd1f46	0.100157306
198	0x3e91914b	0.28431162
199	0x3e8b8776	0.27251786
200	0x3ea2b347	0.31777403
201	0x3eb6b444	0.35684407
202	0x3ea2e16f	0.31812617
203	0x3ef8e587	0.48612615
204	0x3ebb9d0a	0.3664325
205	0x3eac7493	0.3368269
206	0x3f0442f0	0.5166464
207	0x3e0b418a	0.1359922
208	0x3deaafd5	0.114593185
209	0x3d191944	0.03737761
210	0x3e4279cd	0.18991776
211	0x3e0460cd	0.12927552
212	0x3e7a1790	0.24423051
213	0x3edaff39	0.42772844
214	0x3eb28ee6	0.34874648
215	0x3f2626b2	0.64902794
216	0x3e19c283	0.15015607
217	0x3df56ab6	0.11983244
218	0x3e412e1c	0.18865246
219	0x3e275bdc	0.16343635
220	0x3d15b7f9	0.036552403
221	0x3e4eaffa	0.20184317
222	0x3eaefc74	0.3417698
223	0x3ec6927a	0.38783628
224	0x3f03127f	0.512001
225	0xbcf17d79	-0.029478775
226	0x3dedf814	0.11619583
227	0x3ddd7b25	0.108145036
228	0x3da2fd29	0.07958443
229	0xbda509c0	-0.080585
230	0xbc658a65	-0.014010047
231	0x3d975c74	0.07390681
232	0x3bc4877d	0.005997597
233	0x3d0f1178	0.03492877
234	0x3e590494	0.21193153
235	0x3e4eeffa	0.20208731
236	0x3ea3d2c2	0.31996733
237	0x3e46c79e	0.19412085
238	0x3d8cce59	0.06875295
239	0x3e2b94af	0.16755937
240	0x3e21568c	0.15755671
241	0x3ca228ca	0.01979484
242	0x3e0b42ab	0.1359965
243	0x3e95698b	0.29182085
244	0x3e6cce92	0.23125675
245	0x3e8e2fdb	0.27770886
246	0x3d0ba837	0.03409597
247	0x3dc07237	0.09396785
248	0x3cc305ed	0.023806537
249	0x3c094e0a	0.008380422
250	0x3d6e67a9	0.058204327
251	0x3d347c3c	0.04406379
252	0x3ebfb899	0.37445524
253	0x3eb3ed8c	0.3514217
254	0x3f036fdf	0.51342577
255	0x3da3fc9e	0.08007167

model.lstm1.weight_hh_l0 f4 [416, 104]
0	0x3d147eea	0.036253847
1	0xbd820113	-0.06347861
2	0x3cf2980c	0.029613517
3	0xbd19a9b9	-0.037515376
4	0xbd26f55b	-0.040761333
5	0xbda291a8	-0.07937938
6	0x3c354d30	0.011065766
7	0x3ca601e8	0.02026458
8	0xbc4a86b0	-0.012361214
9	0xbca472c8	-0.020074263
10	0xbd308b2f	-0.043101486
11	0x3c9501dc	0.018189363
12	0xbca5b768	-0.020229056
13	0xbc0c3368	-0.008557178
14	0xbceae238	-0.028672323
15	0x3db1f745	0.08689741
16	0xbd6647df	-0.056220885
17	0xbb4e7cc0	-0.0031507462
18	0xbd686477	-0.056736436
19	0xbd7b0e91	-0.06129319
20	0x3c240bb8	0.01001256
21	0xbc443fa0	-0.01197806
22	0x3cb179b0	0.02166447
23	0xbd442391	-0.04788548
24	0x3d44f736	0.04808732
25	0x38d98000	0.00010371208
26	0x3d8b8e8d	0.06814299
27	0xbd92ab0a	-0.07161529
28	0x3d033c4a	0.032039918
29	0x3c810600	0.015749931
30	0x3d180452	0.037113495
31	0x3ca79f10	0.02046159
32	0xbbbd0a20	-0.0057690293
33	0xbd09a22a	-0.033601917
34	0x3c8bc558	0.017061874
35	0xbd24eb19	-0.04026327
36	0x3d90b6d5	0.070661224
37	0x3d8b5bed	0.06804643
38	0xbd48a110	-0.048981726
39	0x3c93d780	0.018047094
40	0x3d06fbc2	0.03295494
41	0x3d87b445	0.066261806
42	0x3c68e640	0.014215052
43	0xbd432360	-0.047641158
44	0x3d93666b	0.07197269
45	0x3d9f8209	0.07788474
46	0x3ca409b0	0.02002415
47	0x3cff6a24	0.031178541
48	0x3c8f9118	0.01752524
49	0x3d04a5ca	0.03238467
50	0x3d7f9416	0.062397085
51	0x3d0cf74a	0.03441552
52	0x3d02ef3a	0.031966425
53	0xbd89c154	-0.067263275
54	0x3cb4571c	0.022014193
55	0xbcccd4cc	-0.025003813
56	0xbd8507dc	-0.0649564
57	0xbc09dd38	-0.008414559
58	0x3daaa227	0.08331709
59	0x3dc13eb9	0.094357915
60	0x3cf27c64	0.02960033
61	0x3dbbb967	0.09166222
62	0x3d04ec22	0.032451756
63	0xbd35c6c1	-0.044379
64	0xbcfa8858	-0.030582592
65	0xbdb65355	-0.08902613
66	0xbb91c210	-0.004448183
67	0xbda52f39	-0.08065648
68	0xbd03fe2c	-0.03222482
69	0xbd27d643	-0.04097582
70	0x3d5c6672	0.053808637
71	0xbce36628	-0.027758673
72	0xbd66f341	-0.05638433
73	0xbd043520	-0.032277226
74	0xbdaf7870	-0.085678935
75	0xbdc1347f	-0.09433841
76	0x3c0b2260	0.008492082
77	0x3dadd587	0.08487993
78	0x3d99a411	0.07501996
79	0xbc743028	-0.0149040595
80	0x3db871bd	0.09006069
81	0xbd850728	-0.064955056
82	0x3db595e5	0.08866481
83	0xbd1a880e	-0.037727408
84	0x3d39745a	0.045276977
85	0x3dc71cf9	0.09722323
86	0x3d90f46d	0.070778705
87	0x3d142d8e	0.036176257
88	0xbcb3d9a4	-0.021954365
89	0xbd9fd45f	-0.078041784
90	0x3d73337a	0.059375264
91	0x3d42063e	0.047369234
92	0xbd58e434	-0.052952006
93	0xbdbd5ff0	-0.09246814
94	0xbd5562ba	-0.052096106
95	0x3d897a97	0.06712835
96	0xbc8358f8	-0.016033635
97	0x3d81765d	0.06321404
98	0x3ce83994	0.028347768
99	0xbd268ba6	-0.040660523
100	0xbd37d119	-0.044877145
101	0xbc0ef7e0	-0.00872609
102	0x3b934490	0.0044942573
103	0x3db749eb	0.089496456
104	0x3cab528c	0.020913385
105	0x3b9ea6e0	0.0048416704
106	0x3d5684f6	0.052372895
107	0x3d40eafa	0.04709909
108	0xbd8f97de	-0.07011388
109	0x3cac28ac	0.021015488
110	0xbd97dd5d	-0.074152686
111	0xbd986581	-0.07441235
112	0xbcd706f4	-0.026248433
113	0xbd3e6f6e	-0.046492986
114	0xbcb6ff9c	-0.02233868
115	0xbb420080	-0.0029602349
116	0x3d3d84de	0.04626929
117	0xbdb7f399	-0.089820094
118	0x3d0dc112	0.034607954
119	0x3d65b0aa	0.056076683
120	0xbbf5f600	-0.007506132
121	0xbb36e840	-0.0027909428
122	0x3dc017ff	0.09379577
123	0xbcee8b14	-0.029119052
124	0x3cbba120	0.022903979
125	0xbc957608	-0.018244758
126	0x3c3bfb90	0.011473551
127	0x3daba4c1	0.08381034
128	0x3d833cc1	0.06408072
129	0x3d0c8bc2	0.03431297
130	0x3cbe0fe0	0.02320093
131	0x3cbf9a5c	0.023389034
132	0xbdc2e542	-0.09516384
133	0x3d041356	0.032245003
134	0xbd415253	-0.04719765
135	0xbd0cf614	-0.034414366
136	0x3db3b62d	0.08774982
137	0x3daeeba9	0.08541042
138	0xbd9d3345	-0.076757945
139	0xbd0e600c	-0.034759566
140	0x39a5d700	0.0003163144
141	0xbda30792	-0.07960428
142	0x3daedd9b	0.08538362
143	0xbd9d0c38	-0.07668346
144	0x3cec1bbc	0.028821819
145	0x3cbb3b34	0.022855379
146	0x3d208602	0.0391903
147	0x3b670820	0.0035252646
148	0x3ce463ac	0.027879559
149	0x3d7a1b3e	0.061061136
150	0x3d7ae8d6	0.061257206
151	0x3bfa90e0	0.007646665
152	0xbd99043e	-0.07471512
153	0x3cf34fc4	0.029701121
154	0xbd2f37ed	-0.042777944
155	0x3bcfd510	0.0063425377
156	0x3d85db6b	0.06535991
157	0xbd574af9	-0.052561734
158	0xbca73504	-0.020411022
159	0x3da58d71	0.080836184
160	0xbd88eee2	-0.06686188
161	0xbd81afb6	-0.06332342
162	0xbd71ee9d	-0.05906545
163	0x3da74209	0.08166892
164	0xbd94fdea	-0.07274993
165	0x3d8212db	0.06351253
166	0x3db9e1c5	0.09076265
167	0x3db16e1b	0.08663579
168	0x3c45a5d0	0.012063459
169	0x3d33253e	0.04373669
170	0xbdc2cac5	-0.095113315
171	0x3db2c703	0.08729365
172	0xbd8d6f64	-0.06906012
173	0xbcbb52bc	-0.0228666
174	0x3d7d0f6a	0.061782278
175	0xbd735575	-0.05940767
176	0x3dc64363	0.09680822
177	0x3d2b4376	0.041812383
178	0x3ce8e654	0.028430142
179	0x3dbb08cf	0.091325395
180	0x3cf63dfc	0.030058853
181	0xbd1de26f	-0.038546022
182	0x3c57ac78	0.013163678
183	0xbd4f6a1d	-0.050638307
184	0x3c1bfae0	0.0095202625
185	0xbd87d776	-0.06632893
186	0x3cd1e904	0.025623806
187	0x3d9ef7cb	0.077621065
188	0x3971a600	0.00023045391
189	0x3a0e9d00	0.0005440265
190	0x3c479c98	0.012183331
191	0xbd4865d9	-0.048925254
192	0xbc4516e8	-0.012029387
193	0xbd6d9239	-0.058000777
194	0x3c9c19e4	0.019055314
195	0xbd99c405	-0.07508091
196	0x3dc40525	0.09571294
197	0x3d45edaa	0.048322357
198	0x3d11c202	0.03558541
199	0x3d3b7c06	0.045772575
200	0xbd6f5a09	-0.058435474
201	0x3d61931a	0.055071928
202	0x3db0a139	0.08624501
203	0x3d741a8a	0.059595622
204	0xbd11c28d	-0.03558593
205	0x3d68cd56	0.05683645
206	0x3d94bf7d	0.07263086
207	0xbdaad715	-0.08341805
208	0x3d8be9e7	0.06831723
209	0x3c9742a4	0.018464394
210	0x3d95f41b	0.0732195
211	0x3c2e9558	0.0106557235
212	0xbd963320	-0.0733397
213	0xbba9b2f0	-0.0051788017
214	0xbc2788f8	-0.010225527
215	0x3dbeec61	0.093224294
216	0x3db11185	0.0864592
217	0xbd216793	-0.039405417
218	0xba18d780	-0.0005830452
219	0xbb82cfd0	-0.0039920583
220	0xbd9652d7	-0.07340019
221	0xbc9eff94	-0.019408979
222	0x3d8f2357	0.069891624
223	0x3bce7f60	0.0063018054
224	0xbdb4b31a	-0.088232234
225	0xbca74ed4	-0.02042333
226	0xbd4a073f	-0.049323317
227	0x3cbfb824	0.023403235
228	0x3cf2a12c	0.029617868
229	0x3d27ee42	0.040998705
230	0x3cbafd94	0.022825994
231	0xbcde4788	-0.027133718
232	0xbc1b32e0	-0.009472579
233	0x3d1f8c7e	0.038952343
234	0x3d73fd32	0.059567638
235	0x3db47203	0.088108085
236	0x3d4a8942	0.049447306
237	0xbd486ac3	-0.04892994
238	0xbdc4d3c5	-0.09610704
239	0xbc680d70	-0.01416336
240	0x3c11e7a8	0.008905329
241	0x3d8fba45	0.0701795
242	0xbc336f58	-0.010951839
243	0x3d5c44ae	0.053776436
244	0xbd31bc96	-0.04339274
245	0xbdc28f8f	-0.09500038
246	0x3a775000	0.0009434223
247	0x3d4de2fe	0.050265305
248	0xbc4248a8	-0.011858143
249	0xbd822f31	-0.06356657
250	0xbd829059	-0.063751884
251	0x3d9000a1	0.0703137
252	0x3d6ab2b2	0.057299323
253	0x3daec5df	0.08533835
254	0x39de7500	0.0004243031
255	0xbda87fb6	-0.08227484

model.lstm1.bias_ih_l0 f4 [416]
0	0x3d8698e2	0.06572129
1	0x3cd7d9ba	0.026348937
2	0xbbc37f26	-0.005966085
3	0x3cd19705	0.025584707
4	0x3d21c25f	0.039492007
5	0xbe0ac5fd	-0.13552089
6	0xbdcce274	-0.1000413
7	0xbc0f14fa	-0.008733029
8	0xbcd88452	-0.026430283
9	0xbcfe782e	-0.031063166
10	0xbc8a362a	-0.01687153
11	0x3dfd1869	0.123581715
12	0x3d988fe9	0.07449324
13	0x3d4906e2	0.04907883
14	0xbd2a7f64	-0.041625395
15	0xbdf5101f	-0.119659655
16	0x3ce66c75	0.028127888
17	0x3db10a06	0.0864449
18	0xbcce835f	-0.025209127
19	0x3d2fc4a1	0.04291213
20	0xbd66ad5d	-0.056317676
21	0x3d6d3a05	0.05791666
22	0x3de95512	0.11393179
23	0xbd02ff80	-0.031981945
24	0x3b8031c8	0.0039121844
25	0x3b0a5414	0.0021107243
26	0x3dc8bc62	0.09801556
27	0xbcd7e619	-0.026354836
28	0xbd0eca89	-0.03486112
29	0x3e9ca36f	0.3059344
30	0x3d991205	0.0747414
31	0x3e898c4e	0.26864856
32	0x3b9c74e4	0.0047746766
33	0x3e2b050d	0.16701145
34	0x3d6ec16b	0.058289926
35	0xbd91eb25	-0.071249284
36	0xbd225ff0	-0.039642274
37	0xbd75c6db	-0.060004096
38	0xbd90426d	-0.0704392
39	0x3d63658b	0.05551676
40	0xbd4ff530	-0.05077094
41	0x3c9e0005	0.019287119
42	0x3de41459	0.111366935
43	0xbc97aa54	-0.018513836
44	0x3d61ea74	0.055155233
45	0xbcfad81e	-0.03062063
46	0xbcf11273	-0.029427743
47	0x3b18e9c2	0.002333269
48	0xbde39c69	-0.11113817
49	0x3d89367a	0.06699844
50	0x3cd3ae37	0.025839908
51	0xbcfae1b8	-0.03062521
52	0xbdb5957a	-0.08866401
53	0x3c9c4c67	0.0190794
54	0x3c165127	0.009174622
55	0xbcdc4fe5	-0.026893565
56	0x3c899239	0.016793357
57	0x3de6bed5	0.11266867
58	0x3c36c42f	0.011155172
59	0xbde9f0d8	-0.114228904
60	0x3d264580	0.040593624
61	0x3cf33c08	0.029691711
62	0xbc7329e5	-0.014841531
63	0xbb1d6c30	-0.0024020784
64	0x3d31aef5	0.043379743
65	0x3a434333	0.0007448673
66	0x3e17b601	0.14815523
67	0x3e191883	0.14950757
68	0x3ddf5b34	0.109060675
69	0x3dc0e5c5	0.09418825
70	0x3e4f4330	0.20240474
71	0x3e5a777c	0.21334642
72	0xbd3023a1	-0.04300273
73	0x3d688ca9	0.05677477
74	0x3d97fedd	0.07421658
75	0xbd7a8027	-0.06115737
76	0xbc16dfae	-0.009208603
77	0xbdf119f9	-0.11772532
78	0x3ddfe174	0.10931674
79	0xbc6242df	-0.013809889
80	0xbc08fae6	-0.0083606
81	0x3ddcc05d	0.10778878
82	0xba34253b	-0.0006872003
83	0x3ad9bf59	0.0016612812
84	0x3dca22bb	0.098699056
85	0x3d312d9c	0.043256387
86	0xbd5d04d1	-0.05395967
87	0x3dcc21fb	0.09967419
88	0xbd62b385	-0.055346984
89	0x3e2393c8	0.15974343
90	0xbd9324c4	-0.07184747
91	0x3c7d43ed	0.015458089
92	0xbd62016e	-0.055177145
93	0x3e19e9a1	0.15030529
94	0x3e7738b5	0.24142726
95	0x3e383f26	0.17992839
96	0x3da3cc3a	0.079979375
97	0x3e87cf01	0.2652512
98	0x3e6106d5	0.21975262
99	0xbdd28e1b	-0.10281011
100	0x3b6adeed	0.003583844
101	0x3eac61c2	0.33668333
102	0x3d1feb82	0.039042957
103	0x3dbcb7f8	0.09214777
104	0x3ae8a600	0.0017749667
105	0x3b41ad20	0.0029552653
106	0x3daf4fb1	0.08560122
107	0x3d90bb03	0.0706692
108	0x3d623cbe	0.05523371
109	0xbd919739	-0.071089216
110	0x3db435e7	0.087993436
111	0x3d986183	0.07440474
112	0x3caefb34	0.021360017
113	0xbd9b5422	-0.075844064
114	0x3d9b8545	0.075937785
115	0x3d8fa0cb	0.07013091
116	0x3a5e5b00	0.0008482188
117	0x3d7e4852	0.06208069
118	0xbdc598f2	-0.09648313
119	0x3d222d52	0.039594002
120	0xbd452422	-0.048130162
121	0xbc782df0	-0.015147671
122	0xbcd61d80	-0.026137114
123	0x3d8958a3	0.06706359
124	0xbd9e468a	-0.07728298
125	0xbdaf5dbb	-0.085627995
126	0xbd7b598f	-0.061364707
127	0xbcb74980	-0.022373915
128	0x3d3a80ee	0.045533113
129	0x3c4e56c0	0.012593925
130	0xbd0ce55c	-0.03439842
131	0x3db38633	0.08765831
132	0xbb00d240	-0.0019656569
133	0xbdb0db35	-0.086355604
134	0xbd849384	-0.06473449
135	0x3c28e728	0.010309018
136	0x3d2701a2	0.04077304
137	0xbdb69f1f	-0.08917069
138	0x3d43f646	0.047842287
139	0xbd12b810	-0.035820067
140	0xbc974ed4	-0.018470205
141	0xbd9054af	-0.07047402
142	0x3d87c7e1	0.06629921
143	0xbd82ad21	-0.06380678
144	0xbd0b331a	-0.03398428
145	0x3db86a3b	0.09004637
146	0xbdb9b21f	-0.09067177
147	0xbd97e381	-0.0741644
148	0x3d9c662b	0.076366745
149	0x3da917a7	0.082564645
150	0x3d6f4476	0.0584149
151	0x3db08dd3	0.08620801
152	0xbc4cd240	-0.012501299
153	0xbdadd14b	-0.08487185
154	0xbdaa6c04	-0.083213836
155	0xbb6ad980	-0.0035835207
156	0xbc631d78	-0.013862006
157	0xbd0e8ba8	-0.034801155
158	0x3dbfab83	0.09358885
159	0x3db56117	0.08856409
160	0xbd76dac6	-0.060267232
161	0x3c0a1d78	0.008429877
162	0x3b257fc0	0.0025253147
163	0xbd702457	-0.058628406
164	0x3d2d0a36	0.042246066
165	0x3d9b58ad	0.07585273
166	0x3d9c8145	0.07641844
167	0xbdac637a	-0.08417411
168	0x3b92fb70	0.00448554
169	0xbdb1d502	-0.08683206
170	0x3d9785e3	0.07398584
171	0x3d1608f2	0.036629625
172	0x3d921623	0.071331285
173	0xbd352554	-0.044225052
174	0xbd3207c9	-0.043464456
175	0x3d3d20c2	0.04617382
176	0xbbab3450	-0.005224742
177	0xbd5196b7	-0.051169124
178	0x3bc60cd0	0.006044008
179	0xbdbb6fb9	-0.09152169
180	0xbd10d91a	-0.035363294
181	0xbd8c687c	-0.06855866
182	0xbd193547	-0.037404325
183	0x3d96d171	0.073641665
184	0x3c5e02f0	0.013550505
185	0xbd3e6117	-0.04647931
186	0x3d6fd1c2	0.05854965
187	0x3d1383ca	0.036014356
188	0x3d356ce6	0.044293307
189	0xbc5ca020	-0.013465911
190	0x3d309a3a	0.043115832
191	0x3d850687	0.064953856
192	0xbd36f38f	-0.04466587
193	0xbd6ce16a	-0.05783216
194	0x3d235efe	0.039885513
195	0xbd19ebb1	-0.03757829
196	0xbd6c66dd	-0.057715286
197	0x3da1dad7	0.079030685
198	0x3c8014cc	0.015634917
199	0xbdbe8e12	-0.093044415
200	0x3daa8b35	0.08327333
201	0x3cc259f4	0.023724534
202	0x3b6b3360	0.0035888776
203	0xbdb66d1b	-0.08907529
204	0x3da917e3	0.08256509
205	0x3ba99ef0	0.0051764175
206	0xbd6cf1ec	-0.057847902
207	0x3dc1d45d	0.09464333
208	0xbd8cb798	-0.06870955
209	0x3cd6bedd	0.026214058
210	0xbd0875eb	-0.03331558
211	0xb9d4ddf9	-0.00040601174
212	0x3d6b6007	0.057464626
213	0x3d3aad60	0.0455755
214	0xbceb8036	-0.02874766
215	0x3c1b4848	0.009477682
216	0x3d56e5ae	0.052465133
217	0x3d083471	0.033253137
218	0xbd3f1096	-0.046646677
219	0xbd7100e3	-0.058838736
220	0xbd437c0a	-0.047725715
221	0x3d23b8ed	0.03997128
222	0x3cf6f21e	0.030144747
223	0xbd7d6c97	-0.061871137
224	0x3d9ab804	0.075546294
225	0xbd55b62f	-0.052175697
226	0x3c0ddf50	0.008659199
227	0xbc1e7372	-0.009671079
228	0x3d0a333e	0.033740275
229	0x3d9697ea	0.07353194
230	0xbc946acc	-0.018117331
231	0x3d97f450	0.07419646
232	0xbd2ee36c	-0.042697355
233	0x3d325bf2	0.043544717
234	0xbc333b8c	-0.01093949
235	0xbc90a618	-0.017657325
236	0xbc1a0b2a	-0.009402076
237	0xbdb913e5	-0.09036998
238	0x3c47e594	0.012200732
239	0xbd7cda5d	-0.061731685
240	0xbcd9ee21	-0.026602807
241	0xbde6dcc0	-0.112725735
242	0xbdc12245	-0.094303645
243	0x3d3a182e	0.045433216
244	0xbce8e8a5	-0.028431246
245	0xbd7f582e	-0.062339954
246	0xbd832d24	-0.06405094
247	0xbdd87691	-0.1056949
248	0x3d565ffa	0.052337624
249	0x3dab2635	0.08356897
250	0xba048c9a	-0.00050563517
251	0xbd3326bf	-0.043738123
252	0xbcad143d	-0.021127814
253	0xbd222075	-0.039581735
254	0x3d35bf11	0.04437167
255	0xbd02ca07	-0.03193095

model.lstm1.bias_hh_l0 f4 [416]
0	0x3d49b437	0.049244132
1	0xbd8c1d8c	-0.06841573
2	0xbb5b734f	-0.0033485477
3	0x3c6b24f1	0.014352069
4	0xbcee5b8f	-0.029096393
5	0xbda1652a	-0.07880624
6	0x3d2e0376	0.04248377
7	0xbd88cf43	-0.06680157
8	0xbd93e239	-0.07220883
9	0x3daee350	0.0853945
10	0x3d4be398	0.049777597
11	0x3d8c7044	0.068573505
12	0x3ba12f01	0.0049189334
13	0x3cd3ba59	0.025845693
14	0xbd1297d5	-0.03578933
15	0xbda6aef2	-0.08138837
16	0x3bf316a1	0.007418469
17	0xbd0f0d45	-0.034924764
18	0x3d8938b0	0.067002654
19	0x3c624e50	0.0138126165
20	0xbdc28399	-0.094977565
21	0xbd8a66aa	-0.06757863
22	0x3dd05e02	0.101741806
23	0xbcf28fb3	-0.029609537
24	0xbda28922	-0.07936312
25	0xbdb2b7af	-0.08726441
26	0x3d519d4d	0.051175404
27	0x3e174dd3	0.14775781
28	0xbca79eb7	-0.020461423
29	0x3e8c5360	0.2740736
30	0x3d844544	0.06458524
31	0x3e3dbe60	0.18529654
32	0x3d506ac4	0.05088307
33	0x3e59d1cf	0.21271442
34	0x3cb5f8ae	0.022213306
35	0xbd63dea5	-0.055632252
36	0xbd37258c	-0.044713542
37	0xbdcf14ad	-0.101113655
38	0xbd90a63b	-0.07062956
39	0xbce7a8b6	-0.02827869
40	0x3d9eb5a1	0.07749487
41	0x3e2592ae	0.16169235
42	0x3e01d590	0.12679124
43	0xbda74bc9	-0.08168752
44	0x3db14f6c	0.08657727
45	0xbd22d676	-0.039755307
46	0xbd886b25	-0.06661061
47	0x3d1af447	0.037830617
48	0xbd51897f	-0.051156517
49	0xbd061427	-0.032734063
50	0x3dbeeb05	0.0932217
51	0x3cc2c05d	0.023773367
52	0xbd6e8c9d	-0.058239568
53	0xbd904073	-0.07043543
54	0x3d0527d4	0.032508686
55	0x3c40027b	0.011719341
56	0xbbcb135d	-0.0061973766
57	0x3dcbd257	0.099522285
58	0x3e04ecfb	0.12981026
59	0xbbc20f47	-0.0059222314
60	0xbdb52408	-0.08844763
61	0xbd1a7ae1	-0.037714843
62	0x3d5b8028	0.053589016
63	0xbd2cedd2	-0.04221899
64	0x3e6853e5	0.22688253
65	0xbc526a8b	-0.012842785
66	0x3e2ed163	0.17072062
67	0x3d44119e	0.047868364
68	0x3e8da38b	0.27663836
69	0xbc9e87fe	-0.019351956
70	0x3dabb2f4	0.08383742
71	0x3e60d360	0.21955633
72	0x3dc78b56	0.09743373
73	0x3dc30d67	0.09524041
74	0x3e525c78	0.20543087
75	0xbdaf9fa3	-0.0857537
76	0x3c82c864	0.015964694
77	0x3d9c16dd	0.07621548
78	0x3dcc5b36	0.099783346
79	0xbd7c9cbf	-0.061672922
80	0x3d7c78e2	0.06163872
81	0x3e1d398c	0.15353984
82	0x3cd9fa69	0.026608663
83	0xbd41bdd6	-0.047300182
84	0x3e557e9a	0.20849076
85	0x3d8cec8b	0.068810545
86	0x3d8c274e	0.06843434
87	0x3c68b73e	0.014203845
88	0xbd9e46be	-0.07728337
89	0x3e24eb0e	0.16105291
90	0x3d5bfc34	0.053707317
91	0x3cfc7b4f	0.030820517
92	0x3cba142b	0.022714695
93	0x3e32a970	0.17447448
94	0x3e5b0a39	0.21390618
95	0x3e3f14de	0.18660304
96	0x3e0bf41a	0.13667336
97	0x3e7d4b95	0.24735864
98	0x3ebc92e2	0.36830813
99	0xbd9baad6	-0.07600944
100	0xbd280d30	-0.0410282
101	0x3ebb10da	0.36536294
102	0x3e1463c4	0.14491183
103	0x3c152fe1	0.0091056535
104	0x3d832b35	0.064047255
105	0x3cc7d38c	0.024392866
106	0x3d99d32f	0.07510983
107	0xbd350c11	-0.04420096
108	0xbcf93278	-0.030419573
109	0x3dabd823	0.08390834
110	0x3a915dc0	0.0011090562
111	0xbd006ae2	-0.03135193
112	0x3d5656b2	0.052328773
113	0x3d41b072	0.047287412
114	0xbcf5cf14	-0.03000597
115	0x3b91f410	0.0044541433
116	0xbca881e8	-0.020569757
117	0x3dbbad25	0.09163884
118	0x3c79a4d0	0.015237048
119	0xbdbec6b6	-0.09315245
120	0x3d6dfea2	0.058104165
121	0x3d3a2bee	0.04545205
122	0x3db889ab	0.09010633
123	0x3da12f8b	0.07870396
124	0x3c8f7dbc	0.01751601
125	0x3c162920	0.009165078
126	0x3d9e32fb	0.077245675
127	0xbdb5bd01	-0.0887394
128	0x3dbfd2f3	0.09366407
129	0x38c59c00	9.422749e-05
130	0x3d4a0b56	0.049327217
131	0xbd52fb60	-0.05150926
132	0xbda0695a	-0.07832594
133	0xbd044afe	-0.03229808
134	0xbd3af311	-0.045641962
135	0x39801700	0.000244312
136	0xbd956450	-0.07294524
137	0xbbd127d0	-0.00638292
138	0xbc5340b0	-0.012893841
139	0xbd28596a	-0.041100897
140	0xbbea64e0	-0.0071531385
141	0xbdba4532	-0.09095229
142	0xbd94d621	-0.07267404
143	0x3cfefe6c	0.031127177
144	0x3d5151e2	0.05110348
145	0xbd3562d9	-0.04428372
146	0xbbc32940	-0.005955845
147	0xbd595288	-0.053057224
148	0x3d2a2696	0.041540705
149	0xbd0d5bd6	-0.03451141
150	0xbc605378	-0.0136917755
151	0xbd6a5dd9	-0.057218406
152	0x3b072b60	0.0020625219
153	0xbcb33e78	-0.021880373
154	0x3d9b2975	0.07576267
155	0x3d4d9676	0.05019232
156	0xbd26efc4	-0.040756002
157	0xbd4840bc	-0.04888986
158	0x3d23fbbe	0.040035002
159	0x3c537620	0.012906581
160	0xbcfe4394	-0.031038083
161	0xbd814057	-0.063111
162	0xbd07c636	-0.033148013
163	0x3d65db0a	0.056117095
164	0xbc3e0da0	-0.011599928
165	0x3d1c665a	0.038183548
166	0xbd18bb5b	-0.03728805
167	0x3ca18850	0.01971832
168	0xbd51db7d	-0.05123471
169	0x3c867244	0.016411908
170	0xbd928405	-0.07154087
171	0x3dba0c1b	0.0908434
172	0x3ca8e194	0.020615377
173	0x3d736082	0.05941821
174	0xbd32232b	-0.04349057
175	0xbcba3550	-0.0227305
176	0x3db38dd5	0.08767287
177	0x3d8f3b17	0.06993692
178	0xbd89c274	-0.06726542
179	0xbcfe6bf4	-0.031057335
180	0x3d869bd1	0.06572688
181	0x3d087ce6	0.033322237
182	0x3d8af8cd	0.06785736
183	0x3d585522	0.052815564
184	0x3d610e66	0.054945372
185	0xbd83908b	-0.06424054
186	0x3d9e8ddb	0.077419005
187	0x3d2cac8a	0.042156734
188	0x3d1c499e	0.038156144
189	0xbd3d62b7	-0.04623672
190	0xbdb10740	-0.08643961
191	0x3d8358bb	0.06413408
192	0xbdb00fdd	-0.08596776
193	0xbbe5c4d0	-0.0070119873
194	0xbd5c7f3d	-0.05383228
195	0x3dc00331	0.09375609
196	0x3d5fc7b6	0.05463382
197	0x3c589d00	0.0132210255
198	0xbd329e41	-0.043607954
199	0x3cf3c33c	0.029756181
200	0xbd218a69	-0.03943864
201	0x3ce9953c	0.028513543
202	0x3bc505c0	0.0060126483
203	0xbd99dc3e	-0.07512711
204	0x3d240892	0.040047236
205	0x3d9e614d	0.077334024
206	0x3d252562	0.040318854
207	0x3cc8f0ac	0.024528824
208	0x3bd0d077	0.006372507
209	0xbd4ea872	-0.05045361
210	0xbcc5c668	-0.024142459
211	0x3d690d27	0.05689731
212	0xbc4a3f83	-0.012344244
213	0xbd21950a	-0.039448775
214	0x3cd9357e	0.026514765
215	0xbcff9e55	-0.031203428
216	0xbd22beaa	-0.039732613
217	0xbbe2586b	-0.006907513
218	0xbbc38afd	-0.0059674964
219	0xbc4e384d	-0.012586665
220	0xbc453e4e	-0.01203878
221	0xbd82133f	-0.06351327
222	0x3b915f56	0.0044364138
223	0xbd758a06	-0.059946083
224	0xbdbdcb10	-0.09267247
225	0x3def8585	0.11695389
226	0xbcc53f72	-0.024078105
227	0x3a9e5690	0.0012080241
228	0xbd3c3fcc	-0.04595928
229	0xbd146c77	-0.036236253
230	0x3d60655b	0.05478416
231	0xbd32d465	-0.043659586
232	0x3d578a6e	0.05262225
233	0x3d288426	0.04114165
234	0xbd1c1042	-0.038101442
235	0x3d7734df	0.060353156
236	0xbc1b442e	-0.0094767045
237	0x3b89e86f	0.0042086164
238	0xbd89b78c	-0.06724462
239	0xbd88063a	-0.066418126
240	0x3d95e076	0.07318203
241	0x3cf77f12	0.030211959
242	0x3c6f07da	0.014589274
243	0xbbce6c8d	-0.0062995614
244	0xbc22c7cf	-0.009935333
245	0x3c0bfbcb	0.008543919
246	0x3db171b1	0.08664263
247	0x3d436362	0.0477022
248	0x3cdafbd4	0.02673141
249	0xbce97698	-0.028498933
250	0xbd904323	-0.07044055
251	0x3d3ee893	0.04660852
252	0x3da71d66	0.08159904
253	0x3cba827e	0.022767302
254	0x3bdaeecd	0.0066812993
255	0x3db680cf	0.08911287

model.lstm2.weight_ih_l0 f4 [208, 104]
0	0xbe0d95c4	-0.13826662
1	0x3b8f7390	0.00437779
2	0xb983800c	-0.0002508167
3	0xbdfe0656	-0.12403552
4	0x3dea35be	0.11436032
5	0xbd309128	-0.04310718
6	0x3deea22f	0.11652028
7	0x3c0b0ea7	0.00848738
8	0x3d373bc6	0.04473474
9	0xbe086a04	-0.13321692
10	0x3d45957c	0.048238263
11	0x3cac8cd3	0.021063244
12	0x3ccfc718	0.02536349
13	0xbccf6f26	-0.025321554
14	0xbde0459a	-0.109507754
15	0x3d3b2fd2	0.045699902
16	0xbc51d353	-0.012806731
17	0xbe03dddf	-0.12877606
18	0x3dfcfbb9	0.123527
19	0xbad996e7	-0.0016600759
20	0xbd3e76a7	-0.046499874
21	0x3c3e0512	0.011597889
22	0xbd3e0e06	-0.046400093
23	0x3a6297c6	0.0008643832
24	0x3da98a87	0.08278375
25	0x3dc462ef	0.095891826
26	0x3c9a2f8f	0.018821506
27	0x3b3f3d41	0.0029180797
28	0x3d153a95	0.03643282
29	0x3d88eff6	0.06686394
30	0x3e2e14cd	0.17000122
31	0x3d6a2d21	0.057171945
32	0x3e0636c8	0.13106835
33	0x3db7cce3	0.08974626
34	0x3c6e7919	0.014555239
35	0x3d223c1a	0.0396081
36	0x3dc4b7e8	0.0960539
37	0x3d3f1e5a	0.046659805
38	0x3bfeb75c	0.007773323
39	0x3ddbf711	0.107404836
40	0x3da85c58	0.08220738
41	0x3e01f006	0.12689218
42	0x3d288862	0.04114569
43	0x3c5a024f	0.0133062145
44	0xbd0c39d3	-0.034234833
45	0xbba6c0b3	-0.0050888895
46	0x3e0b9211	0.13629939
47	0x3d5248bc	0.051338896
48	0x3c2e9154	0.010654766
49	0xbd985a46	-0.07439093
50	0xbda08298	-0.07837409
51	0xbc7f53e3	-0.015583965
52	0xbd7248d7	-0.059151497
53	0xbdf8c37a	-0.12146659
54	0xbd28a646	-0.041174196
55	0x3e000202	0.12500766
56	0x3c70bb7b	0.014693136
57	0xbe5a6394	-0.21327049
58	0xbd287092	-0.04112298
59	0xbde1963c	-0.11014983
60	0xbd42cc14	-0.047557905
61	0x3bafe0dd	0.005367382
62	0xbdfa9393	-0.12235179
63	0x3d90087b	0.070328675
64	0xbcf4c345	-0.029878268
65	0xbd8ead5f	-0.06966662
66	0xbdac8ffe	-0.08425902
67	0xbe0cb3f1	-0.13740517
68	0x3e64cb85	0.22343262
69	0x3d2feda4	0.04295124
70	0x3c45a181	0.012062431
71	0xbe2de21d	-0.16980787
72	0x3dc71088	0.0971995
73	0xbdb7d6a9	-0.0897649
74	0xbdd2e5be	-0.10297726
75	0x3cc84fc0	0.02445209
76	0xbc834c9b	-0.01602774
77	0x3dd362c5	0.10321573
78	0xbd8ceac9	-0.06880719
79	0xbdd365a6	-0.10322122
80	0x3de613ab	0.1123422
81	0xbdb81518	-0.08988398
82	0xbe0b3f02	-0.13598254
83	0xbd9234a6	-0.07138948
84	0xbd938cab	-0.07204565
85	0xbd5581cd	-0.05212574
86	0x3abb028a	0.0014267724
87	0xbba6a653	-0.0050857454
88	0xbdfc108b	-0.12307843
89	0xbd3e4cf0	-0.046460092
90	0x3d3db6a8	0.046316773
91	0xbd5a6a1a	-0.053323843
92	0x3dd9fecb	0.10644301
93	0x3c86e7bd	0.016467923
94	0xbdb26967	-0.0871151
95	0x3c6f15e2	0.01459262
96	0xbd981cec	-0.074273914
97	0xbd8c9522	-0.06864382
98	0xbca37c6b	-0.019956788
99	0xbd436288	-0.04770139
100	0x3dc48d61	0.095972784
101	0x3e2e8333	0.17042236
102	0x3dbd653c	0.092478245
103	0x3dcfe821	0.10151697
104	0xbd1523e4	-0.03641118
105	0x3d991d2e	0.07476269
106	0x3ca97c25	0.02068908
107	0x3d14eb47	0.03635719
108	0xbdd2002a	-0.102539375
109	0xbd03bb74	-0.03216119
110	0xbe05bebe	-0.13061044
111	0x3dcce830	0.10005224
112	0xbc3d8cd0	-0.011569217
113	0x3daea219	0.085270114
114	0xbdf560c7	-0.119813494
115	0x3c9d0fea	0.019172627
116	0xbc9d91f7	-0.01923464
117	0xbdb01bbc	-0.0859904
118	0x3dfb990a	0.12285049
119	0x3d99134c	0.07474384
120	0x3e0e29f4	0.13883191
121	0xbe131771	-0.14364411
122	0x3de60b3c	0.112326115
123	0xbda833ff	-0.082130425
124	0x3b2e33e3	0.002658122
125	0x3ded70a5	0.11593751
126	0xbdb8ed1b	-0.09029599
127	0xbc531c0a	-0.012885103
128	0xbdd19609	-0.10233695
129	0x3c7772b9	0.015103036
130	0x3e422dd0	0.18962789
131	0xbc86ba0c	-0.016446136
132	0xbcb86e0f	-0.022513418
133	0xbcf96247	-0.03044237
134	0x3e5f73c6	0.21821508
135	0x3e4647fe	0.193634
136	0x3e113a94	0.14182502
137	0x3e00006d	0.12500162
138	0xbe122c29	-0.14274658
139	0xbd7a6805	-0.061134357
140	0xbda7a3a4	-0.08185509
141	0xbcde7284	-0.027154215
142	0xbdca69de	-0.09883474
143	0xbda9948f	-0.082802884
144	0xbdb90436	-0.09034006
145	0xbd8a7c67	-0.06762009
146	0xbdb7fa68	-0.08983308
147	0xbc87dcf9	-0.01658486
148	0xbd46502d	-0.048416305
149	0x3da8fac4	0.08250955
150	0x3de32765	0.11091498
151	0xbdca45aa	-0.098765686
152	0xbc1640d3	-0.009170729
153	0x3c7fda56	0.01561602
154	0x3cbc52c2	0.02298868
155	0x3df328b5	0.118729986
156	0x3dee97c6	0.11650042
157	0xbc532c0c	-0.01288892
158	0xbd9ff338	-0.07810062
159	0xbdfc327f	-0.12314319
160	0xbdc85c78	-0.09783262
161	0xbe5d5034	-0.21612626
162	0xbddb5860	-0.107102156
163	0x3d797a2f	0.06090754
164	0x3dea7f5b	0.114500724
165	0xbe0a4642	-0.13503364
166	0xbdf9288a	-0.12165935
167	0x3c9cb0a8	0.019127205
168	0xbe67f634	-0.22652513
169	0xbdc6fbb9	-0.09715981
170	0xbdac61c6	-0.08417086
171	0xbe4aecae	-0.19816849
172	0x3e162a38	0.14664543
173	0xbd8d68ae	-0.06904732
174	0x3d023fae	0.03179901
175	0xbe215795	-0.15756066
176	0xbd898dc2	-0.06716491
177	0xbda6d8c8	-0.081468165
178	0xbe22bc88	-0.15892231
179	0xbdc92a1d	-0.098224856
180	0x3d91694f	0.07100164
181	0x3dec1083	0.11526587
182	0xbe172a5c	-0.14762253
183	0x3dd097d2	0.101852074
184	0x3de34695	0.11097447
185	0x3d326450	0.043552697
186	0xbddf7ca8	-0.10912448
187	0x3de2c3ff	0.110725395
188	0xbe42d860	-0.19027853
189	0xbd83d7a1	-0.06437612
190	0xbdbc3e09	-0.0919152
191	0xbd497892	-0.04918725
192	0x3d4323ac	0.04764144
193	0xbd47aeb6	-0.0487506
194	0x3a398333	0.000707674
195	0x3c1f64ea	0.00972865
196	0x3e06ad58	0.13152063
197	0x3e3f66cf	0.18691562
198	0x3cfff11b	0.031242898
199	0x3dbc34cb	0.09189757
200	0xbdc47c20	-0.095939875
201	0xbe5eed7e	-0.21770284
202	0xbca0009f	-0.019531546
203	0x3dd810ab	0.10550054
204	0xbd5e7b19	-0.054316614
205	0x3e659a5c	0.22422165
206	0x3c450de6	0.012027239
207	0xbdc80067	-0.09765702
208	0xbd82b274	-0.063816935
209	0x3e1501d6	0.14551482
210	0x3ddea80b	0.108718954
211	0xbc4f6614	-0.012658615
212	0xbe57d4f8	-0.21077335
213	0x3da763fc	0.081733674
214	0xbda86403	-0.08222201
215	0x3dc3de5e	0.095638976
216	0xbc3a44d0	-0.011368945
217	0x3dc7cef0	0.09756267
218	0x3e30deef	0.17272542
219	0x3e0d853f	0.1382036
220	0x3d2bdef9	0.04196069
221	0x3d473d75	0.048642594
222	0x3e0c88a5	0.13724001
223	0x3dd37c4c	0.10326442
224	0x3cb194fb	0.021677485
225	0xbe7aed22	-0.24504521
226	0xbd526101	-0.05136204
227	0x3c82047a	0.015871275
228	0x3ce409d7	0.027836723
229	0xbdd2a154	-0.10284677
230	0xbd8f88ed	-0.070085384
231	0x3ca9b22b	0.02071484
232	0x3d34462c	0.044012234
233	0x3d87de47	0.06634193
234	0x3dc3536a	0.09537394
235	0xbe281a74	-0.16416341
236	0xbc31b221	-0.010845692
237	0x3dd51a22	0.10405375
238	0x3c8a4a09	0.016881006
239	0xbd2e1a5d	-0.04250561
240	0xbd42d24a	-0.04756383
241	0x3da2fbea	0.07958205
242	0x3d9f45da	0.07776995
243	0xbe3a7077	-0.18206964
244	0xbc996613	-0.01872543
245	0x3dd15f51	0.10223258
246	0xbcac9d4b	-0.021071097
247	0xbd9bde20	-0.07610726
248	0x3d72a821	0.05924237
249	0xbe03c80e	-0.12869284
250	0xbc1acb80	-0.009447932
251	0xbb96f28e	-0.0046065515
252	0xbe022445	-0.12709148
253	0xbdcf1b82	-0.101126686
254	0xbda489d3	-0.080341004
255	0x3d0770d1	0.033066574

model.lstm2.weight_hh_l0 f4 [208, 52]
0	0xbd09c54c	-0.033635423
1	0x3ac74500	0.0015203059
2	0xbddac5c4	-0.10682252
3	0xbd848338	-0.064703405
4	0xbdb962ed	-0.09052072
5	0x3d4aad5c	0.049481735
6	0x3d8fbc4a	0.07018335
7	0x3de302f4	0.11084548
8	0xbd3b6598	-0.045751184
9	0x3db85770	0.090010524
10	0xbddd3404	-0.10800937
11	0xbe011ed5	-0.12609418
12	0x3d539590	0.051656306
13	0xbdd48ca0	-0.103783846
14	0x3d90a5e0	0.07062888
15	0x3db5e618	0.088817775
16	0xbd9fbc29	-0.077995606
17	0xbd468db2	-0.048474975
18	0xbc633968	-0.013868667
19	0xbcdbb368	-0.026818946
20	0x3d1bb740	0.038016558
21	0xbcc1de74	-0.023665644
22	0xbde558a4	-0.111985475
23	0xbd418874	-0.047249272
24	0xbdbb73ca	-0.091529444
25	0xbde21d19	-0.11040706
26	0xbdb6c735	-0.089247145
27	0x3de1dcde	0.11028455
28	0x3db9a004	0.09063724
29	0x3dc048aa	0.093888596
30	0xbc0a2df0	-0.008433804
31	0xbc540b00	-0.012942076
32	0x3ddba72e	0.10725246
33	0xbd6c5474	-0.05769773
34	0x3d703ba4	0.058650628
35	0xbd3868e8	-0.04502192
36	0x3d09bb0c	0.033625647
37	0xbdb2b6eb	-0.08726295
38	0xbd3c5bbe	-0.04598593
39	0x3cf880b8	0.030334815
40	0xbdcac049	-0.09899957
41	0xbd006344	-0.031344667
42	0x3d830088	0.06396586
43	0x3e07f26b	0.13276069
44	0x3d81532e	0.063146934
45	0xbe0df7e4	-0.13864094
46	0x3b6ce480	0.0036146939
47	0x3ce3a408	0.027788177
48	0xbdcbc711	-0.09950078
49	0x3d3a23a8	0.04544416
50	0xbe004ae9	-0.12528576
51	0xbdbb4d56	-0.0914561
52	0xbe03e5ca	-0.12880626
53	0x3df87fee	0.12133776
54	0x3dc82cd8	0.09774178
55	0xbda29fc4	-0.07940629
56	0xbd66f526	-0.056386136
57	0x3d9cd9d0	0.07658732
58	0xbc136d80	-0.008998275
59	0xbd4a4f70	-0.049392164
60	0xbe041b39	-0.1290101
61	0xbdcd97fe	-0.10038756
62	0xbd815518	-0.063150585
63	0x3bc352e0	0.005960807
64	0xbde04b7d	-0.10951898
65	0xbdd3c51c	-0.1034033
66	0x3df64ee2	0.120267645
67	0x3d4ff3d8	0.050769657
68	0xbdbfc66f	-0.0936402
69	0x3d54c614	0.051946715
70	0xbce59dd4	-0.02802936
71	0x3de6b92a	0.11265786
72	0xbdd80066	-0.10546951
73	0xbb51c000	-0.003200531
74	0x3e03763b	0.1283807
75	0x3d333c70	0.04375881
76	0x3dea3d76	0.11437504
77	0x3d77d9e0	0.060510516
78	0xbdcc10f6	-0.099641725
79	0xbd065796	-0.032798372
80	0xbdf5c83e	-0.12001084
81	0xbdbac361	-0.09119297
82	0x3da9aaa6	0.08284502
83	0xbdee01b8	-0.116214216
84	0x3c6e5000	0.014545441
85	0xbca23fd8	-0.019805834
86	0x3d891034	0.066925436
87	0x3dd8a164	0.10577658
88	0xbd98ffa4	-0.074706346
89	0xbe08db0b	-0.13364808
90	0x3dab2e60	0.08358455
91	0xbdcb2258	-0.0991866
92	0x3cbe2ea0	0.023215592
93	0xbcd53678	-0.02602695
94	0xbd2f95d2	-0.04286749
95	0xbdef22a6	-0.116765305
96	0x3bcdb600	0.0062777996
97	0xbdaf20ce	-0.08551179
98	0xbdb7b9a0	-0.08970952
99	0x3dcb3cc0	0.099236965
100	0x3e0d2ab5	0.13785823
101	0xbdd8e282	-0.10590078
102	0x3da0ac02	0.07845308
103	0xbbb6d1a0	-0.0055791885
104	0x3dd2b080	0.10287571
105	0x3d492d20	0.0491153
106	0xbdfd78d2	-0.1237656
107	0xbde4b3fe	-0.11167143
108	0xbdc5e732	-0.09663238
109	0x3ca92758	0.020648643
110	0xbd138538	-0.03601572
111	0x3d5fbce0	0.054623485
112	0xbd1b6e42	-0.037946947
113	0x3d86d59c	0.065837115
114	0xbd5c530a	-0.05379013
115	0xbb5a8800	-0.0033345222
116	0x3c7644f0	0.015031084
117	0xbdf99f9f	-0.121886484
118	0x3dbe1af8	0.09282488
119	0x3de719c2	0.1128421
120	0x3c90ee88	0.017691866
121	0xbd8b6ee1	-0.06808258
122	0x3dd02ca8	0.101647675
123	0xbdd4cb7c	-0.10390374
124	0xbd9c1bc6	-0.07622485
125	0xbdcaa6e2	-0.098951116
126	0xb96b6400	-0.000224486
127	0xbde3146a	-0.11087878
128	0x3dfd87e2	0.12379433
129	0xbcd96f3c	-0.026542298
130	0x3dda1be6	0.106498525
131	0xbdd46374	-0.10370532
132	0xbe05c69f	-0.13064049
133	0xbcacca78	-0.021092638
134	0xbc556e10	-0.013026729
135	0xbd70f3e0	-0.058826327
136	0xbb929c00	-0.004474163
137	0xbd72eeaa	-0.05930964
138	0x3d8c63ce	0.06854974
139	0x3d03c0d0	0.032166302
140	0xbd95014b	-0.07275637
141	0xbc1629e0	-0.009165257
142	0x3c130840	0.008974135
143	0xbdace2b0	-0.08441675
144	0x3dc8983c	0.097946614
145	0x3cbfacc0	0.023397803
146	0xbd62662a	-0.055273212
147	0x3e066c0b	0.13127153
148	0x3c5b3690	0.013379708
149	0xbd7b5600	-0.061361313
150	0x3d9b6f36	0.07589571
151	0x3d9ecc88	0.07753855
152	0x3bfe5c60	0.007762477
153	0x3d8f1bc2	0.06987716
154	0xbd073ce6	-0.03301706
155	0x3c720a60	0.014772981
156	0xbdf66246	-0.12030463
157	0xbde1df8d	-0.11028967
158	0x3e0254e3	0.12727694
159	0x3dfb8866	0.12281875
160	0xbe0533a2	-0.13007978
161	0xbe091743	-0.1338778
162	0x3de91efa	0.113828614
163	0xbd2e45e0	-0.042547107
164	0xbd11e384	-0.035617366
165	0xbdc024b5	-0.09382001
166	0x3dc4a8bc	0.09602496
167	0x3db14a7a	0.086567834
168	0x3cb825c0	0.022478938
169	0x3d4f10b4	0.05055304
170	0x3d465384	0.04841949
171	0xbda7f4fa	-0.082010224
172	0x3bfae900	0.0076571703
173	0xbd33102a	-0.043716587
174	0x3db15ac2	0.08659889
175	0x3dcde4e8	0.10053426
176	0x3d2c5544	0.042073503
177	0xbdd79a8d	-0.10527525
178	0xbc0b8630	-0.0085158795
179	0xbdd5049c	-0.1040127
180	0x3e0653f3	0.13117962
181	0x3d7579c4	0.059930578
182	0xbdf24fd6	-0.11831634
183	0x3cf4fd10	0.029905826
184	0x3d4a0760	0.04932344
185	0x3d185a5c	0.03719555
186	0x3c42f6e0	0.01189968
187	0xbca15764	-0.019694991
188	0xbc1ffa10	-0.009764209
189	0x3cf54b48	0.029943123
190	0xbda10060	-0.078614
191	0xbcb4becc	-0.022063635
192	0xbdd431b2	-0.10361041
193	0x3c242210	0.010017887
194	0x3c9f0908	0.019413486
195	0x3dc4819e	0.09595035
196	0xbd92cb1a	-0.07167645
197	0xbd8b2bba	-0.067954496
198	0xbd5aa584	-0.053380504
199	0xbdf90b17	-0.12160318
200	0xbd564da6	-0.052320145
201	0x3d585a34	0.0528204
202	0x3df4c7ae	0.119521484
203	0xbde31624	-0.11088207
204	0x3e036ed5	0.12835248
205	0x3ccc1de8	0.024916604
206	0x3da4075c	0.08009216
207	0xbd06d9da	-0.032922603
208	0xbdcc9138	-0.09988636
209	0x3e0c3ea7	0.13695775
210	0xbc0d8db0	-0.008639738
211	0xbcb548a4	-0.022129364
212	0x3d2b0930	0.04175681
213	0x3b1ba680	0.0023750365
214	0x3c537cd0	0.012908176
215	0x3d8bdec0	0.068295956
216	0x3e049d3f	0.1295061
217	0x3d9bae42	0.076015964
218	0xbdb835f6	-0.08994667
219	0x3e07bd9b	0.13255922
220	0xbd7fdb84	-0.062465206
221	0xbd22bfb0	-0.03973359
222	0x3dfce706	0.12348752
223	0x3c32d7f0	0.010915741
224	0x3d2f0d6c	0.04273741
225	0xbdd0065b	-0.10157462
226	0xbcd868f4	-0.026417233
227	0xbd378aba	-0.044810034
228	0xbdfb9194	-0.12283626
229	0xbddc2908	-0.107500136
230	0xbc827df4	-0.0159292
231	0xbdd26af0	-0.10274303
232	0xbc8897d0	-0.016673952
233	0xbc549910	-0.012975946
234	0x3d2bf9f0	0.041986406
235	0xbdbd84b0	-0.09253824
236	0xbd45fb40	-0.048335314
237	0x3d6a28e8	0.057167917
238	0xbd97b8c9	-0.07408292
239	0x3d861eac	0.06548819
240	0x3894f800	7.1033835e-05
241	0xbdca5638	-0.09879726
242	0xbd0e7372	-0.034778066
243	0xbcce5ea8	-0.02519162
244	0x3e038645	0.12844189
245	0x3d31cb48	0.043406755
246	0xbdd44af4	-0.10365859
247	0x3e097649	0.13424028
248	0x3d2589c4	0.040414587
249	0xbcf1c228	-0.029511526
250	0x3df1146e	0.11771475
251	0xbdcfa6de	-0.10139249
252	0x3dd1ed78	0.10250372
253	0x3d4afc04	0.049556747
254	0x3d8a0e7e	0.067410454
255	0x3d80540a	0.06266029

model.lstm2.bias_ih_l0 f4 [208]
0	0xbe1d70e4	-0.15375096
1	0x3dd6b0ca	0.104829386
2	0x3d39bd36	0.04534646
3	0xbdeb3fa3	-0.11486747
4	0xbda0de15	-0.07854859
5	0x3c8762db	0.01652663
6	0xbe1af056	-0.15130743
7	0x3cff0705	0.031131277
8	0xbdbbedc9	-0.09176213
9	0xbcb6d201	-0.022316935
10	0xbdc33b61	-0.0953281
11	0x3e28e703	0.16494374
12	0xbd856030	-0.06512487
13	0xbe0b13f3	-0.13581829
14	0x3d4020d2	0.0469063
15	0x3c80af3e	0.015708562
16	0xbd0faa95	-0.03507479
17	0x3d94e5cf	0.07270395
18	0x3def23da	0.1167676
19	0xbdffc870	-0.12489402
20	0xbd90b305	-0.07065395
21	0xbe2a14f1	-0.16609551
22	0xbdbd62c6	-0.09247355
23	0x3ba781a0	0.005111888
24	0x3d193747	0.037406232
25	0x3d1cc3a0	0.0382725
26	0x3d1e50ed	0.038651396
27	0xbd42f29b	-0.047594648
28	0xbd7ec7c7	-0.06220224
29	0x3d2e3f44	0.042540804
30	0xbc1cd24a	-0.009571621
31	0x3cc0f25f	0.023553072
32	0xbe17f3cd	-0.14839096
33	0xbd95b6fa	-0.07310291
34	0xbe03368e	-0.1281378
35	0xbdcc048c	-0.09961805
36	0x3cd7b687	0.026332153
37	0x3da0466b	0.07825931
38	0xbcce8398	-0.025209233
39	0xbd22860a	-0.03967861
40	0x3829756e	4.0402105e-05
41	0xbe220c2f	-0.1582496
42	0x3dc175eb	0.09446319
43	0xbd6f96f8	-0.058493584
44	0x3d9f60f6	0.07782166
45	0x3dda5bff	0.10662078
46	0xbda4da30	-0.080494285
47	0xbdd0c88a	-0.101945
48	0x3d39e42f	0.04538363
49	0xbe1c9640	-0.15291691
50	0xbe31e5b8	-0.17372787
51	0x3d584158	0.05279669
52	0xbdf87212	-0.12131132
53	0xbd33ca52	-0.04389412
54	0xbd97e9db	-0.07417651
55	0x3a83ba00	0.0010049939
56	0xbe05ba5f	-0.13059376
57	0x3e089207	0.13336955
58	0xbd77de96	-0.06051501
59	0x3bfc9460	0.0077081174
60	0x3c6177a0	0.013761431
61	0x3d773670	0.06035465
62	0x3df851d6	0.12124984
63	0x3e047705	0.12936027
64	0xbdec5a36	-0.11540644
65	0x3d83fd14	0.06444755
66	0xbcfe974c	-0.031078003
67	0xbdc0f445	-0.09421591
68	0x3dee1396	0.116248295
69	0xbd894751	-0.06703056
70	0xbd60284a	-0.054725923
71	0x3d1359f8	0.035974473
72	0x3db7b7ca	0.08970602
73	0xbd78fd8e	-0.060788684
74	0x3d9efbba	0.07762857
75	0x3c6a67e0	0.014306992
76	0x3c1715d0	0.009221509
77	0xbd607790	-0.054801524
78	0x3df9b57e	0.1219282
79	0xbd86bf09	-0.06579406
80	0xbc1c16f0	-0.009526953
81	0xbd1fd174	-0.03901811
82	0x3df19f2e	0.11797939
83	0x3c1c3bc0	0.00953573
84	0xbd6098e0	-0.054833293
85	0x3d8af2da	0.067846015
86	0x3e0ae4c5	0.13563831
87	0xbd1633c4	-0.03667046
88	0xbcc80d48	-0.024420395
89	0x3da8e1be	0.08246182
90	0x3d88a752	0.06672539
91	0x3de384b4	0.111092955
92	0x3d9e1870	0.07719505
93	0x3c338e30	0.010959193
94	0xbda873d0	-0.082252145
95	0x3d194b10	0.0374251
96	0xbb6a8e00	-0.0035790205
97	0xbdd00960	-0.10158038
98	0xbda8e486	-0.082467124
99	0x3dbcb9e0	0.0921514
100	0x3db6d888	0.08928019
101	0x3d99051a	0.07471676
102	0x3d8507a0	0.06495595
103	0x3e012bef	0.12614416
104	0xbc6ee989	-0.014582046
105	0xbdb80581	-0.08985425
106	0xbd444a11	-0.047922198
107	0x3c80012c	0.015625559
108	0x3da37ce1	0.07982803
109	0xbddee2f8	-0.108831346
110	0xbd2f2c94	-0.042767122
111	0xbde477c7	-0.11155658
112	0x3e01db4f	0.12681316
113	0xbd1324fa	-0.035923935
114	0x3da999de	0.08281301
115	0x3dd8ec74	0.10591975
116	0x3ba88ef4	0.0051439945
117	0xbd38b467	-0.04509392
118	0x3dbd6e8b	0.092496
119	0x3e03a799	0.12856902
120	0x3bf15765	0.0073651546
121	0xbe1e7688	-0.15474904
122	0x3d8d1698	0.06889075
123	0xbe0dd663	-0.13851313
124	0x3db57f0a	0.088621214
125	0xbc199a9e	-0.0093752425
126	0xbda1d2d6	-0.07901542
127	0x3e08ee54	0.13372165
128	0x3da2f18b	0.07956227
129	0x3dd8a3ee	0.10578142
130	0xbe03c950	-0.12869763
131	0xbdcf0091	-0.1010753
132	0x3cde438f	0.027131824
133	0xbcea3353	-0.028588926
134	0xbdecadad	-0.115565635
135	0xbe0e2b7c	-0.13883775
136	0xbc494165	-0.012283658
137	0xbd8a20d9	-0.067445464
138	0xbc570348	-0.013123341
139	0xbd5cf2ba	-0.05394242
140	0xbd90b21e	-0.07065223
141	0xbdc5085a	-0.096207336
142	0xbce03089	-0.027366893
143	0x3dfc18cf	0.12309419
144	0xbd8e76cf	-0.06956255
145	0xbd8e7b77	-0.06957143
146	0xbdd45e34	-0.1036953
147	0xbe062f89	-0.1310407
148	0xbcd042a6	-0.025422405
149	0xbe146876	-0.14492974
150	0x3dc21e4b	0.09478434
151	0xbda1d8ff	-0.07902717
152	0xbdced620	-0.10099435
153	0xbdff4505	-0.12464336
154	0xbd9bf187	-0.07614427
155	0x3b7090d7	0.0036707425
156	0xbd88a732	-0.06672515
157	0x3de4d11a	0.111726955
158	0x3cdca88a	0.026935834
159	0xbd98a961	-0.074541815
160	0x3d40ba06	0.047052406
161	0x39d93bc5	0.00041433997
162	0xbe053d3a	-0.13011637
163	0xbdf76207	-0.12079244
164	0x3d1118e6	0.035424136
165	0xbdde59af	-0.108569495
166	0xbd53085b	-0.05152164
167	0x3d9e178f	0.07719337
168	0x3d80c1d2	0.06286968
169	0xbb335156	-0.0027361712
170	0x3d434086	0.047668956
171	0xbcb498d2	-0.022045527
172	0xbd6f43a8	-0.05841413
173	0x3d9ff4fc	0.07810399
174	0xbe0dfdfd	-0.1386642
175	0x3db041fe	0.08606337
176	0xbd86808b	-0.065674864
177	0xbc9a6e60	-0.018851459
178	0x3c34b28d	0.011028898
179	0x3da904c2	0.082528606
180	0x3db01066	0.08596878
181	0x3daf7fd9	0.08569307
182	0xbe3960b7	-0.181033
183	0x3dfe1379	0.12406058
184	0xbde07a6e	-0.109608516
185	0x3dfe0ac2	0.12404396
186	0x3d99abb3	0.07503452
187	0x3d6f44d8	0.058415264
188	0xbd5a9816	-0.053367697
189	0xbdb09e90	-0.086239934
190	0xbdfb8378	-0.12280935
191	0xbd3ff8d6	-0.046868168
192	0xbdc525e1	-0.096263655
193	0xbb19850e	-0.0023425254
194	0xbd27c4c7	-0.040959146
195	0x3cb09b30	0.021558374
196	0x3e0d9196	0.13825068
197	0x3d7a6ca6	0.06113877
198	0xba9edba6	-0.0012119904
199	0xbd0eb8b5	-0.03484412
200	0xbda171aa	-0.07883008
201	0xbdd70ae9	-0.10500128
202	0xbdf8e707	-0.1215344
203	0xbd53cf6c	-0.051711485
204	0x3cfe5141	0.031044604
205	0x3d8814a6	0.066445634
206	0xbe1d4ae7	-0.15360604
207	0xbe02d339	-0.12775888
