LSTM_TimeSeries/lightning_logs/version_202/checkpoints/epoch=1-step=260.ckpt (torch, 982811 bytes, 27 tensors)

model.lstm1.weight_ih_l0 f4 [416, 9]
000000 5c 87 be 3c 18 bd 3c 3c b8 0a 76 bd 2a c3 03 bd
       0.023257904 0.011519693 -0.060068816 -0.032168545
000010 0f 4f 70 bd ee 39 1e 3d d0 a7 db 3c d2 85 8e bd
       -0.058669146 0.038629465 0.026813418 -0.06959118
000020 ff 0b 81 3d 57 b4 53 bd 14 80 d0 bc 4f 6b a7 3d
       0.06301116 -0.051685657 -0.025451697 0.08174764
000030 27 70 bb bd de 52 2f 3d 01 c3 bb bd 7f 3f 57 bd
       -0.09152251 0.042803638 -0.091680534 -0.05255079
000040 85 ad 74 bd 21 02 8e 3d e0 de 55 3c e0 af 47 bd
       -0.059735794 0.06934 0.013053626 -0.04875171
000050 bd ff b5 bd ca 72 1e 3d 9a c0 28 3d 30 28 83 3b
       -0.08886669 0.03868369 0.041199304 0.0040025935
000060 6c 18 d6 bc 1c a5 b2 3c cf e0 b8 3d a8 6c 5e bc
       -0.026134692 0.021807246 0.09027254 -0.01357571
000070 13 e2 9c 3d 9d 2b a7 3d 26 31 19 3d 9b bb 81 3d
       0.07660308 0.081626154 0.037400387 0.06334611
000080 b0 2a 3e bc 78 94 97 bd a0 db 7d bb 00 c0 d1 36
       -0.011606857 -0.07401365 -0.0038735643 6.251037e-06
000090 fc dc e9 3c a0 9e af bd 80 bc c4 3b 46 14 1b 3d
       0.028547756 -0.08575177 0.0060039163 0.03786113
0000a0 a8 e5 0e 3c b3 b0 8f bd 10 29 65 bc aa 3a 93 bd
       0.0087217465 -0.070161246 -0.013986841 -0.07188924
0000b0 a0 8f 5b bc c8 f7 39 bc 60 bc d4 bb 6d c9 bb 3d
       -0.013400942 -0.01135058 -0.0064921826 0.09169278
0000c0 00 f2 67 39 a0 82 83 3c 32 5a 6a 3d a2 b1 20 3d
       0.00022120029 0.016053498 0.057214923 0.039231904
0000d0 1b 1d a5 bd e6 6b 5f 3d 48 90 39 bd 1f d0 c4 3d
       -0.08062192 0.05454626 -0.045303613 0.096100084
0000e0 c0 d4 6f bb dc dd 9f 3c b6 b8 a5 bd 08 cd 40 bc
       -0.0036595315 0.01951497 -0.080918714 -0.011767633
0000f0 10 07 aa bc 20 ad e3 3b 82 29 0f bd 19 45 81 3d
       -0.02075532 0.0069481283 -0.034951694 0.063120075
000100 91 81 b3 bd d1 02 bf 3d 85 ce 8f 3d 59 69 70 bd
       -0.08764947 0.09326709 0.07021812 -0.058694217
000110 1c e5 bf 3c 00 be 60 bc 5b 7a 57 bd cc 59 d9 bc
       0.023424678 -0.0137171745 -0.05260692 -0.026532076
000120 d4 58 15 bd f8 b2 70 bc 58 eb 35 bc 12 72 4c 3d
       -0.036461666 -0.014691107 -0.011103474 0.049913473
000130 58 f2 81 3c 05 fc a0 3d 20 62 74 bd a9 6f bd 3d
       0.015862629 0.07860569 -0.05966389 0.09249813
000140 72 bd 7d 3d 78 11 d1 3c 4f 20 4a bd d9 20 87 3d
       0.061948247 0.025521025 -0.049347218 0.06598062
000150 85 bc 91 3d 08 cd 1d bc 8e c1 99 bd 6e 29 55 3d
       0.07116035 -0.009631403 -0.07507621 0.052041464
000160 39 3a ad 3d 00 7a 13 39 a9 d1 2d bd 31 4b 95 3d
       0.08458371 0.00014064461 -0.042436276 0.07289732
000170 65 06 b2 3d f2 4f 29 3d c2 c8 4f 3d 30 4e c3 3c
       0.08692626 0.041336007 0.050728567 0.023840994
000180 80 70 b6 bc da 49 6b 3d 79 b7 c1 3d b6 64 23 3d
       -0.022270441 0.057443477 0.09458823 0.039890967
000190 80 77 d6 3a 63 d7 2b bd 60 fb bc 3c 8c 27 c0 bd
       0.0016362518 -0.041953456 0.023069084 -0.09382543
0001a0 70 75 a7 bc c4 29 ea bc 0e cd bb bd 6b 0f b4 3d
       -0.02044174 -0.028584369 -0.091699705 0.08792003
0001b0 b7 72 58 bd 00 7a c4 39 34 7d 12 bd 2b f7 a2 3d
       -0.052843776 0.0003747493 -0.035763934 0.079573
0001c0 82 8e 02 3d 5e 1f 7a 3d d8 af 81 bd 00 31 b6 39
       0.031874187 0.06106507 -0.06332368 0.00034750253
0001d0 c0 82 fd 3b 95 74 89 3d 16 5c 60 3d 5c e6 19 bd
       0.007736534 0.067116894 0.05477532 -0.037573203
0001e0 d8 8e 2b 3c 55 61 7c bd b6 50 14 3d a0 a1 16 3c
       0.010471068 -0.06161626 0.036209784 0.009193808
0001f0 10 18 a1 bd a3 5f a5 3d b8 a9 a4 3c 4e ab 7c bd
       -0.07865918 0.08074882 0.02010046 -0.061686806
000200 08 89 29 bc 00 0c 26 3a 6b 3c a1 3d 60 e5 a6 3b
       -0.010347612 0.00063341856 0.07872852 0.0050932616
000210 b6 45 0a 3d 93 bf ae 3d c0 22 e0 bc 23 31 99 3d
       0.033757888 0.08532634 -0.02736032 0.07480075
000220 d4 bf 7f bd 88 92 0b bd 88 91 84 bc 46 a1 0c 3d
       -0.0624388 -0.03407529 -0.016182676 0.03433349
000230 26 65 6d 3d 5a 64 7f 3d 80 2a 70 3a 85 f0 b3 3d
       0.05795779 0.062351562 0.00091616064 0.0878611
000240 f2 3f 3a 3d f2 a4 85 bd 32 b0 66 3d 46 d5 67 3d
       0.04547114 -0.065256014 0.056320377 0.056599878
000250 17 da 85 3d d0 63 9f 3b 54 09 dd 3c d5 af bc 3d
       0.06535738 0.0048641935 0.026981987 0.09213225
000260 70 bb ad 3b 4a 54 04 bd cf ab 89 bd 09 ac 86 3d
       0.0053018853 -0.032306947 -0.06722223 0.06575782
000270 c4 72 51 bd 86 54 bc bd 7c 58 b0 3c 87 31 ae 3d
       -0.05113484 -0.09195809 0.021526568 0.0850554
000280 74 2b 8d bc 02 3b 2c 3d 50 bf 95 3b 90 b2 d1 3b
       -0.017232634 0.04204846 0.0045699254 0.00639946
000290 ad f5 82 3d b1 25 c4 bd c9 83 af 3d 02 60 5f 3d
       0.06394515 -0.095775016 0.08570058 0.05453492
0002a0 c0 d6 0b bc 3a c7 34 3d a4 4d 6a bd c0 e8 81 bd
       -0.008535087 0.04413531 -0.05720295 -0.06343222
0002b0 e6 a2 41 3d eb ab c0 3d 50 66 b4 bc d0 12 d4 3b
       0.047274493 0.09407791 -0.022021443 0.006471969
0002c0 ce a6 2b 3d c0 35 6a 3c b8 96 06 3c 7f 02 a7 3d
       0.041907124 0.014295042 0.008214645 0.08154773
0002d0 9a 70 b3 bd 80 8a ad bc ce cc 5b 3d f0 85 b4 bc
       -0.087617114 -0.021184206 0.053662114 -0.022036523
0002e0 dc df ad bc ec 75 80 bd 9f 47 bd 3d 8a 4b 13 3d
       -0.021224909 -0.06272492 0.09242176 0.03596071
0002f0 75 ed 49 bd ea 33 1f 3d 42 a9 49 3d 42 aa 61 3d
       -0.049298722 0.03886787 0.049233682 0.05509401
000300 b6 02 12 3d d6 7c 1b 3d 0f 1e 3c bd 8e 5d 3c 3d
       0.035647117 0.03796085 -0.045927104 0.04598766
000310 00 5f d2 3a ef 31 a8 3d b6 6c 5a 3d b9 8c ae 3d
       0.0016050041 0.08212649 0.05332633 0.085229345
000320 80 86 90 3a b0 66 df bb 60 41 a1 3c 80 60 15 3c
       0.0011026412 -0.006817661 0.019684494 0.009117246
000330 d0 6c 25 3c 82 e1 4b 3d 67 1d 9c 3d b9 36 a1 3d
       0.010096744 0.049775608 0.076227956 0.07871766
000340 52 83 7a 3d 9c f4 d4 bc 8a 7a 72 3d 40 a0 cf bb
       0.061160393 -0.025995545 0.059198894 -0.006336242
000350 e8 ea 35 3c 1d 01 5f bd ab fe 62 bd e4 d8 d7 3c
       0.011103369 -0.05444442 -0.05541865 0.026348539
000360 d6 be 55 3d e9 68 89 3d f8 02 20 3c 3a 12 2d 3d
       0.05218395 0.06709463 0.009766333 0.04225371
000370 3c fb d1 bc 2c f7 ab 3c 30 1a e4 bc 13 86 c3 3d
       -0.025632493 0.020991884 -0.027844518 0.09547057
000380 60 5a e9 3b ee db b9 bd 35 1f b5 3d 20 c6 2f bb
       0.0071213692 -0.090751514 0.08843843 -0.0026820973
000390 ab b6 a6 3d d0 0a 81 bd 30 41 60 bc 6c 2a f2 3c
       0.0814031 -0.063008904 -0.013687417 0.029561244
0003a0 b0 60 4c bc 80 5d 78 bd 7c d3 04 bd f8 a5 19 3c
       -0.012474224 -0.060636044 -0.03242825 0.009377949
0003b0 00 fd bc bc 19 59 99 3d c0 13 fa ba ff 62 27 bd
       -0.023069859 0.07487697 -0.0019079372 -0.040865894
0003c0 55 7e 99 3d 5e 79 03 bd 70 99 ad bc 48 8f 8f 3c
       0.07494799 -0.032098167 -0.021191329 0.017524377
0003d0 c8 31 2b 3c 35 f3 c6 bd 74 f6 aa 3c db 8d be 3d
       0.0104488805 -0.09714357 0.020869471 0.093044005
0003e0 b8 a2 1a bc b0 bc d4 bc 36 96 57 3d d6 68 02 bd
       -0.009438209 -0.02596888 0.052633487 -0.03183826
0003f0 36 17 22 3d ff fc 89 3d d6 4c 02 3d 40 62 7d 3b
       0.039572917 0.06737708 0.031811558 0.0038663298

model.lstm1.weight_hh_l0 f4 [416, 104]
000000 d1 8a 90 3d 78 1e 9d 3c e9 09 89 bd 45 a1 b9 3d
       0.07057727 0.019179568 -0.06691343 0.09063963
000010 9b 63 92 bd 5a 14 a3 bd 25 b8 a6 3d dc dc dd 3c
       -0.071479045 -0.07962866 0.081405915 0.027082853
000020 40 d7 82 bb 75 04 6d bd c8 b5 11 3c a0 9d 8c bd
       -0.003992945 -0.05786558 0.008893438 -0.06866002
000030 f4 d5 48 bd f4 3a 90 3c de 17 0a 3d 60 14 d5 3c
       -0.049032167 0.017606236 0.033714168 0.026010692
000040 63 54 af 3d 73 e1 8a 3d 46 d7 56 3d 5d 58 b2 bd
       0.08561017 0.06781282 0.052451394 -0.0870826
000050 e2 d1 0d 3d f9 c4 81 3d 34 64 b3 3c eb 86 8b 3d
       0.034623988 0.06336398 0.021898367 0.06812843
000060 b8 75 f9 bc 42 ed 57 3d 5b 89 2d bd ee 43 7b 3d
       -0.03045164 0.0527165 -0.04236732 0.06134408
000070 2e ef 76 3d 4b 58 ba 3d dc ba eb 3c 5e 45 67 3d
       0.060286693 0.09098872 0.028775625 0.056462638
000080 19 a3 43 bd 40 1a 30 3b 37 fe 89 bd 8c cb a3 bd
       -0.047762964 0.0026871115 -0.06737941 -0.07997808
000090 04 14 e3 bc 15 03 ae 3d f4 e4 c5 bd ea 90 64 bd
       -0.027719505 0.084966816 -0.0966281 -0.055802263
0000a0 76 08 5b 3d 2f cc be 3d 98 8b 44 3c d9 47 bf 3d
       0.053474866 0.09316289 0.011996172 0.09339876
0000b0 c0 08 95 ba de 3f 0f bd 80 96 33 bd a4 7a 8b 3c
       -0.0011370406 -0.034973018 -0.0438447 0.017026253
0000c0 61 18 c1 3d 14 24 a6 3c b7 1b af 3d 95 4f 88 3d
       0.09428478 0.020280875 0.08550208 0.06655804
0000d0 02 64 04 3d b3 c8 8a 3d 40 a7 97 bd ce 5a 16 3d
       0.032321937 0.067765616 -0.07404947 0.03670769
0000e0 90 b5 a5 bb e2 90 56 bd 83 69 c7 3d ad 21 87 3d
       -0.0050570443 -0.052384265 0.09736922 0.0659822
0000f0 88 a3 c5 bc e5 48 1c bd ca 5e 20 3d 80 e4 6c ba
       -0.02412583 -0.038155455 0.039152898 -0.00090367347
000100 03 3e c8 bd ce b4 7c 3d 00 02 b0 ba a0 d8 c4 bc
       -0.09777453 0.061695866 -0.001342833 -0.024029076
000110 d6 ae 84 bd 61 fd 5f bd 20 b8 d7 bb 30 9e c3 3c
       -0.0647866 -0.054685 -0.0065832287 0.02387914
000120 1e 8a 23 3d 79 3a b3 3d d5 58 88 3d 6c 75 a4 3c
       0.03992664 0.08751387 0.06657568 0.020075522
000130 c4 83 b9 bd 40 74 af bd 63 5c 8a 3d 60 9c d2 bc
       -0.090583354 -0.08567095 0.067559026 -0.025709331
000140 e5 d6 86 3d 24 29 ad bc 32 5d 0b 3d cc 24 ae 3c
       0.06583957 -0.021137781 0.034024425 0.02125778
000150 6f 38 96 3d 5e b0 9c bd e6 95 76 3d 3a e7 40 3d
       0.073349826 -0.07650827 0.060201548 0.047095515
000160 18 42 2e 3c e2 ee aa bd 57 a2 16 bd 9c 3d c6 bc
       0.010635875 -0.083463445 -0.036775913 -0.0241993
000170 60 5f 9e 3b ed b7 87 3d 16 94 67 3d 74 62 99 3c
       0.004833147 0.06626878 0.05653771 0.018723704
000180 b6 6f 70 3d 96 13 27 3d 86 7a 00 bd d0 0e 63 3c
       0.058700286 0.040790163 -0.031366847 0.013858512
000190 f6 75 4b 3d 52 80 a0 bd 20 d7 7a 3c 0c ee df bc
       0.049673043 -0.07836975 0.015310079 -0.02733519
0001a0 a9 42 b6 3d bf 65 c7 bd 15 79 81 3d 66 86 58 bd
       0.08899433 -0.097362034 0.06321923 -0.052862547
0001b0 a0 20 f4 bb 1a c5 62 3d 78 59 3e bc fe 6d 9b bd
       -0.0074501783 0.055363752 -0.011618011 -0.07589339
0001c0 ce 2d ba bd f9 39 2f bd 2a 3f 6d 3d 96 60 c4 bd
       -0.09090768 -0.042779896 0.057921566 -0.09588735
0001d0 47 26 b6 3d e0 ad 60 3c 95 a9 b7 3d 9c de c9 3c
       0.088940196 0.01371333 0.08967892 0.024642281
0001e0 80 31 f2 bc 80 8f 55 3c 19 cb 20 bd 73 5a bc 3d
       -0.029564619 0.013034701 -0.03925619 0.09196939
0001f0 6c 77 fa 3c b0 81 14 bd 49 9e 2a bd 50 ac 9f bb
       0.030574523 -0.036256492 -0.04165486 -0.004872836
000200 ab 24 81 3d ad 00 c8 3d a3 e0 a3 bd c0 3b d5 ba
       0.06305822 0.09765754 -0.080018304 -0.0016268417
000210 f8 96 bb bd 84 29 d7 bc 9f aa 62 bd 50 29 8e bd
       -0.091596544 -0.026264913 -0.0553385 -0.069414735
000220 85 56 7e bd 99 dd 9c 3d af 10 ab bd bc 9c f6 3c
       -0.06209423 0.07659454 -0.083527915 0.030104034
000230 91 76 c5 3d 08 5a a1 bd 5c 77 86 3c 68 6d 74 3c
       0.09641755 -0.078785 0.016414337 0.014918663
000240 9b 32 b5 3d 56 e4 0a 3d d0 ff 30 bd 88 8b 4b bd
       0.08847543 0.033909164 -0.04321271 -0.049693614
000250 43 1f 8c 3d 54 14 e2 3c 41 c0 40 bd 00 f8 30 b9
       0.068419 0.027597584 -0.047058348 -0.00016877055
000260 64 bd 18 bd 54 40 81 bd fa cf 68 bd fb 7e b3 3d
       -0.037289992 -0.06311098 -0.056838967 0.08764454
000270 6b ec 89 bd 12 56 a7 bd a6 43 84 bd db aa 8c bd
       -0.06734546 -0.081707135 -0.064582154 -0.068685256
000280 19 a7 90 3d 50 2d 8a bc 39 90 a3 bd 32 c1 20 bd
       0.07063121 -0.01686731 -0.07986493 -0.039246745
000290 e2 10 28 3d 52 37 3c bd 2e 32 4d 3d 8d 3b 86 3d
       0.041031726 -0.045951195 0.050096683 0.06554327
0002a0 c0 b9 5c bc c6 df 75 3d 70 50 e9 bc c0 f1 c5 bd
       -0.013472021 0.06002786 -0.028480738 -0.09665251
0002b0 00 08 ed b8 10 32 89 3b 09 e3 b7 3d ce bb 3b 3d
       -0.00011302531 0.004186876 0.089788504 0.0458334
0002c0 ea 67 7c bd a9 1f 5b bd e1 a0 9f bd 92 01 04 3d
       -0.061622538 -0.05349699 -0.07794357 0.03222806
0002d0 18 b4 9e bd 0f 18 72 bd 19 18 62 bd 7a 6b c7 bd
       -0.07749194 -0.059104975 -0.055198763 -0.097372964
0002e0 79 22 8d 3d 09 e3 a1 bd 3c df bb 3c 06 a7 8b bd
       0.06891341 -0.07904632 0.022933595 -0.068189666
0002f0 1b 98 c5 bd 34 c0 85 bd 9c f6 b2 bd 78 52 1f bc
       -0.096481524 -0.065308005 -0.08738443 -0.009724252
000300 bf 8e 8a 3d e8 5f 42 bc f5 9d 85 bd 6a c4 80 bd
       0.06765508 -0.011863686 -0.065242685 -0.06287463
000310 19 e6 35 bd 5c 08 8f 3c 40 c4 16 3b 2e cc b4 bd
       -0.04440889 0.01746004 0.0023005158 -0.08828007
000320 20 37 b1 3c c4 1e e0 3c 07 85 bd 3d 14 67 88 bd
       0.021632731 0.02735842 0.092538886 -0.066602856
000330 d8 45 82 bd db b4 92 3d 41 39 b9 3d 00 70 86 bb
       -0.06360978 0.07163402 0.090441234 -0.004102707
000340 f9 32 9f bd a8 93 16 bd d6 7b ac bd 30 ae e5 3b
       -0.07773394 -0.03676191 -0.08422057 0.00700929
000350 a1 b8 6b bd e4 b9 df 3c ce b9 02 3d 22 b4 3d 3d
       -0.057549123 0.02731032 0.03191548 0.046314366
000360 70 39 ba 3c 60 f2 82 bc 14 b0 cc 3c 04 63 be bd
       0.022732466 -0.015984714 0.024986304 -0.092962295
000370 f2 4c 79 bd 27 62 c5 3d 76 3f 58 3d 9e 71 27 bd
       -0.060864396 0.09637862 0.052794896 -0.04087984
000380 30 87 95 bd 2b 24 c1 bd a8 4f 2c bc 0c cf b6 bc
       -0.073011756 -0.094307266 -0.010517038 -0.022315525
000390 95 14 bc 3d 62 13 2c 3d f0 b5 48 3c 81 54 ba 3d
       0.09183613 0.042010672 0.0122504085 0.09098149
0003a0 af bb 4f bd 7f 23 80 3d 9f e6 c4 3d 27 5d bb bd
       -0.0507161 0.0625677 0.096143 -0.09148627
0003b0 51 2b af bd e8 21 73 bc 5c 70 c7 3c 04 a3 9d bc
       -0.08553184 -0.014839627 0.02434557 -0.019242771
0003c0 90 79 68 3c 28 4f bb 3c de 7f 0d bd 03 a4 9e bd
       0.014189139 0.022864893 -0.03454577 -0.077461265
0003d0 f0 25 28 bc 36 76 66 3d 1d 37 b5 3d bf f3 c1 3d
       -0.010262951 0.05626508 0.08848403 0.09470319
0003e0 44 b3 f8 bc 3e ba 8a bd c0 40 55 bc 99 fd ad bd
       -0.030358918 -0.06773804 -0.013015926 -0.084956355
0003f0 38 b7 cd bc 58 05 12 bc a5 19 a1 3d 1c f9 83 bd
       -0.02511178 -0.008912407 0.078662194 -0.06443998

model.lstm1.bias_ih_l0 f4 [416]
000000 06 7b 52 3d b3 de 82 3d 62 a6 31 3d 5e 31 66 bd
       0.051386856 0.06390133 0.043371566 -0.056199424
000010 80 e9 96 bd 9c 95 b6 3c 54 ca d0 3c 28 5f c8 bc
       -0.07368755 0.022288136 0.025487103 -0.024459437
000020 d8 f4 92 bd 19 84 bb 3d c2 db 10 bd 82 d5 a3 bd
       -0.071756065 0.09156055 -0.035365827 -0.07999708
000030 ce 72 0b 3d 9e a4 2c 3d 4a ef 25 3d 82 86 87 bd
       0.034045033 0.04214918 0.040511407 -0.06617452
000040 93 f7 b0 3d 35 77 9a 3d ce 0e 6c 3d a4 79 bf bc
       0.08640971 0.07542268 0.057631306 -0.023373432
000050 60 c0 3d bd 40 4e 7d 3c 96 f2 7d 3d 72 2a 0f 3d
       -0.04632604 0.015460551 0.061998926 0.03495259
000060 c8 6c 75 bd 79 69 47 bd 9a 21 a1 bd 80 77 1c bc
       -0.059918195 -0.04868457 -0.07867737 -0.009549975
000070 f5 4e 84 3d 50 da 01 3c 2a 1f 4c 3d ac 35 31 bd
       0.06460372 0.007925585 0.049834408 -0.043264076
000080 c2 cc 15 bd 60 2e 81 bd 13 ae aa 3d 6a 3b 6b 3d
       -0.036572225 -0.063076735 0.08333983 0.05742971
000090 42 98 18 3d 30 fb 89 bb 40 aa bf 3c 44 df 2d bd
       0.03725458 -0.004210852 0.023396611 -0.04244925
0000a0 00 e9 c4 bc da 72 50 3d 60 ca 66 bd b9 cf a9 3d
       -0.024036884 0.05089078 -0.056345344 0.08291573
0000b0 31 ed b3 bd e5 93 c6 bd e7 03 3f bd 80 fc 8d bc
       -0.08785475 -0.096961774 -0.04663458 -0.017332315
0000c0 58 9d 97 3c 2f d9 ab 3d 8f 03 5e bd c7 3d a7 bd
       0.018507645 0.08391034 -0.054202612 -0.0816608
0000d0 0e b3 55 3d b7 1e 90 3d fe 3a 41 3d ec 46 e2 bc
       0.052172713 0.070371084 0.0471754 -0.027621709
0000e0 04 a4 c8 3c f3 1e b2 3d 41 27 94 3d 4f 75 9b 3d
       0.024492271 0.08697309 0.072340496 0.07590734
0000f0 c2 ef 2c 3d f0 d7 44 3c 70 df 17 bc bc 1d bc bc
       0.04222084 0.012014374 -0.00926958 -0.022963397
000100 da 69 47 bd 7a 24 83 bd 24 46 ad 3c 14 74 b7 bd
       -0.048684932 -0.06403442 0.02115161 -0.08957687
000110 00 41 2d bd 9e ee 01 3d 16 cf 9f bd a0 e9 6e 3c
       -0.042298317 0.031721704 -0.078031704 0.014582068
000120 9b dc 9e 3d 5c c7 97 3c a6 bb 88 bd f9 45 b0 bd
       0.07756921 0.01852768 -0.06676416 -0.08607096
000130 25 3d 9e 3d cf 65 9a bd 42 e0 2f 3d 61 6a 88 3d
       0.07726506 -0.0753895 0.04293848 0.06660915
000140 c2 65 6f 3d 34 ce c4 bd 4d 8e 8f 3d 5b 4e 97 3d
       0.058446653 -0.096096426 0.070095636 0.07387992
000150 b7 2e 87 3d 2f a4 a8 3d 30 83 c8 3c 79 60 61 bd
       0.06600707 0.082344405 0.024476618 -0.055023644
000160 f3 d3 91 bd 12 25 8f bd b5 e1 c5 3d 0e df 42 3d
       -0.07120504 -0.069894925 0.09662191 0.047576003
000170 01 d1 9f 3d ae f0 6c 3d 08 3d 50 bc 62 74 5a 3d
       0.07803536 0.057846718 -0.0127098635 0.053333648
000180 49 79 88 3d d0 2a 86 bd c6 f0 09 3d da 2f 3b bd
       0.06663758 -0.065511346 0.033676885 -0.04569993
000190 41 34 1f bd f7 c1 ba 3d b8 9c 98 3c f1 07 8a 3d
       -0.038868193 0.09119027 0.018629417 0.06739796
0001a0 96 ab 66 3d 7d f9 a6 3d c0 30 96 bb 58 56 7d 3c
       0.05631598 0.08153055 -0.004583448 0.0154624805
0001b0 28 37 de bc 03 69 29 bd de ff 65 3d ee 57 8e bd
       -0.02712591 -0.041359913 0.056152217 -0.06950365
0001c0 40 4a 82 3c 9c 27 9a bd e9 75 95 3d 60 93 2c bd
       0.015904546 -0.07527086 0.0729788 -0.042132735
0001d0 0e d7 82 bd 38 45 86 bd 20 56 be 3b 22 f0 09 3d
       -0.06388675 -0.06556171 0.0058086067 0.033676274
0001e0 c2 e0 58 3d 49 06 4c bd 35 e2 c0 3d 42 35 6e bd
       0.05294872 -0.04981068 0.094181456 -0.05815626
0001f0 18 d7 17 bc 9e b8 39 3d 4a bf 17 3d 21 8d b3 bd
       -0.009267591 0.04534208 0.03704766 -0.087671526
000200 36 bb 18 3d a9 47 a8 bd 03 fb 8a 3d f8 3d a8 bc
       0.037287913 -0.08216793 0.06786158 -0.020537362
000210 b9 f2 bd 3d 6b 06 a9 3d 31 02 c1 3d 62 10 26 3d
       0.09274811 0.08253177 0.09424246 0.040542968
000220 61 18 88 3d de cb 71 3d cc 17 a9 bd a6 66 ac bd
       0.06645275 0.059032314 -0.08256492 -0.08418016
000230 4e cf 5f 3d c4 3c 90 3c 34 f3 f1 3c b4 5d 84 bd
       0.05464106 0.0176071 0.029534914 -0.06463185
000240 58 bc b1 3c ea 44 51 3d e9 4c 9a bd e2 7c 45 3d
       0.021696255 0.051091112 -0.07534201 0.0482148
000250 92 fd 18 bd 12 1e 92 bd 90 93 c0 bd de 01 77 3d
       -0.0373512 -0.07134642 -0.09403145 0.060304515
000260 d4 1b 11 bd fa 02 61 3d 28 32 75 bc ce 5f 8b bd
       -0.03542693 0.05493448 -0.014965571 -0.06805383
000270 21 66 8d bd d0 ed 0d 3c 42 2a 4f 3d 3a b8 7b 3d
       -0.06904245 0.008662656 0.05057741 0.06145499
000280 18 d8 6c 3c 38 08 49 bd cc 7d b0 bd a5 96 c7 bd
       0.014455818 -0.049080104 -0.08617744 -0.0974553
000290 53 6f bf bd 6f 5d 86 3d 41 89 8b 3d 4d bb 7c bd
       -0.09347405 0.0656079 0.068132885 -0.06170206
0002a0 80 eb 87 bb 06 8f 4d 3d 6c 36 9f 3c 17 56 c0 3d
       -0.004147947 0.050185226 0.01943513 0.0939142
0002b0 34 e3 c1 bc 7d 88 9d bd 50 3c 9b bd 6f 71 b3 3d
       -0.02366791 -0.07692049 -0.07579863 0.0876187
0002c0 99 bf 88 3d 38 ca 51 bc 53 c1 b1 bd d7 3f 9d 3d
       0.06677169 -0.01280456 -0.08679452 0.07678192
0002d0 c5 c2 c5 3d 16 8a 0e 3d 00 40 5c 38 1f a9 a8 3d
       0.0965629 0.034799658 5.2511692e-05 0.08235382
0002e0 53 78 af 3d 17 2d 12 bd d8 2f 86 bd c4 31 18 bd
       0.08567872 -0.035687532 -0.06552094 -0.037156835
0002f0 c0 71 e9 3a 7e a2 99 bd dc 21 c7 3c b6 16 51 bd
       0.0017810389 -0.07501696 0.024308138 -0.05104705
000300 ad 9b aa 3d ff 5f b9 3d 32 cc 19 3d 84 10 f7 3c
       0.08330474 0.09051513 0.03754825 0.030159242
000310 e9 16 b2 bd 20 f7 b4 bb 16 40 85 bd ef 8d af 3d
       -0.08695776 -0.0055226237 -0.06506364 0.085719936
000320 1c 09 c7 bc 20 8d 6f bc 28 e9 c6 bd b0 80 97 3c
       -0.024296336 -0.014621049 -0.0971244 0.01849398
000330 59 8b 82 bd e0 4c 8f bc 2a a2 0d 3d 2f 33 bd 3d
       -0.06374235 -0.017492712 0.03457848 0.09238278
000340 60 a5 a8 bd ec ca b0 bd eb ee 3e bd 76 3c 7f 3d
       -0.08234668 -0.08632454 -0.04661457 0.06231352
000350 89 64 c8 3d 91 6d 2f bd 1e 66 a7 bd 1e db 00 3d
       0.097848006 -0.0428291 -0.08173774 0.031458966
000360 c5 3f af 3d 4b 64 65 bd 32 98 8c bd 44 7a eb 3c
       0.08557085 -0.05600385 -0.068649665 0.028744824
000370 70 ed 07 bc 5f f2 b2 bd b1 78 7b bd 76 e8 01 3d
       -0.008296356 -0.08737635 -0.061394397 0.031715833
000380 40 26 77 bb 2d 6a 92 bd d6 6f 31 3d 82 60 0f bd
       -0.0037712008 -0.07149158 0.043319546 -0.035004146
000390 35 b5 1e bd 90 0d 88 bc 80 d1 54 3b be 29 62 3d
       -0.03874703 -0.01660803 0.0032473505 0.05521559
0003a0 e0 b5 bb bc 80 f7 10 ba fa 83 08 3d f4 f9 cb bc
       -0.022913873 -0.00055300444 0.033328988 -0.02489946
0003b0 6e a6 60 3d 40 0e de 3a 94 53 91 3c 39 e1 85 3d
       0.05484622 0.0016941503 0.017740048 0.065370984
0003c0 54 61 a0 3c a4 9f bd bc 9e 3b 49 3d 4b 31 4b bd
       0.01957766 -0.023147412 0.04912912 -0.049607556
0003d0 b4 0a a6 3c 49 3e 86 3d 8e 7d 36 3d aa 70 98 bd
       0.020268776 0.06554849 0.044553332 -0.07443364
0003e0 b4 78 ff 3c a9 74 94 3d 5f 78 8f 3d ba b3 35 3d
       0.031185485 0.07248814 0.07005381 0.044360854
0003f0 31 d5 89 3d dc 2c ef bc 28 89 b5 bc 6d ce 9d 3d
       0.06730116 -0.029196195 -0.022160128 0.07705388

model.lstm1.bias_hh_l0 f4 [416]
000000 a0 49 a0 bd a7 e4 87 3d bc 2a d0 3c 09 83 29 bd
       -0.07826543 0.06635409 0.025411002 -0.04138473
000010 c4 3a fc 3c 88 17 64 bd 61 25 c4 bd 2a 05 75 3d
       0.03078974 -0.055686504 -0.09577442 0.059819378
000020 bb 31 80 3d 5c 0a df bc 2d fc c6 3d d9 65 13 bd
       0.06259485 -0.02722662 0.097160675 -0.0359858
000030 e5 ad 99 3d 8e 57 5f 3d b0 45 86 3c 3f cf 7f bd
       0.07503871 0.054526858 0.016390651 -0.062453505
000040 44 2e f2 bc 04 bb dc 3c 08 79 71 bd 9c 92 b2 bd
       -0.029563077 0.026944645 -0.058953315 -0.0871937
000050 bd 44 9e 3d 60 6a d9 bc 27 ba a4 3d 86 6e 2d 3d
       0.077279545 -0.026539981 0.08043318 0.04234173
000060 00 3e ae 3b 3e 0b 82 bd 08 49 05 3c 6b 44 8b 3d
       0.0053174496 -0.063498005 0.008135088 0.06800159
000070 c0 61 83 bc a8 8e 9f 3c 54 ef ed 3c a0 f2 0a bb
       -0.016037822 0.019477203 0.029044785 -0.0021201745
000080 d2 3d 0a bd a7 40 6b bd 42 b0 22 3d 48 ec 77 bd
       -0.033750363 -0.057434704 0.039718874 -0.06052807
000090 ee 90 39 bd 66 50 34 3d 15 1c 54 bd 8f f0 aa bd
       -0.04530423 0.044021986 -0.051784594 -0.08346664
0000a0 e7 2d 3e bd 1a 76 2e bd 81 d2 bd 3d b0 69 cd bb
       -0.046430495 -0.0425931 0.09268666 -0.0062687024
0000b0 f2 9e c1 bd 7f 52 b1 3d 44 96 f4 bc fa d0 3c bd
       -0.094541445 0.08658313 -0.029856808 -0.046097733
0000c0 b8 e7 80 3c e7 c3 95 bd 0b ef 9a bd 5e 38 53 3d
       0.015735492 -0.07312756 -0.07565125 0.051567428
0000d0 b2 fc 9b bd 43 9d 86 3d f8 35 e0 bc f0 d0 d5 bc
       -0.07616557 0.06572964 -0.027369484 -0.026100606
0000e0 27 d4 bd 3d c6 21 91 bd e5 0c 9e 3d 89 89 53 bd
       0.092689805 -0.0708652 0.07717303 -0.051644836
0000f0 17 a9 98 3d 58 94 a8 3c 84 6d a0 bc 40 d9 c2 3b
       0.07454126 0.020578548 -0.019583471 0.0059463084
000100 03 48 b6 3d 30 52 94 3c 7f b6 7e bd ff 25 b3 bd
       0.08900454 0.018105596 -0.06218576 -0.087474816
000110 b1 a9 89 3d b0 50 c3 bb 00 11 bd b9 34 1a ad 3c
       0.06721819 -0.0059605464 -0.00036061555 0.021130659
000120 a4 23 8d bd 41 86 1f bd b0 c8 dc 3b 52 df 05 3d
       -0.068915635 -0.038946394 0.006737791 0.032683678
000130 f1 c7 b5 3d 7e 5c 22 3d 66 c0 24 3d 82 9d 89 bd
       0.088760264 0.03963899 0.040222548 -0.06719495
000140 d0 28 2b 3c b0 26 87 bb d2 71 6f 3d 40 95 23 bb
       0.010446742 -0.004124485 0.058458157 -0.0024960786
000150 f1 4e a7 3d f2 a2 76 3d 90 0d a4 bb fd 34 3e bd
       0.08169354 0.06021399 -0.0050064996 -0.046437252
000160 18 1d 14 bc 34 6a e6 3c 47 0b b8 3d f6 57 ab bd
       -0.00904014 0.028126813 0.08986526 -0.083663866
000170 a0 18 39 bd 9e c7 55 3d 5f 4d 2b bd 2e 76 02 3d
       -0.0451895 0.052192323 -0.041821834 0.031850986
000180 91 92 8c 3d bc 3e 9b bc 70 7f 80 bb 32 1b 57 3d
       0.06863893 -0.018950813 -0.0039214417 0.05251617
000190 bb 0c aa 3d c4 35 bd 3c 2e 02 70 3d 55 0f a2 bd
       0.083032094 0.023096927 0.05859583 -0.079130806
0001a0 eb 20 93 3d b6 5d 2b 3d d0 5c 7a bc 47 e1 56 bd
       0.07184013 0.041837417 -0.015280917 -0.052460935
0001b0 0c 2d c7 3c c0 54 c7 bd ea 18 01 bd 9c ab cc 3c
       0.024313472 -0.09732962 -0.0315179 0.024984173
0001c0 72 bf 7b 3d f4 76 b5 bc f8 c6 0d 3c 43 0b 34 bd
       0.061461873 -0.022151448 0.008653395 -0.043956053
0001d0 33 d0 a9 3d f8 65 11 3c 58 c6 05 bc d4 2a 43 bd
       0.08291664 0.008874409 -0.008164965 -0.047648266
0001e0 fe 51 2d 3d 82 89 7b bd 7c 85 3a bd 96 f8 5a bd
       0.042314522 -0.061410435 -0.045537457 -0.053459726
0001f0 88 d3 0d 3c fe 6a 1c 3d f3 b3 13 bd c0 af fa 3b
       0.00865639 0.038187973 -0.036060285 0.0076503456
000200 3e b9 79 3d 5a 13 72 3d 16 7c 40 3d c0 56 2d 3c
       0.060967676 0.059100486 0.046993338 0.010579765
000210 d2 e9 05 bd 64 31 d8 bc c4 ed fc 3c e3 63 67 bd
       -0.03269369 -0.026390739 0.030875094 -0.056491744
000220 cc f8 ea bc d9 fd aa 3d 3c 5c be bc 68 be b8 3c
       -0.028683089 0.08349199 -0.02323734 0.02255173
000230 33 df a7 bd 38 1a 67 bd be f5 86 bd 77 d4 36 bd
       -0.08196869 -0.05642149 -0.0658984 -0.044636216
000240 e6 4f 4f 3d 6a 4a 96 bd a8 7f be bc 1c 8b da bc
       0.050613306 -0.07338412 -0.02325423 -0.02667766
000250 e5 54 56 bd cb f7 8a bd 95 4c 87 3d 18 48 f1 bc
       -0.052327055 -0.06785544 0.06606404 -0.029453322
000260 70 a5 15 bc 12 ff b7 bd 80 bf 93 bc 24 af f9 3c
       -0.009133682 -0.08984198 -0.01803565 0.030479021
000270 d9 e8 c0 3d 50 07 8c bb 5d 01 9e bd 98 90 92 bd
       0.09419412 -0.0042733327 -0.07715104 -0.07156485
000280 fe b9 3d 3d 32 cf 23 3d b8 6c c6 bc 56 64 9b bd
       0.046319954 0.03999252 -0.024221763 -0.07587497
000290 e8 f5 00 3c f0 6d ec 3b 18 a9 16 bc 61 c9 3f bd
       0.007871129 0.007215254 -0.0091955885 -0.04682291
0002a0 07 0c 2b bd f6 8d 23 3d 98 53 b1 3c 2b 15 26 bd
       -0.041759517 0.039930306 0.021646306 -0.04054753
0002b0 f8 b8 b2 3c bf 42 b1 3d d8 2d 59 bd 71 3a 87 3d
       0.021816716 0.08655309 -0.053022236 0.06602944
0002c0 a2 e4 a1 bd 35 ec a2 bd 27 2e a2 3d d5 7e 96 3d
       -0.079049364 -0.07955209 0.07918959 0.0734841
0002d0 09 4a ba 3d 54 be ea bc fd e9 a7 3d 72 e7 55 3d
       0.09096152 -0.028655209 0.081989266 0.052222677
0002e0 bf 79 5a bd f2 f4 35 3d fc 61 d5 bc ec 6c 5e bd
       -0.053338762 0.04442305 -0.0260477 -0.054303095
0002f0 06 db 72 3d 16 84 09 bd 14 88 fc 3c f2 b3 91 bd
       0.05929091 -0.033573233 0.030826606 -0.071144
000300 bc 12 9f bc 18 7a b8 3c cc 43 0e bd 00 35 bb ba
       -0.019418113 0.022519156 -0.034732625 -0.0014282763
000310 b8 c6 b6 bd 22 39 0e 3d 53 39 31 bd 1a 0e c6 bd
       -0.08924621 0.034722455 -0.04326756 -0.096706584
000320 fb 1e c5 3d 60 a2 4a 3c 66 fa 06 bd ab 71 4b bd
       0.0962505 0.012367815 -0.032953642 -0.04966895
000330 1e 1e a1 bd 11 50 ba 3d ae 40 6e 3d a5 bd 91 3d
       -0.078670725 0.09097303 0.058167152 0.0711625
000340 e7 b9 ae 3d 80 9b 88 bb e0 a0 d9 3c 29 f8 62 bd
       0.08531552 -0.0041689277 0.026565969 -0.055412445
000350 58 e1 75 bc e9 98 ac 3d c9 df b8 3d 9e 4c 43 3d
       -0.015007339 0.08427603 0.09027059 0.04768049
000360 40 54 9d bb 2b d3 86 3d 64 70 f5 bc 21 98 54 bd
       -0.004801303 0.06583246 -0.029960819 -0.051902894
000370 28 0a ac bd b2 de 74 3d 40 be 86 bd 1a 08 5d 3d
       -0.08400375 0.05978269 -0.06579256 0.053962804
000380 4b 51 84 3d 25 7f b5 3d 48 1b a9 bd 9a 28 6d 3d
       0.06460818 0.088621415 -0.082571566 0.05790005
000390 42 34 09 3d e8 56 b8 bc a7 27 a3 3d ac b3 6a bd
       0.033497103 -0.022502378 0.079665475 -0.057300255
0003a0 fa f4 43 3d 4b 4f a0 bd 40 7c 0f bc 93 cd c1 3d
       0.04784105 -0.07827624 -0.008757651 0.09463038
0003b0 07 b0 93 3d 68 24 bb bc b2 35 7d 3d ea 6b 04 3d
       0.07211309 -0.022844508 0.061818786 0.032329477
0003c0 37 5c 7b bd 80 24 65 bc 68 b0 51 bd 2e 2b 6a 3d
       -0.06136724 -0.013985753 -0.051193625 0.057170086
0003d0 b6 61 09 bd 84 a8 0a bd 8b 69 b6 bd 2d a6 bb 3d
       -0.03354045 -0.033852115 -0.089068495 0.09162555
0003e0 30 c1 42 bc 9e a2 49 3d 01 ad 9d bd 88 14 99 3c
       -0.01188688 0.04922735 -0.076990135 0.018686548
0003f0 b2 e9 09 3d d3 05 c6 3d 20 5b 22 bd 6f 4d 8a 3d
       0.033670135 0.0966908 -0.039637685 0.067530505

model.lstm2.weight_ih_l0 f4 [208, 104]
000000 98 76 b9 3c 42 0e 51 bd 6a 90 e6 3d 7c a3 0b 3d
       0.022639558 -0.051038988 0.112580135 0.034091458
000010 f0 0a 70 bc f6 4d f5 3d 58 8e f8 bd 54 50 c8 bc
       -0.014651045 0.119777605 -0.12136525 -0.024452366
000020 76 01 f1 3d 40 53 af 3b 1e c1 c7 3d 04 de 81 bd
       0.11767857 0.0053505003 0.09753631 -0.06341174
000030 4e 22 1d bd a5 ed 94 bd 3c 78 fe bc c8 e3 28 bd
       -0.038362794 -0.072718896 -0.031063192 -0.041232854
000040 84 58 bb bc b7 03 0b 3e d4 97 de bc c8 c4 aa 3d
       -0.022869356 0.13575636 -0.027172007 0.08338314
000050 97 be 02 3e 30 59 17 3c af 27 07 3e 30 2a 22 3c
       0.12768017 0.009237573 0.13198732 0.009897754
000060 cc 94 00 be 7b 12 95 bd ff 57 07 3e f8 dc 87 3d
       -0.12556762 -0.072789155 0.13217162 0.06633943
000070 08 97 a2 3d 5c 5f 1c bd 4e 9b b6 bd 4a f1 9e bd
       0.07938963 -0.03817688 -0.08916341 -0.07760866
000080 a5 ca 0c 3e f5 13 ec bd 8e 6e 8a 3d ae e2 02 bd
       0.13749178 -0.11527244 0.06759368 -0.03195446
000090 ce e9 0a be 5e 37 cf bd 90 c8 45 bc e0 6b c1 bd
       -0.13565752 -0.10117982 -0.012071744 -0.09444404
0000a0 00 c2 5d bb c8 c6 8e 3c 92 52 2e bd 77 87 0b 3e
       -0.0033837557 0.01742877 -0.042559214 0.13625894
0000b0 f9 cd ff bd 0c ca e8 bc 58 09 d0 3d f5 82 a5 bd
       -0.12490458 -0.028416656 0.10158032 -0.08081619
0000c0 f4 de db 3d b0 b6 a3 3d 8c e0 02 bd f8 1d a6 3d
       0.10735884 0.07993829 -0.031952426 0.08111185
0000d0 02 60 5f bd cc 05 76 3d 70 18 2f 3c 50 95 18 3d
       -0.05453492 0.060064122 0.010686979 0.03725177
0000e0 b0 56 43 bc 92 a9 ae bd 67 0a c9 bd 20 21 02 bc
       -0.011922523 -0.08528437 -0.09816437 -0.007942468
0000f0 68 d1 22 bd 24 73 09 be 29 0a 06 3e c4 ed 8d bd
       -0.039750487 -0.13422829 0.13089813 -0.06930116
000100 90 df d2 3c ab c4 8b bd a8 83 a2 bc 04 e6 d8 bd
       0.025741369 -0.06824621 -0.01983817 -0.10590747
000110 cc 77 53 3d ba ff b4 3d a8 0f 71 3d a2 05 0b be
       0.05162792 0.088378385 0.05885282 -0.13576367
000120 ec 66 74 3d db cc 06 3e 92 5d ed 3d 9c c4 63 3d
       0.059668466 0.13164084 0.11590113 0.055607423
000130 b0 1e b6 3d a0 88 58 3d cc ad 4f bd e4 ee c4 3d
       0.08892572 0.05286467 -0.050702855 0.09615877
000140 d7 78 98 bd e4 19 7f bd 80 cb b3 3c 1e a2 d1 3d
       -0.07444923 -0.06228055 0.021947622 0.102359995
000150 42 68 e5 3d ff e1 bc bd 2a 6c fe 3d 52 96 b2 bd
       0.11201526 -0.09222793 0.124229744 -0.087200776
000160 83 30 f1 bd 6c 90 d7 bc c0 56 20 3d 1e 4a da bd
       -0.11776831 -0.026313983 0.03914523 -0.10658668
000170 1a 8d e4 bd 8a de f4 bd ba 2a 09 bd 4e 77 ea 3d
       -0.111597255 -0.119565085 -0.033488013 0.11448537
000180 60 3c cd bc 00 dd 94 ba 90 df 14 bc d2 16 c2 bd
       -0.025053203 -0.0011357367 -0.009086505 -0.09477009
000190 3e 3b 85 bd 3a 07 87 bd 54 26 bf 3d aa 7c cd 3d
       -0.0650544 -0.06593175 0.093334824 0.100335434
0001a0 4f b9 05 3e 8e fe fe 3d de 40 89 bd 3c 44 86 bc
       0.13058971 0.12450896 -0.067018256 -0.016389959
0001b0 c0 09 28 3c 5d 0d 02 3e 00 e8 11 3a 40 71 48 3b
       0.010256231 0.1270041 0.0005565882 0.003058508
0001c0 b0 82 ba 3c c2 8a 9e 3d 94 aa b2 bd be c2 f6 bd
       0.022767395 0.0774131 -0.087239414 -0.12048863
0001d0 4a 66 4f bd 7e 22 ac bd ba 56 a2 3d b0 ff 00 bc
       -0.05063466 -0.08405016 0.07926698 -0.007873461
0001e0 2c 6b 9c 3d fd 22 a6 bd 40 7f a9 3b 18 12 d7 3d
       0.07637629 -0.08112142 0.00517264 0.10501498
0001f0 10 95 1e 3c a0 58 32 bc a2 02 c1 3d 5c 33 e5 bc
       0.009679094 -0.010885388 0.0942433 -0.027978592
000200 90 95 92 3c 12 03 92 bd 04 70 92 bd f8 b0 8f 3d
       0.017893583 -0.07129492 -0.071502715 0.07016176
000210 a0 33 bd bc 3a 8d a4 3d b8 1a 14 3d 00 56 87 3d
       -0.023095906 0.08034749 0.036158293 0.066082
000220 9d 54 80 bd 1c 15 84 bd ec e3 0a bd d6 70 d6 3d
       -0.06266139 -0.06449339 -0.03390877 0.104707405
000230 c0 2d b6 3c 00 7c 07 3b 66 65 d0 bd ae 84 9f bd
       0.022238612 0.0020673275 -0.1017559 -0.077889785
000240 30 48 45 3c 03 8a a5 bd 18 d0 ee 3c c2 26 db 3d
       0.012041137 -0.08082964 0.029151961 0.10700752
000250 6f 27 c8 bd 7a 3c 03 bd 94 aa 07 bd 3c da 2c bd
       -0.09773146 -0.032040097 -0.03312166 -0.042200312
000260 64 a5 77 3d 1e 7d 90 bd e8 1b ec 3c 01 6e 0c 3e
       0.060460463 -0.07055114 0.0288219 0.13713838
000270 8e 02 f4 3d 40 37 16 bd 54 4f 67 3d 68 c2 c8 3d
       0.1191455 -0.036673784 0.056472138 0.09802705
000280 90 85 c9 3d 40 15 e2 3b 0a 48 e5 3d 02 02 c2 3d
       0.09839928 0.006899506 0.11195381 0.09473039
000290 04 d1 ab bd 87 28 ee bd 80 05 49 3b 44 e0 bb bd
       -0.08389476 -0.11628824 0.0030673444 -0.09173635
0002a0 9b 09 0c be 33 6a 04 3e 00 04 43 3a 0e 2d e4 3d
       -0.13675539 0.12931137 0.0007439256 0.11141406
0002b0 7c d6 a7 bc ce 9a ac 3d 58 ac 9a bc 12 b5 b1 3d
       -0.020488016 0.08427964 -0.018881008 0.086771145
0002c0 1c 0d c5 bd 5e 87 01 bd 70 91 ab bc 9f 19 fa bd
       -0.09621641 -0.031623237 -0.020943373 -0.12211918
0002d0 74 6d a2 bd f2 f3 eb 3d 20 00 9b bd a0 4e ff bc
       -0.07931033 0.11521138 -0.07568383 -0.031165421
0002e0 ea 8f 0c be 68 66 76 3d 42 a2 f6 3d 6e 43 d4 3d
       -0.13726774 0.060156256 0.12042667 0.10364424
0002f0 6a 76 92 3d 12 62 f7 bd 70 9e e0 3d 98 3d 96 3d
       0.07151492 -0.12079252 0.109677196 0.07335967
000300 80 8d d0 3b 40 2a 3d 3d 3b 26 0a 3e 27 4b a3 bd
       0.0063645244 0.04618287 0.13491146 -0.079733185
000310 e3 65 f2 bd 9d db 0b 3e 36 1e 85 3d 7a 36 a5 3d
       -0.118358396 0.13657995 0.06499903 0.08067031
000320 36 1f 0f bd ca d9 c3 3d 20 7c c4 bd dd 23 c2 bd
       -0.034941874 0.09563024 -0.095939875 -0.09479497
000330 d8 2c e2 3c 40 f5 68 3d 40 bc f3 bc e6 de ee 3d
       0.027609274 0.056874514 -0.02975285 0.11663608
000340 0f 80 03 3e 6c ef 92 3d e8 d3 bb 3c 72 c3 e1 bd
       0.12841819 0.07174572 0.022928193 -0.11023606
000350 a5 63 90 bd b8 4e a7 3d f7 65 07 3e f2 9a cd 3d
       -0.07050256 0.08169311 0.1322249 0.10039319
000360 00 d4 a7 3d e3 8d 04 3e fc 4f 45 3d bd 77 cf bd
       0.08194733 0.1294475 0.048171982 -0.1013026
000370 5f 66 ca bd 5a 3c c4 3d 58 a9 c6 3d 64 ca 6d 3d
       -0.09882807 0.09581824 0.097002685 0.058054343
000380 54 ed a5 bd b6 c5 fe 3d d3 71 0b 3e 50 31 17 bd
       -0.08101907 0.12440054 0.13617639 -0.036912262
000390 28 e8 4a bd 08 cd c9 3c ad 7d dc bd 1a 0c 4c bd
       -0.049537808 0.0246339 -0.10766158 -0.04981623
0003a0 b8 41 b2 3d 44 c9 4a bd d0 ab e1 bc 1a 3f 66 bd
       0.08703941 -0.049508348 -0.027547747 -0.056212522
0003b0 0a 93 88 bd ac 4a 74 3d 56 46 f1 bd 64 3c 56 3d
       -0.066686705 0.059641525 -0.11780994 0.052303687
0003c0 70 75 a0 bd 28 97 a6 bd 64 4f 35 bd 80 da e9 3a
       -0.078348994 -0.081342995 -0.044265166 0.0017841607
0003d0 88 fe 4d bd b4 9a f2 bd f0 a9 e2 3c 74 d0 06 be
       -0.050291568 -0.118459135 0.027668923 -0.13165456
0003e0 46 ea d1 3d ec d1 c4 bd 28 92 b3 3c c2 1b b7 3d
       0.10249762 -0.09610352 0.021920279 0.08940841
0003f0 80 81 30 bd 98 9a 63 3d 78 69 5d 3d a4 49 ad 3d
       -0.04309225 0.055567354 0.05405566 0.084613115

model.lstm2.weight_hh_l0 f4 [208, 52]
000000 b8 59 a5 3d 8a 2d f1 bd 08 d3 c3 bc 98 34 fd bc
       0.08073753 -0.11776264 -0.023904338 -0.030908868
000010 f0 b7 07 3c 5a 8d 04 be 80 f4 22 3c a1 56 00 3e
       0.0082836 -0.12944546 0.009945989 0.12533046
000020 ab 85 0a be 60 0d a2 3d 0a 75 de 3d 80 2f 5f bc
       -0.13527553 0.07912707 0.10862167 -0.013622165
000030 b0 18 99 bd 99 d0 0a be 64 cb 07 be de a7 ff 3d
       -0.07475412 -0.13556136 -0.13261181 0.1248319
000040 5c 20 67 bd d2 04 20 bd 80 b5 a8 bb ca a7 b4 3d
       -0.056427345 -0.039067097 -0.0051485896 0.08821066
000050 7c 7d c0 bd 61 ef e7 bd 00 98 01 3c 4c a0 13 bd
       -0.09398934 -0.11324955 0.007909775 -0.036041543
000060 44 ec 9b bc a8 9a 20 bd 72 37 8a 3d c0 96 de bc
       -0.019033559 -0.03920999 0.067488566 -0.027171493
000070 0c 3a a9 3d ee 07 f9 3d f6 4b 5d bd 2d b7 99 bd
       0.08263025 0.121597156 -0.05402752 -0.07505641
000080 f8 ac ad bd f0 f9 8f bd 04 d9 04 3d 34 bd 6d 3d
       -0.08480257 -0.07030094 0.032433525 0.058041766
000090 fb 57 00 3e 86 7f 85 3d 36 cb 08 bd 2e aa bc 3d
       0.12533562 0.06518464 -0.033396922 0.09212147
0000a0 00 73 b4 3d 80 d0 90 3b 43 87 f8 bd f0 c5 8a 3c
       0.08810997 0.0044193864 -0.12135174 0.016940087
0000b0 e0 b5 eb 3b 34 83 d7 bd 84 52 5c 3d c0 a1 e8 bc
       0.007193312 -0.10523072 0.05378963 -0.02839744
0000c0 30 b3 51 3c 3a 8f 95 bd 74 0e 03 be f8 07 4c 3d
       0.012799069 -0.07302709 -0.12798482 0.049812287
0000d0 de 65 0c be b4 76 6d bd d0 50 1c bc 32 f9 ed bd
       -0.13710734 -0.057974532 -0.009540752 -0.11619796
0000e0 80 30 68 3c f8 fc 7f bc 20 a6 83 3c c8 d6 0c bd
       0.01417172 -0.015624277 0.016070426 -0.03438452
0000f0 97 18 0b 3e ba ad cd 3d 94 7f 41 3d b4 b4 59 bd
       0.13583599 0.10042901 0.04724081 -0.053150848
000100 30 09 e8 bc 5a 7b dc 3d 44 d4 db bd b5 f7 f6 bd
       -0.028324693 0.10765715 -0.10733846 -0.12058965
000110 6b bd 84 bd f4 14 8f bd 70 e4 02 3c 1a 92 5d bd
       -0.06481441 -0.06986418 0.007989034 -0.05409441
000120 02 f4 d7 3d 32 6e 20 bd 44 a7 cc 3d 81 6d 02 3e
       0.10544588 -0.03916759 0.09992841 0.12737085
000130 00 4a c2 3c 3c 8c 84 3d e6 fa ea bd f4 86 a9 3d
       0.023716927 0.0647206 -0.11473636 0.082776934
000140 60 71 dc 3d f0 fe c4 3d f0 28 b2 3c 2e f7 1e bd
       0.10763812 0.09618938 0.021748036 -0.038809948
000150 50 73 82 3d fb 14 9a bd a2 32 58 bd 9e e9 e5 bd
       0.0636965 -0.07523533 -0.052782662 -0.112261996
000160 70 5a ef bc c6 48 f0 3d c0 5a 19 bd 54 83 14 bd
       -0.029217929 0.117326304 -0.03744006 -0.036258057
000170 28 af f6 3c 73 ac 06 3e 96 bc fe 3d 44 72 ac bd
       0.030112818 0.13151722 0.12438314 -0.08420232
000180 98 8a a6 3c aa 14 fa 3d 8a 86 dd bd 74 12 92 bd
       0.020329759 0.122109726 -0.10816677 -0.07132426
000190 ae 93 c2 3d 9a ca a7 3d 74 c0 de bd de e5 f1 3d
       0.09500824 0.0819294 -0.10876551 0.11811422
0001a0 10 e2 e5 3c 9c 73 07 be 10 3c 86 3c cc 92 3c bd
       0.028061897 -0.13227695 0.016386062 -0.046038434
0001b0 98 d0 a3 bd a4 e7 6c bd 8e fe 99 3d f6 09 90 3d
       -0.079987705 -0.057838097 0.075192556 0.0703315
0001c0 20 65 58 3c 4a c9 82 bd d0 90 99 bc 00 de 9a 3b
       0.013207704 -0.06386049 -0.01874581 0.0047261715
0001d0 a7 c4 09 3e a0 a4 7f bd 92 c2 88 3d 3a 65 f4 3d
       0.13453923 -0.062412858 0.06677736 0.1193337
0001e0 31 72 05 3e b0 36 9c 3d ba ce 87 bd c2 49 c3 bd
       0.13031842 0.07627618 -0.06631227 -0.095355526
0001f0 9d 55 04 be ac eb ec bd 00 b4 87 3a 5b 2e 04 be
       -0.12923284 -0.11568388 0.0010353327 -0.12908308
000200 04 37 2f 3d 64 09 c9 3d 98 80 cf bd 32 d7 e1 bd
       0.042777076 0.09816244 -0.10131949 -0.110273734
000210 c0 a9 a8 3d 80 56 a3 3b 80 61 8d bb 06 10 e0 bd
       0.08235502 0.004984677 -0.0043146014 -0.10940556
000220 00 6b af 3d 74 1a d4 bc 14 60 47 3d 90 16 74 3d
       0.085653305 -0.02589152 0.04867561 0.05959183
000230 e4 12 d8 3d 3f 96 03 be 6c 8a 00 3d 60 97 b7 3d
       0.10550478 -0.12850283 0.03138201 0.08964419
000240 0a 46 d0 3d e6 22 c8 3d de cb e4 3d 76 07 bc 3d
       0.10169609 0.09772281 0.11171697 0.091811106
000250 b7 29 e7 bd 08 95 65 bd 10 0d 01 3c 28 f4 49 3d
       -0.11287253 -0.05605033 0.0078766495 0.04930511
000260 4c d9 92 bd c2 45 d3 bd 0f b5 00 be e0 aa a9 3d
       -0.07170352 -0.103160396 -0.12569068 0.08284545
000270 56 39 d9 3d a4 41 bb bd 9e b6 f5 3d 8a 43 06 be
       0.10606639 -0.09143379 0.11997722 -0.13111702
000280 30 fd df 3c 32 4d ec bd a0 ad f5 bd ac 0c 00 3d
       0.027342409 -0.11538161 -0.11996007 0.031262085
000290 14 83 11 3d f4 76 a3 3d 68 99 c1 bd 4a d4 e7 3d
       0.035525396 0.07981673 -0.09453088 0.11319788
0002a0 66 05 7a bd a8 3f b8 bd 70 28 d6 bd 2d 6b dd bd
       -0.061040305 -0.089965165 -0.104569316 -0.10811458
0002b0 f0 ab 5e bd 70 ab 37 3c da ff bc 3d ee ac a2 3d
       -0.05436319 0.0112103075 0.09228487 0.0794314
0002c0 40 c1 cc 3d 90 d4 b5 bd 54 84 c2 3d 68 95 69 3d
       0.09997797 -0.08878434 0.09497896 0.05702725
0002d0 18 6e 7e bd ea 41 99 3d 02 d0 ad 3d 92 2d 9e 3d
       -0.062116712 0.07483275 0.0848694 0.077235356
0002e0 c5 e7 05 3e 2c 34 ba 3d 08 29 90 3d 26 a0 96 bd
       0.13076694 0.09091982 0.07039076 -0.07354765
0002f0 d0 40 6a 3d c4 3d 11 bd a0 6a a5 bb 92 da cc bd
       0.057190716 -0.035459295 -0.005048111 -0.100026265
000300 c8 67 a4 3d d8 d5 c2 3c d2 55 9c 3d 9c 6d 40 3d
       0.08027607 0.02378361 0.076335564 0.04697953
000310 d4 d8 a0 bd cc 14 cb bc e4 ae dc bd a0 db c6 bd
       -0.07853857 -0.02479019 -0.10775545 -0.09709859
000320 d8 07 99 bc 18 7b c6 3d 6b 2d 9e bd fa 33 5a bd
       -0.018680498 0.09691447 -0.077235065 -0.053272225
000330 2c d1 44 3d 11 46 0a 3e 20 29 87 bb 48 3d e9 3c
       0.048051044 0.1350329 -0.0041247755 0.028471604
000340 54 2b 1a 3d ac aa 7f 3d 74 96 fb bc d2 cb 08 bd
       0.037638977 0.062418625 -0.03071139 -0.033397503
000350 c0 13 51 bd 24 a6 f6 bc 64 88 78 bd a8 29 cf 3d
       -0.051044226 -0.030108519 -0.060676947 0.10115367
000360 28 19 a3 bd 04 b1 17 bd 92 6e be 3d 1e 37 c0 bd
       -0.079637825 -0.03703405 0.09298433 -0.09385513
000370 70 35 65 bd 6a 31 eb bd ba 3e d7 3d 4e 70 2a bd
       -0.055959165 -0.11484034 0.10510011 -0.04161101
000380 04 5f 58 3d 4c 45 cd 3d 8e d2 e5 bd 45 a6 a9 bd
       0.05282499 0.10022983 -0.11221801 -0.082836665
000390 ee 3b 9a 3d 18 bf d7 bd ae 7f a6 3d f7 42 07 3e
       0.07530962 -0.10534495 0.08129822 0.13209139
0003a0 a0 bf e9 bb 01 7e 0a 3e fc b5 c9 bd d8 4c 2c 3d
       -0.007133439 0.13524629 -0.09849164 0.04206547
0003b0 99 83 04 3e 01 c5 db bd a8 61 d5 bc c8 38 8d 3d
       0.12940826 -0.10730935 -0.026047543 0.06895596
0003c0 d2 84 31 bd 94 ff ae 3d 10 0d 90 3c be 98 b4 3d
       -0.043339558 0.085448414 0.017584354 0.08818196
0003d0 c0 e5 f9 3c 5e c6 b1 bd fa 07 f6 3d e0 23 07 3c
       0.030505061 -0.08680414 0.1201324 0.008248299
0003e0 d0 b1 fe bc 78 b1 c0 bd 14 6c aa bc be 14 f7 3d
       -0.031090647 -0.094088495 -0.020803489 0.12064503
0003f0 a2 c8 f2 3d e8 61 ff bc 36 db 80 3d 90 12 73 3c
       0.11854674 -0.031174615 0.06291811 0.014835969

model.lstm2.bias_ih_l0 f4 [208]
000000 e0 b6 35 bc c4 01 cb bd 62 bf f7 3d 6a 3b 08 be
       -0.011090964 -0.09912446 0.1209705 -0.13303915
000010 34 65 e3 bd 1e f6 e0 bd fe 40 fb 3d 2e 48 ec 3d
       -0.11103287 -0.10984443 0.12268256 0.11537205
000020 54 a3 d4 bd 19 a5 0c 3e 0a 5d e8 3d 2e 3c d7 bd
       -0.10382715 0.13734855 0.11345871 -0.10509525
000030 be a9 d3 bd 46 a8 e5 bd 10 5e 6c 3d 7e 49 a3 3d
       -0.1033511 -0.11213736 0.057706892 0.07973002
000040 fc 60 73 bd 6c 51 86 3d 86 6d 2e bd 14 b8 17 3d
       -0.059418663 0.06558499 -0.04258492 0.037040785
000050 04 1f b8 3d 1a e3 b5 bd e8 56 f9 3c 5e 8e b0 3d
       0.08990291 -0.08881207 0.030436948 0.086209044
000060 4c 29 cb 3d f8 d8 c2 3c 6e 1e d1 3d d0 df 30 3d
       0.09919986 0.0237851 0.10210882 0.043182194
000070 c4 c2 f4 bc 68 19 d8 3c 7a 9e 16 bd a6 c1 fa 3d
       -0.029878028 0.026379302 -0.03677223 0.12243967
000080 20 bd 9d 3b 2f ee 09 3e 10 29 3a bc f4 23 08 3d
       0.004813805 0.13469766 -0.011362329 0.033237413
000090 86 d2 e7 bd 8a 96 ba 3d 6e c8 de bd 48 88 f4 bd
       -0.11319451 0.09110744 -0.10878073 -0.11940056
0000a0 fc 52 a1 bc d8 83 99 3c e0 4a 10 bd 5c 8a bc bd
       -0.01969289 0.018739626 -0.035227656 -0.092060775
0000b0 62 d2 a2 bd 00 7d 87 3a e0 60 55 3d d8 31 d4 3d
       -0.079502836 0.0010336936 0.05209434 0.103610694
0000c0 2a 88 f1 3d e5 3f 06 3e e6 d7 f1 3d 83 3e d3 bd
       0.11793549 0.13110311 0.118087575 -0.103146575
0000d0 7e 0a f1 3d 36 ef b8 3d 82 4c 7f bd 18 5b 4a 3d
       0.11769579 0.09030001 -0.062328823 0.04940328
0000e0 b8 c0 ca bc fc 97 d7 3d bc 8d dd 3d 10 8a de bc
       -0.024750099 0.105270356 0.10818049 -0.027165443
0000f0 dc e3 4e 3d e0 b9 64 3c 90 b4 05 3c 18 18 94 bd
       0.050510272 0.013960332 0.008160725 -0.07231158
000100 78 67 62 3d 8c 1b 54 3d 44 d0 9c 3d a1 e1 e0 bd
       0.055274457 0.051784083 0.07656911 -0.10980535
000110 6c 2c 9c 3d ad 07 96 bd 58 bb b4 3d 0e f2 8d 3d
       0.0762566 -0.07325683 0.088247955 0.06930934
000120 b2 ee 84 3d 80 12 da ba 98 22 18 3d 04 60 83 3d
       0.0649084 -0.0016637594 0.037142366 0.06414798
000130 00 09 65 3d 88 15 43 3d 5e aa 89 bd 2f c2 a2 bd
       0.055916786 0.047627956 -0.06721948 -0.07947194
000140 3e b0 91 3d d7 8b d9 bd 03 cc 08 3e e7 ad 0c be
       0.07113694 -0.106223755 0.13359074 -0.13738213
000150 f1 0e 0a 3e f0 d9 04 3d a0 be f2 3b 64 f4 80 3d
       0.13482262 0.032434404 0.007407978 0.06296614
000160 d0 2f 41 bc d2 b7 e6 3d 3c 5b 98 bd 28 bf f5 bc
       -0.011791185 0.1126553 -0.074392766 -0.029998377
000170 77 4f 07 3e ec 71 0d be 0e 7d b8 bd f5 a8 a3 bd
       0.13213907 -0.13812989 -0.09008227 -0.0799121
000180 80 81 ef bd 7a cc ee 3d 04 d6 b1 bc 45 3d 05 be
       -0.11694622 0.116600946 -0.021708496 -0.13011654
000190 f4 19 a3 3d ee 5a 2d bd 06 ad f1 bd 9c 83 83 3d
       0.079639345 -0.042323045 -0.1180058 0.06421587
0001a0 60 eb 89 3b 70 c0 cf bd 3f b0 01 be d0 4b 8a 3c
       0.004208967 -0.101441264 -0.12664889 0.016881853
0001b0 50 45 d9 3c d5 02 97 bd e0 c9 62 3c 5e 7c a2 bd
       0.026522309 -0.07373587 0.013842076 -0.079338774
0001c0 1d 8e 01 be 48 26 b9 3d 93 bc 05 3e 10 d1 e1 bd
       -0.12651868 0.09040505 0.13060217 -0.11026204
0001d0 72 61 df bd 00 8c 39 bd 20 a6 86 bb dc 13 02 be
       -0.10907258 -0.04529953 -0.004109159 -0.12702888
0001e0 9a d9 ae bd 9e 36 c2 3d b4 3f 9c 3d 14 c6 15 3d
       -0.08537598 0.09483074 0.07629338 0.036565855
0001f0 d6 26 fa 3d fc eb f4 bc 48 16 d2 bd f4 26 2b 3d
       0.122144386 -0.029897682 -0.10258156 0.041785195
000200 16 c1 d1 3d 70 45 72 3c 6c 9f 84 bd 74 44 89 3d
       0.10241906 0.014787063 -0.0647572 0.067025095
000210 70 e0 b2 3d 9e 0c 4d bd 56 88 fd 3d c5 35 90 bd
       0.08734214 -0.05006086 0.1237952 -0.07041506
000220 56 83 02 be c4 74 8d bc c8 ac f3 bc ac 1d 8c bd
       -0.12745413 -0.017267592 -0.029745474 -0.06841597
000230 8a 11 d6 bd 80 f3 9b 3d e8 98 9d 3d a0 87 9f 3d
       -0.10452564 0.07614803 0.0769518 0.0778954
000240 d0 13 1c bc bd 29 af bd 54 01 1e 3d 30 86 08 3d
       -0.009526208 -0.08552883 0.038575485 0.033331096
000250 60 15 a3 3c 50 a1 e6 bc a8 57 14 bd da 6c 93 3d
       0.019907653 -0.028153092 -0.036216408 0.07198496
000260 02 23 47 bd a0 43 08 3c f4 8e e1 3d 7e 0b e4 bd
       -0.04861737 0.008316904 0.11013594 -0.111350045
000270 94 a4 1b 3d 3f c0 c5 bd 26 4f f0 3d b0 4c b7 bc
       0.03799875 -0.09655809 0.11733846 -0.022375435
000280 50 24 40 bc a0 7b 23 bd 22 08 de 3d 7a 77 f5 3d
       -0.011727408 -0.03991282 0.10841395 0.11985679
000290 7c 25 80 3d 2f 84 0b 3e 54 57 56 3d a0 ab ac 3d
       0.062571496 0.13624643 0.052329376 0.08431172
0002a0 00 c3 4c bb 80 2b 1d bb d0 44 be bc 5e eb c9 3d
       -0.0031244159 -0.0023982227 -0.023226172 0.09859346
0002b0 80 a0 bb 3c 62 89 3c bd 46 df b5 3d 53 79 0a 3e
       0.02290368 -0.046029456 0.08880477 0.13522844
0002c0 80 a4 65 bb de 4d 9d 3d c2 45 ee 3d ca 1c d0 3d
       -0.0035040677 0.076808676 0.11634399 0.10161741
0002d0 96 dd e5 3d 3c ce c5 bc 40 84 7d bd c0 9b 2f bd
       0.11223905 -0.024146192 -0.0618937 -0.042873144
0002e0 fe ba 31 bd ce 54 c8 bd 40 66 2b bc 0c 44 7a 3d
       -0.04339122 -0.097818 -0.01046139 0.06110005
0002f0 19 8b 02 3e f2 81 19 bd 28 24 40 3d 9a 24 5d bd
       0.12748374 -0.03747744 0.04690948 -0.053989984
000300 70 6b 35 bc 0a 39 80 3d 63 66 fb bd 84 d9 07 bd
       -0.011072978 0.06260879 -0.12275388 -0.033166423
000310 e4 e7 0b be d4 a1 8f 3d 40 a0 6f bb a0 5d b7 bd
       -0.13662678 0.07013288 -0.0036564022 -0.089534044
000320 32 d3 05 be 21 92 9b bd 7c 3e c0 3d 5c d3 31 bd
       -0.13068846 -0.07596231 0.09386918 -0.04341446
000330 80 02 c4 3d 8e fe af 3d d8 d9 3d bd f9 88 a2 bd
       0.09570789 0.08593474 -0.04635033 -0.07936282
