LSTM_TimeSeries/lightning_logs/version_144/checkpoints/epoch=2-step=390.ckpt (torch, 982811 bytes, 27 tensors)

model.lstm1.weight_ih_l0 f4 [416, 9]
0	0x3d9ad8e6	0.07560901
1	0x3d6bdcd2	0.057583638
2	0xbd36f6bc	-0.044668898
3	0x3cef2ae5	0.029195258
4	0xbbe4b65c	-0.0069797467
5	0x3d7b227b	0.06131218
6	0x3dc7f3d8	0.097633064
7	0xbb221ddf	-0.0024737043
8	0x3da9b3cf	0.08286249
9	0xbd53dfaa	-0.051726975
10	0xbcf97cb8	-0.030454978
11	0x3d97d0c9	0.074128695
12	0xbdcc1d5e	-0.09966539
13	0x3d2b1c42	0.041774996
14	0xbdc5fb70	-0.096670985
15	0xbd805e05	-0.06267933
16	0xbd8905c0	-0.0669055
17	0x3db21a21	0.0869639
18	0x3ca4d171	0.0201194
19	0xbd41886d	-0.047249246
20	0xbdd6e9bd	-0.10493801
21	0x3d4ba7e3	0.049720656
22	0x3d42d0ab	0.047562283
23	0xbc0b52fe	-0.008503674
24	0xbbc95fad	-0.0061454386
25	0x3d1f3545	0.03886916
26	0x3da5a08f	0.08087265
27	0x3d06d0cb	0.032913964
28	0x3de998e4	0.11406115
29	0x3dc75bda	0.09734316
30	0x3db7835f	0.08960604
31	0x3ddd02c7	0.10791545
32	0x3c2fe482	0.010735633
33	0xbc341941	-0.010992349
34	0x3d61e506	0.055150054
35	0x3ce5ac55	0.028036276
36	0x3dadbfb9	0.08483834
37	0xbd165fca	-0.036712445
38	0x3cf1d2d3	0.029519474
39	0x3dcb5f5a	0.09930296
40	0x3d83ce0b	0.06435784
41	0xbd28ffa4	-0.041259423
42	0x3d83d239	0.06436581
43	0x38df59fc	0.000106502295
44	0x3c955265	0.018227765
45	0x3d36ebd5	0.0446585
46	0x3d2b124d	0.0417655
47	0x3df3970f	0.118940465
48	0x3d7a0b3e	0.061045878
49	0x3d92be63	0.0716522
50	0x3db26abd	0.08711765
51	0x3dee02ea	0.116216496
52	0xbc24f99c	-0.010069277
53	0x3db929ac	0.090411514
54	0x3c1ad5ef	0.00945042
55	0x3e130206	0.1435624
56	0x3cb82bc4	0.022481807
57	0x3da21c9e	0.079156145
58	0xbcd8b3b8	-0.026452884
59	0x3c92d7f4	0.01792524
60	0x3d5b405d	0.05352818
61	0x3d99334b	0.074804865
62	0xba2d2b7c	-0.0006605906
63	0x3df701b4	0.12060872
64	0xbd184c6b	-0.037182253
65	0x3dfb525c	0.12271568
66	0x3e091e17	0.13390385
67	0xbb0765ca	-0.0020660036
68	0x3d682cc6	0.056683324
69	0x3d81f401	0.06345368
70	0x3c9a12d2	0.018807802
71	0x3c043a5e	0.008070556
72	0x3c3ce6ce	0.0115296375
73	0x3ce40e82	0.02783895
74	0x3ba50192	0.0050355876
75	0x3dd682e4	0.10474184
76	0x3d83b00c	0.06430063
77	0x3dcc27bb	0.099685155
78	0x3c2890e5	0.010288452
79	0x3e1fcb23	0.15604834
80	0x3daab3f6	0.08335106
81	0x3d807b6c	0.06273541
82	0xbca8c8df	-0.020603595
83	0x3d835110	0.06411946
84	0x3de48b67	0.111594014
85	0x3ccab4f4	0.024744488
86	0xbd8762ad	-0.06610618
87	0x3de1f3bc	0.11032817
88	0x3e0a97ae	0.13534424
89	0x3c5ccd01	0.013476611
90	0x3cb2b8aa	0.02181657
91	0x3dfa9573	0.122355364
92	0x3e03e95f	0.12881993
93	0x3dda8254	0.10669389
94	0x3de1bab3	0.11021938
95	0x3d8dfb84	0.069327384
96	0x3d1d8f3f	0.03846669
97	0x3df3edb9	0.119105764
98	0x3e239547	0.15974914
99	0x3dc704e6	0.09717731
100	0x3d5611d4	0.052263096
101	0xbc57a4d4	-0.013161857
102	0x3db18c3e	0.08669327
103	0xbd17aa86	-0.03702786
104	0x3c4b7dbf	0.012420117
105	0x3d46f72a	0.048575558
106	0xbca6e917	-0.020374818
107	0x3dfbc6fc	0.12293813
108	0x3b0c065c	0.0021366095
109	0x3d4c42d7	0.04986843
110	0xbc5dd3f4	-0.013539303
111	0x3e113093	0.14178686
112	0x3db0bae0	0.086293936
113	0x3db804a1	0.08985258
114	0x3c58b239	0.013226085
115	0x3d90f2e9	0.070775814
116	0x3d08f292	0.033434458
117	0x3d7ccd41	0.061719183
118	0x3d35d645	0.044393796
119	0xbd85174f	-0.064985864
120	0x3be5d8c5	0.0070143663
121	0xbd89d614	-0.06730285
122	0x3c43dbc3	0.011954251
123	0x3c8d4287	0.017243637
124	0xbd961c38	-0.07329601
125	0x3d6807b4	0.05664797
126	0x3d962411	0.07331098
127	0xbc748c98	-0.014926098
128	0x3c591bbf	0.013251244
129	0x3d7529e2	0.059854396
130	0x3e06a4c4	0.1314879
131	0x3d0a32b2	0.033739753
132	0x3dde397b	0.10850807
133	0x3e1d0fda	0.15338078
134	0x3ad3ce99	0.0016159593
135	0x3e075348	0.13215363
136	0xbc45c574	-0.012071002
137	0xbbc52b93	-0.0060171573
138	0x3d3f47d9	0.04669938
139	0x3dba173c	0.09086463
140	0x3db8d021	0.090240724
141	0x3e0f3fb2	0.13989142
142	0x3d93b99c	0.072131366
143	0x3dfbd686	0.122967765
144	0x3dc71285	0.09720329
145	0xbc9fdd78	-0.019514784
146	0x3d9ff4c0	0.07810354
147	0x3de8f7f4	0.11375418
148	0x3deebf36	0.11657564
149	0x3d00d71c	0.031455144
150	0x3dcc7d84	0.09984878
151	0x3e220438	0.15821922
152	0x3d07bb77	0.033137765
153	0x3c7fefd9	0.015621149
154	0xbcdcaaf1	-0.02693698
155	0x3da4c1ea	0.08044799
156	0x3b364ba2	0.0027816077
157	0xbd3a380a	-0.0454636
158	0x3d24b389	0.04021028
159	0x3e1dad84	0.15398222
160	0x3d3df442	0.04637552
161	0x3d82089a	0.06349297
162	0x3d772d1b	0.06034575
163	0x3d61d1e5	0.05513181
164	0x3dba519b	0.09097596
165	0xbd0f475a	-0.034980156
166	0x3e104cef	0.14091848
167	0x3dae68c3	0.085160755
168	0x3d883900	0.06651497
169	0x3de7474c	0.11292896
170	0xbcaae2cc	-0.020860098
171	0xbc5758ca	-0.013143728
172	0x3dbcd001	0.09219361
173	0x3de78fe5	0.113067426
174	0x3d03d5d4	0.032186344
175	0x3d67d827	0.056602623
176	0x3d83c7bb	0.0643458
177	0x3db0e8a1	0.086381204
178	0x3d954b45	0.07289747
179	0x3dddae37	0.108242445
180	0xbcfe48ea	-0.031040628
181	0x3cdf5009	0.027259843
182	0x3d9ddd98	0.07708281
183	0x3d24d35b	0.040240627
184	0x3d0cec2f	0.03440493
185	0xbd1b8b5c	-0.0379747
186	0x3e2d3e72	0.16918352
187	0x3dd8bef9	0.105833
188	0xbc8d4844	-0.017246373
189	0x3dbfa4a6	0.09357576
190	0x3dc778be	0.097398266
191	0x3da16e06	0.078823134
192	0x3dc7aafa	0.09749408
193	0x3dbe11d8	0.09280747
194	0xbc8a15a2	-0.016856018
195	0x3df954c3	0.1217437
196	0x3d9200f2	0.071290866
197	0x3de63e6f	0.11242377
198	0x3d73dbde	0.059535854
199	0x3dad763a	0.084698156
200	0xbc859943	-0.016308432
201	0x3b3c59e0	0.0028740093
202	0x3ccba506	0.024858963
203	0x3a517ef5	0.00079916354
204	0x3d0037c3	0.03130318
205	0x3d89a96f	0.0672177
206	0x3d86acc3	0.065759204
207	0x3e08147b	0.13289063
208	0x3ddc4423	0.107551835
209	0xbb8f7066	-0.0043774126
210	0x3df1d4c8	0.11808163
211	0x3d3f432b	0.046694916
212	0x3d1b3353	0.037890743
213	0x3ca2e518	0.019884631
214	0x3c4336a5	0.011914884
215	0x3d6823fc	0.056674942
216	0x3d904ab6	0.070455
217	0x3d9a78e0	0.07542586
218	0x3a09a09f	0.00052500697
219	0x3d85a5f9	0.065257974
220	0xbc0451fe	-0.008076189
221	0x3c128ea5	0.008945142
222	0x3be763f8	0.0070614778
223	0x3e002c45	0.12516887
224	0x3b8f18ed	0.004366985
225	0xbd890391	-0.06690133
226	0x3dd982cc	0.10620651
227	0xbc3b53d6	-0.011433562
228	0x3de1c26e	0.11023413
229	0xbd243d6d	-0.040097643
230	0xbc815237	-0.015786273
231	0x3d946fe5	0.07247905
232	0x3cc995f1	0.02460763
233	0xbd831f59	-0.064024635
234	0x3caae713	0.020862138
235	0x3d661b85	0.05617859
236	0xbac9608c	-0.0015363856
237	0x3e0890ba	0.13336459
238	0x3d4ec2c8	0.050478727
239	0xbc76c00d	-0.015060437
240	0x3e18742a	0.14888063
241	0x3d0f5f80	0.035003185
242	0x3be75fcb	0.00706098
243	0x3d137978	0.036004514
244	0x3cbb8ee0	0.022895277
245	0xbde5cfa4	-0.11221245
246	0x3d40e959	0.047097538
247	0x3de361e1	0.11102653
248	0xbc6d4a79	-0.014483088
249	0x3c83f623	0.016108578
250	0x3db6f15e	0.08932756
251	0xbd1f66cc	-0.038916394
252	0x3d6935d2	0.056936093
253	0x3d9f87c8	0.0778957
254	0x3c6cb888	0.014448293
255	0x3cdb2466	0.026750755

model.lstm1.weight_hh_l0 f4 [416, 104]
0	0x3d908ad1	0.07057727
1	0x3c9d1e78	0.019179568
2	0xbd8909e9	-0.06691343
3	0x3db9a145	0.09063963
4	0xbd92639b	-0.071479045
5	0xbda3145a	-0.07962866
6	0x3da6b825	0.081405915
7	0x3cdddcdc	0.027082853
8	0xbb82d740	-0.003992945
9	0xbd6d0475	-0.05786558
10	0x3c11b5c8	0.008893438
11	0xbd8c9da0	-0.06866002
12	0xbd48d5f4	-0.049032167
13	0x3c903af4	0.017606236
14	0x3d0a17de	0.033714168
15	0x3cd51460	0.026010692
16	0x3daf5463	0.08561017
17	0x3d8ae173	0.06781282
18	0x3d56d746	0.052451394
19	0xbdb2585d	-0.0870826
20	0x3d0dd1e2	0.034623988
21	0x3d81c4f9	0.06336398
22	0x3cb36434	0.021898367
23	0x3d8b86eb	0.06812843
24	0xbcf975b8	-0.03045164
25	0x3d57ed42	0.0527165
26	0xbd2d895b	-0.04236732
27	0x3d7b43ee	0.06134408
28	0x3d76ef2e	0.060286693
29	0x3dba584b	0.09098872
30	0x3cebbadc	0.028775625
31	0x3d67455e	0.056462638
32	0xbd43a319	-0.047762964
33	0x3b301a40	0.0026871115
34	0xbd89fe37	-0.06737941
35	0xbda3cb8c	-0.07997808
36	0xbce31404	-0.027719505
37	0x3dae0315	0.084966816
38	0xbdc5e4f4	-0.0966281
39	0xbd6490ea	-0.055802263
40	0x3d5b0876	0.053474866
41	0x3dbecc2f	0.09316289
42	0x3c448b98	0.011996172
43	0x3dbf47d9	0.09339876
44	0xba9508c0	-0.0011370406
45	0xbd0f3fde	-0.034973018
46	0xbd339680	-0.0438447
47	0x3c8b7aa4	0.017026253
48	0x3dc11861	0.09428478
49	0x3ca62414	0.020280875
50	0x3daf1bb7	0.08550208
51	0x3d884f95	0.06655804
52	0x3d046402	0.032321937
53	0x3d8ac8b3	0.067765616
54	0xbd97a740	-0.07404947
55	0x3d165ace	0.03670769
56	0xbba5b590	-0.0050570443
57	0xbd5690e2	-0.052384265
58	0x3dc76983	0.09736922
59	0x3d8721ad	0.0659822
60	0xbcc5a388	-0.02412583
61	0xbd1c48e5	-0.038155455
62	0x3d205eca	0.039152898
63	0xba6ce480	-0.00090367347
64	0xbdc83e03	-0.09777453
65	0x3d7cb4ce	0.061695866
66	0xbab00200	-0.001342833
67	0xbcc4d8a0	-0.024029076
68	0xbd84aed6	-0.0647866
69	0xbd5ffd61	-0.054685
70	0xbbd7b820	-0.0065832287
71	0x3cc39e30	0.02387914
72	0x3d238a1e	0.03992664
73	0x3db33a79	0.08751387
74	0x3d8858d5	0.06657568
75	0x3ca4756c	0.020075522
76	0xbdb983c4	-0.090583354
77	0xbdaf7440	-0.08567095
78	0x3d8a5c63	0.067559026
79	0xbcd29c60	-0.025709331
80	0x3d86d6e5	0.06583957
81	0xbcad2924	-0.021137781
82	0x3d0b5d32	0.034024425
83	0x3cae24cc	0.02125778
84	0x3d96386f	0.073349826
85	0xbd9cb05e	-0.07650827
86	0x3d7695e6	0.060201548
87	0x3d40e73a	0.047095515
88	0x3c2e4218	0.010635875
89	0xbdaaeee2	-0.083463445
90	0xbd16a257	-0.036775913
91	0xbcc63d9c	-0.0241993
92	0x3b9e5f60	0.004833147
93	0x3d87b7ed	0.06626878
94	0x3d679416	0.05653771
95	0x3c996274	0.018723704
96	0x3d706fb6	0.058700286
97	0x3d271396	0.040790163
98	0xbd007a86	-0.031366847
99	0x3c630ed0	0.013858512
100	0x3d4b75f6	0.049673043
101	0xbda08052	-0.07836975
102	0x3c7ad720	0.015310079
103	0xbcdfee0c	-0.02733519
104	0x3db642a9	0.08899433
105	0xbdc765bf	-0.097362034
106	0x3d817915	0.06321923
107	0xbd588666	-0.052862547
108	0xbbf420a0	-0.0074501783
109	0x3d62c51a	0.055363752
110	0xbc3e5978	-0.011618011
111	0xbd9b6dfe	-0.07589339
112	0xbdba2dce	-0.09090768
113	0xbd2f39f9	-0.042779896
114	0x3d6d3f2a	0.057921566
115	0xbdc46096	-0.09588735
116	0x3db62647	0.088940196
117	0x3c60ade0	0.01371333
118	0x3db7a995	0.08967892
119	0x3cc9de9c	0.024642281
120	0xbcf23180	-0.029564619
121	0x3c558f80	0.013034701
122	0xbd20cb19	-0.03925619
123	0x3dbc5a73	0.09196939
124	0x3cfa776c	0.030574523
125	0xbd1481b0	-0.036256492
126	0xbd2a9e49	-0.04165486
127	0xbb9fac50	-0.004872836
128	0x3d8124ab	0.06305822
129	0x3dc800ad	0.09765754
130	0xbda3e0a3	-0.080018304
131	0xbad53bc0	-0.0016268417
132	0xbdbb96f8	-0.091596544
133	0xbcd72984	-0.026264913
134	0xbd62aa9f	-0.0553385
135	0xbd8e2950	-0.069414735
136	0xbd7e5685	-0.06209423
137	0x3d9cdd99	0.07659454
138	0xbdab10af	-0.083527915
139	0x3cf69cbc	0.030104034
140	0x3dc57691	0.09641755
141	0xbda15a08	-0.078785
142	0x3c86775c	0.016414337
143	0x3c746d68	0.014918663
144	0x3db5329b	0.08847543
145	0x3d0ae456	0.033909164
146	0xbd30ffd0	-0.04321271
147	0xbd4b8b88	-0.049693614
148	0x3d8c1f43	0.068419
149	0x3ce21454	0.027597584
150	0xbd40c041	-0.047058348
151	0xb930f800	-0.00016877055
152	0xbd18bd64	-0.037289992
153	0xbd814054	-0.06311098
154	0xbd68cffa	-0.056838967
155	0x3db37efb	0.08764454
156	0xbd89ec6b	-0.06734546
157	0xbda75612	-0.081707135
158	0xbd8443a6	-0.064582154
159	0xbd8caadb	-0.068685256
160	0x3d90a719	0.07063121
161	0xbc8a2d50	-0.01686731
162	0xbda39039	-0.07986493
163	0xbd20c132	-0.039246745
164	0x3d2810e2	0.041031726
165	0xbd3c3752	-0.045951195
166	0x3d4d322e	0.050096683
167	0x3d863b8d	0.06554327
168	0xbc5cb9c0	-0.013472021
169	0x3d75dfc6	0.06002786
170	0xbce95070	-0.028480738
171	0xbdc5f1c0	-0.09665251
172	0xb8ed0800	-0.00011302531
173	0x3b893210	0.004186876
174	0x3db7e309	0.089788504
175	0x3d3bbbce	0.0458334
176	0xbd7c67ea	-0.061622538
177	0xbd5b1fa9	-0.05349699
178	0xbd9fa0e1	-0.07794357
179	0x3d040192	0.03222806
180	0xbd9eb418	-0.07749194
181	0xbd72180f	-0.059104975
182	0xbd621819	-0.055198763
183	0xbdc76b7a	-0.097372964
184	0x3d8d2279	0.06891341
185	0xbda1e309	-0.07904632
186	0x3cbbdf3c	0.022933595
187	0xbd8ba706	-0.068189666
188	0xbdc5981b	-0.096481524
189	0xbd85c034	-0.065308005
190	0xbdb2f69c	-0.08738443
191	0xbc1f5278	-0.009724252
192	0x3d8a8ebf	0.06765508
193	0xbc425fe8	-0.011863686
194	0xbd859df5	-0.065242685
195	0xbd80c46a	-0.06287463
196	0xbd35e619	-0.04440889
197	0x3c8f085c	0.01746004
198	0x3b16c440	0.0023005158
199	0xbdb4cc2e	-0.08828007
200	0x3cb13720	0.021632731
201	0x3ce01ec4	0.02735842
202	0x3dbd8507	0.092538886
203	0xbd886714	-0.066602856
204	0xbd8245d8	-0.06360978
205	0x3d92b4db	0.07163402
206	0x3db93941	0.090441234
207	0xbb867000	-0.004102707
208	0xbd9f32f9	-0.07773394
209	0xbd1693a8	-0.03676191
210	0xbdac7bd6	-0.08422057
211	0x3be5ae30	0.00700929
212	0xbd6bb8a1	-0.057549123
213	0x3cdfb9e4	0.02731032
214	0x3d02b9ce	0.03191548
215	0x3d3db422	0.046314366
216	0x3cba3970	0.022732466
217	0xbc82f260	-0.015984714
218	0x3cccb014	0.024986304
219	0xbdbe6304	-0.092962295
220	0xbd794cf2	-0.060864396
221	0x3dc56227	0.09637862
222	0x3d583f76	0.052794896
223	0xbd27719e	-0.04087984
224	0xbd958730	-0.073011756
225	0xbdc1242b	-0.094307266
226	0xbc2c4fa8	-0.010517038
227	0xbcb6cf0c	-0.022315525
228	0x3dbc1495	0.09183613
229	0x3d2c1362	0.042010672
230	0x3c48b5f0	0.0122504085
231	0x3dba5481	0.09098149
232	0xbd4fbbaf	-0.0507161
233	0x3d80237f	0.0625677
234	0x3dc4e69f	0.096143
235	0xbdbb5d27	-0.09148627
236	0xbdaf2b51	-0.08553184
237	0xbc7321e8	-0.014839627
238	0x3cc7705c	0.02434557
239	0xbc9da304	-0.019242771
240	0x3c687990	0.014189139
241	0x3cbb4f28	0.022864893
242	0xbd0d7fde	-0.03454577
243	0xbd9ea403	-0.077461265
244	0xbc2825f0	-0.010262951
245	0x3d667636	0.05626508
246	0x3db5371d	0.08848403
247	0x3dc1f3bf	0.09470319
248	0xbcf8b344	-0.030358918
249	0xbd8aba3e	-0.06773804
250	0xbc5540c0	-0.013015926
251	0xbdadfd99	-0.084956355
252	0xbccdb738	-0.02511178
253	0xbc120558	-0.008912407
254	0x3da119a5	0.078662194
255	0xbd83f91c	-0.06443998

model.lstm1.bias_ih_l0 f4 [416]
0	0x3d9df784	0.077132255
1	0x3da0152b	0.078165375
2	0x3cf516ae	0.029918041
3	0xbcc838d4	-0.02444116
4	0xbd1a3ada	-0.03765378
5	0x3d7da731	0.061927024
6	0x3d83f4be	0.06443165
7	0x3c802eb7	0.015647275
8	0xbd369633	-0.044576835
9	0x3ddf0d0f	0.108911626
10	0x3d0c0361	0.03418291
11	0xbd21ebe5	-0.039531607
12	0x3d88d792	0.06681742
13	0x3ca1b6d8	0.019740507
14	0x3d991db6	0.0747637
15	0xbcd600f8	-0.026123509
16	0x3df435a6	0.11924295
17	0x3dcfb991	0.10142816
18	0x3dca7590	0.098857045
19	0x3bf513e4	0.007479178
20	0xbc2162cc	-0.009850215
21	0x3d552be5	0.052043814
22	0x3d4e4c0c	0.050365493
23	0x3d909c1f	0.07061028
24	0xbd7f138e	-0.06227451
25	0xbd4cf55d	-0.050038684
26	0xbd390961	-0.04517496
27	0xbc635221	-0.0138745615
28	0x3d69114a	0.056901254
29	0x3d3deac1	0.046366457
30	0x3db61175	0.088900484
31	0x3acea7d9	0.0015766575
32	0xbc157387	-0.009121782
33	0xbd33cd5c	-0.043897018
34	0x3d9bc87c	0.07606599
35	0x3dce889b	0.10084649
36	0x3c131758	0.008977734
37	0x3cd572c3	0.0260557
38	0x3d7df4e8	0.06200114
39	0xbbb1b2e1	-0.0054229354
40	0x3bebd760	0.0071973056
41	0x3d0c4594	0.034246042
42	0xbcc60ceb	-0.024176082
43	0x3dde4f94	0.10855022
44	0xbde63231	-0.11240042
45	0xbda47fa5	-0.08032159
46	0xbcbd789f	-0.023128806
47	0x3bf93364	0.007605003
48	0x3d5bf2b4	0.053698257
49	0x3df3a73f	0.11897134
50	0xbd11d282	-0.035601147
51	0xbd2efffd	-0.0427246
52	0x3d3c990e	0.0460444
53	0x3db62e83	0.0889559
54	0x3da95a38	0.08269161
55	0xbc86a3b1	-0.016435476
56	0x3d72d7e2	0.059287913
57	0x3e00312c	0.12518758
58	0x3df02025	0.11724881
59	0x3de776ad	0.113019325
60	0x3d8161cd	0.06317482
61	0x3d64280d	0.055702258
62	0x3cbf5ca9	0.023359613
63	0x3c88f331	0.016717525
64	0xbd85ba05	-0.06529621
65	0xbdaa9b12	-0.083303586
66	0x3d610f8a	0.05494646
67	0xbd2d6ee3	-0.042342078
68	0xbc852248	-0.016251698
69	0x3d8c7e79	0.0686006
70	0xbddbd0fd	-0.10733221
71	0x3d3bdd25	0.045865197
72	0x3dec59b4	0.11540547
73	0x3d6ed042	0.05830408
74	0xbce74657	-0.028231783
75	0xbd4cddf0	-0.050016344
76	0x3e0243ff	0.12721251
77	0xbd709154	-0.058732346
78	0x3d7dbf7d	0.061950196
79	0x3dcbbdfc	0.09948346
80	0x3dd91a48	0.10600716
81	0xbd577c22	-0.052608617
82	0x3dce7960	0.10081744
83	0x3dc81d47	0.09771209
84	0x3d810b2f	0.06300961
85	0x3e077348	0.1322757
86	0x3d756958	0.059914917
87	0xbd1a900b	-0.037735026
88	0xbdbaa6f2	-0.091138735
89	0xbd5a4146	-0.053284906
90	0x3e0721f9	0.13196553
91	0x3da863c0	0.08222151
92	0x3df7894a	0.12086733
93	0x3dd7088f	0.10499679
94	0xbc8a4c69	-0.016882138
95	0x3d032ced	0.032025266
96	0x3dda98ec	0.10673699
97	0xbd631812	-0.055442877
98	0x3d95f3e7	0.07321911
99	0xbca460bb	-0.020065656
100	0xbba16f84	-0.004926624
101	0x3e008f2c	0.12554616
102	0x3d2d9674	0.04237981
103	0x3dd4633b	0.10370489
104	0x3d66ab96	0.05631598
105	0x3da6f97d	0.08153055
106	0xbb9630c0	-0.004583448
107	0x3c7d5658	0.0154624805
108	0xbcde3728	-0.02712591
109	0xbd296903	-0.041359913
110	0x3d65ffde	0.056152217
111	0xbd8e57ee	-0.06950365
112	0x3c824a40	0.015904546
113	0xbd9a279c	-0.07527086
114	0x3d9575e9	0.0729788
115	0xbd2c9360	-0.042132735
116	0xbd82d70e	-0.06388675
117	0xbd864538	-0.06556171
118	0x3bbe5620	0.0058086067
119	0x3d09f022	0.033676274
120	0x3d58e0c2	0.05294872
121	0xbd4c0649	-0.04981068
122	0x3dc0e235	0.094181456
123	0xbd6e3542	-0.05815626
124	0xbc17d718	-0.009267591
125	0x3d39b89e	0.04534208
126	0x3d17bf4a	0.03704766
127	0xbdb38d21	-0.087671526
128	0x3d18bb36	0.037287913
129	0xbda847a9	-0.08216793
130	0x3d8afb03	0.06786158
131	0xbca83df8	-0.020537362
132	0x3dbdf2b9	0.09274811
133	0x3da9066b	0.08253177
134	0x3dc10231	0.09424246
135	0x3d261062	0.040542968
136	0x3d881861	0.06645275
137	0x3d71cbde	0.059032314
138	0xbda917cc	-0.08256492
139	0xbdac66a6	-0.08418016
140	0x3d5fcf4e	0.05464106
141	0x3c903cc4	0.0176071
142	0x3cf1f334	0.029534914
143	0xbd845db4	-0.06463185
144	0x3cb1bc58	0.021696255
145	0x3d5144ea	0.051091112
146	0xbd9a4ce9	-0.07534201
147	0x3d457ce2	0.0482148
148	0xbd18fd92	-0.0373512
149	0xbd921e12	-0.07134642
150	0xbdc09390	-0.09403145
151	0x3d7701de	0.060304515
152	0xbd111bd4	-0.03542693
153	0x3d6102fa	0.05493448
154	0xbc753228	-0.014965571
155	0xbd8b5fce	-0.06805383
156	0xbd8d6621	-0.06904245
157	0x3c0dedd0	0.008662656
158	0x3d4f2a42	0.05057741
159	0x3d7bb83a	0.06145499
160	0x3c6cd818	0.014455818
161	0xbd490838	-0.049080104
162	0xbdb07dcc	-0.08617744
163	0xbdc796a5	-0.0974553
164	0xbdbf6f53	-0.09347405
165	0x3d865d6f	0.0656079
166	0x3d8b8941	0.068132885
167	0xbd7cbb4d	-0.06170206
168	0xbb87eb80	-0.004147947
169	0x3d4d8f06	0.050185226
170	0x3c9f366c	0.01943513
171	0x3dc05617	0.0939142
172	0xbcc1e334	-0.02366791
173	0xbd9d887d	-0.07692049
174	0xbd9b3c50	-0.07579863
175	0x3db3716f	0.0876187
176	0x3d88bf99	0.06677169
177	0xbc51ca38	-0.01280456
178	0xbdb1c153	-0.08679452
179	0x3d9d3fd7	0.07678192
180	0x3dc5c2c5	0.0965629
181	0x3d0e8a16	0.034799658
182	0x385c4000	5.2511692e-05
183	0x3da8a91f	0.08235382
184	0x3daf7853	0.08567872
185	0xbd122d17	-0.035687532
186	0xbd862fd8	-0.06552094
187	0xbd1831c4	-0.037156835
188	0x3ae971c0	0.0017810389
189	0xbd99a27e	-0.07501696
190	0x3cc721dc	0.024308138
191	0xbd5116b6	-0.05104705
192	0x3daa9bad	0.08330474
193	0x3db95fff	0.09051513
194	0x3d19cc32	0.03754825
195	0x3cf71084	0.030159242
196	0xbdb216e9	-0.08695776
197	0xbbb4f720	-0.0055226237
198	0xbd854016	-0.06506364
199	0x3daf8def	0.085719936
200	0xbcc7091c	-0.024296336
201	0xbc6f8d20	-0.014621049
202	0xbdc6e928	-0.0971244
203	0x3c9780b0	0.01849398
204	0xbd828b59	-0.06374235
205	0xbc8f4ce0	-0.017492712
206	0x3d0da22a	0.03457848
207	0x3dbd332f	0.09238278
208	0xbd810c4c	-0.063011736
209	0xbda47bb5	-0.08031408
210	0xbd6a31dd	-0.05717646
211	0x3d2753bd	0.040851343
212	0x3df3f2e9	0.11911566
213	0xbc885fbe	-0.016647216
214	0xbd688d1e	-0.056775205
215	0x3d551ccf	0.052029427
216	0x3ddd4322	0.1080382
217	0xbd9d8ac3	-0.07692482
218	0xbd94da9c	-0.07268259
219	0x3c0fcaf8	0.008776419
220	0xbd06d746	-0.032920144
221	0xbd90007a	-0.07031341
222	0xbda34bc1	-0.07973433
223	0x3d5d7be6	0.054073237
224	0x3cbd49b9	0.023106443
225	0xbd706530	-0.05869025
226	0x3d858c1c	0.06520864
227	0xbc2bcd91	-0.010486023
228	0xbc83e627	-0.016100956
229	0x3c05901c	0.008152034
230	0x3cbce526	0.023058485
231	0x3da477b2	0.080306426
232	0xbcf3aff7	-0.029746993
233	0xba954fd0	-0.0011391584
234	0x3d77e2a7	0.060518887
235	0xbbf921b1	-0.0076028933
236	0x3d1fba2a	0.0389959
237	0xbcc2b7cc	-0.023769282
238	0x3d2ce7fe	0.042213432
239	0x3d45a6d8	0.048254818
240	0x3d3fb8b7	0.046807017
241	0xbcdc0161	-0.026856126
242	0x3cbe59ac	0.023236118
243	0xbd92b875	-0.07164089
244	0xbb4e5684	-0.0031484673
245	0x3d6cd0b0	0.057816207
246	0x3d81f5ef	0.06345736
247	0xbdc25594	-0.09488979
248	0x3bd597f3	0.006518358
249	0x3d7a0dff	0.061048504
250	0x3d3c11ca	0.045915402
251	0x3d4181ce	0.047242932
252	0x3d1e51c9	0.038652215
253	0xbd503f0d	-0.05084138
254	0xbd4cf588	-0.050038844
255	0x3dd9497d	0.1060972

model.lstm1.bias_hh_l0 f4 [416]
0	0xbd571f4f	-0.052520093
1	0x3da51b21	0.08061815
2	0x3c43e966	0.011957502
3	0xbc1db877	-0.009626499
4	0x3d88dac2	0.0668235
5	0xbc837644	-0.016047604
6	0xbd68c678	-0.0568299
7	0x3dcca614	0.099926144
8	0x3db7db76	0.08977406
9	0xbc21ccf8	-0.0098755285
10	0x3e2ab5dc	0.16670936
11	0x3b92ca46	0.0044796793
12	0x3ddccc10	0.10781109
13	0x3d038e58	0.03211817
14	0x3d4f6ef9	0.05064294
15	0xbcb7856a	-0.022402484
16	0x3b564f69	0.003270114
17	0x3d58e246	0.052950166
18	0xbc913970	-0.017727584
19	0xbd66c5e7	-0.056341078
20	0x3de8f89c	0.113755435
21	0x3c248cbc	0.010043319
22	0x3d8ce6e6	0.06879978
23	0x3d9fbe2b	0.077999435
24	0x3b420e6a	0.0029610642
25	0xbd84d132	-0.06485213
26	0x3d2a8c19	0.041637514
27	0x3d82690e	0.06367694
28	0xbcc27b00	-0.023740292
29	0x3d6d3b81	0.057918075
30	0x3d8b7db8	0.06811088
31	0x3d2efbc8	0.042720586
32	0xbbce6fa4	-0.0062999297
33	0xbd1cb14a	-0.038255014
34	0x3d04e512	0.03244502
35	0xbc8c2cfa	-0.01711129
36	0xbd96b1a4	-0.07358101
37	0x3d982495	0.074288525
38	0xbc57f13b	-0.013180072
39	0xbd3e3840	-0.046440363
40	0xbc78f9f1	-0.015196309
41	0xbd72a360	-0.059237838
42	0x3dffb476	0.12485592
43	0x3c9ea4fb	0.019365778
44	0xbdf3e3f1	-0.11908711
45	0x3dd366bf	0.10322332
46	0xbbd01c4d	-0.00635103
47	0xbcad5896	-0.021160405
48	0x3d5097e4	0.050926104
49	0xbd1bebbd	-0.038066614
50	0xbd69ad06	-0.057049774
51	0x3db959f8	0.09050363
52	0xbda889aa	-0.08229382
53	0x3dacad0f	0.08431446
54	0x3c057a14	0.0081467815
55	0xbc745b62	-0.0149143655
56	0x3e028b8f	0.1274855
57	0xbd05bcc7	-0.032650735
58	0x3dfa05c9	0.12208135
59	0xbc6e1b66	-0.0145328995
60	0x3dc39306	0.09549527
61	0x3d839e23	0.064266466
62	0x3c55bdbb	0.013045724
63	0x3d3ae3a3	0.045627248
64	0x3d9442ed	0.072393276
65	0xba9882ac	-0.0011635623
66	0xbce89404	-0.028390892
67	0xbd24d2b5	-0.04024001
68	0x3dbf01a0	0.09326482
69	0x3cfd4892	0.030918393
70	0xbcf2fbf9	-0.029661166
71	0x3d56afd5	0.05241378
72	0xbcfe9a4f	-0.03107944
73	0x3a599603	0.00083002466
74	0x3d396d35	0.045270164
75	0x3d8cc6b1	0.06873835
76	0x3e0e0971	0.13870789
77	0x3d6696ba	0.056296088
78	0x3d729fa5	0.05923428
79	0xbd0c93d5	-0.03432067
80	0x3d6d9901	0.058007244
81	0x3d213b78	0.039363354
82	0x3db6a3fc	0.08917996
83	0x3caec904	0.021336086
84	0x3da12b63	0.078696035
85	0x3de193d6	0.110145256
86	0x3cf94c27	0.03043182
87	0xbceec917	-0.029148621
88	0xbced5a89	-0.028973835
89	0x3d373df8	0.044736832
90	0x3e0036c0	0.12520885
91	0xbd48c785	-0.0490184
92	0xbb1a803c	-0.0023574969
93	0x3dcb7409	0.09934241
94	0xbd3c6454	-0.045994118
95	0x3c2cbaf1	0.010542617
96	0x3ddeb234	0.10873833
97	0xbc11873f	-0.008882343
98	0x3d11e71e	0.0356208
99	0x3da00d57	0.078150444
100	0x3def8fe6	0.11697368
101	0x3d6b538f	0.057452735
102	0x3da8a51b	0.08234616
103	0xbd2f680e	-0.042823844
104	0x3d9320eb	0.07184013
105	0x3d2b5db6	0.041837417
106	0xbc7a5cd0	-0.015280917
107	0xbd56e147	-0.052460935
108	0x3cc72d0c	0.024313472
109	0xbdc754c0	-0.09732962
110	0xbd0118ea	-0.0315179
111	0x3cccab9c	0.024984173
112	0x3d7bbf72	0.061461873
113	0xbcb576f4	-0.022151448
114	0x3c0dc6f8	0.008653395
115	0xbd340b43	-0.043956053
116	0x3da9d033	0.08291664
117	0x3c1165f8	0.008874409
118	0xbc05c658	-0.008164965
119	0xbd432ad4	-0.047648266
120	0x3d2d51fe	0.042314522
121	0xbd7b8982	-0.061410435
122	0xbd3a857c	-0.045537457
123	0xbd5af896	-0.053459726
124	0x3c0dd388	0.00865639
125	0x3d1c6afe	0.038187973
126	0xbd13b3f3	-0.036060285
127	0x3bfaafc0	0.0076503456
128	0x3d79b93e	0.060967676
129	0x3d72135a	0.059100486
130	0x3d407c16	0.046993338
131	0x3c2d56c0	0.010579765
132	0xbd05e9d2	-0.03269369
133	0xbcd83164	-0.026390739
134	0x3cfcedc4	0.030875094
135	0xbd6763e3	-0.056491744
136	0xbceaf8cc	-0.028683089
137	0x3daafdd9	0.08349199
138	0xbcbe5c3c	-0.02323734
139	0x3cb8be68	0.02255173
140	0xbda7df33	-0.08196869
141	0xbd671a38	-0.05642149
142	0xbd86f5be	-0.0658984
143	0xbd36d477	-0.044636216
144	0x3d4f4fe6	0.050613306
145	0xbd964a6a	-0.07338412
146	0xbcbe7fa8	-0.02325423
147	0xbcda8b1c	-0.02667766
148	0xbd5654e5	-0.052327055
149	0xbd8af7cb	-0.06785544
150	0x3d874c95	0.06606404
151	0xbcf14818	-0.029453322
152	0xbc15a570	-0.009133682
153	0xbdb7ff12	-0.08984198
154	0xbc93bf80	-0.01803565
155	0x3cf9af24	0.030479021
156	0x3dc0e8d9	0.09419412
157	0xbb8c0750	-0.0042733327
158	0xbd9e015d	-0.07715104
159	0xbd929098	-0.07156485
160	0x3d3db9fe	0.046319954
161	0x3d23cf32	0.03999252
162	0xbcc66cb8	-0.024221763
163	0xbd9b6456	-0.07587497
164	0x3c00f5e8	0.007871129
165	0x3bec6df0	0.007215254
166	0xbc16a918	-0.0091955885
167	0xbd3fc961	-0.04682291
168	0xbd2b0c07	-0.041759517
169	0x3d238df6	0.039930306
170	0x3cb15398	0.021646306
171	0xbd26152b	-0.04054753
172	0x3cb2b8f8	0.021816716
173	0x3db142bf	0.08655309
174	0xbd592dd8	-0.053022236
175	0x3d873a71	0.06602944
176	0xbda1e4a2	-0.079049364
177	0xbda2ec35	-0.07955209
178	0x3da22e27	0.07918959
179	0x3d967ed5	0.0734841
180	0x3dba4a09	0.09096152
181	0xbceabe54	-0.028655209
182	0x3da7e9fd	0.081989266
183	0x3d55e772	0.052222677
184	0xbd5a79bf	-0.053338762
185	0x3d35f4f2	0.04442305
186	0xbcd561fc	-0.0260477
187	0xbd5e6cec	-0.054303095
188	0x3d72db06	0.05929091
189	0xbd098416	-0.033573233
190	0x3cfc8814	0.030826606
191	0xbd91b3f2	-0.071144
192	0xbc9f12bc	-0.019418113
193	0x3cb87a18	0.022519156
194	0xbd0e43cc	-0.034732625
195	0xbabb3500	-0.0014282763
196	0xbdb6c6b8	-0.08924621
197	0x3d0e3922	0.034722455
198	0xbd313953	-0.04326756
199	0xbdc60e1a	-0.096706584
200	0x3dc51efb	0.0962505
201	0x3c4aa260	0.012367815
202	0xbd06fa66	-0.032953642
203	0xbd4b71ab	-0.04966895
204	0xbda11e1e	-0.078670725
205	0x3dba5011	0.09097303
206	0x3d6e40ae	0.058167152
207	0x3d91bda5	0.0711625
208	0x3dd65309	0.104650564
209	0x3af16244	0.0018416126
210	0x3c831ad2	0.016004
211	0xbd9d706e	-0.0768746
212	0x3bcd221e	0.0062601706
213	0x3de237c1	0.110457905
214	0x3debff5c	0.11523315
215	0x3d8bc727	0.06825095
216	0x3c90b855	0.017666021
217	0x3d37f529	0.044911537
218	0xbd0b3d0c	-0.033993766
219	0xbd93314a	-0.071871355
220	0xbdde781e	-0.10862754
221	0x3d9d613d	0.07684562
222	0xbdac4da9	-0.0841325
223	0x3d9c4dc3	0.07632019
224	0x3dbb5cec	0.09148583
225	0x3dcfb6b6	0.10142271
226	0xbd788e41	-0.06068254
227	0x3da8cade	0.08241819
228	0x3d65f66d	0.056143213
229	0x3b13f5b5	0.0022576873
230	0x3dcbba5f	0.09947657
231	0xbd03ee02	-0.032209404
232	0x3d27f7f4	0.04100795
233	0xbda1829a	-0.078862384
234	0x3c96ff34	0.018432237
235	0x3de539f1	0.11192692
236	0x3d6673c6	0.056262754
237	0xbd45de87	-0.04830792
238	0x3db0b9f1	0.086292155
239	0x3c794156	0.015213331
240	0xbd0bd422	-0.034137852
241	0xbc90f3fb	-0.017694464
242	0xbd9ddf97	-0.07708662
243	0x3d0feb74	0.035136655
244	0xbd694c76	-0.056957684
245	0xbd2a5464	-0.041584387
246	0xbd8fb264	-0.07016447
247	0x3d91c141	0.071169384
248	0xbd15b9a6	-0.036554
249	0x3d1ac755	0.037787754
250	0xbdcf1c85	-0.101128615
251	0x3cb0b0d0	0.021568686
252	0x3ba488a3	0.005021171
253	0x3d99b17b	0.07504555
254	0xbd8a4612	-0.06751646
255	0x3dc5c87f	0.09657382

model.lstm2.weight_ih_l0 f4 [208, 104]
0	0x3d8e41f8	0.06946176
1	0xbc467b0c	-0.012114298
2	0x3dbdc873	0.09266748
3	0x3dcbd1b3	0.09952106
4	0x3cfa0057	0.03051774
5	0x3e284544	0.16432673
6	0xbd9c92cd	-0.076451875
7	0x3cc79b4e	0.024366047
8	0x3e21a387	0.15785037
9	0xbcc5428e	-0.024079587
10	0x3e2c1927	0.1680647
11	0xbde1ecc5	-0.11031488
12	0xbda7d567	-0.08195
13	0xbda177c0	-0.078841686
14	0xbd9f68e8	-0.07783681
15	0x3c0741d4	0.008255441
16	0x3ca804de	0.020510133
17	0x3e388a5d	0.18021531
18	0x3c9e013d	0.0192877
19	0x3df59792	0.119918
20	0x3e363b3f	0.17796038
21	0x3d5ed5fb	0.054403286
22	0x3e14979a	0.14510956
23	0x3d4a441d	0.049381364
24	0xbe1ad6bf	-0.15120982
25	0xbdd646de	-0.104627356
26	0x3e31589f	0.17318963
27	0x3db71d9e	0.08941196
28	0x3df1bb61	0.11803318
29	0xbdb17de9	-0.086665936
30	0xbd2dbda2	-0.042417176
31	0xbdfee7b4	-0.124465376
32	0x3e3c40fe	0.18384168
33	0xbe207c65	-0.15672453
34	0x3dcd8fd8	0.10037202
35	0xbda9b14d	-0.082857706
36	0xbe06ef3c	-0.13177198
37	0xbe19a833	-0.15005569
38	0x3d0b1b89	0.033961806
39	0xbe0f4e82	-0.13994792
40	0xbd34fdaa	-0.044187225
41	0x3c2e67e0	0.010644883
42	0xbdb59ae6	-0.08867435
43	0x3e3f742e	0.18696663
44	0xbdc1150b	-0.09427842
45	0xbd7ec0b0	-0.06219548
46	0x3d7443ec	0.059635088
47	0xbd3b61c5	-0.045747537
48	0x3e196b13	0.14982252
49	0x3d153d6f	0.03643554
50	0x3ca24fd9	0.019813465
51	0x3e034013	0.12817411
52	0xbdaff3f9	-0.08591456
53	0x3dccc22a	0.09997971
54	0xbd049147	-0.03236511
55	0x3b0420eb	0.0020161222
56	0x3d0c8598	0.034307092
57	0xbd147c47	-0.036251333
58	0xbd48742b	-0.04893891
59	0xbd52f71c	-0.051505193
60	0xbda3e6ab	-0.08002981
61	0xbe3d9ff6	-0.18518052
62	0x3e329c78	0.174425
63	0xbdfbac48	-0.122887194
64	0x3cd877d1	0.02642432
65	0xbd685c5f	-0.056728717
66	0xbd83259d	-0.064036585
67	0xbd53de6c	-0.05172579
68	0x3dbad09f	0.091218226
69	0x3d2a1cd4	0.0415314
70	0x3d2c72d4	0.042101696
71	0xbdbe93da	-0.09305544
72	0x3c5a84b2	0.013337301
73	0x3da9f02f	0.082977645
74	0x3d8bd745	0.06828169
75	0x3c0130d2	0.007885175
76	0x3e154706	0.14577875
77	0x3dc8ff12	0.09814276
78	0xbdb998eb	-0.0906237
79	0x3e0f836e	0.1401498
80	0xbe00edd3	-0.12590723
81	0xbc30981b	-0.010778452
82	0x3d7fac61	0.062420253
83	0x3d649da6	0.055814408
84	0x3e1d0137	0.15332495
85	0xbe1a55eb	-0.15071838
86	0x3e2bea33	0.16788559
87	0xbd3b5d7e	-0.045743458
88	0xbe1e0627	-0.15432034
89	0x3c592345	0.013253038
90	0x3db54923	0.0885184
91	0xbd83bc14	-0.064323574
92	0xbd77ea91	-0.060526434
93	0xbd8163a8	-0.06317836
94	0xbb3406e0	-0.0027469918
95	0x3da860b8	0.08221573
96	0xbd9778a2	-0.07396056
97	0xbd2eb932	-0.042657085
98	0x3d1b2991	0.037881438
99	0xbd74487e	-0.059639446
100	0xbdde72e1	-0.10861755
101	0xbddb9a66	-0.107228085
102	0x3d6fbe2f	0.058530983
103	0x3d6e6920	0.058205724
104	0x3e2af22d	0.16693945
105	0x3e1b4d0f	0.15166114
106	0xbd9a7404	-0.075416595
107	0x3d3cff10	0.046141684
108	0x3d6add7b	0.057340126
109	0x3e3351ef	0.17511724
110	0x3d459008	0.048233062
111	0x3d5ec0ad	0.05438297
112	0x3d890650	0.06690657
113	0x3d41fb21	0.047358636
114	0xbcf0a44d	-0.02937522
115	0xbe2dbaa1	-0.16965725
116	0xbdc77108	-0.09738356
117	0xbdc21cd8	-0.09478158
118	0x3d00736b	0.03136007
119	0x3d30e39e	0.043185823
120	0x3dfb58b4	0.12272778
121	0xbd048390	-0.03235203
122	0x3d5fa505	0.054600734
123	0x3e15d98d	0.1463377
124	0x3d6a379d	0.057181943
125	0x3d18c3a8	0.037295967
126	0x3dcb5e77	0.09930127
127	0x3c8f2306	0.017472755
128	0x39b07061	0.00033653065
129	0xbdd4fbb7	-0.10399573
130	0xbcd42491	-0.025896342
131	0x3dad4053	0.084595345
132	0x3c7df12c	0.015499394
133	0x3cf345b1	0.029696317
134	0x3dad22d9	0.08453912
135	0x3c86bebd	0.016448373
136	0xbcb01e12	-0.021498714
137	0xbddde4e1	-0.10834671
138	0x3ad86d67	0.0016512097
139	0x3d576dfc	0.052595124
140	0x3d0c27c6	0.03421762
141	0xbd46894d	-0.048470784
142	0xbd59c872	-0.053169675
143	0xbe02afeb	-0.1276242
144	0xbd060a95	-0.032724936
145	0xbd9f3e10	-0.07775509
146	0xbc6d4230	-0.014481112
147	0x3e22895e	0.15872714
148	0xbd89a11a	-0.06720181
149	0xbd6ea59d	-0.05826341
150	0xbd89fd4b	-0.06737765
151	0xbb56d861	-0.003278278
152	0x3dda026d	0.10644994
153	0xbdedae03	-0.11605456
154	0x3da6a9bf	0.08137845
155	0x3e3ee7fd	0.18643184
156	0x3db43590	0.08799279
157	0x3bf8b3d9	0.007589799
158	0x3c3ca288	0.01151336
159	0x3d7233f3	0.059131574
160	0x3e17089c	0.14749378
161	0x3d55717d	0.052110184
162	0x3e272082	0.16320994
163	0x3d45c7c7	0.048286226
164	0xbdef00b0	-0.11670053
165	0xbe2ca2ea	-0.16859022
166	0x3d468761	0.04846895
167	0xbe113e72	-0.14183977
168	0xbe0c1729	-0.1368071
169	0x3e054a43	0.1301661
170	0xbd3a6b5e	-0.04551255
171	0x3e2a6a2a	0.16642061
172	0x3ca84ef0	0.020545453
173	0x3d142514	0.036168173
174	0xbd181071	-0.037125055
175	0x3e076bbe	0.13224694
176	0xbe136929	-0.14395584
177	0xbda9cb85	-0.082907714
178	0xbd90cb6b	-0.07070049
179	0xbe2fadb9	-0.17156114
180	0xbcb13f02	-0.02163649
181	0x3e145c1b	0.1448826
182	0xbdda5f0f	-0.10662662
183	0x3c77906a	0.015110115
184	0xbe4403fd	-0.19142146
185	0x3de78291	0.113042004
186	0x3e2854a3	0.16438536
187	0x3d60b352	0.054858513
188	0x3de4419b	0.11145326
189	0xbe38a8fe	-0.18033215
190	0x3e20055a	0.15627041
191	0x3df1fb9c	0.11815569
192	0xbcf04b02	-0.029332642
193	0x3db32ba8	0.08748561
194	0x3e40219d	0.18762822
195	0xbd0ec40d	-0.034854937
196	0xbd859129	-0.06521828
197	0x3e4291b5	0.19000895
198	0x3dc71bc1	0.097220905
199	0x3d507378	0.05089137
200	0xbdaff10a	-0.085908964
201	0x3d5899cb	0.052881043
202	0xbd358192	-0.04431302
203	0xbd6418c0	-0.055687666
204	0xbc9e2199	-0.01930313
205	0x3c23b64c	0.009992193
206	0xbd8196a6	-0.06327562
207	0x3d91b679	0.07114882
208	0x3e1c1729	0.1524321
209	0x3db8573d	0.090010144
210	0x3c93a92c	0.018025003
211	0xbdedfc79	-0.11620421
212	0xbdaa91dd	-0.083286025
213	0x3d85fa0e	0.06541835
214	0x3df0384c	0.11729488
215	0x3db4600c	0.08807382
216	0x3d7e1e1a	0.062040426
217	0x3df02109	0.11725051
218	0x3d9da28b	0.07697018
219	0xbdb4b709	-0.08823974
220	0xbda9c04d	-0.082886316
221	0x3dd3bb3c	0.103384465
222	0x3de1c25b	0.110233985
223	0x3d3f3c22	0.046688206
224	0xbdc8ac0a	-0.09798439
225	0x3defe23d	0.117130734
226	0x3df8e256	0.12152545
227	0xbd63cc4a	-0.055614747
228	0xbd48695d	-0.048928607
229	0x3c12e17e	0.008964894
230	0xbde3615d	-0.11102555
231	0xbd828827	-0.06373625
232	0x3d9f32b9	0.077733465
233	0xbcf3bcc4	-0.029753096
234	0xbd3d0dfb	-0.04615591
235	0xbd234c9a	-0.039867975
236	0xbdab65ef	-0.08369052
237	0x3d93bf79	0.07214255
238	0xbe043278	-0.12909877
239	0x3d7009e7	0.058603194
240	0xbda849b5	-0.082171835
241	0xbd9adfa7	-0.075621895
242	0xbd803a9d	-0.062611796
243	0x3c1bf62a	0.009519139
244	0xbd994e80	-0.07485676
245	0xbddd5637	-0.1080746
246	0x3c487d34	0.012236882
247	0xbdee08a7	-0.11622744
248	0x3df92822	0.12165858
249	0xbde25ca9	-0.1105283
250	0x3d024b83	0.031810295
251	0x3da7e039	0.08197064
252	0xbd7b01ad	-0.061280895
253	0x3d308325	0.04309382
254	0x3d5c2b93	0.053752493
255	0x3d7d9857	0.06191286

model.lstm2.weight_hh_l0 f4 [208, 52]
0	0x3da559b8	0.08073753
1	0xbdf12d8a	-0.11776264
2	0xbcc3d308	-0.023904338
3	0xbcfd3498	-0.030908868
4	0x3c07b7f0	0.0082836
5	0xbe048d5a	-0.12944546
6	0x3c22f480	0.009945989
7	0x3e0056a1	0.12533046
8	0xbe0a85ab	-0.13527553
9	0x3da20d60	0.07912707
10	0x3dde750a	0.10862167
11	0xbc5f2f80	-0.013622165
12	0xbd9918b0	-0.07475412
13	0xbe0ad099	-0.13556136
14	0xbe07cb64	-0.13261181
15	0x3dffa7de	0.1248319
16	0xbd67205c	-0.056427345
17	0xbd2004d2	-0.039067097
18	0xbba8b580	-0.0051485896
19	0x3db4a7ca	0.08821066
20	0xbdc07d7c	-0.09398934
21	0xbde7ef61	-0.11324955
22	0x3c019800	0.007909775
23	0xbd13a04c	-0.036041543
24	0xbc9bec44	-0.019033559
25	0xbd209aa8	-0.03920999
26	0x3d8a3772	0.067488566
27	0xbcde96c0	-0.027171493
28	0x3da93a0c	0.08263025
29	0x3df907ee	0.121597156
30	0xbd5d4bf6	-0.05402752
31	0xbd99b72d	-0.07505641
32	0xbdadacf8	-0.08480257
33	0xbd8ff9f0	-0.07030094
34	0x3d04d904	0.032433525
35	0x3d6dbd34	0.058041766
36	0x3e0057fb	0.12533562
37	0x3d857f86	0.06518464
38	0xbd08cb36	-0.033396922
39	0x3dbcaa2e	0.09212147
40	0x3db47300	0.08810997
41	0x3b90d080	0.0044193864
42	0xbdf88743	-0.12135174
43	0x3c8ac5f0	0.016940087
44	0x3bebb5e0	0.007193312
45	0xbdd78334	-0.10523072
46	0x3d5c5284	0.05378963
47	0xbce8a1c0	-0.02839744
48	0x3c51b330	0.012799069
49	0xbd958f3a	-0.07302709
50	0xbe030e74	-0.12798482
51	0x3d4c07f8	0.049812287
52	0xbe0c65de	-0.13710734
53	0xbd6d76b4	-0.057974532
54	0xbc1c50d0	-0.009540752
55	0xbdedf932	-0.11619796
56	0x3c683080	0.01417172
57	0xbc7ffcf8	-0.015624277
58	0x3c83a620	0.016070426
59	0xbd0cd6c8	-0.03438452
60	0x3e0b1897	0.13583599
61	0x3dcdadba	0.10042901
62	0x3d417f94	0.04724081
63	0xbd59b4b4	-0.053150848
64	0xbce80930	-0.028324693
65	0x3ddc7b5a	0.10765715
66	0xbddbd444	-0.10733846
67	0xbdf6f7b5	-0.12058965
68	0xbd84bd6b	-0.06481441
69	0xbd8f14f4	-0.06986418
70	0x3c02e470	0.007989034
71	0xbd5d921a	-0.05409441
72	0x3dd7f402	0.10544588
73	0xbd206e32	-0.03916759
74	0x3dcca744	0.09992841
75	0x3e026d81	0.12737085
76	0x3cc24a00	0.023716927
77	0x3d848c3c	0.0647206
78	0xbdeafae6	-0.11473636
79	0x3da986f4	0.082776934
80	0x3ddc7160	0.10763812
81	0x3dc4fef0	0.09618938
82	0x3cb228f0	0.021748036
83	0xbd1ef72e	-0.038809948
84	0x3d827350	0.0636965
85	0xbd9a14fb	-0.07523533
86	0xbd5832a2	-0.052782662
87	0xbde5e99e	-0.112261996
88	0xbcef5a70	-0.029217929
89	0x3df048c6	0.117326304
90	0xbd195ac0	-0.03744006
91	0xbd148354	-0.036258057
92	0x3cf6af28	0.030112818
93	0x3e06ac73	0.13151722
94	0x3dfebc96	0.12438314
95	0xbdac7244	-0.08420232
96	0x3ca68a98	0.020329759
97	0x3dfa14aa	0.122109726
98	0xbddd868a	-0.10816677
99	0xbd921274	-0.07132426
100	0x3dc293ae	0.09500824
101	0x3da7ca9a	0.0819294
102	0xbddec074	-0.10876551
103	0x3df1e5de	0.11811422
104	0x3ce5e210	0.028061897
105	0xbe07739c	-0.13227695
106	0x3c863c10	0.016386062
107	0xbd3c92cc	-0.046038434
108	0xbda3d098	-0.079987705
109	0xbd6ce7a4	-0.057838097
110	0x3d99fe8e	0.075192556
111	0x3d9009f6	0.0703315
112	0x3c586520	0.013207704
113	0xbd82c94a	-0.06386049
114	0xbc9990d0	-0.01874581
115	0x3b9ade00	0.0047261715
116	0x3e09c4a7	0.13453923
117	0xbd7fa4a0	-0.062412858
118	0x3d88c292	0.06677736
119	0x3df4653a	0.1193337
120	0x3e057231	0.13031842
121	0x3d9c36b0	0.07627618
122	0xbd87ceba	-0.06631227
123	0xbdc349c2	-0.095355526
124	0xbe04559d	-0.12923284
125	0xbdecebac	-0.11568388
126	0x3a87b400	0.0010353327
127	0xbe042e5b	-0.12908308
128	0x3d2f3704	0.042777076
129	0x3dc90964	0.09816244
130	0xbdcf8098	-0.10131949
131	0xbde1d732	-0.110273734
132	0x3da8a9c0	0.08235502
133	0x3ba35680	0.004984677
134	0xbb8d6180	-0.0043146014
135	0xbde01006	-0.10940556
136	0x3daf6b00	0.085653305
137	0xbcd41a74	-0.02589152
138	0x3d476014	0.04867561
139	0x3d741690	0.05959183
140	0x3dd812e4	0.10550478
141	0xbe03963f	-0.12850283
142	0x3d008a6c	0.03138201
143	0x3db79760	0.08964419
144	0x3dd0460a	0.10169609
145	0x3dc822e6	0.09772281
146	0x3de4cbde	0.11171697
147	0x3dbc0776	0.091811106
148	0xbde729b7	-0.11287253
149	0xbd659508	-0.05605033
150	0x3c010d10	0.0078766495
151	0x3d49f428	0.04930511
152	0xbd92d94c	-0.07170352
153	0xbdd345c2	-0.103160396
154	0xbe00b50f	-0.12569068
155	0x3da9aae0	0.08284545
156	0x3dd93956	0.10606639
157	0xbdbb41a4	-0.09143379
158	0x3df5b69e	0.11997722
159	0xbe06438a	-0.13111702
160	0x3cdffd30	0.027342409
161	0xbdec4d32	-0.11538161
162	0xbdf5ada0	-0.11996007
163	0x3d000cac	0.031262085
164	0x3d118314	0.035525396
165	0x3da376f4	0.07981673
166	0xbdc19968	-0.09453088
167	0x3de7d44a	0.11319788
168	0xbd7a0566	-0.061040305
169	0xbdb83fa8	-0.089965165
170	0xbdd62870	-0.104569316
171	0xbddd6b2d	-0.10811458
172	0xbd5eabf0	-0.05436319
173	0x3c37ab70	0.0112103075
174	0x3dbcffda	0.09228487
175	0x3da2acee	0.0794314
176	0x3dccc140	0.09997797
177	0xbdb5d490	-0.08878434
178	0x3dc28454	0.09497896
179	0x3d699568	0.05702725
180	0xbd7e6e18	-0.062116712
181	0x3d9941ea	0.07483275
182	0x3dadd002	0.0848694
183	0x3d9e2d92	0.077235356
184	0x3e05e7c5	0.13076694
185	0x3dba342c	0.09091982
186	0x3d902908	0.07039076
187	0xbd96a026	-0.07354765
188	0x3d6a40d0	0.057190716
189	0xbd113dc4	-0.035459295
190	0xbba56aa0	-0.005048111
191	0xbdccda92	-0.100026265
192	0x3da467c8	0.08027607
193	0x3cc2d5d8	0.02378361
194	0x3d9c55d2	0.076335564
195	0x3d406d9c	0.04697953
196	0xbda0d8d4	-0.07853857
197	0xbccb14cc	-0.02479019
198	0xbddcaee4	-0.10775545
199	0xbdc6dba0	-0.09709859
200	0xbc9907d8	-0.018680498
201	0x3dc67b18	0.09691447
202	0xbd9e2d6b	-0.077235065
203	0xbd5a33fa	-0.053272225
204	0x3d44d12c	0.048051044
205	0x3e0a4611	0.1350329
206	0xbb872920	-0.0041247755
207	0x3ce93d48	0.028471604
208	0x3d1a2b54	0.037638977
209	0x3d7faaac	0.062418625
210	0xbcfb9674	-0.03071139
211	0xbd08cbd2	-0.033397503
212	0xbd5113c0	-0.051044226
213	0xbcf6a624	-0.030108519
214	0xbd788864	-0.060676947
215	0x3dcf29a8	0.10115367
216	0xbda31928	-0.079637825
217	0xbd17b104	-0.03703405
218	0x3dbe6e92	0.09298433
219	0xbdc0371e	-0.09385513
220	0xbd653570	-0.055959165
221	0xbdeb316a	-0.11484034
222	0x3dd73eba	0.10510011
223	0xbd2a704e	-0.04161101
224	0x3d585f04	0.05282499
225	0x3dcd454c	0.10022983
226	0xbde5d28e	-0.11221801
227	0xbda9a645	-0.082836665
228	0x3d9a3bee	0.07530962
229	0xbdd7bf18	-0.10534495
230	0x3da67fae	0.08129822
231	0x3e0742f7	0.13209139
232	0xbbe9bfa0	-0.007133439
233	0x3e0a7e01	0.13524629
234	0xbdc9b5fc	-0.09849164
235	0x3d2c4cd8	0.04206547
236	0x3e048399	0.12940826
237	0xbddbc501	-0.10730935
238	0xbcd561a8	-0.026047543
239	0x3d8d38c8	0.06895596
240	0xbd3184d2	-0.043339558
241	0x3daeff94	0.085448414
242	0x3c900d10	0.017584354
243	0x3db498be	0.08818196
244	0x3cf9e5c0	0.030505061
245	0xbdb1c65e	-0.08680414
246	0x3df607fa	0.1201324
247	0x3c0723e0	0.008248299
248	0xbcfeb1d0	-0.031090647
249	0xbdc0b178	-0.094088495
250	0xbcaa6c14	-0.020803489
251	0x3df714be	0.12064503
252	0x3df2c8a2	0.11854674
253	0xbcff61e8	-0.031174615
254	0x3d80db36	0.06291811
255	0x3c731290	0.014835969

model.lstm2.bias_ih_l0 f4 [208]
0	0x3cb05113	0.021523034
1	0xbd8628b7	-0.065507345
2	0x3dcfe4c8	0.101510584
3	0xbdd9ef33	-0.10641327
4	0xbdcf5dec	-0.10125336
5	0xbe046bb7	-0.12931715
6	0x3e22a3f5	0.15882857
7	0x3e170065	0.14746244
8	0xbdfbd0a5	-0.12295655
9	0x3e33d4b8	0.17561615
10	0x3df8440a	0.121223524
11	0xbdf5bdce	-0.11999093
12	0xbd87850e	-0.06617175
13	0xbd98de87	-0.07464319
14	0x3d462841	0.048378233
15	0x3dec52e8	0.115392506
16	0xbd38dba4	-0.04513134
17	0x3dcfb734	0.10142365
18	0xbd6993f3	-0.05702586
19	0x3d77afd7	0.06047043
20	0x3df65264	0.120274335
21	0xbd5ad9ad	-0.053430248
22	0x3d89d803	0.06730654
23	0x3d82493a	0.06361623
24	0x3e0d5fc6	0.13806066
25	0x3d6b48f8	0.057442635
26	0x3da2dbb9	0.07952065
27	0x3d9ed9c3	0.077563785
28	0xbd2343c5	-0.039859552
29	0x3d6200a4	0.055176392
30	0xbd80fe14	-0.062984616
31	0x3df3ad29	0.11898262
32	0x3d1b815e	0.03796517
33	0x3e1b0e0d	0.15142079
34	0x3c9919b6	0.018689018
35	0x3d9176c0	0.07102728
36	0xbdb7ebd3	-0.08980527
37	0x3de24de7	0.11050015
38	0xbd9046dd	-0.07044766
39	0xbda66673	-0.081250094
40	0x3c8e5a3a	0.017377008
41	0x3d54f6a5	0.05199303
42	0x3a2e0ea1	0.0006639753
43	0xbd766b34	-0.06016083
44	0xbd7eff7a	-0.06225536
45	0x3cb1dfee	0.021713223
46	0x3d95da8e	0.073170766
47	0x3e0fcccb	0.14042966
48	0x3df1d7ce	0.118087396
49	0x3e2af4c2	0.1669493
50	0x3db72db6	0.089442655
51	0xbde62b9b	-0.11238786
52	0x3df10a7e	0.11769579
53	0x3db8ef36	0.09030001
54	0xbd7f4c82	-0.062328823
55	0x3d4a5b18	0.04940328
56	0xbccac0b8	-0.024750099
57	0x3dd797fc	0.105270356
58	0x3ddd8dbc	0.10818049
59	0xbcde8a10	-0.027165443
60	0x3d4ee3dc	0.050510272
61	0x3c64b9e0	0.013960332
62	0x3c05b490	0.008160725
63	0xbd941818	-0.07231158
64	0x3d626778	0.055274457
65	0x3d541b8c	0.051784083
66	0x3d9cd044	0.07656911
67	0xbde0e1a1	-0.10980535
68	0x3d9c2c6c	0.0762566
69	0xbd9607ad	-0.07325683
70	0x3db4bb58	0.088247955
71	0x3d8df20e	0.06930934
72	0x3d84eeb2	0.0649084
73	0xbada1280	-0.0016637594
74	0x3d182298	0.037142366
75	0x3d836004	0.06414798
76	0x3d650900	0.055916786
77	0x3d431588	0.047627956
78	0xbd89aa5e	-0.06721948
79	0xbda2c22f	-0.07947194
80	0x3d91b03e	0.07113694
81	0xbdd98bd7	-0.106223755
82	0x3e08cc03	0.13359074
83	0xbe0cade7	-0.13738213
84	0x3e0a0ef1	0.13482262
85	0x3d04d9f0	0.032434404
86	0x3bf2bea0	0.007407978
87	0x3d80f464	0.06296614
88	0xbc412fd0	-0.011791185
89	0x3de6b7d2	0.1126553
90	0xbd985b3c	-0.074392766
91	0xbcf5bf28	-0.029998377
92	0x3e074f77	0.13213907
93	0xbe0d71ec	-0.13812989
94	0xbdb87d0e	-0.09008227
95	0xbda3a8f5	-0.0799121
96	0xbdef8180	-0.11694622
97	0x3deecc7a	0.116600946
98	0xbcb1d604	-0.021708496
99	0xbe053d45	-0.13011654
100	0x3da319f4	0.079639345
101	0xbd2d5aee	-0.042323045
102	0xbdf1ad06	-0.1180058
103	0x3d83839c	0.06421587
104	0x3d00e2fa	0.03146646
105	0xbe03dc7d	-0.12877078
106	0xbdddb7fb	-0.10826107
107	0xbc009920	-0.007849008
108	0x3d4f7c9f	0.050655957
109	0xbd4a9a05	-0.04946329
110	0x3d245a07	0.04012492
111	0xbdd974dc	-0.10617992
112	0xbdd14716	-0.10218637
113	0x3d855ad5	0.065114655
114	0x3ddab41e	0.10678886
115	0xbdafc887	-0.085831694
116	0xbe0955b6	-0.13411602
117	0xbd912ba2	-0.070884004
118	0x3bf5af18	0.0074976794
119	0xbe1c5902	-0.15268329
120	0xbd7a35aa	-0.061086334
121	0x3df8b6d0	0.12144244
122	0x3d59ddd1	0.053190056
123	0x3c2ae25b	0.010429944
124	0x3e1a9d6b	0.15099113
125	0xbb42dc41	-0.0029733332
126	0xbe059ec3	-0.13048844
127	0x3d7848b1	0.0606162
128	0x3e01f8ac	0.12692517
129	0xbc43551e	-0.011922149
130	0xbd26152e	-0.040547542
131	0x3dc0253c	0.09382102
132	0x3d820f61	0.063505895
133	0xbcc30833	-0.02380762
134	0x3dc8ac67	0.09798508
135	0xbdacee1f	-0.084438555
136	0xbe1c2491	-0.15248324
137	0xbd27ffa5	-0.041015286
138	0xbb1c14f9	-0.0023816212
139	0xbdc30885	-0.09523109
140	0xbdfd76e7	-0.123761944
141	0x3d52c0c1	0.051453356
142	0x3d4aac26	0.04948058
143	0x3d4d14f1	0.0500688
144	0x3c741f89	0.014900097
145	0xbde484e4	-0.111581594
146	0x3c5cfc71	0.013487921
147	0x3d7a4513	0.06110103
148	0x3cfe9cd1	0.031080635
149	0xbd553b96	-0.05205878
150	0xbca97800	-0.020687103
151	0x3d3cd4df	0.046101447
152	0xbd052a63	-0.032511126
153	0x3d0dc4ec	0.034611627
154	0x3db040e8	0.0860613
155	0xbdb2742c	-0.08713564
156	0x3d957384	0.072974235
157	0xbd78e485	-0.06076481
158	0x3dc866be	0.097852215
159	0x3b5e2e96	0.003390228
160	0xba822b6a	-0.0009931151
161	0xbd7150ea	-0.058915056
162	0x3e1522e4	0.14564091
163	0x3e1de009	0.15417494
164	0x3d315df6	0.0433025
165	0x3e32a897	0.17447124
166	0x3d75c521	0.06000245
167	0x3d8c4a72	0.06850137
168	0x3d130822	0.035896428
169	0x3d04847c	0.03235291
170	0xbd11e2d1	-0.0356167
171	0x3e09e898	0.13467634
172	0x3d17a4dd	0.03702246
173	0xbc1c620d	-0.0095448615
174	0x3d9744bf	0.07386159
175	0x3e2166a1	0.15761806
176	0x3cec36c6	0.028834712
177	0x3de756c6	0.112958476
178	0x3e1edc38	0.15513694
179	0x3da19e72	0.07891549
180	0x3e1b264b	0.15151326
181	0x3c2ef024	0.010677371
182	0xbdad0895	-0.084489025
183	0xbc024da4	-0.007953081
184	0xbd5b28c2	-0.053505667
185	0xbd8c3217	-0.068454914
186	0xbd16392a	-0.03667561
187	0x3d6f4ceb	0.058422964
188	0x3e24bc7c	0.16087526
189	0xbca2b6d1	-0.019862564
190	0x3d9e7c50	0.077385545
191	0xbc70c728	-0.01469592
192	0x3c515c6c	0.012778383
193	0x3dac52e1	0.084142454
194	0xbdacb918	-0.08433741
195	0x3bae4925	0.005318778
196	0xbdcc00e8	-0.0996111
197	0x3dd49179	0.10379309
198	0x3d0e142b	0.034687202
199	0xbd63a473	-0.055576753
200	0xbde749ac	-0.11293349
201	0xbd62327b	-0.055223923
202	0x3de7a6b7	0.11311095
203	0xbbd1141f	-0.0063805724
204	0x3dc8664e	0.09785138
205	0x3df932d2	0.12167896
206	0xbd9a07f6	-0.0752105
207	0xbdb2339e	-0.087012514
