LSTM_TimeSeries/lightning_logs/version_203/checkpoints/epoch=19-step=180.ckpt (torch, 640155 bytes, 27 tensors)

model.lstm.weight_ih_l0 f4 [416, 3]
000000 f8 8f c1 3c aa a6 43 3c fe 2d 75 bd c1 86 03 bd
       0.02362822 0.011941591 -0.059858315 -0.032110933
000010 40 10 70 bd b6 74 1e 3d 7d d7 dd 3c f8 d8 8d bd
       -0.058609247 0.038685523 0.027080292 -0.06926149
000020 58 1c 81 3d 97 fd 56 bd ac 39 d7 bc 6e c4 a5 3d
       0.06304234 -0.052487936 -0.026272617 0.080941066
000030 ff 2a bb bd 1f 26 30 3d 95 be bb bd 06 09 58 bd
       -0.0913906 0.043005105 -0.0916721 -0.05274298
000040 b2 7a 75 bd 9e 9b 8d 3d 67 10 41 3c a0 12 4d bd
       -0.059931464 0.06914447 0.011783696 -0.05006659
000050 c4 86 b8 bd e8 df 22 3d 55 96 2d 3d 42 6d a0 3b
       -0.090100795 0.039764315 0.042379696 0.004895837
000060 37 7d dc bc 60 0b ac 3c 16 53 b7 3d 2c 8e 59 bc
       -0.026915176 0.021001518 0.08951394 -0.013278525
000070 15 9b 9d 3d 37 53 a7 3d 15 8f 18 3d 7f 6b 81 3d
       0.07695595 0.08170169 0.03724583 0.063193314
000080 e2 c4 40 bc f2 b0 99 bd 8a cf a1 bb ed ab 83 ba
       -0.0117656905 -0.07504453 -0.0049380707 -0.0010045745
000090 5e 80 de 3c c0 8e b2 bd 61 f3 96 3b c7 a0 1b 3d
       0.02716082 -0.08718634 0.0046066497 0.037995126
0000a0 29 df 11 3c 7f 9b 8f bd 9c b8 6e bc 65 74 94 bd
       0.008903303 -0.070120804 -0.0145703815 -0.07248763
0000b0 af af 65 bc 8c 69 3b bc 37 b3 d6 bb 3d 60 bb 3d
       -0.014018937 -0.011438739 -0.006552126 0.09149215
0000c0 20 9f 1e 39 0d ef 82 3c e4 1b 6a 3d fa dd 1e 3d
       0.00015127333 0.015983129 0.057155505 0.038785912
0000d0 03 10 a6 bd 78 90 5d 3d dd 4b 37 bd 79 10 c6 3d
       -0.08108523 0.054092854 -0.044750083 0.09671111
0000e0 a1 6b 50 bb 31 47 9c 3c f8 a8 a6 bd 52 8d 47 bc
       -0.0031802433 0.019076915 -0.08137697 -0.0121796895
0000f0 70 ab b5 bc 42 b3 b3 3b 84 d0 14 bd 3f 49 81 3d
       -0.022176474 0.0054840157 -0.03633167 0.06312799
000100 77 72 b3 bd b2 f8 be 3d a9 c1 8f 3d 65 84 70 bd
       -0.08762067 0.093247786 0.070193596 -0.05872001
000110 b3 a6 bf 3c 1c b1 69 bc 63 9f 59 bd 4d 65 de bc
       0.023394918 -0.014263418 -0.05313052 -0.027147913
000120 85 48 1a bd 4e 8f 82 bc db 6e 49 bc b1 43 4b 3d
       -0.037666816 -0.015937474 -0.012294496 0.049625102
000130 a6 ee 7e 3c f2 60 a0 3d f1 25 75 bd 44 07 bd 3d
       0.015559828 0.07830991 -0.059850637 0.092299014
000140 45 fb 7c 3d 25 c3 ca 3c f2 3f 4d bd ec 70 85 3d
       0.061763067 0.024751255 -0.05010981 0.06515679
000150 4b 45 90 3d 52 54 29 bc 21 6d 9b bd 48 e2 52 3d
       0.070444666 -0.010335045 -0.07589174 0.05148533
000160 b5 0b ac 3d 05 bb d0 b9 bf f9 2d bd a4 3b 95 3d
       0.084006704 -0.00039812192 -0.042474505 0.07286766
000170 75 e7 b1 3d 7c 37 28 3d 72 a2 4e 3d 01 12 c1 3c
       0.08686725 0.04106854 0.05044789 0.023568155
000180 f4 22 ba bc ca 61 69 3d 55 ca c0 3d d9 fb 22 3d
       -0.022721745 0.056978025 0.09413592 0.039790962
000190 f5 49 ca 3a e9 3d 2c bd db 42 bc 3c 03 59 c0 bd
       0.0015433418 -0.04205123 0.022981098 -0.09391978
0001a0 fd 4b a8 bc 66 c8 e3 bc a9 20 ba bd 71 99 b5 3d
       -0.020544047 -0.027805518 -0.09088261 0.08867157
0001b0 a6 6a 5c bd 68 a1 26 ba 57 57 16 bd fa e4 a2 3d
       -0.053812645 -0.0006356449 -0.036704388 0.0795383
0001c0 8f 66 02 3d 4f 00 7a 3d 31 0e 81 bd 8f 68 36 3a
       0.03183609 0.06103545 -0.06301535 0.00069583295
0001d0 64 fc 01 3c 44 d9 87 3d 79 03 5d 3d bb 21 1d bd
       0.00793371 0.06633237 0.05395839 -0.038362246
0001e0 55 5b 2a 3c fd ab 7c bd f9 00 14 3d 0c 70 16 3c
       0.010397752 -0.06168746 0.03613374 0.0091819875
0001f0 db 1d a1 bd ae 58 a5 3d 31 54 a3 3c 2d 3b 7d bd
       -0.078670226 0.08073555 0.019937607 -0.061824013
000200 78 2b 2d bc 0a e9 7b 38 c3 08 a0 3d 2b 1a 94 3b
       -0.010569446 6.0060098e-05 0.07814171 0.004519721
000210 a6 67 0a 3d f6 dd ae 3d f6 31 e0 bc 27 72 97 3d
       0.033790253 0.085384294 -0.027367573 0.0739482
000220 63 9e 81 bd 35 49 0f bd 15 81 85 bc 27 22 0c 3d
       -0.06329038 -0.034981925 -0.016296903 0.034212258
000230 05 e7 6c 3d b2 2b 7c 3d ee 1f bf 38 f0 50 b2 3d
       0.057837505 0.06156511 9.113537e-05 0.08706844
000240 18 62 36 3d 51 a8 87 bd ef f9 62 3d 24 a2 66 3d
       0.044527143 -0.06623901 0.055414136 0.056306973
000250 73 39 85 3d ba 20 96 3b e9 d3 de 3c 42 2b bd 3d
       0.06505098 0.004581538 0.027200656 0.092367664
000260 7e 07 b4 3b b0 70 04 bd f9 ba 89 bd f8 9d 86 3d
       0.005494057 -0.03233403 -0.06725115 0.06573099
000270 07 ad 51 bd a9 73 bc bd 22 eb af 3c e9 f9 ab 3d
       -0.051190402 -0.09201748 0.021474425 0.08397276
000280 3c 6e 96 bc 5a bc 27 3d c9 7f 66 3b 65 38 af 3b
       -0.01836311 0.04095111 0.003517138 0.005347299
000290 c9 9a 80 3d d0 86 c1 bd 72 62 b2 3d 8d e7 63 3d
       0.06279523 -0.094495416 0.08710183 0.055640746
0002a0 bf 76 13 bc f7 dd 32 3d 24 67 6c bd cc ee 81 bd
       -0.009000479 0.043668713 -0.05771555 -0.06344375
0002b0 8b 95 41 3d 83 a6 c0 3d 29 1c b4 bc 33 8a d5 3b
       0.047261756 0.094067596 -0.021986084 0.006516719
0002c0 4f c1 2b 3d bf 2d 6a 3c 3f f3 06 3c 53 d0 a6 3d
       0.0419324 0.014293133 0.008236705 0.081452034
0002d0 ff d8 b2 bd 73 ff aa bc 00 cd 5c 3d 94 1b b5 bc
       -0.08732795 -0.02087376 0.05390644 -0.022107877
0002e0 ca 6e ae bc 95 c0 80 bd 75 9b bd 3d e6 fd 13 3d
       -0.021293063 -0.06286732 0.09258167 0.03613081
0002f0 de 4c 49 bd d3 d4 1f 3d 95 62 4a 3d 42 d1 61 3d
       -0.049145572 0.039021324 0.04941042 0.055131204
000300 c1 de 10 3d 00 59 1a 3d 65 4d 3d bd db 3b 3e 3d
       0.035368685 0.037682533 -0.046216387 0.0464438
000310 98 9b 0b 3b 8c cc a8 3d 96 2e 5a 3d ee 7b ae 3d
       0.0021302458 0.08242139 0.053267084 0.085197315
000320 39 86 71 3a 00 d3 e2 bb 5c 66 a0 3c de 86 13 3c
       0.0009213421 -0.006922126 0.019580059 0.009004323
000330 6b 98 25 3c 19 f2 4b 3d 93 1e 9c 3d 67 16 a1 3d
       0.01010714 0.04979143 0.07623019 0.07865601
000340 88 3e 7a 3d bd 85 d5 bc c8 5a 72 3d db dc cf bb
       0.06109479 -0.026064748 0.059168607 -0.0063434667
000350 20 b6 34 3c 0f 0b 60 bd 9a 07 64 bd c3 1d d5 3c
       0.01102975 -0.054698046 -0.055671312 0.026015168
000360 1d 89 5a 3d 5a fe 8b 3d 0f 0f 30 3c 93 8e 2c 3d
       0.053353418 0.06835623 0.010745778 0.042128157
000370 13 16 d3 bc 45 de aa 3c cc 08 e5 bc 55 4d c3 3d
       -0.025767362 0.02085794 -0.027958296 0.09536234
000380 dc 57 e3 3b 0f f9 b9 bd ea 04 b5 3d 5b 4c 34 bb
       0.006937964 -0.09080707 0.08838828 -0.0027511332
000390 71 71 a6 3d 17 50 81 bd d0 58 63 bc 93 83 ea 3c
       0.08127106 -0.06314104 -0.013876155 0.028627193
0003a0 93 37 5c bc 7e 48 7c bd 10 ea 04 bd 1e 59 19 3c
       -0.013440984 -0.06159257 -0.032449782 0.009359626
0003b0 96 4e bd bc 89 1b 9a 3d c7 42 c1 ba 6b 50 26 bd
       -0.023108762 0.07524783 -0.0014744633 -0.040604036
0003c0 a4 d7 97 3d 06 d5 06 bd 0b 60 b4 bc 2a 71 8f 3c
       0.07414177 -0.032918 -0.022018453 0.017510016
0003d0 58 fa 2a 3c 0d fd c6 bd 49 95 b1 3c 34 56 c0 3d
       0.010435663 -0.09716234 0.02167763 0.09391442
0003e0 78 a3 0f bc e8 4d d5 bc e1 62 57 3d ca 21 03 bd
       -0.008767001 -0.026038125 0.052584533 -0.032014646
0003f0 00 7c 20 3d 1b 28 89 3d e6 5a 00 3d b9 c1 62 3b
       0.039180756 0.06697103 0.031336688 0.003460033

model.lstm.weight_hh_l0 f4 [416, 104]
000000 d1 79 14 3d 0d 08 82 bd 6f 99 f2 3c 3b 71 19 bd
       0.036248986 -0.06349192 0.029614178 -0.0374615
000010 b5 d9 26 bd cf 80 a2 bd 7f 44 36 3c b9 11 a6 3c
       -0.040734965 -0.079347245 0.011124729 0.020272123
000020 89 a3 4b bc 07 95 a4 bc be c1 30 bd 96 74 95 3c
       -0.012429127 -0.020090593 -0.043153517 0.01824407
000030 a2 3c a6 bc 69 dd 0c bc 96 98 ea bc 98 f2 b1 3d
       -0.020292584 -0.00859771 -0.028637212 0.08688849
000040 18 2c 66 bd 38 59 51 bb 45 52 68 bd 15 d3 7a bd
       -0.056194395 -0.0031944048 -0.056719083 -0.06123646
000050 3e f7 22 3c 45 06 44 bc 6e 84 b1 3c c4 42 44 bd
       0.009946642 -0.011964385 0.021669593 -0.047915235
000060 7b 2f 45 3d ae 9a 18 39 25 7a 8b 3d 40 cb 92 bd
       0.048140984 0.00014553472 0.068104066 -0.07167673
000070 26 55 03 3d f0 99 80 3c eb ed 17 3d 1d 4e a7 3c
       0.032063626 0.015698403 0.03709213 0.02042299
000080 98 87 bb bb fe 98 09 bd f6 f4 8b 3c 8a f3 24 bd
       -0.005722951 -0.03359317 0.01708458 -0.04027132
000090 79 d3 90 3d 3e 55 8b 3d 18 81 48 bd 2f 2a 94 3c
       0.07071585 0.06803368 -0.04895124 0.018086521
0000a0 e9 22 07 3d f8 b7 87 3d c3 48 68 3c d6 3a 43 bd
       0.032992277 0.06626886 0.014177504 -0.047663532
0000b0 ad 65 93 3d 6e 73 9f 3d f5 46 a4 3c 77 d1 fe 3c
       0.071971275 0.07785688 0.020053366 0.03110574
0000c0 92 fe 8f 3c 46 d1 04 3d b1 98 7f 3d 79 f3 0c 3d
       0.017577443 0.03242614 0.062401477 0.03441188
0000d0 f0 d9 02 3d fc db 89 bd 6d ad b4 3c b8 d6 cc bc
       0.031946123 -0.06731412 0.022055352 -0.02500473
0000e0 c2 ed 84 bd 29 b6 09 bc 06 a8 aa 3d 99 36 c1 3d
       -0.06490661 -0.008405247 0.08332829 0.09434242
0000f0 ac 80 f2 3c 5d b8 bb 3d ae da 04 3d 33 b4 35 bd
       0.029602371 0.09166024 0.03243511 -0.044361304
000100 af a5 fa bc 38 5c b6 bd f2 ec 92 bb ba 1a a5 bd
       -0.030596582 -0.08904308 -0.0044838125 -0.08061738
000110 23 15 04 bd ca e6 27 bd 92 7c 5c 3d 37 a9 e3 bc
       -0.03224672 -0.040991582 0.053829737 -0.027790649
000120 20 e3 66 bd f7 43 04 bd 25 89 af bd 9a 34 c1 bd
       -0.056368947 -0.03229138 -0.0857108 -0.09433861
000130 fb ed 0a 3c 0a f0 ad 3d 39 99 99 3d 52 65 74 bc
       0.0084795905 0.084930494 0.07499928 -0.014916735
000140 bb 84 b8 3d 66 10 85 bd 71 8b b5 3d 0f 77 1a bd
       0.09009691 -0.064972684 0.08864487 -0.0377112
000150 7c 44 39 3d 5d 03 c7 3d 8b da 90 3d 16 2f 14 3d
       0.045231327 0.09717438 0.07072934 0.036177717
000160 1b d5 b3 bc ce ed 9f bd 11 60 73 3d 25 0d 42 3d
       -0.021952203 -0.078090295 0.059417788 0.047375817
000170 91 e4 58 bd 1f 5e bd bd 79 6e 55 bd 54 77 89 3d
       -0.052952353 -0.09246468 -0.052107308 0.06712213
000180 58 ae 83 bc 8e 79 81 3d 86 7e e8 3c 86 8c 26 bd
       -0.016074345 0.06322013 0.028380644 -0.040661357
000190 4a bd 37 bd 16 81 0f bc 36 74 93 3b 4d 37 b7 3d
       -0.044858254 -0.008758804 0.0044999374 0.08946095
0001a0 c4 5c ab 3c c3 b0 9e 3b e4 7c 56 3d d4 f3 40 3d
       0.020918258 0.004842849 0.0523652 0.047107533
0001b0 18 9a 8f bd 0c 2c ac 3c ec d8 97 bd 38 61 98 bd
       -0.07011813 0.021017097 -0.074144214 -0.07440418
0001c0 21 0d d7 bc 74 6a 3e bd 08 01 b7 bc 2b 74 41 bb
       -0.026251378 -0.04648824 -0.022339359 -0.0029518704
0001d0 b8 79 3d 3d 0a f1 b7 bd 54 ca 0d 3d 39 a8 65 3d
       0.04625866 -0.089815214 0.034616783 0.056068633
0001e0 66 e4 f5 bb 4b 13 37 bb 74 14 c0 3d c9 76 ee bc
       -0.007504034 -0.0027935083 0.09378901 -0.029109376
0001f0 a2 90 bb 3c 91 7c 95 bc c6 f3 3b 3c 2e a0 ab 3d
       0.022896115 -0.018247874 0.011471694 0.08380161
000200 83 41 83 3d 2e 91 0c 3d 1c 0c be 3c c1 97 bf 3c
       0.0640898 0.03431814 0.023199134 0.023387792
000210 28 df c2 bd 5b 0e 04 3d 6c 50 41 bd ae f9 0c bd
       -0.0951522 0.032240253 -0.047195837 -0.0344178
000220 88 b7 b3 3d d1 eb ae 3d 37 33 9d bd f7 67 0e bd
       0.0877524 0.08541072 -0.07675784 -0.034767117
000230 bd 29 aa 39 df 08 a3 bd a8 db ae 3d 57 0a 9d bd
       0.00032456024 -0.079606764 0.0853799 -0.07667988
000240 1e 1d ec 3c 26 3a bb 3c 6a 87 20 3d 05 b4 66 3b
       0.028822478 0.022854876 0.03919164 0.0035202515
000250 42 58 e4 3c 13 11 7a 3d 98 eb 7a 3d e8 67 fa 3b
       0.027874116 0.06105144 0.061259836 0.007641781
000260 a5 01 99 bd 54 59 f3 3c 64 33 2f bd 01 ca cf 3b
       -0.07471017 0.02970568 -0.04277362 0.0063412194
000270 09 db 85 3d 60 4f 57 bd 50 1c a7 bc 57 89 a5 3d
       0.06535918 -0.052565932 -0.020399243 0.08082836
000280 08 e9 88 bd 26 af 81 bd d9 f0 71 bd 02 3e a7 3d
       -0.06685072 -0.06332235 -0.05906758 0.08166124
000290 c1 fb 94 bd a1 15 82 3d 29 e3 b9 3d a3 6c b1 3d
       -0.07274581 0.06351782 0.090765305 0.08663299
0002a0 13 99 45 3c 24 2a 33 3d a1 c8 c2 bd 6f c7 b2 3d
       0.0120604215 0.04374136 -0.09510923 0.08729445
0002b0 bf 6e 8d bd fa 59 bb bc ff 0c 7d 3d b6 54 73 bd
       -0.06905889 -0.022870053 0.061779972 -0.05940696
0002c0 f9 3e c6 3d 69 40 2b 3d 01 e9 e8 3c ab 0a bb 3d
       0.0967998 0.041809473 0.028431417 0.09132894
0002d0 30 45 f6 3c b5 da 1d bd 4e b5 57 3c f7 63 4f bd
       0.030062288 -0.038538653 0.013165785 -0.050632443
0002e0 73 1e 1c 3c 8e d7 87 bd 70 f6 d1 3c 29 fd 9e 3d
       0.009528744 -0.06632911 0.025630206 0.0776313
0002f0 2f 9e 71 39 32 34 0e 3a fa 89 47 3c b4 6a 48 bd
       0.00023042479 0.0005424648 0.012178892 -0.048929885
000300 4e fd 44 bc 22 91 6d bd a6 1a 9c 3c 88 c3 99 bd
       -0.012023283 -0.057999738 0.019055676 -0.07507998
000310 a5 07 c4 3d f4 f0 45 3d d6 c4 11 3d 36 6e 3b 3d
       0.095717706 0.048325494 0.035588108 0.045759402
000320 00 5e 6f bd ef 98 61 3d 22 a5 b0 3d 3e 23 74 3d
       -0.058439255 0.05507749 0.086252466 0.059603922
000330 52 c2 11 bd 1e c7 68 3d 92 bd 94 3d ae d7 aa bd
       -0.03558571 0.056830518 0.0726272 -0.08341919
000340 cd d8 8b 3d 7c 06 97 3c a1 08 96 3d 5a 5d 2f 3c
       0.06828461 0.01843571 0.073258646 0.010703409
000350 a5 11 96 bd 4d 37 a8 bb 55 9e 26 bc a2 de be 3d
       -0.07327584 -0.0051335455 -0.010169585 0.093198076
000360 4a de b0 3d ec 9c 21 bd 58 6b 2e ba e8 28 81 bb
       0.08636148 -0.039456293 -0.00066535687 -0.003941644
000370 e2 6d 96 bd cb bb 9f bc 62 2b 8f 3d b7 48 cf 3b
       -0.07345177 -0.019498726 0.069906965 0.006325807
000380 aa a1 b4 bd d8 cd a7 bc 83 c7 49 bd bd 19 c0 3c
       -0.088198975 -0.020483896 -0.049262535 0.023449773
000390 79 0c f2 3c 7c 15 28 3d a2 23 bb 3c 95 57 de bc
       0.029546963 0.041036114 0.02284414 -0.027141372
0003a0 22 7b 1a bc e2 ba 1f 3d fa c2 73 3d 1f 40 b4 3d
       -0.009428771 0.038996585 0.059512116 0.08801293
0003b0 03 78 4a 3d fa aa 48 bd be ea c4 bd 69 d0 68 bc
       0.04943086 -0.04899118 -0.09615086 -0.014209845
0003c0 db f3 12 3c 21 c1 8f 3d b2 d1 32 bc 73 5c 5c 3d
       0.0089692725 0.07019258 -0.010914253 0.053799104
0003d0 92 87 31 bd 6e 94 c2 bd 33 a8 84 3a 62 16 4e 3d
       -0.04334218 -0.09500967 0.0010120928 0.050314315
0003e0 38 54 41 bc c7 27 82 bd 21 b4 82 bd 20 fa 8f 3d
       -0.0117998645 -0.06355243 -0.06382013 0.070301294
0003f0 df ca 6a 3d 81 c5 ae 3d fc 62 f1 39 d1 b2 a8 bd
       0.05732238 0.08533765 0.0004604085 -0.082372315

model.lstm.bias_ih_l0 f4 [416]
000000 89 db 1a 3d 95 ac b7 3c 9f b2 b5 bd 54 05 6a 3d
       0.03780702 0.02242116 -0.0887196 0.057133988
000010 14 ce bf 3c 71 ea a9 bd 5d 7e b5 bd 83 74 b6 bb
       0.023413695 -0.08296669 -0.088619925 -0.0055680885
000020 f0 3e 79 bc 32 a6 94 bc b6 38 6e bd 0d 26 8d 3c
       -0.015212759 -0.018145654 -0.058159553 0.017230058
000030 d8 db bb 3d 24 b6 4b 3d fb 3c 64 bc b2 11 b6 bd
       0.09172791 0.04973425 -0.0139305545 -0.08890094
000040 b6 22 54 3d 1e 2c 3a 3d f3 f4 03 bb 11 a7 72 3d
       0.051790915 0.04545223 -0.0020135015 0.05924136
000050 ae 9a fd ba 25 f6 37 3d 96 fb b2 3d 57 4a e8 bc
       -0.0019348466 0.044912476 0.087393925 -0.02835576
000060 25 c0 5f 3d 9c 54 2d 3c 9a 35 2c bc 77 21 a2 bd
       0.054626603 0.0105792545 -0.0105108265 -0.07916539
000070 62 ff 1c bc b8 69 79 3d 92 69 94 bd fd 15 11 3d
       -0.009582372 0.060891837 -0.072466984 0.03542136
000080 67 5d b0 3b 0f 18 61 3c 60 4c 58 bd 3d 7f a7 bd
       0.005382228 0.013738646 -0.052807212 -0.08178566
000090 c6 3b 11 bd 2e 30 43 bd e2 51 83 bd 23 3f 94 3c
       -0.035457395 -0.04765337 -0.06412102 0.018096512
0000a0 a6 b9 45 bd a4 cb c8 bd 70 f7 95 3c 26 57 cf bb
       -0.04827275 -0.09804466 0.018306464 -0.0063275276
0000b0 6f 59 12 bd 09 9d 9b bc 65 ba 05 bd 62 ab be bc
       -0.03572982 -0.018995779 -0.032648463 -0.023275081
0000c0 4a 74 b8 bd 1a 4e 07 3d 0f a2 72 bd 6d 7a 00 bd
       -0.090065554 0.033033468 -0.059236582 -0.031366754
0000d0 6d 7e 86 bd 9f 6a b1 3c 33 85 e4 bb ef 86 49 bc
       -0.065670826 0.021657286 -0.0069738864 -0.012300237
0000e0 a2 03 3d 3d 3e 57 84 bd a1 d1 e8 bc 5b c4 bf bd
       0.046146043 -0.064619526 -0.028420271 -0.09363624
0000f0 a3 65 86 3d 97 cb 20 3d 84 ce 4a bc 79 8b ad 3c
       0.065623544 0.03925666 -0.012378339 0.02118467
000100 ba 3e c1 bd 55 9f bf 3c 04 5a 17 3d 1f 1d 34 3c
       -0.09435792 0.023391405 0.03695108 0.010993271
000110 09 c6 9c bd 4d c9 2c 3d 6a 9d be 3d 28 ad d1 3c
       -0.0765496 0.042184163 0.09307368 0.025595263
000120 0d 87 37 bd b7 15 97 bb be c8 88 bd 86 d9 68 bd
       -0.04480653 -0.004610743 -0.066789135 -0.05684807
000130 67 ba 62 3c 6b a2 c9 bd 4b bd 87 ba 86 20 ce bc
       0.013838387 -0.09845432 -0.0010356096 -0.025161993
000140 02 88 63 bc 3c 8a 32 bd 49 71 ac 3c 32 fc b1 3c
       -0.013887407 -0.04358886 0.021050112 0.021726701
000150 05 38 88 bc bb 95 13 3d b2 6a 02 bd f4 aa fa 3b
       -0.016628275 0.036031466 -0.031840034 0.0076497737
000160 c0 27 05 bd 92 3c c2 3d e7 be 7c bd f0 bf 0a 3d
       -0.03250861 0.09484209 -0.061705496 0.033874452
000170 fc f0 70 bd ae a1 9b 3c f2 dd 5e 3d 36 60 d6 3c
       -0.05882357 0.018997993 0.054410882 0.026168924
000180 aa 51 c0 bb 81 5b 45 bc 95 a3 c0 bd 16 72 95 bd
       -0.00586911 -0.012045742 -0.09406201 -0.07297151
000190 7f 1b 72 bc 64 53 d5 3c 87 96 68 bc 38 0d b0 3d
       -0.014777063 0.02604074 -0.014196045 0.08596271
0001a0 4a 18 18 3b 32 89 48 3b a2 15 b0 3d ba 00 8e 3d
       0.0023207837 0.0030599353 0.08597876 0.06933732
0001b0 0b d8 62 3d 61 23 92 bd 5b 7b b0 3d 3a 58 9b 3d
       0.055381816 -0.07135654 0.08617278 0.07585187
0001c0 5b c3 a4 3c 08 31 9a bd e8 e8 9a 3d d6 cf 8c 3d
       0.020112684 -0.07528883 0.075639546 0.06875579
0001d0 0b 2f ad ba 31 f3 7e 3d 6b 77 c7 bd 80 7b 21 3d
       -0.0013212872 0.062243644 -0.09739574 0.03942442
0001e0 5e 8f 45 bd bb 61 81 bc 97 7c ce bc c8 f9 87 3d
       -0.04823243 -0.015793672 -0.025205893 0.06639439
0001f0 44 39 a2 bd a2 60 af bd 2f 89 7b bd e0 5a bd bc
       -0.07921079 -0.08563353 -0.061410125 -0.023114622
000200 28 c9 32 3d d3 87 45 3c 9b 4c 0e bd 27 fb b0 3d
       0.04364887 0.012056309 -0.034741025 0.086416535
000210 0f 97 46 bb 78 b7 b2 bd f8 c8 84 bd 68 c7 1f 3c
       -0.003030244 -0.087264 -0.06483644 0.009752132
000220 35 0b 24 3d 6f bf b6 bd 0e 6b 43 3d 0c a1 0e bd
       0.04004975 -0.08923232 0.047709517 -0.034821555
000230 e0 3a a2 bc 67 6c 90 bd ae aa 88 3d 49 e5 84 bd
       -0.019803464 -0.07051926 0.066731796 -0.06489045
000240 11 c0 0b bd 6e 60 b8 3d 2e 51 ba bd 41 9c 99 bd
       -0.034118716 0.090027675 -0.09097515 -0.07500506
000250 0f 7c 9c 3d b5 74 a6 3d e9 80 6e 3d cc 15 ae 3d
       0.0764085 0.08127729 0.058228407 0.08500251
000260 2c e4 63 bc 6b a2 ae bd c6 d2 a9 bd fd 3f 6e bb
       -0.013909381 -0.085270725 -0.08292155 -0.0036354058
000270 0b a2 64 bc 46 2c 15 bd d1 01 bc 3d b8 16 b9 3d
       -0.01395465 -0.036419176 0.09180034 0.090375364
000280 2a dd 79 bd a7 75 09 3c 34 d6 28 3b b7 2d 70 bd
       -0.061001934 0.008389867 0.002576244 -0.058637347
000290 98 ee 2e 3d 66 09 9b 3d 9a 10 9d 3d fe c0 ab bd
       0.04270801 0.07570152 0.07669182 -0.0838642
0002a0 e9 24 86 3b c3 53 b0 bd 75 49 97 3d ad d1 14 3d
       0.0040937555 -0.08609726 0.07387058 0.036332775
0002b0 e6 fc 91 3d fb a3 35 bd 80 56 32 bd 2b 2b 3c 3d
       0.07128315 -0.044345837 -0.043539524 0.045939606
0002c0 56 76 6c bb 62 87 52 bd c3 40 c4 3b 2c 99 bb bd
       -0.0036081276 -0.051398642 0.0059891655 -0.091600746
0002d0 ec e8 11 bd d7 6f 8f bd 51 67 19 bd ca c1 97 3d
       -0.035622522 -0.07003754 -0.037452046 0.07410009
0002e0 28 40 49 3c f6 d1 3e bd c1 80 75 3d 2e ef 12 3d
       0.012283362 -0.046586953 0.059937242 0.03587263
0002f0 48 35 33 3d e8 62 67 bc 8d b4 2c 3d 49 3a 84 3d
       0.043751985 -0.014122702 0.042164374 0.064564295
000300 ba a3 36 bd a0 30 6e bd 66 47 22 3d 58 c4 1a bd
       -0.044589736 -0.05815184 0.039618872 -0.037784904
000310 7e 98 6b bd f8 e6 a1 3d be c9 82 3c f2 b6 ba bd
       -0.057518475 0.07905382 0.015965339 -0.09116925
000320 34 92 a9 3d de ef c1 3c 9f a7 6a 3b f8 11 b5 bd
       0.08279839 0.023673948 0.0035805476 -0.08841318
000330 ee fb a8 3d 25 21 a1 3b fd b2 6d bd 36 89 c1 3d
       0.08251177 0.004917281 -0.058032025 0.09449999
000340 b7 84 d9 bc 4e 06 54 3d 7a d9 25 bd 66 25 93 3c
       -0.026552541 0.051763825 -0.040490605 0.017962169
000350 28 50 2b 3b 72 f9 08 3d 96 c0 42 3c 48 5f 46 3d
       0.0026140306 0.033441015 0.011886736 0.04843071
000360 42 5e e6 3c 92 e8 7e 3d ed e9 1b bd e5 41 9f 3a
       0.028121118 0.062233515 -0.038064886 0.0012150375
000370 46 c7 80 bd bc 21 9b 3d eb 03 aa 3d 03 0a b3 bd
       -0.062880084 0.07574794 0.083015285 -0.08742144
000380 76 f4 9d 3d 6d 64 93 bd ce 0d 44 bd 86 fc 03 3d
       0.07712643 -0.07196889 -0.047864728 0.032223247
000390 27 d4 d1 3b 3e 30 13 3d 8c b4 21 bd 48 d9 e3 3c
       0.0064034644 0.03593468 -0.039478824 0.027813569
0003a0 1f 54 2c bc b0 a4 85 3d f5 1c 15 3c c4 f2 17 bd
       -0.010518103 0.06525552 0.009101142 -0.037096754
0003b0 44 40 7e 3d a9 d5 a6 bd b7 34 e7 3c 84 61 6b bd
       0.062073007 -0.08146221 0.028223379 -0.057466045
0003c0 96 af 93 bc 38 b6 d0 bd 0e 49 65 bd ef 9e d6 bb
       -0.018028062 -0.101910055 -0.055977874 -0.006549708
0003d0 eb ae 59 3c 72 78 ab bd 13 51 d3 bd e7 a1 ab bd
       0.013286333 -0.083725825 -0.10318198 -0.0838049
0003e0 4c 81 61 3d cc 7f 62 3d c4 3e e4 3c 24 da af bd
       0.055054948 0.055297658 0.02786196 -0.08586529
0003f0 8b 43 6b bd 16 27 98 bd 76 9c 19 3d 29 95 60 bd
       -0.05743746 -0.0742933 0.03750273 -0.05482975

model.lstm.bias_hh_l0 f4 [416]
000000 ed bb ae 3c b3 28 94 bd 45 56 b0 bd 0c 03 3c 3d
       0.021329844 -0.07234325 -0.086102046 0.045901343
000010 f2 08 39 bd cf 0e d7 bc 9f cb 5c 3d e9 53 82 bd
       -0.045174547 -0.026252178 0.053905126 -0.06363661
000020 24 d2 79 bd f0 57 c9 3d 79 18 0b 3c 66 bd 1a bd
       -0.06099142 0.09831226 0.008489721 -0.03777828
000030 00 7b b5 3c 2a 19 d9 3c a4 9e 04 bc 10 61 4f bd
       0.022153378 0.026501257 -0.0080944635 -0.050629675
000040 89 9e fe 3c b1 7a 9b bd fa b9 b8 3d 01 ec f6 3c
       0.031081455 -0.07591761 0.09019847 0.030141832
000050 a4 46 26 bd 84 08 a5 bd 86 04 9a 3d 07 db d4 bc
       -0.040594712 -0.08058265 0.07520394 -0.025983347
000060 17 b1 ea bc c4 5f a1 bd e4 e8 6a bd b4 73 c2 3d
       -0.028648896 -0.07879594 -0.057351008 0.09494725
000070 0d da 9d 3b 9b d2 ed 3c 56 36 a9 bd 0f 53 44 bd
       0.0048172534 0.029031089 -0.08262317 -0.047930773
000080 d9 e7 52 3d 14 79 73 3d be 08 b6 bd 6a 83 87 bd
       0.05149064 0.05944164 -0.08888386 -0.06616862
000090 60 01 26 bd 55 c9 b5 bd b1 b5 83 bd 2b 8d 86 bd
       -0.040528655 -0.08876292 -0.06431139 -0.065698944
0000a0 56 d3 a3 3d 47 b3 35 3d 66 29 0a 3d a8 56 8e bd
       0.079992935 0.044360425 0.033730887 -0.06950122
0000b0 2e 29 8d bb e5 71 e6 bc b7 03 8f bd 07 40 48 3c
       -0.0043078875 -0.028130481 -0.069831304 0.012222297
0000c0 da 72 f6 bc 89 99 88 bd c2 73 05 3c 49 ad bc 3c
       -0.030084062 -0.066699095 0.008145275 0.023031848
0000d0 34 5e 10 bd d6 f8 8a bd e7 05 86 3c be 8d d7 3c
       -0.03524609 -0.06785743 0.016360236 0.026312705
0000e0 23 b0 bd 3c bb 43 9f bd f4 cc b8 3d ef 5b 70 3c
       0.023155278 -0.077765904 0.09023467 0.014670356
0000f0 26 e1 81 bd 9e 9a e6 bc 0e 97 65 3d 77 a2 98 bc
       -0.06341772 -0.0281499 0.05605226 -0.018632157
000100 84 91 b6 3d fc 9f 20 3c 84 c7 73 3d 80 a4 b9 bd
       0.08914474 0.009803768 0.059516445 -0.09064579
000110 cf 6c ba 3d 1c 23 92 bd 4e d8 d0 bc 27 46 02 3d
       0.09102785 -0.07135603 -0.025493767 0.031805184
000120 94 d9 c3 3d 6b ab 0a 3d 51 f1 83 3d 55 cc a6 bd
       0.09562984 0.033854883 0.06442512 -0.08144442
000130 a5 ca 1f 3d 6a 8e c3 3d 81 29 2d bc 2b 8e 95 bd
       0.039011616 0.09548648 -0.010568977 -0.07302507
000140 7f d5 65 3d af b1 0d 3b 83 06 46 3d 72 1b df bc
       0.05611181 0.00216208 0.048346054 -0.027234767
000150 50 cc be 3d 3b 41 7c 3d 76 74 b9 3d 57 60 9f bd
       0.09316313 0.061585646 0.09055416 -0.07782047
000160 cc 01 5f bd 1e eb c4 3d 6f c3 82 3d 9c ac 49 3d
       -0.054445073 0.096151575 0.06384932 0.04923688
000170 d7 34 9c 3c 04 d0 30 3d ec 47 dc 3c 06 87 06 3d
       0.019068165 0.04316713 0.026889764 0.032843612
000180 8e 2d 50 3d 8b 41 f5 bc 4a 34 5f 3d 90 1d 3d bd
       0.050824694 -0.02993848 0.054493226 -0.04617077
000190 cf 41 73 bd 8d 22 60 3d f2 be bb 3d 11 66 3f 3b
       -0.05938893 0.05472045 0.09167279 0.0029205123
0001a0 5b 49 84 3d 0d af c8 3c 20 99 9a 3d ad 80 3a bd
       0.06459304 0.024497533 0.075487375 -0.04553287
0001b0 e2 fb f7 bc fb 4b ab 3d 82 86 3a ba d7 fa f4 bc
       -0.030271474 0.083641015 -0.000711538 -0.029904766
0001c0 c8 3a 51 3d a3 f6 43 3d 67 40 f8 bc 4e c9 49 3b
       0.05108145 0.047842633 -0.030304147 0.0030790153
0001d0 b3 47 ba bc 95 02 bc 3d ef b0 6a 3c a2 1f bf bd
       -0.022739267 0.0918018 0.014324411 -0.09332205
0001e0 66 93 6d 3d 89 86 37 3d e9 71 ba 3d b0 d0 9f 3d
       0.0580019 0.044806037 0.09103758 0.07803476
0001f0 bf 65 7f 3c ee 11 16 3c 29 1b 9e 3d 55 41 b7 bd
       0.015588223 0.009159548 0.07720024 -0.08948008
000200 11 f7 bb 3d 12 76 e8 b9 17 a4 48 3d 6f 11 58 bd
       0.091779836 -0.00044338458 0.048984613 -0.052751
000210 7f 97 a2 bd 84 03 08 bd f7 5d 3b bd 5d e1 a3 b9
       -0.07939052 -0.033206478 -0.04574391 -0.0003125769
000220 88 df 96 bd 0c 2d d3 bb a5 6d 55 bc 66 42 24 bd
       -0.07366854 -0.006444579 -0.01302663 -0.040102385
000230 88 0a 0b bc ea 5c ba bd 54 f3 93 bd d0 1d f6 3c
       -0.008486398 -0.09099753 -0.072241455 0.030043513
000240 eb c4 50 3d 86 76 35 bd 2a 1a cd bb 0e c4 5c bd
       0.050969046 -0.044302486 -0.0062592225 -0.05389791
000250 63 52 2a 3d bd a1 12 bd c9 61 63 bc d5 4d 6f bd
       0.041582476 -0.035798777 -0.013878294 -0.058423836
000260 7a 8e 2b 3a fe 82 b6 bc b3 c2 9b 3d 0f 60 4d 3d
       0.0006544363 -0.022279259 0.07605495 0.050140437
000270 eb 50 27 bd 5a e1 4e bd 56 a8 1c 3d f5 22 71 3c
       -0.040848654 -0.05050788 0.038246475 0.014717807
000280 2b 24 02 bd 52 55 81 bd d0 90 07 bd aa d1 65 3d
       -0.031772774 -0.06315102 -0.03309709 0.056108154
000290 23 7c 36 bc c6 c7 1b 3d b4 9c 17 bd 46 12 a4 3c
       -0.011137995 0.038032316 -0.037014678 0.020028245
0002a0 4b 76 53 bd 4c 77 8c 3c 73 c0 92 bd 73 70 b9 3d
       -0.051626485 0.017146729 -0.07165613 0.09054651
0002b0 94 7c a8 3c db e1 72 3d e2 71 32 bd 7d 20 bc bc
       0.020567216 0.059297424 -0.04356564 -0.02296471
0002c0 66 dd b6 3d be c2 8e 3d 36 df 89 bd aa 11 ff bc
       0.08928947 0.06970738 -0.06732027 -0.031136353
0002d0 e1 13 86 3d 27 6e 02 3d bc df 8a 3d cb 35 5a 3d
       0.0654676 0.03184333 0.06780955 0.053273957
0002e0 b7 dd 5b 3d fa c8 83 bd 59 65 a1 3d ee 17 2c 3d
       0.05367824 -0.064348176 0.07880659 0.04201501
0002f0 00 12 1a 3d 69 13 40 bd 19 fa b2 bd 7d 8c 82 3d
       0.037614822 -0.04689351 -0.087391086 0.06374452
000300 f5 e7 af bd 9e 3e f0 bb d5 96 5d bd d7 96 bf 3d
       -0.08589164 -0.0073316833 -0.054098923 0.09354942
000310 15 96 60 3d 1f fe 58 3c c9 43 31 bd d9 8f 01 3d
       0.05483063 0.013244181 -0.043277536 0.031631324
000320 78 7c 23 bd 26 2b e9 3c e7 bf c4 3b 1b 81 98 bd
       -0.039913625 0.028462958 0.006004322 -0.074465
000330 a1 d0 23 3d 78 d9 9d 3d 51 64 24 3d 16 c4 c7 3c
       0.039993886 0.077074945 0.04013473 0.024385493
000340 ca c6 46 3d 45 03 cc bc cf 46 00 bd db 24 9a 3d
       0.048529424 -0.024903903 -0.03131753 0.07526561
000350 7a 9d 89 bd ec 48 53 bd 7d 85 89 3d a4 f0 fd 3b
       -0.067194894 -0.051583216 0.06714914 0.007749634
000360 9e 3a 83 bd 72 d2 b4 3c d8 54 2b 3b f5 6c 42 3d
       -0.06407665 0.022073004 0.00261431 0.04746719
000370 5a c4 de bc fc 37 e3 bc d1 ba 6a 3d bd 18 af bd
       -0.027193237 -0.027736656 0.05730707 -0.0854964
000380 9e 8e ba bd 17 fc c6 3d bc 12 a5 bd 1a 8c 30 3d
       -0.09109233 0.09716051 -0.08060214 0.04310236
000390 54 1c 96 bd 27 36 97 bd 2f e6 08 3d 1f 68 b8 bd
       -0.07329622 -0.073833756 0.033422645 -0.090042345
0003a0 65 ac ad 3d cc b8 80 3d 4b f4 93 bc 36 95 27 3d
       0.08480147 0.06285247 -0.018060824 0.040913783
0003b0 04 f2 7d 3d 0b e6 56 3c 15 ce 51 bd a5 93 7e bd
       0.061998382 0.01311637 -0.051221926 -0.062152524
0003c0 1f 70 a7 3d 6c 0c 28 3d 86 bd 58 3d 97 b9 6e bd
       0.08175682 0.04102747 0.05291512 -0.05828246
0003d0 1a 2e 02 3d fd 65 52 bc 6e 9b 42 3d 68 86 8e 3d
       0.031782247 -0.012841699 0.04751151 0.0695923
0003e0 6b 3e f1 3c d2 87 68 bd d8 54 2c bd 8b d8 92 3b
       0.029448709 -0.056770153 -0.0420731 0.0044813803
0003f0 59 81 39 3d 4e b2 43 bc 70 b0 44 b9 3f 9b 87 3d
       0.04528937 -0.011944367 -0.00018757745 0.06621408

model.fc_layers.0.weight f4 [52, 104]
000000 e5 4a bf bd ab eb 6f 3b ee 44 5a 3c 96 ca be bd
       -0.09340457 0.0036608975 0.013322098 -0.09315984
000010 03 e0 b1 3d f4 3e 15 bd 8e a6 9e 3d b9 9a 8e 3b
       0.08685305 -0.03643699 0.077466115 0.0043519405
000020 b8 d0 0c 3d b3 64 c0 bd 47 cb 21 3d 0d f8 a9 3b
       0.034378737 -0.09394207 0.0395005 0.0051870407
000030 0f 61 87 3c da 1c 97 bc 01 aa 9a bd df c0 cd 3c
       0.016525773 -0.018446375 -0.07551957 0.025116382
000040 43 59 31 bc 11 89 a9 bd 0e b3 b0 3d b9 a7 a3 bb
       -0.010824504 -0.082780965 0.08627902 -0.0049943593
000050 cb bd 8c bc e3 e3 20 3c c7 0a e9 bc 55 b5 96 3b
       -0.017180344 0.009819957 -0.028447522 0.004599253
000060 c2 1d 4d 3d 33 bc 8d 3d 30 cc 61 3b ee d5 81 3c
       0.050077207 0.06920662 0.003445398 0.01584908
000070 00 34 8f 3c 9e c8 26 3d 58 6f b3 3d 9c ca 15 3d
       0.01748085 0.040718667 0.087614715 0.036570176
000080 a8 d9 a2 3d e4 72 6a 3d 1d d6 3d 3d e2 f0 0c 3d
       0.07951671 0.057238474 0.046346772 0.03440941
000090 c4 aa 74 3d 3f 7a 24 3d 94 03 4b b9 85 ce 89 3d
       0.059733167 0.040155645 -0.00019360922 0.067288436
0000a0 ec 21 8c 3d 11 a7 a0 3d ec 5c 06 3d 93 78 11 3c
       0.068424076 0.078443654 0.03280346 0.008878845
0000b0 c0 a2 d7 3b 15 e0 6d bb 05 03 9a 3d 2e 67 3a 3d
       0.0065806806 -0.0036296893 0.07520107 0.045508556
0000c0 22 8b 82 3c 0d 76 7a bd e9 25 a2 bd 85 1e 45 bc
       0.015935484 -0.06114774 -0.07917387 -0.012031202
0000d0 80 d1 34 bd 50 55 a1 bd 4c cb 76 bc 26 5d bc 3d
       -0.044145107 -0.078776 -0.015063118 0.09197454
0000e0 18 fa a3 3c e9 66 71 bd 7b ef e2 bc e5 92 ad bd
       0.020016715 -0.058936033 -0.027702084 -0.084752835
0000f0 cd 0d 1f bd b9 08 3e 3c ab 60 ac bd ec 10 2a 3d
       -0.03883152 0.011598759 -0.084168755 0.041520044
000100 eb 39 a2 3d 8b f7 5d bd 7b f1 ef bb 6d c9 7b bd
       0.07921203 -0.054191153 -0.007322488 -0.06147139
000110 99 62 7a 3d 51 69 23 3d 1e a3 75 3c 0d 0b 8b bd
       0.061129186 0.03989536 0.014992503 -0.06789217
000120 8d e1 90 3d ba e0 5f bd 11 45 1d bd 2b 92 79 3c
       0.070742704 -0.054657675 -0.038395945 0.015232603
000130 a2 1f 93 3a e6 5b 9c 3d 87 e6 d7 bc 7a ec 9d bd
       0.0011224637 0.07634716 -0.026355041 -0.0771112
000140 18 33 9e 3d d8 dc c3 bd 56 31 bf bd 4d 09 4d bd
       0.07724589 -0.09563607 -0.09335582 -0.050057698
000150 6b a8 c5 bc dd 92 24 bd ca c0 a0 3a 57 64 3c 3d
       -0.02412816 -0.040179122 0.0012264487 0.04599413
000160 ca ed a7 bd ed 63 3e bd fd ba 16 3d 40 bd db bc
       -0.081996515 -0.046482015 0.03679942 -0.02682364
000170 1f b9 8e 3d 6e e1 6f bc fb da a6 bd 93 e1 56 3c
       0.06968903 -0.014641149 -0.08147236 0.0131153045
000180 64 93 29 bd 42 57 ad b8 04 98 ba 3a 81 67 f2 bc
       -0.04140033 -8.265536e-05 0.0014235978 -0.02959037
000190 73 1f b6 3d 6d 32 8e 3d 71 47 8c 3d df eb 95 3d
       0.08892717 0.06943212 0.06849564 0.073203795
0001a0 d8 3c a9 bc 63 7e 53 3d 2f 33 40 3c a7 4c c5 3c
       -0.020658895 0.051634204 0.011730953 0.024084402
0001b0 0d 4e 85 bd cc 1b d2 bc 4a 03 c6 bd 39 54 87 3d
       -0.06509028 -0.02564802 -0.09668596 0.06607861
0001c0 e2 d9 29 bc 3c c3 82 3d 56 77 b1 bd 68 83 3f 39
       -0.010366889 0.06384894 -0.0866534 0.00018264132
0001d0 06 36 a1 bc ce 51 82 bd 5a 49 b9 3d 63 3b 32 3d
       -0.01967908 -0.06363259 0.09047194 0.043513667
0001e0 50 e1 c2 3d 13 af b8 bd 5b 8c 9b 3d 2b fc 78 bd
       0.09515631 -0.09017768 0.0759513 -0.06078736
0001f0 03 18 8e 3c 49 55 b1 3d ce f8 67 bd 45 20 8b bb
       0.017345434 0.08658845 -0.056633763 -0.00424579
000200 3d e0 9c bd 29 aa 95 3c 09 6d bc 3d 99 07 b5 3b
       -0.076599576 0.018269615 0.09200484 0.0055245874
000210 85 d9 ca bc ac 18 a8 bd 7f c5 b1 3d 27 e5 b0 3d
       -0.024761925 -0.08207831 0.086802475 0.08637457
000220 59 bc bf 3d 20 4d 44 3d 13 1b 5b bd a7 52 08 bd
       0.09362096 0.047925115 -0.053492617 -0.03328195
000230 c7 7c 87 bd 4f 2a 43 bc 58 a4 9e bd 8d 2f 97 bd
       -0.06615596 -0.011911943 -0.0774619 -0.073821165
000240 c3 44 44 bd a6 0e 26 bd c0 f4 98 bd bd cf 67 bc
       -0.04791714 -0.040541314 -0.07468557 -0.01414865
000250 a2 98 51 3c 0c 67 76 3d 63 46 8e 3d 57 65 69 bd
       0.012792738 0.060156867 0.06947019 -0.05698141
000260 bb 81 16 3c 4d 30 85 ba ed 3b 93 bc dc 91 a9 3d
       0.009186204 -0.001016149 -0.01797291 0.082797736
000270 b4 3b 99 3d 29 dc 80 bb aa e3 1d bd 48 01 ac bd
       0.074820906 -0.003932495 -0.038547195 -0.08398682
000280 b6 b3 6d bd 63 4e 3a bd 86 b0 88 bd 7a 72 05 3d
       -0.058032714 -0.04548491 -0.06674294 0.032579876
000290 aa 4a a2 3d a4 2d ab bd 9d 70 b0 bd 49 f3 7c 39
       0.07924397 -0.08358315 -0.08615229 0.00024123224
0002a0 6f f4 58 bd 0b e6 8c bd c5 a6 6c 3b 74 13 a1 bd
       -0.052967485 -0.06879815 0.0036110145 -0.078650385
0002b0 34 85 fb bb e4 c7 4c bd a5 81 25 3d 54 0e a8 bc
       -0.007675791 -0.049995318 0.04040684 -0.020514645
0002c0 10 0b 2b bd 0f dc 85 bd c8 3e 48 bd 12 fd 92 bd
       -0.041758597 -0.065361135 -0.048887998 -0.071771756
0002d0 8b 85 89 3d 0c a2 b4 3d 78 2d 91 bd 8f 72 7f 3d
       0.067149244 0.088199705 -0.070887506 0.06236511
0002e0 bf 20 98 3d 21 b5 65 bc e5 e0 90 bd 5a 86 a1 3d
       0.07428121 -0.014020235 -0.07074145 0.07886954
0002f0 c8 ef a2 bd 48 20 5d bd e0 c1 8f bd 72 16 bd 3c
       -0.07955891 -0.053985864 -0.070194006 0.023081992
000300 77 f6 32 3d da 88 6e bd b5 3a 18 3c f2 cb af 3c
       0.04369208 -0.05823598 0.009291341 0.021459553
000310 3a 97 b2 3d f1 24 9e 3d 9c 55 18 bd 8b 7c 33 3d
       0.087202504 0.0772189 -0.03719102 0.043819945
000320 da 4e a3 bd c3 b6 3c bd fc a5 64 3d 67 ff a6 3d
       -0.07974024 -0.046072733 0.055822358 0.08154183
000330 aa dc 1b bc 66 09 38 3d 91 11 5e 3c 87 c1 8c bd
       -0.00951306 0.044930838 0.013553993 -0.0687285
000340 f2 3e cb bd b9 6b 9d 3c fc 07 64 3c 8e e8 1b 3c
       -0.09924115 0.019216405 0.013917919 0.009515895
000350 46 01 c1 bd 04 13 87 3d e1 12 b2 bd 58 e2 14 3d
       -0.09424071 0.06595424 -0.08695007 0.03634867
000360 a1 c7 ad 3c d7 8a 81 3d eb a6 9e 3d 13 bf 2b bc
       0.021213355 0.0632531 0.07746681 -0.010482567
000370 34 9b f8 3c 5d 77 a8 bc 72 7a 9d 3d 7e 30 4c 3d
       0.030347444 -0.02056473 0.0768937 0.049850933
000380 df 4e 83 3b 56 44 bc bd 05 02 1a bc 47 99 b0 bc
       0.004007205 -0.091927215 -0.009399896 -0.021557463
000390 bd af a3 3c 56 7c c1 bc 80 bc 9a 3d 52 d2 42 3d
       0.01998126 -0.023618858 0.07555485 0.04756386
0003a0 4c da 38 3d f4 d7 70 3d 69 84 40 3d 9b 38 7d bd
       0.04513006 0.0587997 0.047001276 -0.06182156
0003b0 ec a3 e3 bc e1 03 53 3d a5 df 2e 3a 56 e9 39 bd
       -0.027788125 0.05151737 0.0006670899 -0.045388542
0003c0 d5 64 2a 3c 36 af c0 3c 90 e4 89 3d 9b d5 c0 bd
       0.010400017 0.023521047 0.06733048 -0.09415742
0003d0 bb ef 5c bd 56 b6 89 3d 9c 51 11 3d 14 b4 c3 bd
       -0.053939562 0.06724231 0.03547822 -0.095558316
0003e0 f9 73 8d 3d 69 e6 92 bc e0 82 b0 bd de be b4 3c
       0.06906886 -0.017932134 -0.086187124 0.022063669
0003f0 71 8f 68 bd 5b 9f 35 bd 50 44 26 bc 25 4f 87 3d
       -0.05677742 -0.044341426 -0.010148123 0.066068925

model.fc_layers.0.bias f4 [52]
000000 0d 75 89 3d b4 db 32 3d 87 a5 9b 3d 90 de 06 3c
       0.06711779 0.043666556 0.07599931 0.008231774
000010 03 f8 b8 bd 7a 67 20 3d f4 11 ec bc e1 17 be bd
       -0.090316795 0.039161183 -0.028817154 -0.09281898
000020 42 88 71 3d b5 3c d5 3c 74 a7 1a 3d aa 1e b1 3d
       0.058967836 0.026029924 0.037757352 0.08648427
000030 0b 5f 8f bc 79 d5 7a bd a5 12 66 bd be 29 97 3d
       -0.017501375 -0.06123874 -0.056170125 0.073810086
000040 35 0e d3 3b 06 2d c7 3c f8 17 ac 3d af 79 5c bd
       0.0064409026 0.024313461 0.08403009 -0.053826984
000050 c5 f4 11 bd 1d ed 97 3d db 1a a0 3d 5d 54 7e bd
       -0.03563382 0.07418273 0.07817622 -0.062092174
000060 af 70 db 3b c0 52 ed 3c 98 66 b5 bc 54 54 a4 3d
       0.0066967825 0.028970122 -0.022143647 0.08023897
000070 47 7f 85 3d 09 b3 b2 bd ba 02 21 3c 12 2e 80 bd
       0.06518417 -0.087255545 0.00982731 -0.06258787
000080 2b 81 04 bd f4 a6 9f 3d 73 68 75 bd bf c9 9d 3d
       -0.032349747 0.07795516 -0.059914064 0.07704496
000090 a8 39 82 3d bb 68 79 3d de 43 e5 bc b1 5c 01 bc
       0.06358653 0.060890894 -0.027986463 -0.0078956345
0000a0 f3 b1 98 bd 5a a0 95 3c 3b c4 aa 3d 67 6c 88 bc
       -0.07455816 0.018264938 0.08338209 -0.016653253
0000b0 f9 0d 99 bd 9e b1 a3 3c 76 ee b9 bc 6f fe 31 3c
       -0.07473368 0.019982155 -0.022696715 0.010863884
0000c0 d0 15 27 3d 13 43 98 3d 89 d9 93 bc e3 18 b2 3c
       0.040792286 0.074346684 -0.018048065 0.021740383

model.fc_layers.1.weight f4 [26, 52]
000000 fd d5 e7 bd f2 b0 12 bc 0d 39 67 bd 5d bb 25 3d
       -0.11320112 -0.00895332 -0.056450892 0.040461887
000010 cc e7 d4 bc f0 94 05 3c e3 73 c3 bc 71 ca ba 3d
       -0.025989436 0.008153185 -0.02385897 0.09120644
000020 84 c0 da bd 17 1e df 3d 15 72 de bd 14 8e 50 bd
       -0.10681251 0.10894411 -0.10861603 -0.050916746
000030 fb 07 c1 bd 85 f2 eb bc de 1d e2 3d 2c 02 97 bd
       -0.0942535 -0.028802166 0.11040853 -0.07373461
000040 87 14 38 3d 4d 1b f5 3d 98 2d 5a 3d 2b 7e 12 bc
       0.04494145 0.11968098 0.053266138 -0.008941214
000050 75 fc 8a bc 28 1f ec 3b 88 f6 44 3d 68 65 03 be
       -0.016966084 0.0072058626 0.048086673 -0.12831652
000060 66 77 9b 3d 77 54 9f 3d de 72 e1 3d a0 31 2b 3d
       0.07591133 0.07779782 0.11008237 0.041795373
000070 7d b7 de bd 06 5f b9 3d ec 7b c8 bd ca 8d 89 bd
       -0.10874841 0.090513274 -0.09789261 -0.06716497
000080 3b 8b e2 ba 3a 6f 0d bc 7c 0a 92 3d 18 04 02 be
       -0.0017283926 -0.0086324755 0.07130906 -0.12696874
000090 76 a1 d7 bb 29 13 b8 bd 08 1d 33 bd 91 8b bd 3d
       -0.006580527 -0.089880295 -0.04372886 0.09255136
0000a0 2f 01 ff bd bb 6e af 3d a3 89 15 bc 3e 7d a7 ba
       -0.12451398 0.08566042 -0.009127053 -0.0012778414
0000b0 8b 18 b2 bd 67 da d9 bd 91 98 0d be c6 42 9e 3d
       -0.086960874 -0.1063736 -0.1382773 0.0772758
0000c0 3e 57 a1 3c fb 7c b1 3c ba 2c af bd 6c b3 9b 3b
       0.01969492 0.02166604 -0.08553453 0.0047516134
0000d0 dd 3a fb bd f5 f9 ba 3b 8c 4c ff 3d 3a 47 bc bd
       -0.12267087 0.0057060667 0.12465772 -0.09193273
0000e0 e7 e4 1a bd f7 98 44 3d 90 99 87 3d 11 b6 9e bd
       -0.037815955 0.04799744 0.066210866 -0.0774957
0000f0 b4 1d 9d 3d a6 b3 04 3d d7 f3 d8 bc 41 70 c3 3c
       0.07671681 0.03239789 -0.02648346 0.023857238
000100 a4 cc 11 3e 81 c5 34 3c aa 1f 43 bd 88 1e 81 bd
       0.1423822 0.011033417 -0.04763762 -0.063046515
000110 56 5e 3c 3a 66 08 42 bc a0 0e 90 bc f2 fe 88 3d
       0.0007185688 -0.011842823 -0.017585099 0.06689252
000120 97 d4 e0 bd ed c1 8a bd f4 d5 c4 bd 42 3d 26 bb
       -0.10978048 -0.0677527 -0.09611121 -0.0025366102
000130 15 2f d5 bd db 9c af bc 4c 5e 41 3d 15 33 f9 3c
       -0.10409371 -0.0214371 0.04720907 0.030419866
000140 a5 51 00 3e 28 cc 0a 3d 98 10 66 3d 9c ac b3 ba
       0.12531145 0.033886105 0.05616817 -0.0013708058
000150 69 07 8b bd a6 32 ac bd cf cd 05 bd ec 4c 81 bd
       -0.06788523 -0.08408098 -0.032666977 -0.063135
000160 c4 78 92 bd a1 0e 5c bd 69 83 ee 3d 2e 23 f5 3d
       -0.071519405 -0.05372489 0.11646158 0.119696006
000170 d6 1b 4d 3d ca 56 7f 3d 8f 3d a7 3c 5a 4c 8b bc
       0.050075375 0.062338628 0.020415096 -0.01700418
000180 ba 03 89 bd ab ff a3 bd 71 9c db 3d 11 63 9d 3d
       -0.06690164 -0.08007749 0.10723198 0.07684911
000190 d1 d9 5e 3c 83 1c 4f bb 0d 5d 89 bd 4c 2d e8 3d
       0.013601736 -0.0031602688 -0.06707201 0.11336765
0001a0 89 09 9e bd e3 a4 2c bd 65 cb 9d 3d e0 40 a5 bc
       -0.077166624 -0.042149436 0.0770481 -0.020172536
0001b0 5d f2 78 3d 6c f0 98 3d 00 5a fb bd df f9 91 3b
       0.06077801 0.07467732 -0.122730255 0.004454836
0001c0 24 65 f8 bd 5d 98 09 be df 06 eb bd 73 c2 06 3e
       -0.12128666 -0.13437028 -0.1147592 0.13160114
0001d0 2f 36 d3 3d 76 41 bf 3d 85 81 c9 bd e2 e3 01 be
       0.10313069 0.093386576 -0.09839157 -0.12684587
0001e0 33 36 8c bd b4 24 94 bd 1e 81 69 3d 8f 52 8c 3c
       -0.06846275 -0.07233563 0.0570079 0.01712921
0001f0 ca ee 81 bd be 2f de bd ce 52 12 bd e9 95 b9 3d
       -0.063443735 -0.1084895 -0.0357235 0.09061796
000200 43 d1 f1 3d 51 07 1f bd 0d ff e1 3d 36 e3 2a 3d
       0.11807492 -0.038825337 0.11034975 0.04172059
000210 6d 87 63 bd d2 c1 0a bd bf 56 84 3c 2a 4a c6 3c
       -0.055549074 -0.033876248 0.016154645 0.024205286
000220 84 7a 37 3d 95 3e ba 3c dd 86 b8 3d 9a 46 70 bd
       0.044794574 0.02273492 0.09010098 -0.05866108
000230 df 3e c6 3d 8e 24 02 be d4 98 97 bd 53 5c 01 3e
       0.096799605 -0.12709257 -0.074021965 0.12632875
000240 24 f4 dc 3d fd 1a 03 3d d3 62 89 bb ba c3 a5 bd
       0.10788754 0.03200816 -0.004192689 -0.080939725
000250 d7 b0 32 3d f0 08 f1 bd c1 23 ba bd 38 af 01 bd
       0.04362568 -0.11769283 -0.09088851 -0.031661242
000260 5a 6c 6a 3d 6e 40 ee 3d 5a a0 b0 3c ef 66 da bd
       0.05723224 0.11633383 0.021560837 -0.10664164
000270 3d ef 80 3c 90 74 03 3e 49 f6 f3 bb 68 f7 dc 3c
       0.015739078 0.12837434 -0.007445131 0.026973441
000280 0e 54 82 3d 19 1f fc bd ca 3c 68 bd f6 83 ab 3d
       0.063636884 -0.12310619 -0.056698598 0.08374779
000290 f8 2e ce bc 6a 48 80 3d a3 82 11 be 2d c7 ca bc
       -0.02516888 0.06263812 -0.1420999 -0.024753178
0002a0 78 e2 04 bd 23 bb e0 bd aa 5b da 3d 5a ca 51 bc
       -0.03244254 -0.109731935 0.10662015 -0.012804592
0002b0 b1 fa bf 3d 85 f8 d9 3d 81 04 a4 3d e6 d8 54 bc
       0.093739875 0.106431045 0.080086716 -0.012991166
0002c0 5f 99 ea bd 43 3f f3 bd 83 38 ca bd 47 17 78 bc
       -0.114550345 -0.118773006 -0.0987406 -0.0151422685
0002d0 46 5d 07 3c 60 82 3e bd ca d5 8f bb 23 14 3a bb
       0.008261984 -0.046511054 -0.0043894993 -0.002839335
0002e0 a2 76 15 bd 5b 2b 64 bd b7 67 04 3e bf 6c 8c 3a
       -0.03649009 -0.05570541 0.12930189 0.0010713561
0002f0 3d 3b dc bd 1f 50 ed bd 7c 3c 1d 3d ca de bd 3d
       -0.10753486 -0.115875475 0.03838776 0.09271009
000300 b4 04 a1 bc 9e 5f 04 3e 1d ed fd 3d d0 1f 88 bd
       -0.019655563 0.129271 0.123987414 -0.06646693
000310 b5 f2 be bd 43 67 46 bd 5f cb d6 3d 3b 1c e5 bd
       -0.093236364 -0.04843832 0.10488009 -0.11187025
000320 3c 8d d3 3d 64 e9 8a 3d ac 1a 29 bd 9b 9b 0d bd
       0.10329673 0.06782797 -0.041285202 -0.034572225
000330 13 fd 05 be 1d ef b3 3d a6 d6 0c 3e 15 09 35 3d
       -0.13084821 0.087858416 0.13753757 0.044198114
000340 dd ff d0 bd d7 36 b9 bc 36 ca 90 3d e2 38 ef bd
       -0.10205052 -0.022609157 0.07069819 -0.116807714
000350 23 a2 5b 3d a2 b4 b7 3d 4f bf 09 3d ab 3d da 3d
       0.053621422 0.0897 0.03362971 0.106562935
000360 99 5b db 3d 9b 41 f5 3d fd d9 07 bd 94 59 31 3d
       0.1071083 0.11975404 -0.033166874 0.04329832
000370 57 41 76 3b ee 44 fa 3c 04 c9 09 be b4 f7 d4 bc
       0.0037575567 0.030550446 -0.13455588 -0.02599702
000380 85 bc 06 bc 5c bf a1 3d 80 82 09 3e 25 7a bc 3b
       -0.0082236575 0.07897827 0.13428688 0.0057518655
000390 c9 2a 88 bc bb 91 b0 3d 55 a4 83 3d 0b dc b5 3d
       -0.016621964 0.08621546 0.06427828 0.088798605
0003a0 5c c7 7c bd db 86 33 bd 98 57 11 be 5b f4 ba bd
       -0.06171356 -0.04382978 -0.1419357 -0.09128638
0003b0 8e 82 0c 3e 38 46 df 3d a2 1c f5 bc 58 4e 29 bb
       0.13721678 0.10902065 -0.02992088 -0.002583405
0003c0 c3 fc 93 bc c1 a7 f0 bc e8 84 f3 3d de 7c 61 3d
       -0.018064862 -0.029376866 0.11890584 0.055050723
0003d0 84 78 30 3d fc 2a 0c 3e d4 e9 9c 3b d7 08 b1 bc
       0.043083683 0.13688272 0.0047886167 -0.02161066
0003e0 c8 81 94 3b 6e fc e0 3c fb 2a 0d bd 44 b5 89 3d
       0.0045320727 0.027464118 -0.034464817 0.06724027
0003f0 8b 63 c1 3d aa 35 a6 3d c7 98 8e bd f7 1a 82 bc
       0.094428144 0.08115704 -0.06962734 -0.015881998

model.fc_layers.1.bias f4 [26]
000000 a1 8e f5 bb b3 7b 93 3d 97 2b 68 3d 65 bf bb ba
       -0.0074938093 0.07201328 0.056682196 -0.0014324008
000010 62 21 d4 bd 98 bb 0f 3d 4b 6b 25 3d 6e c8 70 bd
       -0.1035793 0.035091013 0.040385526 -0.058784895
000020 cb cd cc 3b da b3 dc bd 35 b1 da 3c 88 d0 ec 3c
       0.0062501184 -0.107764915 0.026695827 0.02890803
000030 75 66 8d 3d 9c 24 c4 3c 38 21 bb bd 83 5d fb 3d
       0.06904308 0.023943238 -0.09137195 0.12273695
000040 1f bb 11 be 76 b8 90 3d 24 db 31 3d 29 b7 20 3d
       -0.14231537 0.07066433 0.04342188 0.039237175
000050 a3 e0 9d 3d 80 f5 c2 bd 80 e1 d9 bd 50 7c 74 3d
       0.07708862 -0.09519482 -0.10638714 0.059688866
000060 2c 5c 3c bd 78 1f 0e be
       -0.04598634 -0.13879192

model.fc_layers.2.weight f4 [1, 26]
000000 f0 76 13 be a6 0d f5 3d 67 e0 07 3c 64 58 d6 3d
       -0.1440084 0.11965494 0.008293248 0.10466078
000010 55 94 31 be f5 3a 3d 3d 1e 38 44 be 7d 46 0a 3e
       -0.1734174 0.046198804 -0.19162032 0.13503452
000020 9c ae 2a be be ab be bd b9 4b 9e 3d 82 f2 a9 3d
       -0.1666817 -0.09310101 0.07729287 0.08298208
000030 34 30 93 3c 53 79 e8 3b 0a 8c a7 3d 9b 18 2c be
       0.017967321 0.007094541 0.08181007 -0.16806261
000040 7e 76 04 3d 7a 15 98 bd 89 1e 02 be 53 ad d8 3c
       0.032339565 -0.07425971 -0.1270696 0.026449835
000050 a1 21 11 be ee 6e 27 3a ad b5 f5 bd cb a5 3f be
       -0.14172985 0.0006387074 -0.119975425 -0.18715589
000060 98 5e 37 3e 39 72 31 3e
       0.17907178 0.17328729
