LSTM_TimeSeries/lightning_logs/version_20/checkpoints/epoch=4-step=10.ckpt (torch, 15139 bytes, 12 tensors)

model.fc1.weight f4 [50, 9]
00000000: 1558 8f3d 4226 f93c 6f69 59be d1da f1bd
00000010: 6003 55be 46a1 fb3d 9300 a93d 4e21 7bbe
00000020: 1787 523e 174d 39be 74b3 bebd 7150 8b3e
00000030: 2af8 a2be 5e5d 0e3e 2cc1 9bbe a8b9 3dbe
00000040: a21d 54be 5a5d 703e d27c 553d 62b3 21be
00000050: 5b03 97be bb3f 0e3e d546 173e b40f b33c
00000060: 0663 a6bd 1f95 a73d 8322 a13e 29ed 5bbd
00000070: 4cd8 813e 1033 8a3e 0878 f63d f72b 553e
00000080: e362 43bd 7874 84be eafd a8bc c360 14bc
00000090: dcbe c63d 7c3f 95be 9031 a73c beca 033e
000000a0: d0e0 f23c f839 74be b8bf 42bd d03d 7abe
000000b0: 4897 3abd b87f 41bd d58d f6bc 025d 9b3e
000000c0: 7bcb f1bb 0b49 3d3d 6543 3e3e 04d4 ff3d
000000d0: a1b0 90be 076e 343e e0b2 1dbe 4542 a73e
000000e0: 20d1 4bbc 4cdc 873d 13d6 8cbe 68d9 23bd
000000f0: e47e 90bd d07c c13c 3054 f3bd a0e3 513e
00000100: 2b7b 9dbe d0ca 9d3e 6df7 6a3e d0dd 55be
00000110: d7a9 903d 6544 64bd 02d4 40be 34d2 cbbd
00000120: 79a8 e9bd 3978 24bd 8184 eabc f4b7 373e
00000130: 3349 823d d66e 8d3e 64c8 45be b6f3 a53e
00000140: 6f08 613e 63ba 9d3d 0fad 35be 009d 5c3e
00000150: 86d6 6d3e 6f62 2dbd 0212 87be 6155 2b3e
00000160: df50 8e3e 4074 07bc 2147 0bbe a8c4 823e
00000170: 9584 9a3e d704 183e 93f9 383e 2b61 b13d
00000180: 0740 89bd f74e 503e 55f3 a53e 90db 0a3e
00000190: 0043 b63b 7e09 12be 909a a03d c74c a3be
000001a0: 0450 8ebd 1c00 c7bd a499 9fbe 9305 993e
000001b0: 04e8 2fbe bf47 143c f549 eabd 507a 8e3e
000001c0: 962a ee3d 193d 5c3e d4b0 54be 2b48 153c
000001d0: d65d 0a3d ad32 613e 64a1 363e acdf 09be
000001e0: 26e6 e23c 9260 5ebe d1ff ec3d fe3b bf3c
000001f0: 85e4 8cbe 84a8 883e 8ab4 9f3d 2d00 4dbe
00000200: 08c1 e4bc 88da 3d3c 8afe 8d3e 5546 c03c
00000210: 471f ff3d 946f 993e 9b01 b3bd 2129 7b3e
00000220: 5d35 62be 5cf7 fdbd 63a2 82bd 4015 dd3d
00000230: 4878 413e c4ed 4f3e e305 babb b28a 943e
00000240: d200 153e f701 6cbe 3847 3b3e aef1 3b3e
00000250: 6e7a 5a3e fd77 003c 6d96 a93d cad2 9b3e
00000260: 53fe 163c 861f f4bd c472 73be a311 5c3e
00000270: 2e58 3bbe fba4 a4be f4fe 833d f674 8f3e
00000280: 158d 8abd 5d69 093e 3c5a bd3c 334c f03c
00000290: f959 663e e8d0 a2be d409 993e 8195 453e
000002a0: a7a8 afbc ed64 213e d56a 3fbe ff85 56be
000002b0: e7d7 293e f15d a73e 940d 8ebd cb6c e43c
000002c0: eed1 193e e6a4 613d 076d 0b3d 8c60 923e
000002d0: 9b7e 98be 447b 93bd 4acb 3a3e 4c6a 99bd
000002e0: d0c3 93bd 5357 5abe 5ddb a03e 805a fa3d
000002f0: fe9a 2bbe 37e9 0f3e f1d4 333e 8065 463e
00000300: 6244 043e 4783 0c3e 6270 1abe edb2 283e
00000310: f815 603c b9f8 923e 4adc 2f3e fc8d 8f3e
00000320: ec75 9fbb e665 05bd bb0a 6c3d 2a13 b83c
00000330: 1f09 cd3c 4eb9 233e 3c33 803e 5b17 843e
00000340: 4f0b 4b3e 3010 c8bd 4d32 443e 1ed7 febc
00000350: 9169 e93c 4041 47be e8a3 4abe 0ff6 a43d
00000360: eab6 3f3e 7988 733e 072d 2d3d ef03 1d3e
00000370: 83ac 9ebd f5a5 a43d 1723 aebd 051d ab3e
00000380: f2bf 083d 339c 9dbe d01b 9a3e 2674 91bb
00000390: 899a 8d3e 55f6 5abe e5e4 26bd d9ee cc3d
000003a0: 8d4b 2bbd c7ec 49be e54d f2bd 9f75 c23c
000003b0: e4c5 b0bd 0e4c 7c3e 62fc 6ebc e373 16be
000003c0: 2a97 7c3e 9af0 efbd 61e2 a2bd 42d9 8b3d
000003d0: 0184 353d 8b8a a4be ee48 a33d ad67 a63e
000003e0: 5388 bfbc 5307 a3bd 0206 403e b551 ccbd
000003f0: e3e7 133e 99a7 743e 9503 f03d 2fe5 bb3c
0.06999222 0.03041375 -0.21231626 -0.11809314 -0.20802069 0.1228662 0.08252063 -0.24524423
0.20559345 -0.18095814 -0.09311572 0.2720981 -0.3182996 0.13902804 -0.30420816 -0.18527853
-0.20714429 0.23473111 0.05212099 -0.15791085 -0.29494748 0.13891499 0.14773114 0.021858074
-0.08124356 0.081827395 0.31471643 -0.05369297 0.25360334 0.26992083 0.12034613 0.20817553
-0.047701728 -0.2587011 -0.020628888 -0.009056273 0.09704372 -0.29149997 0.020409375 0.12870309
0.029648215 -0.23850238 -0.04754612 -0.24437642 -0.04555443 -0.047240943 -0.030096928 0.30344397
-0.007378993 0.046212237 0.18580396 0.12491611 -0.28259757 0.17620097 -0.15400267 0.32667747
-0.012439996 0.06633815 -0.27507076 -0.040002257 -0.070554525 0.023619086 -0.11881292 0.20496988
-0.30758032 0.30818796 0.22945948 -0.20885396 0.070636444 -0.05572929 -0.18830875 -0.099522024
-0.11409087 -0.040153716 -0.028627636 0.17941266 0.06361618 0.27623624 -0.19314724 0.324125
0.21975873 0.07701566 -0.17741798 0.21544266 0.23226365 -0.0423302 -0.26380926 0.16731788
0.27796075 -0.008267462 -0.13601352 0.25540662 0.30179277 0.14845596 0.18063955 0.086611114
-0.06701665 0.20342623 0.3241221 0.13560319 0.0055621862 -0.14261433 0.078419805 -0.31894514
-0.069488555 -0.09716818 -0.31171906 0.29887065 -0.1717835 0.009050309 -0.114398874 0.27827692
0.116292164 0.21507682 -0.2077058 0.0091114445 0.033780895 0.21991988 0.17835003 -0.1346423
0.027697634 -0.21716526 0.115722306 0.023344036 -0.27518097 0.26691067 0.07798107 -0.20019598
-0.027924076 0.011587746 0.2773326 0.023471037 0.124571376 0.2996794 -0.087405406 0.24527408
-0.22090669 -0.12400696 -0.06378629 0.10795069 0.1889354 0.20305544 -0.0056769713 0.29012066
0.14551094 -0.23047625 0.18288887 0.18353912 0.21335766 0.007841107 0.082806446 0.30434257
0.009215909 -0.11920075 -0.23774248 0.21491103 -0.18295357 -0.3215712 0.06445113 0.28018922
-0.067651905 0.13419099 0.023114316 0.02933321 0.2249526 -0.31800008 0.2989031 0.19295312
-0.021442724 0.15761156 -0.18693097 -0.20949553 0.16586266 0.3268886 -0.069361836 0.027883908
0.15021488 0.0550889 0.034039523 0.28589284 -0.29784092 -0.072012454 0.18241611 -0.07490978
-0.07215083 -0.21322374 0.3141736 0.12224293 -0.16758344 0.14053808 0.175617 0.19374657
0.12916711 0.13721953 -0.15081933 0.16474505 0.013677113 0.28705385 0.17173877 0.28038013
-0.0048663523 -0.03256788 0.05762742 0.022470076 0.025028763 0.15988657 0.2503909 0.2579907
0.19828533 -0.097687125 0.19159813 -0.031108435 0.02849272 -0.19458485 -0.19789088 0.080547445
0.1872212 0.23782529 0.04227927 0.15333532 -0.07747748 0.08039466 -0.085027866 0.33420578
0.03338618 -0.30783233 0.30099344 -0.004438895 0.27656963 -0.2138303 -0.040745635 0.10006494
-0.041820098 -0.1971923 -0.118312635 0.023737727 -0.08631495 0.24638388 -0.01458654 -0.14692645
0.2466704 -0.11715813 -0.079533346 0.06828548 0.04431534 -0.3213695 0.079728946 0.32500973
-0.023380434 -0.07960381 0.18752292 -0.09976522 0.14443927 0.23892058 0.11719433 0.022936432

model.fc1.bias f4 [50]
00000000: 7377 4a3e 640b 89bd 9829 40be 7408 6b3e
00000010: 33b7 07be 5b98 2c3e 10ea c5bd e75c 333e
00000020: bfe3 83bc 2af3 363e 3658 84be eebc 2cbe
00000030: c577 08be 5b8b 21be 7cf2 613d 3c0e 40bd
00000040: 92c4 0dbe ed4a 803e 6716 9bbe 01bb 7fbe
00000050: d6be cabd 9cd6 9a3e 42da a7be e57a 39bd
00000060: 8331 10be 2920 413e f6ae 60bd ea05 c23c
00000070: f7db 373e c553 783d 0f13 35be c443 1b3e
00000080: 7f3a 21bc 352a aebd 9f78 503e 78ce 51be
00000090: 3348 9ebe 92e9 a23c 7fff 96be 4be6 12be
000000a0: ad2b 683e 6f9a 9c3d d8d4 31be e4b4 77be
000000b0: ce0e a43e 58e9 75be a5eb a0be 0fc7 4b3e
000000c0: 6113 b3bd 3663 a33e
0.19772129 -0.06691626 -0.18765867 0.22952443 -0.13253479 0.16854994 -0.096637845 0.17515908
-0.016099809 0.17866197 -0.2584855 -0.16868946 -0.13326938 -0.15775816 0.05516289 -0.046888575
-0.13844517 0.25057164 -0.3029053 -0.2497368 -0.0989968 0.3024186 -0.32783705 -0.045283217
-0.14081387 0.18859924 -0.054854356 0.02368446 0.17955004 0.060626764 -0.17683052 0.1516257
-0.009840607 -0.08504144 0.20358513 -0.20488918 -0.3091446 0.019886766 -0.29491803 -0.14345662
0.22672911 0.07646643 -0.1736635 -0.24190098 0.32042545 -0.24014795 -0.31429783 0.19900154
-0.087439306 0.3191163

model.fc2.weight f4 [3, 50]
00000000: 5b90 98bd d312 9b3c 966b b53c e630 0e3d
00000010: 8bd4 b2bd eb56 163d 7cc7 d6bd 4ad6 f53d
00000020: a800 db3d 95f2 04be 7899 cf3c 8a96 d63d
00000030: 40c1 23bc daaa 01be 9351 163e 74cf ecbd
00000040: 703b d3bc 3749 61bd 256d f7bc 2d53 18bd
00000050: 686c 1bbd 2224 f93d 118e d4bb 7cb5 fdbd
00000060: fb05 cd3d 410c 89bd 21cc 0c3d 9f4c cf3d
00000070: fce1 e73d 81b7 06be e818 57bd 259b 81bc
00000080: 9efd 3c3b 7874 a2bd 1856 8ebd f937 133e
00000090: e0be babb 796a 48bd 4899 a0bc 08a2 06bd
000000a0: 1363 7dbc 4c21 073e e056 fc3b 6557 033e
000000b0: db8a f2bc 0ec0 f63d 7af1 48bd 8460 2cbd
000000c0: 7a7f ee3d fa98 b83d 559a 273d b9b5 c7bd
000000d0: 7447 68bd 3202 443d 3ebe c43d c34b df3d
000000e0: 7866 03be e6c4 debd 7da5 c13d 9d72 86bd
000000f0: 58eb db3d 31dd b8bd 19cf a63c c79c fc3c
00000100: 4082 603d d117 e53d 6af8 d63d 7da9 2a3a
00000110: c731 c73d 91f1 dcbd 1f5d 103e dcb7 95bd
00000120: e093 323c e9cc 32bd f54b ee3d 408a f7bd
00000130: 801d a6bd 2709 babc bc15 df3d c293 d83d
00000140: 2a09 f63c 1108 6cbc 74bd ce3d ee4d 6abc
00000150: 492a 163e 58e1 0e3e 3ec5 1abd 372a fa3b
00000160: 3609 fe3d 4045 e3bc 7d23 893d b24a 0f3e
00000170: 4bfc c5bd 7dbe 023e 7dd2 45bd edcd 04be
00000180: 566a ffbc 721f 04be 1e1f da3d 6e52 c0bd
00000190: a6e9 cabd 3d73 553c e0db f03d 46a5 4abd
000001a0: b0bb 353c 7f27 fcbd 119b bbbd de8b 4dbd
000001b0: 350e 873d 6b6c d23c 6336 50bd 97c5 053e
000001c0: a8ec 913d 3beb c6bc 879d a8bd 3022 e7bc
000001d0: 9787 cfbd 4d07 ecbd 1138 053e 51ad f73d
000001e0: b481 673d 4c0c 34bb cbe4 e4bd 490e 84bd
000001f0: 5828 0c3e 04bd 0b3e 516b c4bd d41c 7a3c
00000200: a677 cbbc 79e0 6fbc 0f0d e0bd ad3b 9cbd
00000210: cd56 fa3d d690 433d a18d 793c 32c3 053d
00000220: d83c 9c3d c342 36bd 2bfd ddbd 3037 823c
00000230: df8c c43b 70a5 e63c 3844 423d a469 f4bc
00000240: f632 0f3e 9aad e73d ba36 043e 44e0 253d
00000250: e0dd 51bd cbb9 9cbd
-0.074494086 0.018929875 0.022146028 0.034714602 -0.087319456 0.036703985 -0.104872674 0.12003763
0.106934845 -0.12983163 0.025341734 0.10477932 -0.009994805 -0.12662831 0.14679556 -0.11563006
-0.025785178 -0.055001464 -0.030203411 -0.037188698 -0.03794518 0.12165095 -0.006486662 -0.12388131
0.10010906 -0.0669179 0.03437436 0.10122036 0.113224 -0.13155939 -0.052513987 -0.015821049
0.002883769 -0.07932371 -0.06950015 0.1437682 -0.0056990236 -0.048929665 -0.01960434 -0.03286937
-0.015465516 0.13196295 0.007700786 0.12826307 -0.029607227 0.1204835 -0.049058415 -0.042084232
0.11645408 0.09013553 0.040918667 -0.09751458 -0.056708768 0.047853656 0.09606598 0.10903122
-0.12832057 -0.10877399 0.094553925 -0.065648295 0.10738248 -0.09026564 0.020362424 0.030836476
0.054811716 0.11186183 0.104966 0.0006510241 0.09726291 -0.10788263 0.14098023 -0.07310459
0.010899514 -0.04365245 0.116355814 -0.12086916 -0.081110954 -0.022709442 0.108928174 0.105750576
0.030033667 -0.01440622 0.10094729 -0.014300806 0.14664568 0.1395315 -0.03778576 0.007634427
0.124041006 -0.027742982 0.06696222 0.13993338 -0.09667262 0.12767978 -0.04829644 -0.1296918
-0.031178635 -0.1290262 0.106504664 -0.09390722 -0.09907846 0.013027963 0.11760688 -0.049474023
0.0110921115 -0.12312221 -0.09160436 -0.050182216 0.06594507 0.025686463 -0.050833117 0.13063656
0.07125217 -0.024282089 -0.08233171 -0.028214544 -0.101332836 -0.1152483 0.13009669 0.12093604
0.05652018 -0.002747315 -0.11176451 -0.06448037 0.13687265 0.13646322 -0.095907815 0.015265662
-0.024837326 -0.014640921 -0.10939991 -0.0762857 0.12223587 0.04774555 0.015231521 0.032656856
0.076287925 -0.044497263 -0.108393036 0.015895456 0.0059982385 0.028155059 0.04742834 -0.02983553
0.13984284 0.11312409 0.12911502 0.04049708 -0.051236987 -0.07652625

model.fc2.bias f4 [3]
00000000: 3e96 eb3d 21ad ca3c f4d3 ae3d
0.11503266 0.024740757 0.085365206

exp_avg f4 [50, 9]
00000000: 9bdf 163c 8c32 143c 7f90 403c fa34 193c
00000010: 6b08 1c3c 1606 443c 3f21 153c e8d8 143c
00000020: 68d0 523c 654f 8b35 7a90 9136 5f06 da36
00000030: 96bd 9e36 ff30 7d36 48f7 59b7 e54b fc35
00000040: f915 31b5 918f 0ab7 3b04 4dbb 5eef 3ebb
00000050: 5cd8 08bb 463b 43bb 2c77 56bb ccee c6ba
00000060: c868 3fbb 7613 67bb 87c5 7abb 9de6 b13a
00000070: db61 b13a ae13 143b 80b0 aa3a e46b ab3a
00000080: 4cd9 213b bbe4 873a c6a0 ad3a 8753 383b
00000090: 0000 0000 0000 0000 0000 0000 0000 0000
000000a0: 0000 0000 0000 0000 0000 0000 0000 0000
000000b0: 0000 0000 43ac ba3b 892d b73b 1130 f83b
000000c0: 9fe4 b53b d5dc b93b bbbb f83b ccd4 a13b
000000d0: cb41 bb3b ff84 0f3c 0000 0000 0000 0000
000000e0: 0000 0000 0000 0000 0000 0000 0000 0000
000000f0: 0000 0000 0000 0000 0000 0000 e022 a93b
00000100: fb7b aa3b 541d f53b 1ce5 b83b 5bd9 ab3b
00000110: 4e74 e93b ec53 993b 24b0 aa3b c4de e63b
00000120: 585a a1bc 8afa 9cbc 7556 afbc 99b0 a6bc
00000130: 1ce0 a7bc 2c3f 95bc 2fad a0bc b0d2 a6bc
00000140: db27 a4bc 6bca 383c a418 323c b2c5 3a3c
00000150: a90b 413c faaf 433c a7e9 123c 7877 423c
00000160: eb68 413c a13c 213c 1a0d d2ba f700 ceba
00000170: 9f6c 9aba 883f f9ba ebe2 ecba ce83 e4b9
00000180: c10e feba 7eb1 e4ba eb39 01b9 0000 0000
00000190: 0000 0000 0000 0000 0000 0000 0000 0000
000001a0: 0000 0000 0000 0000 0000 0000 0000 0000
000001b0: a4ce 5cba a34f 82ba e77d b3ba a9b6 92ba
000001c0: a119 52ba 13ad e4ba 4473 11ba 0893 51ba
000001d0: 660c c2ba dd92 6d3b d682 713b 2dec 703b
000001e0: f560 663b 4579 6e3b db7f 4a3b 5e4b 703b
000001f0: e590 5a3b 53ca 903b 1ca4 47bb 43af 38bb
00000200: a450 bcba 783f 53bb c4de 5fbb 2892 8937
00000210: 9d9c 7cbb d41f 5bbb 369c f9b8 8e90 ac3b
00000220: 24d3 a23b 6bb0 a53b e178 a73b 7063 b43b
00000230: 6c55 873b b605 b23b 8eec b33b 7579 ac3b
00000240: fa68 f93b 4032 f13b eac2 163c 9fc5 fc3b
00000250: 8e41 ff3b dcd2 093c 6a41 ed3b 8416 fd3b
00000260: 3ddb 133c 8551 4c3c cdb4 493c 0aba 873c
00000270: 8e15 543c ef55 523c 8f75 813c 4518 493c
00000280: 7849 4d3c dae8 823c b93d c2ba ca14 c5ba
00000290: f9e5 c9ba c1fc abba c82a c2ba e962 d3ba
000002a0: 4493 b9ba 48fe c9ba acd4 83ba ea28 2dbb
000002b0: b422 2dbb 7798 98bb 2c9d 39bb 5239 25bb
000002c0: 8c68 8cbb b984 11bb 4b2b 2bbb 6694 a0bb
000002d0: 0000 0000 0000 0000 0000 0000 0000 0000
000002e0: 0000 0000 0000 0000 0000 0000 0000 0000
000002f0: 0000 0000 49d0 19bb 58d0 0bbb 4f23 abba
00000300: b85f 0bbb 5e05 23bb a6d6 29ba 52b3 29bb
00000310: 25b4 23bb 9112 b4ba 89cb 3f3c c3c4 383c
00000320: 6156 563c 22a2 493c ac94 483c 9068 2e3c
00000330: bab4 433c 2ed6 483c 8325 4b3c 7793 963c
00000340: 3bac 973c 68b7 903c 666f 963c 542f 9a3c
00000350: d34b 713c f762 8f3c 7738 993c 3fea 8d3c
00000360: a008 eabc 47b5 e3bc d25c 01bd 332e f1bc
00000370: 9b01 f2bc 8c22 e0bc fefe e4bc d02f f1bc
00000380: 925e f6bc ff96 00bb 1aeb 07bb 3285 60bb
00000390: fe51 deba d053 e4ba 7eec 86bb ba51 79ba
000003a0: fcfe efba 9cfb a6bb 0bb8 ac3b b0f4 a63b
000003b0: 141f 863b 47bb b83b b2d6 b63b d2c8 2b3b
000003c0: 35eb af3b 30a7 bb3b a518 653b 6532 b5bb
000003d0: 2f56 adbb 9c61 92bb dc94 afbb e7bd b5bb
000003e0: d54e 6fbb f331 abbb e13c b6bb 872e 91bb
000003f0: aeee 2ebc b948 29bc 4bc2 2ebc 371a 37bc
0.009208585 0.009045254 0.011753201 0.0093510095 0.009523491 0.011964342 0.009102165 0.009084918
0.012867071 1.0379414e-06 4.338156e-06 6.497648e-06 4.7308376e-06 3.7728457e-06 -1.2991783e-05 1.8797551e-06
-6.596961e-07 -8.258868e-06 -0.003128304 -0.0029134373 -0.0020880913 -0.0029789968 -0.003272484 -0.0015177368
-0.0029206742 -0.0035259402 -0.0038264708 0.0013572756 0.0013533192 0.0022594738 0.0013022572 0.0013078419
0.002469617 0.001036785 0.0013246767 0.0028125958 0.0 0.0 0.0 0.0
0.0 0.0 0.0 0.0 0.0 0.0056968047 0.005590145 0.0075740893
0.0055509354 0.005672077 0.0075907386 0.0049386974 0.0057146302 0.008759736 0.0 0.0
0.0 0.0 0.0 0.0 0.0 0.0 0.0 0.005161628
0.005202768 0.007480303 0.0056425463 0.0052444167 0.0071244603 0.0046791937 0.005208986 0.0070455987
-0.0196964 -0.019162435 -0.02140353 -0.02034788 -0.020492606 -0.0182186 -0.01961383 -0.020364136
-0.020038536 0.011278729 0.010870133 0.011399673 0.011782565 0.011943812 0.00896684 0.011869304
0.0118048 0.009841115 -0.0016025633 -0.001571684 -0.0011781639 -0.0019016126 -0.0018072998 -0.0004358575
-0.0019383059 -0.0017447916 -0.00012323975 0.0 0.0 0.0 0.0 0.0
0.0 0.0 0.0 0.0 -0.0008423126 -0.0009941946 -0.0013694138 -0.0011193353
-0.0008014683 -0.00174466 -0.0005548487 -0.00079946266 -0.001480472 0.0036250867 0.0036851666 0.0036761865
0.0035153006 0.00363882 0.0030898962 0.0036666016 0.0033350524 0.00441865 -0.0030462807 -0.0028180636
-0.0014367294 -0.0032233875 -0.0034159878 1.6399732e-05 -0.0038545497 -0.003343572 -0.00011902342 0.0052662557
0.0049690176 0.005056431 0.0051108454 0.005505018 0.004130056 0.0054328097 0.005490846 0.0052635022
0.007611391 0.0073607266 0.009201745 0.007713988 0.007789797 0.008412089 0.007240464 0.0077236313
0.009024438 0.012470608 0.012311173 0.016568203 0.012944592 0.012837871 0.015803127 0.012273853
0.012529723 0.015980173 -0.001481942 -0.0015036103 -0.001540362 -0.0013121591 -0.0014813775 -0.00161275
-0.0014158268 -0.0015410865 -0.0010057888 -0.0026422092 -0.002641839 -0.004656847 -0.0028322442 -0.0025211168
-0.004284924 -0.0022204353 -0.0026118334 -0.004900503 0.0 0.0 0.0 0.0
0.0 0.0 0.0 0.0 0.0 -0.0023470095 -0.00213339 -0.0013056787
-0.002126677 -0.0024875025 -0.00064788235 -0.0025894237 -0.00249792 -0.0013738443 0.011706241 0.01127738
0.013082118 0.012306722 0.012242477 0.010645047 0.011944944 0.012258096 0.01239908 0.018380864
0.018514743 0.01766558 0.018363666 0.018821396 0.014727551 0.017503245 0.018703682 0.017323611
-0.028568566 -0.0277964 -0.03158266 -0.029440975 -0.029541781 -0.027360223 -0.027953621 -0.029441744
-0.030074392 -0.001962125 -0.0020739497 -0.0034259078 -0.0016961691 -0.0017419998 -0.0041175475 -0.00095107744
-0.0018310244 -0.005095912 0.005270963 0.005095087 0.0040930603 0.0056375596 0.005579793 0.0026212228
0.005368615 0.0057267174 0.0034957316 -0.005529689 -0.005289815 -0.0044672024 -0.0053583216 -0.0055463198
-0.0036515493 -0.0052244603 -0.0055614565 -0.0044305953 -0.010677023 -0.01033228 -0.01066644 -0.011175684

exp_avg_sq f4 [50, 9]
00000000: d09e 3b36 8afa 3b36 2261 d836 006d 5a36
00000010: 9da5 6b36 40b8 ba36 e4c9 6b36 7ec2 5036
00000020: 1c4a d636 aa7c e32b f875 112c 2c38 872d
00000030: 154a c72b cadb fc2b 137f 122d 535e ce2a
00000040: 97b6 352b 352a e22c 4b3b 1a35 6510 fa34
00000050: 9b89 bf34 ab74 1735 f61a 3035 7b7f ae33
00000060: 580e 0f35 dfbd 4e35 eba1 2d35 21c9 ae33
00000070: f09e cf33 eb47 8b34 ccea e133 537e c633
00000080: 3ef7 7334 dcaf a433 89d3 b533 36df 8734
00000090: 0000 0000 0000 0000 0000 0000 0000 0000
000000a0: 0000 0000 0000 0000 0000 0000 0000 0000
000000b0: 0000 0000 e3b2 8235 572b 8d35 a1ed 1236
000000c0: eeba 9535 936f 8d35 fc75 f135 487c 6835
000000d0: 013c 8935 c097 1636 0000 0000 0000 0000
000000e0: 0000 0000 0000 0000 0000 0000 0000 0000
000000f0: 0000 0000 0000 0000 0000 0000 26f2 4535
00000100: 1039 4035 cdd6 0736 6000 8835 e85b 6235
00000110: dffb e635 4668 5335 c705 5435 51d2 c335
00000120: 8620 2737 1978 1d37 3c6e 7a37 c482 3d37
00000130: 54a5 3d37 8f3d 3837 167a 3637 6913 3c37
00000140: b058 4a37 49de 7436 1d43 6636 0376 b036
00000150: 64ac 8e36 8ab0 9036 be7d 7e36 4cff 9236
00000160: 33c2 8d36 36eb 7836 7b1c 0234 32fa 1734
00000170: 2899 5c34 5406 5734 bd6f 2834 7f97 1934
00000180: 066b 1d34 6ff7 1734 5109 7832 0000 0000
00000190: 0000 0000 0000 0000 0000 0000 0000 0000
000001a0: 0000 0000 0000 0000 0000 0000 0000 0000
000001b0: 352b f032 3676 3133 89f8 1a34 5103 6133
000001c0: de74 cd32 068d 3234 560b 8332 6085 ce32
000001d0: c895 0234 28e1 5935 5339 8035 8869 c135
000001e0: 10ee 6735 aba6 8235 a8e4 6935 5c0e 7135
000001f0: 5999 5435 990e d035 9d45 ae34 2ee9 a634
00000200: 4b16 d434 729e d734 ab1b d834 0ad4 b534
00000210: cf08 ff34 4b21 d334 2652 c533 ab35 6e35
00000220: 42c5 6735 9274 9f35 1549 7a35 3468 8c35
00000230: 589b 5d35 14c9 8a35 f0bc 8b35 013d 9535
00000240: c941 e235 a86f e335 9bfc 4e36 1286 ff35
00000250: 8e2a ff35 64d3 1c36 9d86 e735 7e7a fa35
00000260: 57a5 3536 f252 a036 aa07 9c36 5383 3837
00000270: 8928 bf36 b6fc c236 d827 1837 ce0d c536
00000280: ee9c b436 4003 1c37 8847 e333 322a ea33
00000290: beb5 f533 04fc b233 bc61 e333 5de9 0634
000002a0: 07f7 cf33 3bcd f533 df2d 5633 d573 b934
000002b0: bd9b e734 ae23 8235 b2b9 fc34 ea67 b534
000002c0: 2c16 4135 3aae 8134 6016 b234 e71e 5735
000002d0: 0000 0000 0000 0000 0000 0000 0000 0000
000002e0: 0000 0000 0000 0000 0000 0000 0000 0000
000002f0: 0000 0000 0bbb 4134 e89f 2334 1fe7 0434
00000300: 5daa 3334 5a8a 6834 329e c333 ef2b 7d34
00000310: 6748 7334 77cb a633 5eb5 8436 9a79 7936
00000320: 1641 e036 00a3 9936 41a3 9c36 1033 a936
00000330: 60b3 9a36 3e0f 9b36 4e0e b936 84df 1837
00000340: 2860 1b37 5249 1f37 d210 1d37 227f 2437
00000350: 14c1 d836 5360 1537 34b8 2537 3692 1b37
00000360: d721 af37 bc4a a537 471b 0838 337c c637
00000370: 83ac c437 b844 ca37 64ef b937 6387 c337
00000380: befa e137 b831 9e34 64e7 e334 047e 6535
00000390: c28f e834 3b40 9d34 40da 4a35 01df 2434
000003a0: d205 8f34 5259 4f35 35f3 ab35 b395 9b35
000003b0: c1c6 6635 4384 be35 728d c135 0121 ae34
000003c0: 93e8 ac35 8035 d335 601f 3935 86b2 6235
000003d0: 3659 4735 0e08 1535 a893 5735 a6af 6535
000003e0: 96e1 b634 87e5 5335 c2a7 7135 e123 1535
000003f0: 1edd 4936 ed0c 3c36 db9c 8636 c8e6 6a36
2.7957612e-06 2.8011004e-06 6.4486094e-06 3.2547978e-06 3.5114128e-06 5.5646815e-06 3.5135245e-06 3.1107625e-06
6.3863245e-06 1.6163921e-12 2.0671225e-12 1.5372668e-11 1.4160362e-12 1.7966681e-12 8.327355e-12 3.6658401e-13
6.455751e-13 6.4279923e-12 5.7455753e-07 4.6578057e-07 3.5676644e-07 5.642166e-07 6.560434e-07 8.125695e-08
5.3292524e-07 7.701728e-07 6.4683144e-07 8.1390915e-08 9.668099e-08 2.5943095e-07 1.0520088e-07 9.243072e-08
2.2721085e-07 7.668834e-08 8.466947e-08 2.5308117e-07 0.0 0.0 0.0 0.0
0.0 0.0 0.0 0.0 0.0 9.737818e-07 1.0517932e-06 2.1894014e-06
1.1155769e-06 1.0537791e-06 1.7990237e-06 8.660759e-07 1.0224759e-06 2.2440072e-06 0.0 0.0
0.0 0.0 0.0 0.0 0.0 0.0 0.0 7.374059e-07
7.160861e-07 2.0241598e-06 1.0132899e-06 8.43253e-07 1.720964e-06 7.8755363e-07 7.898456e-07 1.4589842e-06
9.961548e-06 9.385892e-06 1.4926827e-05 1.1295724e-05 1.1303771e-05 1.0981587e-05 1.0876471e-05 1.12101925e-05
1.2060787e-05 3.648822e-06 3.4311736e-06 5.258947e-06 4.2519987e-06 4.3120863e-06 3.792214e-06 4.3808595e-06
4.224735e-06 3.709179e-06 1.2117555e-07 1.4153991e-07 2.0544815e-07 2.0025738e-07 1.568687e-07 1.430435e-07
1.46607e-07 1.4152987e-07 1.4437618e-08 0.0 0.0 0.0 0.0 0.0
0.0 0.0 0.0 0.0 2.7959326e-08 4.1318536e-08 1.4432784e-07 5.238991e-08
2.3918286e-08 1.6628846e-07 1.5255562e-08 2.4042208e-08 1.2161684e-07 8.1166445e-07 9.553427e-07 1.4410334e-06
8.640063e-07 9.734262e-07 8.7132e-07 8.980039e-07 7.9199305e-07 1.5501456e-06 3.2460676e-07 3.108957e-07
3.9504297e-07 4.0162155e-07 4.0253266e-07 3.3868156e-07 4.750386e-07 3.9326036e-07 9.18847e-08 8.8740006e-07
8.6341254e-07 1.188035e-06 9.3238606e-07 1.046114e-06 8.255497e-07 1.0340323e-06 1.0411295e-06 1.111912e-06
1.6857458e-06 1.6945314e-06 3.0843428e-06 1.9038e-06 1.9011366e-06 2.3368857e-06 1.7250019e-06 1.8662101e-06
2.7067342e-06 4.7780277e-06 4.6500545e-06 1.0997831e-05 5.6969625e-06 5.81107e-06 9.069183e-06 5.8726646e-06
5.382687e-06 9.299081e-06 1.0583523e-07 1.09041494e-07 1.144176e-07 8.334612e-08 1.0588289e-07 1.256462e-07
9.684123e-08 1.1446033e-07 4.9867477e-08 3.4543214e-07 4.3140417e-07 9.696139e-07 4.707377e-07 3.3789485e-07
7.1930367e-07 2.415489e-07 3.3171364e-07 8.013871e-07 0.0 0.0 0.0 0.0
0.0 0.0 0.0 0.0 0.0 1.8042572e-07 1.5238732e-07 1.237754e-07
1.6732652e-07 2.1657016e-07 9.109171e-08 2.3578444e-07 2.2657478e-07 7.7669874e-08 3.9550205e-06 3.7174673e-06
6.683297e-06 4.578731e-06 4.6681675e-06 5.042537e-06 4.6104396e-06 4.6211344e-06 5.515095e-06 9.111947e-06
9.261108e-06 9.49421e-06 9.3618455e-06 9.804762e-06 6.459779e-06 8.903519e-06 9.8776545e-06 9.272762e-06
2.0877384e-05 1.9704334e-05 3.245033e-05 2.3661274e-05 2.3445353e-05 2.4112276e-05 2.2165194e-05 2.3308856e-05
2.6938851e-05 2.9465969e-07 4.2450404e-07 8.5492525e-07 4.3317965e-07 2.9290263e-07 7.556846e-07 1.5354819e-07
2.664006e-07 7.724349e-07 1.2811275e-06 1.1591968e-06 8.59709e-07 1.4194596e-06 1.4420787e-06 3.243404e-07
1.2882687e-06 1.5736296e-06 6.8963527e-07 8.4451347e-07 7.4263096e-07 5.5518547e-07 8.030861e-07 8.556475e-07
3.4064277e-07 7.893763e-07 9.0023616e-07 5.5559036e-07 3.0080041e-06 2.8021707e-06 4.0117716e-06 3.500305e-06

exp_avg f4 [50]
00000000: 6ac6 b03c 32e0 0d37 c24a aebb 2655 983b
00000010: 0000 0000 2171 723c 0000 0000 17e0 5a3c
00000020: b470 14bd 64f4 913c 6cd1 7bba 0000 0000
00000030: c4a2 2cbb 2ae6 b63b ce6e 07ba b7c6 0a3c
00000040: 8209 7f3c e1e6 ec3c 9422 0dbb 4b31 f6bb
00000050: 0000 0000 b22d f8ba ae34 a53c 623d fd3c
00000060: 2caf 5dbd b44a 0bbc 76b1 f43b d586 07bc
00000070: e918 8abc 8d65 fe3b e96d c03b d6f8 e03b
00000080: 7185 0ebd 90ba b737 2dd8 26bc 5974 16bd
00000090: 0000 0000 e959 673c 0000 0000 0000 0000
000000a0: 0e70 aebb 109c 8ebb 0000 0000 8f98 5338
000000b0: 89ea b7bc 0000 0000 81b2 f5bb 53ca 423c
000000c0: fdaa 6dbb bcf4 af3c
0.021578986 8.456454e-06 -0.0053189704 0.0046488224 0.0 0.01479748 0.0 0.013359091
-0.036240295 0.01781673 -0.00096060964 0.0 -0.0026342133 0.005581637 -0.00051663525 0.008470229
0.015566232 0.028918685 -0.0021535503 -0.0075132004 0.0 -0.0018934517 0.020166721 0.030913059
-0.054122135 -0.008501697 0.007467444 -0.008271893 -0.016857581 0.0077635706 0.0058724773 0.006865601
-0.03479523 2.1902175e-05 -0.010183376 -0.03673205 0.0 0.014120557 0.0 0.0
-0.0053234166 -0.0043521 0.0 5.04484e-05 -0.022450702 0.0 -0.007498086 0.011889058
-0.0036265247 0.021479003

exp_avg_sq f4 [50]
00000000: 0204 6d37 3c37 0f2e 3e9d aa35 0595 3635
00000010: 0000 0000 b983 c736 0000 0000 423b a136
00000020: 37d6 0e38 e980 2e37 ca4d c234 0000 0000
00000030: 29f8 dc34 17e2 1436 7472 2535 d06d 2236
00000040: 092b e936 60d5 c937 7706 7034 5166 1a36
00000050: 0000 0000 4ebd 4134 1866 5737 c0d6 d037
00000060: c712 9d38 822c 3936 f7cd 2036 a0e6 e435
00000070: 4fb0 0937 12ab 1336 e813 0636 6dca f235
00000080: c4e5 0138 fc45 1832 c707 3636 f02e 1738
00000090: 0000 0000 200a b136 0000 0000 0000 0000
000000a0: cc27 3b35 e29a 2735 0000 0000 ed6f 092f
000000b0: 45ed 4c37 0000 0000 3cd5 4636 6dca b136
000000c0: d373 0335 be97 4a37
1.4127234e-05 3.2563494e-11 1.271175e-06 6.8017135e-07 0.0 5.9459967e-06 0.0 4.8050724e-06
3.405494e-05 1.0401222e-05 3.6191915e-07 0.0 4.1158754e-07 2.218532e-06 6.163384e-07 2.42038e-06
6.948951e-06 2.4060428e-05 2.2354094e-07 2.3007344e-06 0.0 1.8043394e-07 1.2838769e-05 2.4895533e-05
7.489841e-05 2.7593055e-06 2.3961745e-06 1.7054444e-06 8.206886e-06 2.2004283e-06 1.9979143e-06 1.8089319e-06
3.0969983e-05 8.863477e-09 2.712464e-06 3.604492e-05 0.0 5.2761898e-06 0.0 0.0
6.972084e-07 6.243773e-07 0.0 1.2499841e-10 1.2214591e-05 0.0 2.9628418e-06 5.2985765e-06
4.896985e-07 1.20754685e-05

exp_avg f4 [3, 50]
00000000: 9662 b0bb 2a83 1ab7 108b 5fba 86b3 73bd
00000010: 0000 0000 8022 49bd 0000 0000 6dd7 97bc
00000020: 3307 19bd 9c9a 7cbd c75e 63bd 0000 0000
00000030: 2058 38b9 3213 d1ba 0ae6 26bd 8b63 19bd
00000040: ac2d 57bd 199d 5ebc 2140 b3b9 87ce 9fbc
00000050: 0000 0000 e437 d9bd dd85 f2bc 653c 50bc
00000060: 44b2 2cbd f8cb 3bbc f2bb bbba 1bc7 84bc
00000070: 7095 4cbd 7fc0 83bd dedc a9ba be64 3dba
00000080: 4258 0bbd 1ac4 30ba ca61 27bc 68b0 f9bc
00000090: 0000 0000 0a38 2dbc 0000 0000 0000 0000
000000a0: 1771 c4bd dad2 45b9 0000 0000 e8ea a8b5
000000b0: 3b29 37bd 0000 0000 fb01 00bb b1c1 9cbc
000000c0: 729a 12bb a1ec 31bd ad06 0bbc 5e4d 09b8
000000d0: bbde 4eba 63d7 7abd 0000 0000 1604 5abd
000000e0: 0000 0000 c200 c1bc 2fb6 1bbd 0821 6fbd
000000f0: eb86 55bd 0000 0000 ac68 95b9 062d d0ba
00000100: 603f 16bd 8d4d 0fbd 86bf 41bd bbd2 98bc
00000110: 5cac 9eb9 90c3 9fbc 0000 0000 12d4 d3bd
00000120: e60a c5bc 7ded 48bc e465 1bbd d630 57bc
00000130: ce4d 97ba 4b66 61bc 9722 59bd 23de 6cbd
00000140: ce9d 6dba 5d33 65bb ef90 f5bc 2edd 04ba
00000150: 15dc 33bc e4c8 ecbc 0000 0000 703b 1dbc
00000160: 0000 0000 0000 0000 bedc bebd 5001 0dba
00000170: 0000 0000 02c8 3b36 a42e 4dbd 0000 0000
00000180: b381 25bb c084 b4bc 108a 0cbb 424e 41bd
00000190: 8ef1 d0bc 63ef 30b9 4e59 fbba e5bd f2bd
000001a0: 0000 0000 d0fc debd 0000 0000 5669 43bd
000001b0: 8889 9dbd 2673 d8bd 7eb3 c5bd 0000 0000
000001c0: 3fa1 27ba cd5b 76bb 448a 84bd d81d 8ebd
000001d0: 9524 a6bd 7025 3bbd e4d9 0dba 0423 20bd
000001e0: 0000 0000 8f94 4cbe aa3a 2abd 66bf bcbc
000001f0: ca6d 88bd a83f b7bc 18ce e3ba 0a82 c4bc
00000200: 8270 d9bd 9ee0 d3bd 7ecd deba 9aee 47bc
00000210: cb37 56bd e8a1 c8ba bcd9 c3bc 0d3f 5dbd
00000220: 0000 0000 481a a6bc 0000 0000 0000 0000
00000230: d847 31be 5503 41bb 0000 0000 abed dab7
00000240: 00ef dabd 0000 0000 d33c dabb 6622 31bd
00000250: 177e 92bb 14e1 cdbd
-0.005382846 -9.209654e-06 -0.0008527497 -0.05949738 0.0 -0.049105167 0.0 -0.01853534
-0.03736038 -0.061670884 -0.05551031 0.0 -0.00017580437 -0.0015951155 -0.040746726 -0.037448447
-0.05253379 -0.01358726 -0.0003418932 -0.01950766 0.0 -0.106063634 -0.029604847 -0.012709712
-0.042162195 -0.011462204 -0.001432298 -0.016208222 -0.049947202 -0.064332 -0.00129595 -0.00072247896
-0.034019716 -0.00067430886 -0.010216186 -0.030479625 0.0 -0.010572443 0.0 0.0
-0.09591883 -0.00018865932 0.0 -1.2585342e-06 -0.044717055 0.0 -0.001953243 -0.019135328
-0.0022369889 -0.043438558 -0.008485478 -3.27354e-05 -0.0007891466 -0.061240565 0.0 -0.053226553
0.0 -0.023559932 -0.03801554 -0.05838111 -0.05213062 0.0 -0.0002849748 -0.0015882559
-0.036681533 -0.034986068 -0.04730179 -0.018655172 -0.00030264526 -0.019502431 0.0 -0.103431836
-0.024053048 -0.012263653 -0.037938967 -0.013134202 -0.0011543573 -0.013757299 -0.053011503 -0.057829034
-0.0009064347 -0.0034973242 -0.029976336 -0.0005068359 -0.010977765 -0.028904386 0.0 -0.009596691
0.0 0.0 -0.09319447 -0.0005378919 0.0 2.7981591e-06 -0.050093308 0.0
-0.0025254309 -0.022035956 -0.0021444596 -0.047193773 -0.025505807 -0.00016873846 -0.0019176395 -0.11852626
0.0 -0.10888064 0.0 -0.047707878 -0.07692248 -0.10568838 -0.09653376 0.0
-0.0006394572 -0.0037591339 -0.064716846 -0.06939286 -0.08112446 -0.04569 -0.00054111914 -0.039095894
0.0 -0.19978546 -0.041559853 -0.023040485 -0.066615656 -0.02236922 -0.0017380146 -0.023987789
-0.10617162 -0.10345577 -0.0016998497 -0.012202883 -0.052299302 -0.0015307041 -0.023907535 -0.054015208
0.0 -0.020276204 0.0 0.0 -0.17312562 -0.002945145 0.0 -2.6098298e-05
-0.10690117 0.0 -0.006660083 -0.043245696 -0.0044705975 -0.10052696

exp_avg_sq f4 [3, 50]
00000000: c0d0 0936 386b 532d dddb 0f33 0b68 e138
00000010: 0000 0000 cf51 c238 0000 0000 520d 9637
00000020: 7fd2 3638 28dd ec38 7fdb d138 0000 0000
00000030: 9b9e 0a31 3a59 2f34 a74c 4038 65f3 3e38
00000040: d6b7 b438 fc14 7f37 a093 c131 7854 a337
00000050: 0000 0000 199d a939 c835 f537 40b3 a436
00000060: 0ebd 4d38 0aff 8936 7b13 f333 3797 0537
00000070: f832 9c38 6241 0239 1b0b e533 70a9 2435
00000080: c391 0738 6765 d332 9e4f 3336 b4ad e837
00000090: 0000 0000 72bf 6936 0000 0000 0000 0000
000000a0: 1b03 8a39 96e9 9132 0000 0000 3717 b12a
000000b0: fad1 9338 0000 0000 7c17 9935 7d28 8137
000000c0: d677 1e34 2401 8838 c63f 1936 8880 9f2e
000000d0: 1215 bc32 0755 ea38 0000 0000 738b d038
000000e0: 0000 0000 2af8 ca37 dadd 3638 372a d438
000000f0: a9a8 af38 0000 0000 cd9f 7231 0c62 fa33
00000100: 4aab 1d38 e18a 2338 da29 9438 d7b2 9037
00000110: db4c 9831 06db 8a37 0000 0000 32b7 9d39
00000120: fd23 9237 ab65 8b36 1bd0 2138 fb69 c136
00000130: 694c 9b33 be8d b436 7593 ac38 8a32 ca38
00000140: 4fa2 5e33 ffe2 6b35 6917 d137 e265 5132
00000150: 4825 3f36 3bde c637 0000 0000 c6e6 3736
00000160: 0000 0000 0000 0000 d321 8539 9cc6 4432
00000170: 0000 0000 8de2 e52a 73a1 a738 0000 0000
00000180: 6222 5f35 a1b1 a637 a3c9 1d34 2ac9 9538
00000190: c37c 8e37 cf89 e330 df93 0d34 b6d1 c639
000001a0: 0000 0000 cb9e ba39 0000 0000 fd84 9b38
000001b0: 1175 2939 669f a339 2d24 9539 0000 0000
000001c0: b33f 8932 b6a1 1935 3df2 e238 bf59 1439
000001d0: e701 5439 fd2a 9738 ab52 7232 709c 8338
000001e0: 0000 0000 80f7 893a 4fe9 6a38 d6d9 7137
000001f0: c6b4 f638 da69 5537 4bd5 3134 d323 8337
00000200: 8bd0 9739 a83a 9e39 778b 3a34 6d36 b736
00000210: a4f7 9338 ee39 0c34 3285 7037 031d ad38
00000220: 0000 0000 862a 3a37 0000 0000 0000 0000
00000230: ed30 523a 04a2 1235 0000 0000 6052 5b2e
00000240: bb07 a339 0000 0000 eb1f 6f36 24c9 7638
00000250: 1b8f 1935 8d9b 9339
2.05361e-06 1.2017769e-11 3.3494747e-08 0.000107482156 0.0 9.265879e-05 0.0 1.7887596e-05
4.358822e-05 0.000112945505 0.00010006781 0.0 2.01718e-09 1.6330605e-07 4.5847755e-05 4.552621e-05
8.617311e-05 1.520407e-05 5.6338223e-09 1.9470448e-05 0.0 0.0003235124 2.923132e-05 4.9084483e-06
4.905188e-05 4.1126086e-06 1.1319113e-07 7.962625e-06 7.448153e-05 0.00012422123 1.06656636e-07 6.1341325e-07
3.232226e-05 2.4609745e-08 2.6719422e-06 2.7737442e-05 0.0 3.4831141e-06 0.0 0.0
0.00026323725 1.6986444e-08 0.0 3.1457625e-13 7.0486174e-05 0.0 1.1406223e-06 1.5396852e-05
1.4758493e-07 6.485198e-05 2.2835898e-06 7.2533146e-11 2.1895662e-08 0.00011173827 0.0 9.944187e-05
0.0 2.4195837e-05 4.3598797e-05 0.00010116811 8.376066e-05 0.0 3.530647e-09 1.1659367e-07
3.7591242e-05 3.899157e-05 7.0649854e-05 1.7249416e-05 4.4325197e-09 1.6552873e-05 0.0 0.00030081865
1.7421315e-05 4.1543585e-06 3.8579205e-05 5.764186e-06 7.231649e-08 5.380919e-06 8.229065e-05 9.641524e-05
5.183602e-08 8.7874645e-07 2.4925643e-05 1.2188567e-08 2.8482918e-06 2.3706923e-05 0.0 2.7403453e-06
0.0 0.0 0.00025392938 1.145386e-08 0.0 4.0835773e-13 7.993253e-05 0.0
8.312401e-07 1.9871457e-05 1.469512e-07 7.1423434e-05 1.6985816e-05 1.6555591e-09 1.3185443e-07 0.0003792175
0.0 0.00035594995 0.0 7.415747e-05 0.00016160707 0.00031208544 0.00028446448 0.0
1.5977866e-08 5.723226e-07 0.0001082164 0.00014147813 0.00020218604 7.208248e-05 1.41050505e-08 6.2757055e-05
0.0 0.0010526031 5.6007233e-05 1.4415438e-05 0.00011763866 1.2720435e-05 1.6562005e-07 1.5633099e-05
0.0002895634 0.0003017981 1.7373337e-07 5.460161e-06 7.055633e-05 1.3059591e-07 1.4336127e-05 8.254687e-05
0.0 1.1096365e-05 0.0 0.0 0.0008018155 5.4625e-07 0.0 4.9868e-11
0.00031095542 0.0 3.5632354e-06 5.8838297e-05 5.720519e-07 0.0002815392

exp_avg f4 [3]
00000000: 02fa debd 7ec0 edbd 177c 74be
-0.10887529 -0.116089806 -0.23875462

exp_avg_sq f4 [3]
00000000: 3f16 b539 3cee c939 a3af bb3a
0.00034539585 0.00038515206 0.0014319312
