LSTM_TimeSeries/lightning_logs/version_41/checkpoints/epoch=0-step=5.ckpt (torch, 670619 bytes, 30 tensors)

model.lstm.weight_ih_l0 f4 [416, 9]
0	0x3c99235a	0.018693615
1	0x3be35798	0.006937932
2	0xbd8446cc	-0.06458816
3	0xbd16943e	-0.03676247
4	0xbd819904	-0.063280135
5	0x3d0b51b6	0.034013472
6	0x3cb62a96	0.022237103
7	0xbd97e37b	-0.07416435
8	0x3d6fb668	0.058523566
9	0xbd3fcbb2	-0.04682512
10	0xbca8bbda	-0.020597387
11	0x3db17fe4	0.08666971
12	0xbdb19021	-0.086700685
13	0x3d432006	0.04763796
14	0xbdb1bbcd	-0.08678398
15	0xbd436a4a	-0.047708787
16	0xbd60df34	-0.054900363
17	0x3d981544	0.07425931
18	0x3c6414ed	0.013921005
19	0xbd43f4cb	-0.047840875
20	0xbdb47db8	-0.088130414
21	0x3d22e273	0.03976674
22	0x3d2d645a	0.04233203
23	0x3ba5ca81	0.0050595407
24	0xbccdbf74	-0.025115706
25	0x3cba5004	0.022743233
26	0x3dba7589	0.09104449
27	0xbc1111c9	-0.008854338
28	0x3da6876f	0.08131301
29	0x3db0fb80	0.0864172
30	0x3d2c6175	0.04208513
31	0x3d8b67af	0.068068855
32	0xbbdf4609	-0.0068137688
33	0xbd8de72f	-0.069288604
34	0x3a5c5e17	0.00084063545
35	0x3b9da53f	0.0048109586
36	0x3d06981f	0.032859918
37	0xbda6cdfb	-0.081447564
38	0x3c2ae64f	0.010430886
39	0x3d2cb065	0.04216041
40	0x3c55224e	0.013008667
41	0xbd86d5c0	-0.06583738
42	0xbc1ec1ae	-0.0096897315
43	0xbd8a6bdc	-0.06758854
44	0xbc135cab	-0.008994262
45	0xbbdb0869	-0.006684352
46	0xbaf0b73c	-0.0018365155
47	0x3dc58c8f	0.0964595
48	0x3b9f74c1	0.004866213
49	0x3ca9a09b	0.020706465
50	0x3d7da74e	0.061927132
51	0x3d33d72e	0.043906383
52	0xbd9b90c5	-0.07595972
53	0x3d72f3d1	0.059314553
54	0xbd26d34a	-0.040728845
55	0x3dce20c1	0.10064841
56	0x3a84e198	0.0010138033
57	0x3cc4e181	0.02403331
58	0xbd9c64d9	-0.07636423
59	0xbbec610b	-0.007213717
60	0xbc84c5b4	-0.016207553
61	0x3c3ca85e	0.011514751
62	0xbcf89636	-0.030345064
63	0x3d8b0b47	0.0678926
64	0xbda9bdcc	-0.08288154
65	0x3dc90348	0.09815079
66	0x3d998e91	0.074978955
67	0xbd5ce388	-0.05392793
68	0x3ce79a92	0.028271947
69	0xbc1259a4	-0.008932505
70	0xbd43f242	-0.047838457
71	0xbcb1503c	-0.021644704
72	0xbd015f4b	-0.03158502
73	0xbc20f243	-0.009823385
74	0xbbc97942	-0.0061484883
75	0x3d6042ed	0.054751325
76	0x3ca9c2e5	0.020722816
77	0x3dab0be7	0.083518796
78	0xbd606e05	-0.054792423
79	0x3dc763ee	0.09735857
80	0x3d890150	0.066897035
81	0x3cf82d57	0.030295057
82	0xbd36a6d5	-0.044592697
83	0x3d9106eb	0.070813976
84	0x3d9b600c	0.07586679
85	0xbba08433	-0.004898572
86	0xbd900502	-0.07032205
87	0x3d688cb6	0.056774817
88	0x3db6eccc	0.08931884
89	0x3ba188ac	0.0049296226
90	0xbd19a49d	-0.037510503
91	0x3d9f53b1	0.07779635
92	0x3dbc3be3	0.0919111
93	0x3d3d4b3b	0.046214323
94	0x3d63e5b0	0.05563897
95	0x3cebf9f1	0.028805705
96	0xbc8e1899	-0.017345713
97	0x3d7f64f8	0.06235215
98	0x3dcbea1c	0.09956762
99	0x3d37243f	0.0447123
100	0x3bd34c70	0.006448321
101	0xbd17be3d	-0.03704666
102	0x3ce44b4f	0.027867941
103	0xbdb64ed8	-0.08901757
104	0xbc7f1793	-0.015569585
105	0xbcc2a696	-0.023761075
106	0xbdb1f37c	-0.08689019
107	0x3dbe1e45	0.09283117
108	0xbd4531f6	-0.04814335
109	0x3ba620c4	0.005069824
110	0xbcfd94d5	-0.030954758
111	0x3dac83b0	0.08423555
112	0x3d15b854	0.036552742
113	0x3d86c61d	0.06580756
114	0xbd7029b5	-0.058633525
115	0x3ba4d4d4	0.005030254
116	0x3c4ce260	0.012505144
117	0x3d7ff8f6	0.062493287
118	0x3d4d5440	0.050129175
119	0xbd2caf8d	-0.042159606
120	0x3bbf1f0c	0.0058325585
121	0xbd87b600	-0.066265106
122	0x3d017989	0.031610046
123	0x3b960004	0.0045776386
124	0xbdaa9130	-0.083284736
125	0x3d9bdcc3	0.07610466
126	0x3ccd4840	0.025058866
127	0xbd687c81	-0.05675936
128	0xbbb706f8	-0.0055855475
129	0x3bb3ee91	0.005491086
130	0x3dab571b	0.083662234
131	0x3c234206	0.009964472
132	0x3d1e7182	0.03868247
133	0x3db8d871	0.09025658
134	0xbcb7ca69	-0.022435384
135	0x3d8fb05d	0.070160605
136	0xbd896bbd	-0.067100026
137	0xbd1e580e	-0.038658194
138	0xbcaab7e4	-0.020839639
139	0x3cf316d7	0.029673977
140	0x3d5a58d8	0.053307384
141	0x3d6c6f0f	0.0577231
142	0xbb736586	-0.003713937
143	0x3daa795a	0.08323927
144	0x3d27eeca	0.04099921
145	0xbd8eded2	-0.06976093
146	0x3d54b9b3	0.05193491
147	0x3d555812	0.052085944
148	0x3d793f71	0.060851518
149	0x39df92b8	0.00042643188
150	0x3cb874cd	0.022516632
151	0x3db38a5c	0.08766624
152	0x3a6c7b9b	0.0009021104
153	0xbce1b33f	-0.027551292
154	0xbd7fecef	-0.062481817
155	0x3d909c9f	0.07061123
156	0xbd3e13e6	-0.046405695
157	0xbdb29fdf	-0.08721899
158	0x3cd7a90d	0.026325727
159	0x3db7e6d0	0.08979571
160	0xbc4cc128	-0.012497224
161	0x3d401dc3	0.046903383
162	0x37827460	1.5551399e-05
163	0x3aecece0	0.0018075965
164	0x3d736012	0.05941779
165	0xbdcd9178	-0.100375116
166	0x3da61cf2	0.0811099
167	0x3d4c7d29	0.04992405
168	0xbc563daa	-0.013076225
169	0x3d222be1	0.039592627
170	0xbd7c80de	-0.061646335
171	0xbd70bcb3	-0.058773708
172	0x3d54a484	0.051914707
173	0x3dca91ad	0.09891067
174	0xbc8eb962	-0.017422382
175	0x3c35d312	0.011097686
176	0x3d3ec926	0.04657855
177	0x3c9b26dc	0.018939428
178	0x3c529661	0.012853236
179	0x3db0aed5	0.086270966
180	0xbdbc116d	-0.09183011
181	0xbcd0a498	-0.02546911
182	0x3d4ac4c6	0.049504064
183	0xbcd74d45	-0.026281962
184	0xbcd10b5e	-0.025518116
185	0xbd89896b	-0.067156635
186	0x3db4a2a4	0.08820084
187	0x3d0238d6	0.031792484
188	0xbd5c43a2	-0.053775437
189	0x3d0c0655	0.034185726
190	0x3d367559	0.044545505
191	0x3d4e94c8	0.050434858
192	0x3cfd94c6	0.03095473
193	0x3d08310a	0.033249892
194	0xbd4f6cc2	-0.05064083
195	0x3d29296c	0.04129927
196	0xbb4a03d6	-0.003082504
197	0x3d9e9a28	0.07744247
198	0x3d474e95	0.048658926
199	0x3da4ef63	0.08053472
200	0xbb6797d0	-0.003533829
201	0xbc3cd81d	-0.011526135
202	0x3c759549	0.014989206
203	0x3b910907	0.004426125
204	0x3bb1b864	0.0054235924
205	0x3d38c00b	0.04510502
206	0x3d928349	0.07153947
207	0x3da48d12	0.080347195
208	0x3d80371b	0.062605105
209	0xbcb2bf7a	-0.021819819
210	0x3d7ab545	0.06120803
211	0xbb88697b	-0.004162965
212	0x3c0bd524	0.008534703
213	0xbd56cc55	-0.05244096
214	0xbd5afeaa	-0.053465523
215	0x3ce7df87	0.028304828
216	0x3d428264	0.04748763
217	0x3d7fa782	0.062415607
218	0x3baad452	0.005213299
219	0x3d19d487	0.037556197
220	0xbcf897e8	-0.030345872
221	0x3c85e1d8	0.016343042
222	0xbd054321	-0.032534722
223	0x3db9ea90	0.09077942
224	0x3b226d82	0.002478451
225	0xbdb5fce2	-0.08886124
226	0x3db91bba	0.090384915
227	0xba3795e8	-0.0007003234
228	0x3daaab14	0.08333412
229	0xbd7a472a	-0.061103024
230	0xbc40f77e	-0.011777757
231	0x3d008c5e	0.031383865
232	0xbc2e44ff	-0.010636567
233	0xbd702891	-0.058632437
234	0xbd15554f	-0.03645831
235	0x3bb40465	0.005493688
236	0xbce16a46	-0.027516495
237	0x3d910c6f	0.0708245
238	0xbbc1ea14	-0.005917797
239	0xbd342739	-0.04398272
240	0x3d9143ba	0.07092996
241	0xbd143564	-0.03618373
242	0xbccd47d8	-0.025058672
243	0x3cb6c72d	0.022311771
244	0x3c7983d5	0.015229185
245	0xbdbcea9a	-0.09224434
246	0x3cd1b2a7	0.025597883
247	0x3dc8588b	0.09782513
248	0xbb976e04	-0.004621269
249	0xbcad994d	-0.021191264
250	0x3d6b2877	0.057411637
251	0xbcdcdda3	-0.026961153
252	0x3d0e5c80	0.034756184
253	0x3d801e4d	0.062557794
254	0x3cdd16e2	0.02698845
255	0xba79ba57	-0.0009526363

model.lstm.weight_hh_l0 f4 [416, 104]
0	0x3d996360	0.074896574
1	0x3cc2c7ff	0.023777006
2	0xbd921703	-0.071332954
3	0x3db0150f	0.085977666
4	0xbd9bf5e3	-0.076152585
5	0xbdaccb7c	-0.08437249
6	0x3d9d0530	0.07667005
7	0x3cb71e57	0.022353334
8	0xbc0bde7d	-0.008536932
9	0xbd80470d	-0.06263552
10	0x3c5ddfa7	0.013542092
11	0xbd832b40	-0.06404734
12	0xbd35ef9d	-0.044417966
13	0x3cb44692	0.022006307
14	0x3d1ce779	0.038306687
15	0x3cb0ddb2	0.021590088
16	0x3da66e47	0.081265025
17	0x3d8146d0	0.063123345
18	0x3d456d5e	0.048200004
19	0xbdbc24cd	-0.09186707
20	0x3cfba488	0.030718103
21	0x3d7180aa	0.058960594
22	0x3cd83bf0	0.026395768
23	0x3d8e9ea5	0.06963853
24	0xbd0dff40	-0.034667253
25	0x3d6a6249	0.05722264
26	0xbd36328d	-0.044481803
27	0x3d872d80	0.06600475
28	0x3d649818	0.05580911
29	0x3dc33dc1	0.09533263
30	0x3cc55213	0.024086988
31	0x3d6080d4	0.05481036
32	0xbd3004fc	-0.042973503
33	0x3bf27544	0.007399233
34	0xbd936509	-0.07197005
35	0xbd9a9553	-0.075480126
36	0xbd044a08	-0.032297164
37	0x3db77a33	0.089588545
38	0xbdcf5d1f	-0.10125183
39	0xbd52f461	-0.05150259
40	0x3d646505	0.055760402
41	0x3db53c72	0.0884942
42	0x3c887007	0.016654981
43	0x3db65306	0.08902554
44	0xbbb6c9ba	-0.005578247
45	0xbd2245f6	-0.0396175
46	0xbd3863a3	-0.045016896
47	0x3c4bca4c	0.012438368
48	0x3db8075c	0.08985779
49	0x3ccc1802	0.024913792
50	0x3da594c9	0.08085019
51	0x3d91f533	0.07126846
52	0x3d162620	0.036657453
53	0x3d812578	0.06305975
54	0xbd8eb760	-0.0696857
55	0x3d294bf5	0.041332204
56	0xbc1eabd8	-0.009684525
57	0xbd43558f	-0.047689017
58	0x3dbe4041	0.09289599
59	0x3d908588	0.07056719
60	0xbcec9c29	-0.028883057
61	0xbd09271a	-0.033484556
62	0x3d0dad1a	0.03458891
63	0xbb430829	-0.0029759503
64	0xbdc032ca	-0.09384687
65	0x3d8710fc	0.065950364
66	0x3b53ed0c	0.0032337336
67	0xbce5c1d1	-0.02804652
68	0xbd8d3aa8	-0.068959534
69	0xbd4d26dc	-0.050085887
70	0xbb0012f1	-0.001954254
71	0x3c9d0ca7	0.019171072
72	0x3d3672a0	0.04454291
73	0x3dbccbea	0.09218581
74	0x3d916060	0.0709846
75	0x3cc86b38	0.024465188
76	0xbdc228e2	-0.09480454
77	0xbda6079f	-0.08106922
78	0x3d80b1e7	0.06283932
79	0xbcf839ba	-0.030300964
80	0x3d7abc50	0.061214745
81	0xbc866f41	-0.016410472
82	0x3cf2cc12	0.029638324
83	0x3cc0d421	0.023538651
84	0x3d8d039e	0.068854555
85	0xbda613bf	-0.08109235
86	0x3d63a337	0.055575576
87	0x3d2f4354	0.04278882
88	0x3c77518f	0.015095129
89	0xbdb4564b	-0.088055216
90	0xbd25c15a	-0.040467598
91	0xbce9e05c	-0.028549366
92	0x39346744	0.00017204607
93	0x3d7d92ec	0.061907694
94	0x3d58df5e	0.052947395
95	0x3cbf861c	0.023379378
96	0x3d811103	0.06302073
97	0x3d39c9c8	0.04535845
98	0xbd1381ae	-0.036012344
99	0x3c1c5be1	0.00954339
100	0x3d49612b	0.049164932
101	0xbd9c47cd	-0.076308824
102	0x3ca278ed	0.019833053
103	0xbcb99b25	-0.022656986
104	0x3dac53ed	0.08414445
105	0xbdd1193b	-0.102098905
106	0x3d8b0951	0.06788886
107	0xbd4560fd	-0.0481882
108	0xbb36490d	-0.0027814538
109	0x3d75a452	0.05997116
110	0xbbea3273	-0.0071471273
111	0xbd91f8cf	-0.071275346
112	0xbdb05f79	-0.0861196
113	0xbd1c5f1e	-0.03817665
114	0x3d59f3d4	0.05321105
115	0xbdce1150	-0.10061896
116	0x3dac75fd	0.08420942
117	0x3c1159d6	0.008871516
118	0x3dadedaa	0.084925964
119	0x3cf16c3e	0.02947056
120	0xbcca7275	-0.02471278
121	0x3c90bd70	0.017668456
122	0xbd0d52b3	-0.034502696
123	0x3dc5a60f	0.09650814
124	0x3d09e874	0.03366895
125	0xbd00a44b	-0.031406682
126	0xbd3dba14	-0.046320036
127	0xbbd95e03	-0.0066335215
128	0x3d8b0311	0.06787694
129	0x3dbe26de	0.09284757
130	0xbda05d24	-0.07830265
131	0xbbcf107d	-0.006319104
132	0xbdb1b8d3	-0.086778305
133	0xbcff1716	-0.031138938
134	0xbd4f9a38	-0.050684184
135	0xbd8cc6c8	-0.06873852
136	0xbd88676a	-0.0666035
137	0x3d936725	0.07197408
138	0xbda157e8	-0.07878095
139	0x3ccf7c92	0.025327954
140	0x3dcf2ed7	0.10116356
141	0xbdab04fd	-0.08350561
142	0x3cad301f	0.02114111
143	0x3c24b6b7	0.010053328
144	0x3db2be66	0.08727722
145	0x3d1e28a0	0.03861296
146	0xbd4412cc	-0.04786949
147	0xbd37a9fb	-0.04483984
148	0x3d960374	0.073248774
149	0x3d0414ed	0.03224652
150	0xbd3f79fd	-0.046747196
151	0x3b9632de	0.0045837006
152	0xbd04f0b4	-0.032456115
153	0xbd8aed16	-0.06783502
154	0xbd559699	-0.052145574
155	0x3daa97d4	0.0832974
156	0xbd93e7db	-0.07221957
157	0xbd9dcd25	-0.07705144
158	0xbd8e28a5	-0.06941346
159	0xbd966064	-0.07342604
160	0x3d9a4adf	0.07533812
161	0xbcb06d07	-0.021536363
162	0xbd9b10ea	-0.075715855
163	0xbd343e87	-0.044004943
164	0x3d3a73cb	0.045520585
165	0xbd4ef427	-0.05052581
166	0x3d60c185	0.054872055
167	0x3d87c93e	0.06630181
168	0xbc9288d6	-0.017887514
169	0x3d625845	0.05525996
170	0xbd0828db	-0.033242088
171	0xbdbf4d32	-0.09340896
172	0x3b9648ea	0.0045863288
173	0xba109c36	-0.00055164413
174	0x3dae31cd	0.085055925
175	0x3d4e8ec8	0.050429136
176	0xbd87e5cc	-0.06635627
177	0xbd6e43a6	-0.058169983
178	0xbda980ac	-0.08276495
179	0x3ce041d8	0.027375147
180	0xbd95c066	-0.07312088
181	0xbd82c8bc	-0.06385943
182	0xbd4f5599	-0.05061874
183	0xbdbdb0ea	-0.09262259
184	0x3d9657b4	0.07340947
185	0xbdab47dd	-0.08363316
186	0x3ce373db	0.027765205
187	0xbd8df5dd	-0.0693166
188	0xbdbbbdac	-0.091670364
189	0xbd78b32d	-0.06071775
190	0xbda94bf5	-0.08266441
191	0xbb9f8042	-0.0048675844
192	0x3d80abeb	0.06282791
193	0xbbe92d3a	-0.007115987
194	0xbd7e5987	-0.0620971
195	0xbd6d983d	-0.058006514
196	0xbd22b225	-0.039720673
197	0x3cb5f744	0.022212632
198	0x3bb6e53b	0.0055815256
199	0xbdbe6c65	-0.09298018
200	0x3c8b4354	0.016999878
201	0x3cb903a6	0.022584748
202	0x3dc617ba	0.09672494
203	0xbd7d15b1	-0.061788265
204	0xbd81fc8e	-0.06346999
205	0x3d91690d	0.07100115
206	0x3dafcfb8	0.08584541
207	0xbc101904	-0.008795027
208	0xbda05fd3	-0.07830777
209	0xbd1b1428	-0.03786102
210	0xbdac0aec	-0.08400521
211	0x3c0379a5	0.008024608
212	0xbd678471	-0.05652279
213	0x3ce7cf86	0.028297197
214	0x3d06e0b9	0.032929156
215	0x3d41d569	0.047322664
216	0x3cc223b5	0.023698667
217	0xbc6b2c5c	-0.014353838
218	0x3cc461e9	0.023972468
219	0xbdc0748b	-0.09397229
220	0xbd7de8d7	-0.06198963
221	0x3dc3a48d	0.0955287
222	0x3d544833	0.051826667
223	0xbd24dbfc	-0.040248856
224	0xbd94419e	-0.07239078
225	0xbdbeb447	-0.09311729
226	0xbc2a119d	-0.010380176
227	0xbcafc0c4	-0.021454223
228	0x3dbaeeca	0.09127577
229	0x3d2f5454	0.04280503
230	0x3c3c012a	0.011474887
231	0x3db32266	0.08746795
232	0xbd4d221a	-0.05008135
233	0x3d7c49fc	0.061593994
234	0x3dc040bf	0.09387349
235	0xbdbd6246	-0.0924726
236	0xbdad6b9b	-0.0846779
237	0xbc7e8788	-0.015535243
238	0x3ccfce4d	0.025366927
239	0xbc9e5ff0	-0.019332856
240	0x3c560579	0.013062828
241	0x3cb28a40	0.021794438
242	0xbd09a4e3	-0.033604514
243	0xbda05856	-0.07829349
244	0xbc1c1b58	-0.009528004
245	0x3d62bab4	0.055353835
246	0x3db71475	0.08939449
247	0x3dc0dac2	0.09416725
248	0xbcdf532e	-0.027261343
249	0xbd8867ff	-0.06660461
250	0xbc746c42	-0.014918389
251	0xbdac5185	-0.08413986
252	0xbcc6bb86	-0.02425934
253	0xbc0643ac	-0.008194845
254	0x3d9a2566	0.075266644
255	0xbd81de52	-0.06341232

model.lstm.bias_ih_l0 f4 [416]
0	0x3d40008d	0.046875525
1	0x3d8cec2a	0.06880982
2	0x3d3509c5	0.04419877
3	0xbd52ad96	-0.051435076
4	0xbd8dfd3e	-0.06933068
5	0x3cdd754f	0.027033476
6	0x3cf66cbf	0.030081151
7	0xbca0a1e8	-0.019608453
8	0xbd88da25	-0.06682233
9	0x3dc54f45	0.0963426
10	0xbcf8d3b2	-0.030374382
11	0xbd99d41b	-0.07511159
12	0x3d1edcb6	0.038784705
13	0x3d19c7fb	0.03754423
14	0x3d3a5a42	0.045496233
15	0xbd90f895	-0.07078663
16	0x3da7f0a2	0.08200194
17	0x3da4555f	0.08024096
18	0x3d59ce84	0.053175464
19	0xbc988433	-0.018617725
20	0xbd4f5606	-0.050619148
21	0x3c30c5b9	0.010789328
22	0x3d6ad64b	0.057333272
23	0x3d156caf	0.036480602
24	0xbd8439ec	-0.0645636
25	0xbd3f8c1c	-0.046764478
26	0xbda924ae	-0.08258949
27	0xbb9a3ec8	-0.004707191
28	0x3d74cc9a	0.059765436
29	0x3ba9869c	0.0051735174
30	0x3d5f385f	0.05449712
31	0xbd2b5e2a	-0.04183785
32	0xbd027562	-0.031850226
33	0xbd6eac7c	-0.058269963
34	0x3db4a394	0.088202626
35	0x3d583d0c	0.052792594
36	0x3d2c6fc4	0.042098776
37	0x3a426dd8	0.00074168807
38	0x3ce81fd3	0.028335487
39	0xbd2dfdf7	-0.042478528
40	0xbcd3e5fb	-0.0258665
41	0x3d634a3b	0.055490714
42	0xbd55649f	-0.052097913
43	0x3da10501	0.078622825
44	0xbdbd63a6	-0.09247522
45	0xbdbd49e4	-0.09242609
46	0xbd4176ec	-0.047232553
47	0xbc4b3e52	-0.012404995
48	0x3c63653e	0.0138791185
49	0x3db583f6	0.0886306
50	0xbd4b9ab8	-0.0497081
51	0xbd9e1f47	-0.077208094
52	0x3d4bfb71	0.04980034
53	0x3d9a144e	0.07523404
54	0x3d2e5537	0.042561736
55	0xbcb988e2	-0.022648279
56	0x3cf0bf70	0.02938816
57	0x3dbc1f72	0.09185685
58	0x3d97df2f	0.07415616
59	0x3da591e9	0.08084471
60	0x3d406727	0.046973374
61	0x3c8982dd	0.016786033
62	0xbb8f6648	-0.0043762065
63	0xbcc76490	-0.024339944
64	0xbd5859a2	-0.052819856
65	0xbd8c5ab8	-0.06853241
66	0x3cd4b368	0.025964454
67	0xbdbf810f	-0.09350788
68	0xbd2b26bd	-0.04178499
69	0x3d15cd35	0.036572654
70	0xbd95dcfc	-0.0731754
71	0x3c9e88f2	0.01935241
72	0x3da8d05f	0.08242869
73	0x3cbbb17e	0.022911783
74	0xbd91fa08	-0.07127768
75	0xbdba1aa2	-0.09087111
76	0x3d9552f5	0.072912134
77	0xbd9074ed	-0.07053552
78	0x3d4251e0	0.047441363
79	0x3d92730f	0.07150852
80	0x3d817293	0.063206814
81	0xbdbaed26	-0.09127264
82	0x3d85b6a2	0.06528975
83	0x3d92ae8f	0.07162201
84	0x3d7d43bf	0.061832186
85	0x3db28632	0.08717002
86	0x3cefee15	0.029288331
87	0xbd73dc42	-0.059536226
88	0xbd9b57cd	-0.07585106
89	0xbd853284	-0.06503776
90	0x3dc193b0	0.09451997
91	0x3d300e15	0.04298218
92	0x3da9c75c	0.08289978
93	0x3d5dd984	0.054162517
94	0xbc3f9f6e	-0.011695726
95	0x3d6e9d74	0.058255628
96	0x3d89e4cc	0.06733093
97	0xbd784821	-0.060615662
98	0x3d1bf53e	0.038075678
99	0xbd3defed	-0.04637139
100	0xbd1d77fd	-0.038444508
101	0x3db840dc	0.08996746
102	0x3cbeb90f	0.023281602
103	0x3d93e29a	0.07220955
104	0x3d543da6	0.051816605
105	0x3db0d5a6	0.086345
106	0xbb9116e4	-0.0044277776
107	0x3ca4a164	0.020096488
108	0xbcbae7f8	-0.02281569
109	0xbd163556	-0.03667196
110	0x3d7894f4	0.060688928
111	0xbd848e95	-0.06472508
112	0x3ca9fb79	0.020749794
113	0xbd909aad	-0.07060752
114	0x3d9f7512	0.07786001
115	0xbd18d746	-0.037314676
116	0xbd72b94d	-0.059258748
117	0xbd8f9a91	-0.07011903
118	0x3c26f6a4	0.01019064
119	0x3cee53f7	0.029092772
120	0x3d46d2cb	0.04854087
121	0xbd38a1ac	-0.045076057
122	0x3db7b70b	0.089704596
123	0xbd5afa68	-0.053461462
124	0xbc5d68fb	-0.013513799
125	0x3d26b2a7	0.04069772
126	0x3d0492ae	0.032366447
127	0xbdb04ab8	-0.086080015
128	0x3d05f0ae	0.032700233
129	0xbda49674	-0.08036509
130	0x3d8447b4	0.06458989
131	0xbc817a3f	-0.015805362
132	0x3db41e5e	0.087948546
133	0x3da2734d	0.07932148
134	0x3dca5547	0.098795466
135	0x3d1b019a	0.037843324
136	0x3d91b491	0.071145184
137	0x3d829658	0.06376332
138	0xbd9f49be	-0.07777737
139	0xbdb5e490	-0.088814855
140	0x3d72e6cf	0.059302147
141	0x3cb7c8dc	0.022434644
142	0x3d0cdd0b	0.03439049
143	0xbd849a34	-0.064747244
144	0x3ca6213d	0.020279521
145	0x3d635bcd	0.05550747
146	0xbd963217	-0.07333773
147	0x3d33c738	0.04389116
148	0xbd2c2582	-0.042027958
149	0xbd88df33	-0.06683197
150	0xbdc15847	-0.09440666
151	0x3d857a05	0.06517414
152	0xbd23e363	-0.040011775
153	0x3d741ac6	0.059595846
154	0xbc2c95a0	-0.01053372
155	0xbd8251e6	-0.06363277
156	0xbd92702f	-0.071503036
157	0x3c5c9e99	0.013465547
158	0x3d3c6a02	0.045999534
159	0x3d87d96c	0.06633267
160	0x3c9db9e2	0.019253675
161	0xbd3552f1	-0.044268552
162	0xbda824d4	-0.082101494
163	0xbdbdabfb	-0.09261318
164	0xbdb5bc61	-0.08873821
165	0x3d8ff587	0.070292525
166	0x3d9568d1	0.07295383
167	0xbd815591	-0.063151486
168	0xbc087c92	-0.008330481
169	0x3d3b62a2	0.04574836
170	0x3cc5e983	0.024159199
171	0x3db8b234	0.090183645
172	0xbcc05d66	-0.023482036
173	0xbd93ad5b	-0.07210799
174	0xbd917d40	-0.07103968
175	0x3dbd2867	0.09236222
176	0x3d929e36	0.071590826
177	0xbc0a6678	-0.008447282
178	0xbdbaf236	-0.09128229
179	0x3d9387b1	0.072036155
180	0x3dbced6d	0.09224973
181	0x3d2211e3	0.03956784
182	0x3b93b035	0.0045070895
183	0x3db2696e	0.08711515
184	0x3db9124f	0.09036695
185	0xbcfd3f64	-0.030914016
186	0xbd8feb6d	-0.07027326
187	0xbd1e53fd	-0.038654316
188	0xbb2129d0	-0.0024591573
189	0xbd8fd0df	-0.07022261
190	0x3cedf2b7	0.0290464
191	0xbd63d9bc	-0.05562757
192	0x3da10ee7	0.078641705
193	0x3dc334c7	0.09531551
194	0x3d0c5dae	0.034269027
195	0x3cd146ef	0.02554652
196	0xbda83b16	-0.08214395
197	0xbc18d0cc	-0.009327125
198	0xbd8827f5	-0.06648246
199	0x3db9820a	0.09058006
200	0xbcbff312	-0.023431335
201	0xbc2043af	-0.009781762
202	0xbdbe078c	-0.09278783
203	0x3c942a24	0.0180865
204	0xbd7f7e97	-0.062376585
205	0xbc986d62	-0.018606845
206	0x3d206955	0.039162952
207	0x3dc6d4b4	0.09708539
208	0xbd9f0d05	-0.07766155
209	0xbdbada07	-0.09123617
210	0xbd3b845b	-0.04578052
211	0x3d899de0	0.067195654
212	0x3dd19fc2	0.102355495
213	0xbd1b4a07	-0.037912395
214	0xbd9d589d	-0.07682917
215	0x3d15078c	0.03638415
216	0x3db94b2f	0.09047543
217	0xbd514e55	-0.051100094
218	0xbd96ca97	-0.0736286
219	0x3cc31450	0.023813397
220	0xbc569da8	-0.013099112
221	0xbda9634a	-0.08270891
222	0xbd87db1d	-0.066335894
223	0x3cdd65fe	0.027026173
224	0xbc08746d	-0.008328539
225	0xbd88550d	-0.06656847
226	0x3d1de917	0.03855237
227	0xbcf64125	-0.03006036
228	0xbd2d4a02	-0.042306907
229	0xbcaef0c7	-0.021355046
230	0x3c0337fe	0.008008955
231	0x3d4e260a	0.050329246
232	0xbce39726	-0.027782034
233	0xbb208104	-0.0024490962
234	0x3d05be00	0.0326519
235	0xbcf45335	-0.029824832
236	0x3d4cb64b	0.049978536
237	0x3b9706ec	0.0046089794
238	0x3cb8bc5d	0.022550756
239	0x3d7b38de	0.06133353
240	0x3c705f49	0.014671155
241	0xbce60efb	-0.028083315
242	0x3d5d6cb8	0.05405876
243	0xbd384bc2	-0.044994123
244	0x3ccdc9c0	0.025120616
245	0x3d77f887	0.06053975
246	0x3d4ab218	0.04948625
247	0xbd98e5a6	-0.07465677
248	0x3d13de06	0.03610041
249	0x3d9dfdec	0.077144474
250	0x3d868270	0.06567848
251	0x3d23af2f	0.03996199
252	0x3d805166	0.062655255
253	0xbcc88b4b	-0.024480483
254	0xbcdc5e0a	-0.02690031
255	0x3da7e45c	0.08197853

model.lstm.bias_hh_l0 f4 [416]
0	0xbda986dc	-0.082776755
1	0x3d91f21e	0.07126258
2	0x3cd6f181	0.026238205
3	0xbd15ff41	-0.036620382
4	0x3d0ff5ea	0.03514663
5	0xbd50a7ae	-0.05094116
6	0xbdbabcc6	-0.09118037
7	0x3d8471e6	0.06467037
8	0x3d8a4c6e	0.06752859
9	0xbcb7ddae	-0.022444572
10	0x3dd13521	0.10215212
11	0xbcfec618	-0.031100318
12	0x3da362d8	0.07977837
13	0x3d4c7aeb	0.04992191
14	0x3caf1ba1	0.02137548
15	0xbd8959b3	-0.06706562
16	0xbd0b2503	-0.033970844
17	0x3d0219d4	0.031762913
18	0xbd81dca8	-0.06340915
19	0xbda8d540	-0.08243799
20	0x3d9579eb	0.07298645
21	0xbcffaea3	-0.031211203
22	0x3d9b2c01	0.075767525
23	0x3d33b0c3	0.043869745
24	0x3a302c00	0.00067204237
25	0xbd7c3920	-0.061577916
26	0x3b8a60dd	0.004222973
27	0x3d952f6e	0.07284437
28	0xbcab045e	-0.020876106
29	0x3c890327	0.016725136
30	0x3d0a10de	0.033707492
31	0xba35e9ff	-0.000693947
32	0xbcedcce4	-0.029028364
33	0xbd579063	-0.052627932
34	0x3d369b42	0.04458166
35	0xbd857554	-0.06516519
36	0xbd25b96c	-0.040460035
37	0x3d489983	0.048974525
38	0xbd3fe14a	-0.04684571
39	0xbdaaffe9	-0.08349592
40	0xbd45ac65	-0.04826011
41	0xbd1b9eb9	-0.037993167
42	0x3dc68562	0.096934095
43	0xbc2d0a9a	-0.01056161
44	0xbdcb1566	-0.09916191
45	0x3dba9c80	0.09111881
46	0xbcf97c4d	-0.030454779
47	0xbd28a250	-0.04117042
48	0x3c35f9fd	0.011106965
49	0xbd8c1920	-0.0684073
50	0xbd91baa0	-0.07115674
51	0x3d657560	0.05602014
52	0xbda0d880	-0.07853794
53	0x3d9092da	0.0705926
54	0xbd0300c3	-0.03198315
55	0xbcad12e6	-0.021127176
56	0x3dc7db02	0.09758569
57	0xbd872147	-0.06598144
58	0x3da1c4d3	0.07898869
59	0xbd3f5053	-0.046707463
60	0x3da264ca	0.0792938
61	0x3ccfab3d	0.025350207
62	0xbc70aebe	-0.014690099
63	0x3b95bdf4	0.0045697633
64	0x3dadd01e	0.08486961
65	0x3c5ef270	0.013607606
66	0xbd6affdd	-0.057372916
67	0xbdbb32fa	-0.091405824
68	0x3d8ab6d2	0.067731515
69	0xba916ffa	-0.0011095994
70	0x3b935088	0.004495684
71	0x3cd42e55	0.025901
72	0xbd832fe0	-0.06405616
73	0xbd0d912f	-0.034562286
74	0x3b11c515	0.0022242714
75	0x3ce46c02	0.027883533
76	0x3dacddc1	0.08440734
77	0x3d363e44	0.044492975
78	0x3d373204	0.044725433
79	0xbd7f29a9	-0.06229559
80	0x3c79265f	0.015206902
81	0x3a37514f	0.0006993012
82	0x3d5bc27d	0.053652275
83	0xbb9bc75b	-0.0047539896
84	0x3d9ec21a	0.07751866
85	0x3d85337b	0.0650396
86	0xb94c3fcc	-0.00019478722
87	0xbd50b0c6	-0.050949834
88	0xbc603bf3	-0.013686168
89	0x3d071a33	0.03298397
90	0x3db3bd42	0.087763324
91	0xbdb4c072	-0.088257685
92	0xbd252beb	-0.040325087
93	0x3d46b074	0.048508123
94	0xbd2725f8	-0.040807694
95	0x3d169f40	0.036772966
96	0x3d8dfe14	0.06933227
97	0xbc66477d	-0.01405513
98	0x39fa44b2	0.00047734898
99	0x3d545b1f	0.051844712
100	0x3daaeadd	0.08345578
101	0x3cb33157	0.021874113
102	0x3d81882d	0.063248016
103	0xbd9834ac	-0.07431921
104	0x3d89e9f2	0.06734075
105	0x3d3f1608	0.04665187
106	0xbc77cfe5	-0.0151252495
107	0xbd43e62a	-0.047826923
108	0x3cea7c3c	0.028623693
109	0xbdbdbae9	-0.09264166
110	0xbcdd07a7	-0.026981188
111	0x3cf3d102	0.029762749
112	0x3d87cc07	0.06630712
113	0xbc8f4339	-0.017488109
114	0x3c5dc047	0.013534612
115	0xbd204f29	-0.039137993
116	0x3db34a9b	0.08754464
117	0x3b8d7667	0.004317093
118	0xbb77eb0e	-0.0037829312
119	0xbd55f0fa	-0.052231766
120	0x3d1b4407	0.037906673
121	0xbd6824e5	-0.05667581
122	0xbd4cdbcf	-0.050014313
123	0xbd47bdbc	-0.04876493
124	0x3b90834a	0.004410182
125	0x3d096507	0.033543613
126	0xbd26e08f	-0.0407415
127	0x3c176b29	0.009241858
128	0x3d66eeb6	0.056379996
129	0x3d7975c4	0.060903326
130	0x3d331579	0.04372165
131	0x3c7ade32	0.015311765
132	0xbd199287	-0.037493255
133	0xbcf27ddb	-0.029601028
134	0x3d111d11	0.03542811
135	0xbd7272ab	-0.059191387
136	0xbcc4880a	-0.02399065
137	0x3db4ae41	0.08822299
138	0xbc972402	-0.018449787
139	0x3c92c6bd	0.017917031
140	0xbd9e5371	-0.07730759
141	0xbd53542c	-0.051593944
142	0xbd7a080a	-0.061042823
143	0xbd374d75	-0.044751603
144	0x3d498259	0.049196575
145	0xbd8d3ef8	-0.06896776
146	0xbcae1462	-0.021249954
147	0xbcfdf670	-0.0310013
148	0xbd697cd6	-0.05700382
149	0xbd81b8ec	-0.06334099
150	0x3d8687de	0.06568883
151	0xbcc963bf	-0.024583695
152	0xbc60c3a9	-0.013718524
153	0xbdae732d	-0.08518062
154	0xbc5ee277	-0.013603798
155	0x3d0ef362	0.034900077
156	0x3dbbdecb	0.09173354
157	0x3a0ad211	0.00052955846
158	0xbda7617c	-0.081728905
159	0xbd889349	-0.066687174
160	0x3d5160e8	0.051117808
161	0x3d378479	0.04480407
162	0xbca508d3	-0.02014581
163	0xbd9179ac	-0.07103285
164	0x3c4e8d71	0.012606964
165	0x3c42f7bb	0.011899884
166	0xbb8f592b	-0.0043746433
167	0xbd45b937	-0.048272338
168	0xbd3c2dbb	-0.04594205
169	0x3d116192	0.03549344
170	0x3cd806af	0.026370374
171	0xbd355cf0	-0.044278085
172	0x3cb43ec6	0.022002589
173	0x3dbb1de1	0.09136558
174	0xbd45afb9	-0.048263285
175	0x3d90f169	0.07077295
176	0xbd980605	-0.07423023
177	0xbd99ffbe	-0.07519482
178	0x3d98fd44	0.074701816
179	0x3d8cc6af	0.068738334
180	0x3db174b1	0.08664835
181	0xbcc3aeb8	-0.023887023
182	0x3db10978	0.08644384
183	0x3d696812	0.056984015
184	0xbd4745c4	-0.048650518
185	0x3d498257	0.049196567
186	0xbcfc504f	-0.030800013
187	0xbd648f25	-0.055800576
188	0x3d617cdb	0.055050712
189	0xbcebc1b0	-0.02877888
190	0x3d11ac78	0.03556487
191	0xbd9b1575	-0.07572452
192	0xbcc545d8	-0.024081156
193	0x3cdfcd38	0.027319536
194	0xbd1bb250	-0.03801185
195	0xbbc5f394	-0.0060409997
196	0xbdaceae5	-0.0844324
197	0x3cfd47a5	0.030917952
198	0xbd370912	-0.044686384
199	0xbdbc19ff	-0.09184646
200	0x3dc6e47e	0.0971155
201	0x3c8cf5e8	0.017207101
202	0xbcea6e59	-0.028617071
203	0xbd4d1cf1	-0.05007643
204	0xbd9e5211	-0.07730497
205	0x3db807f1	0.0898589
206	0x3d8083ed	0.06275163
207	0x3d9b5f2a	0.075865105
208	0x3db85242	0.090000644
209	0xbc14c699	-0.0090805525
210	0x3ce07600	0.027400017
211	0xbd4ef8e0	-0.050530314
212	0xbc2c0787	-0.0104998415
213	0x3db6aaaf	0.08919274
214	0x3dc2ed4a	0.095179155
215	0x3d57790c	0.052605674
216	0x38d897d8	0.00010327966
217	0x3d90de26	0.070736215
218	0xbd0f1cfc	-0.03493975
219	0xbd68cb1a	-0.056834318
220	0xbdb5e02f	-0.0888065
221	0x3d83fe6e	0.06445013
222	0xbd90dd04	-0.070734054
223	0x3d49d2a3	0.049273144
224	0x3d75f7df	0.06005084
225	0x3dbf9445	0.09354452
226	0xbdb2dea9	-0.08733875
227	0x3d80b444	0.06284383
228	0x3cf53ee8	0.029937223
229	0xbcdf3a1f	-0.027249394
230	0x3dace81b	0.08442708
231	0xbd7eb760	-0.0621866
232	0x3d300457	0.04297289
233	0xbda43164	-0.08017233
234	0xbc1a9426	-0.009434735
235	0x3db7b743	0.08970501
236	0x3d89b7f6	0.06724541
237	0xbca34392	-0.019929681
238	0x3d88750b	0.06662949
239	0x3ce7c4ad	0.028292025
240	0xbd87ba87	-0.06627374
241	0xbc9b0196	-0.018921655
242	0xbd3d7f4e	-0.046263985
243	0x3d7d10b7	0.06178352
244	0xbceb045e	-0.028688606
245	0xbd1f2c8f	-0.038860854
246	0xbdac4f46	-0.08413558
247	0x3dbb3131	0.09140242
248	0xbbe474fd	-0.006971954
249	0x3d5cb524	0.053883687
250	0xbda6a2f0	-0.081365466
251	0x3c6a16e5	0.014287685
252	0x3cedc431	0.029024215
253	0x3dcfae38	0.101406515
254	0xbd35c592	-0.04437787
255	0x3d94635e	0.07245515

model.fc_layers.0.weight f4 [52, 104]
0	0x3c37fa39	0.011229091
1	0xbd283b0c	-0.041071936
2	0x3daca4ac	0.08429846
3	0x3ced5a32	0.028973673
4	0xbbb44909	-0.0055018705
5	0x3db763fd	0.08954618
6	0xbda61800	-0.081100464
7	0xbc4b9974	-0.012426723
8	0x3db49db1	0.0881914
9	0x3c0e7460	0.008694738
10	0x3d832224	0.06402996
11	0xbd4bd7f6	-0.049766503
12	0xbd035f0c	-0.032073066
13	0xbd66a0bd	-0.056305636
14	0xbcdc4341	-0.026887538
15	0xbcc6db34	-0.024274446
16	0xbc39952b	-0.011327068
17	0x3dceaee9	0.10091955
18	0xbc6d998e	-0.014501942
19	0x3d828718	0.06373423
20	0x3dc00234	0.0937542
21	0x3c3b8930	0.011446282
22	0x3db57be8	0.08861524
23	0x3ba4b105	0.005025985
24	0xbdac06ca	-0.083997324
25	0xbd6727c9	-0.056434426
26	0x3dc3acc8	0.0955444
27	0x3d2c1952	0.042016335
28	0x3d7a0e1d	0.061048616
29	0xbd02d92f	-0.031945404
30	0xbd6e62ca	-0.05819968
31	0xbd612ecb	-0.054976266
32	0x3dbd681d	0.09248374
33	0xbdb0d2a6	-0.08633928
34	0x3d57e812	0.052711554
35	0xbce0c3ba	-0.02743708
36	0xbdba35b0	-0.09092271
37	0xbd9c8ad9	-0.076436706
38	0xbb6b8f07	-0.0035943405
39	0xbd92cc1d	-0.07167838
40	0xbb8e7d66	-0.0043484448
41	0x3c8d540a	0.017251987
42	0xbd0f55d7	-0.034993973
43	0x3dcf6856	0.101273224
44	0xbdaac4a9	-0.08338291
45	0xbc7a0ac9	-0.01526136
46	0x3d948d5c	0.07253525
47	0xbd55cc3f	-0.052196737
48	0x3da58bcb	0.08083304
49	0x3d535e60	0.051603675
50	0xbc90d894	-0.017681397
51	0x3d587a23	0.052850854
52	0xbd321fbc	-0.043487296
53	0x3d41e7eb	0.047340315
54	0x3b2fbf36	0.0026816851
55	0x3caf25dd	0.02138036
56	0xbb62da7b	-0.0034615088
57	0xbd858cfc	-0.06521031
58	0xbd84f874	-0.06492701
59	0xbc2d6411	-0.01058294
60	0xbcbfd4ae	-0.023416843
61	0xbdcc43ad	-0.09973846
62	0x3dc7abe8	0.097495854
63	0xbd444964	-0.047921553
64	0x3c654f2f	0.01399593
65	0xbd58e334	-0.052951053
66	0xbc9b8ae8	-0.018987134
67	0xbd91e15d	-0.07123063
68	0x3d290f4e	0.04127436
69	0x3d6bec5f	0.057598468
70	0x3d16391c	0.036675557
71	0xbdbab04a	-0.09115656
72	0x3d18affe	0.037277214
73	0x3db4909f	0.08816647
74	0x3d9dec24	0.07711056
75	0x3d0cf16d	0.03440993
76	0x3d89d1b7	0.06729453
77	0x3d04e5b9	0.032445643
78	0xbcfe178a	-0.031017084
79	0x3d955c9a	0.07293053
80	0xbd443ae1	-0.047907714
81	0xbd484bc2	-0.048900373
82	0x3ca77c40	0.02044499
83	0x3d90c9ab	0.07069715
84	0x3dac4e31	0.08413351
85	0xbd774555	-0.060368855
86	0x3dbdfef6	0.092771456
87	0xbd68a8fb	-0.056801777
88	0xbdb49a7e	-0.088185295
89	0xbc5fce63	-0.013660046
90	0x3d031d05	0.032010097
91	0xbd90529b	-0.07047006
92	0xbd979f46	-0.07403426
93	0xbda3ae9f	-0.07992291
94	0xbc9e24d3	-0.019304669
95	0x3d9bb590	0.0760299
96	0xbcb785d5	-0.022402683
97	0xbbbc6305	-0.0057491087
98	0xbafa8801	-0.0019114019
99	0xbd7e37aa	-0.062064804
100	0xbd3cf03b	-0.04612754
101	0xbd4275e1	-0.0474757
102	0x3d7a619c	0.061128244
103	0x3d8739ec	0.066028446
104	0x3dc68697	0.0969364
105	0x3dbe67fa	0.09297176
106	0xbd552825	-0.052040238
107	0xbc86c5ab	-0.016451677
108	0x3b1d3754	0.0023989277
109	0x3dade74f	0.08491384
110	0xbb90ceac	-0.0044191685
111	0xbb3342a5	-0.0027352956
112	0x3c37569b	0.011190082
113	0x3d4bd9ef	0.049768385
114	0xbd688b54	-0.0567735
115	0xbda478f5	-0.08030883
116	0xbcfd0d12	-0.030890021
117	0xbd5ff674	-0.054678395
118	0x3d798cd1	0.06092531
119	0xbc292e44	-0.010325972
120	0x3d4a1359	0.049334858
121	0xbd7f3253	-0.062303852
122	0xba72a9ef	-0.00092568895
123	0x3d8e1e08	0.06939322
124	0x3b45cf47	0.0030183361
125	0xbc4c4cd7	-0.012469492
126	0x3d92188a	0.07133587
127	0xbc92f18a	-0.01793744
128	0x3c04823c	0.008087691
129	0xbd3a9028	-0.045547634
130	0xbd585335	-0.052813727
131	0x3d5f4459	0.05450854
132	0xbcad1b17	-0.021131082
133	0x3d7c4c26	0.06159606
134	0x3ca9aace	0.020711329
135	0x3d4152b8	0.047198027
136	0xbd21c89a	-0.03949795
137	0xbd26dd80	-0.040738583
138	0xbcec4d22	-0.028845374
139	0x3da16491	0.0788051
140	0x3c30335e	0.010754434
141	0x3bcf4018	0.0063247792
142	0xbd9d6c7e	-0.07686709
143	0xbd4e3845	-0.05034663
144	0x3c31a5b6	0.010842731
145	0xbd7e42b6	-0.06207534
146	0x3cd118d0	0.025524527
147	0x3d91341f	0.070900194
148	0xbd97607c	-0.0739145
149	0xbce155d0	-0.027506739
150	0xbcca1242	-0.02466691
151	0xbd0e3d91	-0.034726683
152	0x3d1b8b0e	0.03797441
153	0xbd385337	-0.045001235
154	0x3c7db3d4	0.015484769
155	0x3dd0078a	0.10157688
156	0x3db6403f	0.08898973
157	0xbcfc6a8f	-0.03081253
158	0x3d36fbde	0.044673793
159	0x3d980dd2	0.07424511
160	0x3d845c92	0.06462969
161	0x3c205de0	0.009788007
162	0x3d98c03f	0.07458543
163	0x3d933ea8	0.07189685
164	0xbd8340e7	-0.064088635
165	0xbd9e825d	-0.077397086
166	0xbb30e14c	-0.0026989756
167	0xbd87aeae	-0.066251144
168	0xbdbde46f	-0.09272086
169	0x3dc49d56	0.09600322
170	0x3bb19f48	0.005420599
171	0x3d995dfe	0.07488631
172	0xbc9b3af0	-0.018949002
173	0x3d83fe24	0.06444958
174	0xbc0a7596	-0.008450886
175	0x3d676457	0.056492176
176	0xbd8158d6	-0.06315772
177	0xbc8ee83a	-0.017444719
178	0xbc255f8e	-0.010093583
179	0xbda715f3	-0.08158483
180	0xbd77e8ba	-0.06052468
181	0x3db0d800	0.08634949
182	0xbd6f1b59	-0.05837569
183	0xbcdc80ff	-0.026916979
184	0xbdd08a75	-0.101826586
185	0x3d4256b3	0.047445964
186	0x3da4a928	0.080400765
187	0x3d9b43d0	0.075812936
188	0x3d3b6520	0.045750737
189	0xbdb8b200	-0.09018326
190	0x3d94ce53	0.07265916
191	0x3d416537	0.047215667
192	0x3c182aa2	0.009287508
193	0x3ce37326	0.027764868
194	0x3dba0987	0.090838484
195	0xbd7a4660	-0.06110227
196	0xbdb55e3b	-0.08855864
197	0x3dbc7357	0.09201687
198	0x3d2a263a	0.041540362
199	0x3d7dc4f0	0.061955392
200	0xbca4be5f	-0.020110307
201	0x3d947b21	0.072500475
202	0xbd948ddf	-0.07253622
203	0xbd930261	-0.07178188
204	0x3ca7f91e	0.02050453
205	0x3d2aa291	0.04165894
206	0xbc849b3a	-0.016187299
207	0x3db2fc92	0.0873958
208	0x3db033e8	0.0860365
209	0x3d3b7dcd	0.04577427
210	0x3cab59f6	0.02091692
211	0xbd95af14	-0.07308784
212	0xbd384ebf	-0.044996973
213	0x3d80383f	0.06260728
214	0x3dc91e04	0.09820178
215	0x3d9b51ec	0.07583985
216	0x3d80d1ca	0.06290014
217	0x3dc57aa0	0.096425295
218	0x3ceebaef	0.029141871
219	0xbd9cc3e9	-0.076545544
220	0xbd9936ea	-0.07481177
221	0x3d80cd04	0.062891036
222	0x3d826d9c	0.063685626
223	0x3d3c0d7d	0.0459113
224	0xbd56edb1	-0.052472774
225	0x3dbe34ac	0.0928739
226	0x3dcecb08	0.10097319
227	0xbcaebde9	-0.02133079
228	0xbd00fcc1	-0.031491045
229	0x3cb6bb30	0.022306055
230	0xbda59abe	-0.08086155
231	0xbd17be68	-0.03704682
232	0x3d87c8a2	0.066300645
233	0xbd239bc6	-0.03994348
234	0xbc8ef5b0	-0.017451137
235	0xbd36ccaa	-0.044628777
236	0xbd2d1c54	-0.042263344
237	0x3d189f8e	0.03726154
238	0xbda0af85	-0.07845978
239	0x3d18b056	0.037277542
240	0xbd765daf	-0.060147937
241	0xbd7f5b07	-0.06234267
242	0xbcd84073	-0.02639792
243	0xbb6a79d0	-0.0035778172
244	0xbcfa7294	-0.030572213
245	0xbdb58c40	-0.08864641
246	0x3cc89f56	0.02449004
247	0xbdc89a89	-0.097951
248	0x3d909920	0.07060456
249	0xbd811e03	-0.063045524
250	0x3c2d4144	0.010574643
251	0x3d8b7e3c	0.06811187
252	0xbcd15fa5	-0.025558302
253	0x3d34aca3	0.04410995
254	0x3d1f2725	0.03885569
255	0x3d84a172	0.06476106

model.fc_layers.0.bias f4 [52]
0	0x3dc1e77a	0.09467979
1	0x3d1716cc	0.036886975
2	0x3c09af01	0.008403541
3	0xbcd08fe2	-0.025459234
4	0xbc8d85c1	-0.017275693
5	0x3c918b29	0.017766552
6	0x3d9eab42	0.077475086
7	0x3c019ff2	0.007911669
8	0x3bfbddce	0.0076863533
9	0xbbdb5021	-0.0066929017
10	0xbc7897fd	-0.015172956
11	0xbdaad1c1	-0.08340789
12	0xbd34b3a0	-0.044116616
13	0xbd9d39f9	-0.07677073
14	0x3d7e0357	0.062014904
15	0xbc89587e	-0.01676583
16	0x3d44f108	0.048081428
17	0xbcabcc78	-0.020971522
18	0x3da9ae76	0.08285229
19	0x3dc5c98c	0.09657583
20	0x3d40a1ba	0.047029234
21	0xbcfd4122	-0.030914847
22	0x3d35e06a	0.04440347
23	0xbd5df93e	-0.054192774
24	0xbad327c0	-0.0016109869
25	0xbdb36198	-0.08758849
26	0x3cf3e119	0.02977042
27	0x3d618c82	0.05506564
28	0x3d5f30c9	0.054489885
29	0xbd7ea995	-0.062173445
30	0x3c80c7d7	0.015720291
31	0x3dbe719e	0.092990145
32	0xbd754211	-0.05987746
33	0xbd4d44ab	-0.050114315
34	0xbb1ca3a9	-0.002390126
35	0x3dac1985	0.08403305
36	0xbc9731a7	-0.018456293
37	0x3d099315	0.033587534
38	0xbd84389e	-0.06456111
39	0x3db3a3aa	0.08771451
40	0x3c56355c	0.013074245
41	0xbbf880e9	-0.0075837267
42	0xbd77f96b	-0.060540598
43	0xbd09d777	-0.03365275
44	0xbd455214	-0.04817398
45	0x3cdca26e	0.026932921
46	0xbd3f13f2	-0.04664988
47	0x3c91941a	0.017770816
48	0x3cf8e213	0.030381238
49	0x3b4e5009	0.003148081
50	0xbd36b749	-0.044608388
51	0x3d9dc436	0.0770344

model.fc_layers.1.weight f4 [26, 52]
0	0xbdc75ceb	-0.097345196
1	0x3d88e903	0.066850685
2	0x3e00e560	0.125875
3	0x3d163fd8	0.03668198
4	0x3c89e47e	0.016832586
5	0xbdc91746	-0.09818892
6	0xbd741204	-0.059587494
7	0x3d508cef	0.050915655
8	0x3df63f7f	0.1202383
9	0xbdf0ad1f	-0.1175177
10	0x3e04cf61	0.12969734
11	0xbdc1714e	-0.09445439
12	0xbd04580a	-0.032310523
13	0x3df27472	0.118386164
14	0x3dd93b5d	0.10607026
15	0x3db26b79	0.08711905
16	0xbd9f352c	-0.077738136
17	0xbdb96f5b	-0.090544425
18	0xbce228f1	-0.027607413
19	0xbd021dc3	-0.031766664
20	0x3d0ccb82	0.034373768
21	0x3d9e257c	0.07721993
22	0x3de5a73d	0.11213539
23	0xbd7acae7	-0.06122866
24	0xbd128ee6	-0.03578081
25	0x3c941040	0.018074155
26	0x3c19b7a3	0.009382161
27	0xbcfe489e	-0.031040486
28	0x3c8aa2d7	0.016923351
29	0x3d6eeef0	0.058333337
30	0xbd849896	-0.06474416
31	0xbd968949	-0.07350404
32	0xbd9b8565	-0.07593802
33	0xbd3ff390	-0.04686314
34	0x3e0c10d4	0.13678294
35	0x3d506830	0.05088061
36	0x3df14e44	0.11782506
37	0x3d40f3c2	0.047107466
38	0x3da31571	0.07963074
39	0x3dfdf109	0.123994894
40	0xbd8bb45f	-0.068215124
41	0x3d6c3001	0.057662968
42	0xbe0c12d5	-0.13679059
43	0x3bb8f121	0.005643979
44	0xbd85249a	-0.06501122
45	0xbd941600	-0.07230759
46	0xbc96e2be	-0.018418666
47	0xbdd66846	-0.10469107
48	0xbdef06be	-0.11671208
49	0x3d5950af	0.05305546
50	0x3dc5f503	0.09665873
51	0x3b281e26	0.0025652735
52	0xbdcebc70	-0.10094535
53	0xbcef7db5	-0.029234746
54	0xbd8f06b1	-0.06983698
55	0x3dcbf193	0.09958186
56	0xbd96584d	-0.07341061
57	0xbe0b3781	-0.13595392
58	0xbd990e56	-0.074734375
59	0x3d04a5ce	0.032384686
60	0xbd5f8084	-0.05456592
61	0x3d7e9195	0.062150557
62	0xbe003ac7	-0.12522422
63	0xbd8001e7	-0.06250363
64	0x3dd6c76c	0.104872555
65	0xbde37e6c	-0.111080974
66	0x3da331f2	0.07968511
67	0x3d48e836	0.04904958
68	0xbdddf231	-0.1083721
69	0xbc38c669	-0.011277773
70	0xbd8108f4	-0.06300536
71	0xbcf7e28c	-0.030259393
72	0x3cb7339f	0.022363482
73	0xbdcf18d7	-0.1011216
74	0xbe060377	-0.13087259
75	0xbdc18f8f	-0.0945121
76	0x3cf82353	0.030290281
77	0xbdf42ce9	-0.119226284
78	0xbb264eab	-0.002537648
79	0xbb2c0823	-0.0026249967
80	0xbc9871f4	-0.018609025
81	0x3dc15dd2	0.09441723
82	0x3dac64d0	0.08417666
83	0x3dc81058	0.09768742
84	0x3e0838cf	0.13302921
85	0xbd64ab91	-0.05582768
86	0xbe124e8e	-0.14287779
87	0xbc07bfb3	-0.008285451
88	0x3d36500a	0.044509925
89	0xbd262605	-0.040563602
90	0x3db961a8	0.090518296
91	0xbdfc866f	-0.12330329
92	0x3deaa0fb	0.11456486
93	0x3e04f939	0.12985696
94	0xbd0f36d5	-0.0349644
95	0xbc74226e	-0.014900787
96	0xbc3b9db5	-0.0114511745
97	0xbd7b57c8	-0.06136301
98	0xbc59ecfc	-0.01330113
99	0xbde0fc7e	-0.10985659
100	0x3dec1c4d	0.115288354
101	0xbe087ab9	-0.13328065
102	0xbe074635	-0.13210376
103	0xbddb7c65	-0.10717086
104	0x3e098292	0.13428715
105	0x3caf30bd	0.021385545
106	0x3c22cc8f	0.009936466
107	0xbdf24411	-0.11829389
108	0x3da50c11	0.08058942
109	0xbd9ae545	-0.07563261
110	0xbd195637	-0.037435737
111	0xbd6d605a	-0.057953216
112	0xbdc10c81	-0.09426213
113	0xbd4abba8	-0.04949537
114	0xbd4d6a54	-0.05015023
115	0x3d960025	0.07324246
116	0xbdf487ec	-0.119399875
117	0xbddc0935	-0.107439436
118	0x3bad60a2	0.0052910605
119	0x3db686be	0.08912419
120	0x3ddbe203	0.10736468
121	0x3de74b4b	0.11293658
122	0xbdc8c80d	-0.09803782
123	0x3d319d4c	0.0433629
124	0xbbead478	-0.0071664415
125	0xbe037af0	-0.12839866
126	0x3d27e50b	0.040989917
127	0x3c0c064b	0.008546422
128	0x3de280ec	0.11059746
129	0x3e01b0e0	0.12665129
130	0x3d197806	0.03746798
131	0x3e013aa1	0.12620021
132	0xbe060a9d	-0.13089986
133	0x3e08cb6f	0.13358854
134	0x3d9bcc74	0.07607356
135	0x3ded77c4	0.11595109
136	0x3da9a5f4	0.08283606
137	0x3de97443	0.11399128
138	0xbd374d74	-0.0447516
139	0xbc200e1a	-0.009768987
140	0x3d241a25	0.040063996
141	0xbd1fd11f	-0.039017793
142	0xbdafe0d6	-0.08587806
143	0x3d8949f4	0.067035586
144	0x3de597a6	0.11210565
145	0xbcac9aa1	-0.021069827
146	0xbdeb0ee7	-0.11477452
147	0xbd69560b	-0.056966823
148	0x3dfbef1e	0.12301467
149	0x3ddc60ca	0.107606485
150	0xbe0cc516	-0.13747057
151	0x3b2b4d3a	0.002613856
152	0x3dc28e0f	0.09499752
153	0x3d6a6bc4	0.05723168
154	0x3dc09c5c	0.09404823
155	0x3d4a07ba	0.049323775
156	0xbceff99a	-0.029293824
157	0xbd84a897	-0.064774685
158	0x3e11a34a	0.14222446
159	0x3d06ea85	0.0329385
160	0xbda2ed87	-0.07955461
161	0x3d3f9232	0.046770282
162	0xbdc645d1	-0.09681285
163	0xbe0309bb	-0.1279668
164	0x3bad1aea	0.0052827494
165	0xbe0e3f6f	-0.13891385
166	0xbbbb0c29	-0.0057082367
167	0x3c510445	0.012757366
168	0xbd8174fb	-0.063211404
169	0x3dc453d8	0.095863044
170	0x3db7e942	0.08980037
171	0xbd716653	-0.058935475
172	0x3d9b2383	0.07575133
173	0xbd45c542	-0.048283823
174	0xbd023474	-0.031788304
175	0x3d521f60	0.051299453
176	0x3de38d50	0.111109376
177	0xbd397ee4	-0.045287028
178	0xbd1822e6	-0.037142657
179	0xbb61f481	-0.003447801
180	0xbd7d0ff0	-0.061782777
181	0xbcfc2c9e	-0.030782994
182	0xbe073c94	-0.13206702
183	0xbdc09c73	-0.0940484
184	0xbd7e9604	-0.062154785
185	0xbd0ac7b1	-0.033881847
186	0xbce1b098	-0.027550027
187	0x3da406ac	0.08009085
188	0x3e003329	0.12519516
189	0x3d44ff78	0.048095196
190	0xbd92edcd	-0.07174263
191	0x3cb0d90f	0.021587877
192	0xbd923243	-0.07138493
193	0xbd8f3e27	-0.069942765
194	0x3dc1a5aa	0.09455426
195	0xbc3b0858	-0.0114155635
196	0xbcbae189	-0.022812622
197	0x3db3e5b8	0.0878405
198	0xbaf9a323	-0.0019045811
199	0x3d3bfa18	0.045892805
200	0xbd36e077	-0.04464766
201	0xbc1a1500	-0.009404421
202	0xbd8aae8a	-0.06771572
203	0xbdcf62ee	-0.10126291
204	0x3d6422eb	0.055697363
205	0xbdd1af7d	-0.1023855
206	0xbdfc208d	-0.12310896
207	0x3daec7a5	0.08534173
208	0xbd886fe2	-0.06661965
209	0xbd3c6bce	-0.046001248
210	0x3ceb9779	0.028758751
211	0xbd2adfae	-0.041717224
212	0xbab01117	-0.0013432828
213	0x3da9207a	0.082581475
214	0xbda18a16	-0.07887666
215	0x3d112412	0.03543479
216	0xbd726334	-0.05917664
217	0xbd9338d4	-0.071885735
218	0x3c1205b2	0.008912491
219	0xbd26d444	-0.040729776
220	0x3da0f187	0.07858568
221	0xbe0cc6ba	-0.13747683
222	0x3bd64cdb	0.0065399236
223	0xbd1b4a37	-0.037912574
224	0xbe07dd84	-0.13268095
225	0xbdcce8e1	-0.100053556
226	0x3da52dc8	0.08065373
227	0xbe0a8a1b	-0.13529246
228	0x3c468f58	0.012119137
229	0x3ccb77c3	0.02483738
230	0x3ddd068a	0.10792263
231	0xbca74a53	-0.020421183
232	0xbe017119	-0.126408
233	0xbe0eb131	-0.1393478
234	0x3de191cd	0.110141374
235	0x3d0f0023	0.03491224
236	0xbd13de90	-0.036100924
237	0xbce01a58	-0.027356312
238	0xbd1eb1d8	-0.038743824
239	0xbccc1640	-0.024912953
240	0xbc8d8399	-0.017274665
241	0x3e04df81	0.12975885
242	0x3c1c2671	0.0095306495
243	0x3d237f0a	0.039916076
244	0xbdcc7841	-0.09983874
245	0x3d8c83b4	0.06861058
246	0xbc990f23	-0.018683976
247	0xbdc15723	-0.09440448
248	0x3d8273a0	0.0636971
249	0xbd9028ee	-0.07039057
250	0x3d5d86fc	0.05408381
251	0x3cfb51dc	0.030678682
252	0x3ddf0c0f	0.10890972
253	0xbd7860b5	-0.060639102
254	0x3df6444b	0.120247446
255	0xbe0cb8bd	-0.13742347

model.fc_layers.1.bias f4 [26]
0	0xbdb4b142	-0.08822872
1	0x3d6686b6	0.056280814
2	0xbdadb45d	-0.08481667
3	0xbd9fdc85	-0.07805733
4	0x3d071a4a	0.032984056
5	0xbde154a1	-0.1100247
6	0x3cd76cb4	0.02629695
7	0x3d9ec39b	0.077521525
8	0x3e01cc55	0.12675603
9	0xbe1206d3	-0.14260416
10	0x3d2a27ca	0.041541852
11	0x3de5bc3d	0.11217544
12	0x3d6ff374	0.058581784
13	0x3e07a3de	0.13246104
14	0xbe01b36a	-0.12666097
15	0xbc573cb4	-0.013137031
16	0x3c269c83	0.010169151
17	0xbd2ee4cb	-0.042698663
18	0x3daf4d04	0.085596114
19	0x3cc51d19	0.024061726
20	0x3c939a38	0.018017873
21	0x3c3b81f0	0.011444554
22	0xbdbfc2ba	-0.09363313
23	0x3cdd4b51	0.027013453
24	0x3db1da4b	0.08684214
25	0xbd25c1af	-0.040467914

model.fc_layers.2.weight f4 [3, 26]
0	0x3d6a9830	0.057274044
1	0xbdfd4626	-0.123668954
2	0xbdbcd68c	-0.09220609
3	0xbb35b460	-0.002772592
4	0x3da12b39	0.07869572
5	0xbd9a5a76	-0.07536785
6	0xbd896db4	-0.06710377
7	0xbdec2616	-0.11530702
8	0x3de58580	0.11207104
9	0x3cff95ef	0.031199424
10	0xbde46107	-0.11151319
11	0xbce5efe3	-0.028068488
12	0x3e1867bd	0.14883323
13	0x3d05725f	0.032579776
14	0xbddbc280	-0.10730457
15	0xbd98824a	-0.07446726
16	0x3de63e04	0.11242297
17	0x3cfc1e90	0.030776292
18	0xbda0c0fa	-0.07849307
19	0xbdd94c5c	-0.106102675
20	0xbdae2719	-0.08503551
21	0x3d9fdb5f	0.078055136
22	0xbe048916	-0.12942919
23	0xbe34e5d2	-0.17665794
24	0x3dfb9017	0.12283342
25	0xbe26b2c2	-0.16279128
26	0x3db7bcfb	0.08971592
27	0xbde3818e	-0.11108695
28	0x3df54b82	0.119772926
29	0x3de35dcf	0.11101877
30	0xbb29a99f	-0.0025888456
31	0xbe114779	-0.14187421
32	0x3e0c5fae	0.13708374
33	0x3dceca0f	0.10097133
34	0x3d9ff9b6	0.078113005
35	0xbe08e462	-0.13368371
36	0xbd2ceb59	-0.042216633
37	0x3e32b34e	0.17451212
38	0xbe3796c3	-0.17928605
39	0x3d4a561c	0.049398527
40	0x3df7e5c5	0.12104372
41	0x3d4a5330	0.04939574
42	0x3e36760e	0.17818472
43	0xbe3c22e0	-0.18372679
44	0xbe30e7d2	-0.17275932
45	0xbdd45bdc	-0.10369083
46	0xbdb41059	-0.087921806
47	0x3e23a903	0.15982442
48	0x3c8b513f	0.017006515
49	0xbdb35971	-0.08757294
50	0xbe150b20	-0.14555025
51	0xbd1921e6	-0.037385844
52	0x3de6d3cd	0.112708665
53	0xbd102c79	-0.035198662
54	0x3da5c299	0.08093757
55	0x3e227426	0.1586462
56	0xbde7ff1d	-0.11327956
57	0x3c5fc8a5	0.013658677
58	0x3de5982d	0.11210666
59	0x3e184720	0.14870882
60	0x3e368679	0.17824735
61	0x3d411d4f	0.04714709
62	0x3c933349	0.01796879
63	0xbda9c6db	-0.08289882
64	0xbdabc524	-0.08387211
65	0x3e36b38f	0.17841934
66	0xbdee62ff	-0.11639976
67	0x3e131bc3	0.14366059
68	0xbe06d046	-0.13165388
69	0xbd93485f	-0.07191538
70	0x3e17d46d	0.14827128
71	0x3dd93b3d	0.10607002
72	0x3dcc0be2	0.09963204
73	0xbc4e4c96	-0.012591502
74	0xbd116ea6	-0.035505913
75	0x3da512c6	0.080602214
76	0x3e280327	0.16407453
77	0x3dd049f7	0.10170358

model.fc_layers.2.bias f4 [3]
0	0xbe395330	-0.1809814
1	0xbe23fd3e	-0.16014573
2	0x3da250a2	0.07925536
