LSTM_TimeSeries/lightning_logs/version_175/checkpoints/epoch=2-step=390.ckpt (torch, 640155 bytes, 27 tensors)

model.lstm.weight_ih_l0 f4 [416, 3]
0	0xb94a0550	-0.000192662
1	0xbc5ea90b	-0.013590108
2	0xbda78836	-0.08180277
3	0x3ca89017	0.02057652
4	0x39aa94ef	0.0003253589
5	0x3de5fe36	0.112301275
6	0x3cde1212	0.027108226
7	0xbd8a5afb	-0.067556344
8	0x3d9f7940	0.077867985
9	0xbc62967a	-0.013829822
10	0x3c8d6569	0.01726027
11	0x3e0fbecf	0.14037631
12	0xbd9958a6	-0.074876115
13	0x3d884a18	0.06654757
14	0xbd7759db	-0.060388427
15	0xbc0907ce	-0.008363677
16	0xbc14bd90	-0.009078398
17	0x3e08da75	0.13364585
18	0x3d68c4c5	0.05682828
19	0x3a0c77e8	0.00053584436
20	0xbcce0e40	-0.02515328
21	0x3d12caf8	0.035838097
22	0x3d2c84a2	0.042118676
23	0x3c706044	0.014671389
24	0x3c45ac6a	0.0120650325
25	0x3d83c881	0.064347275
26	0x3e1aa7be	0.15103051
27	0x3d239adb	0.039942604
28	0x3e0e04af	0.13868974
29	0x3e0b4bd9	0.13603152
30	0x3d4a8e43	0.049452078
31	0x3da0292d	0.07820354
32	0x3c71ef5a	0.0147665385
33	0xbccd497a	-0.02505945
34	0x3d509d10	0.050931036
35	0x3d9130d7	0.070893936
36	0x3d6e231a	0.058138944
37	0xbd574358	-0.05255446
38	0x3d631862	0.055443175
39	0x3ceb2d81	0.028708221
40	0x3c4fa81e	0.01267436
41	0xbdad2366	-0.08454017
42	0x3cd759ac	0.026287876
43	0xbcd85100	-0.026405811
44	0x3d461c72	0.04836697
45	0x3bee2ae8	0.0072682984
46	0x3c849f21	0.01618916
47	0x3e027ad4	0.12742168
48	0xbcd4cdb4	-0.025976993
49	0xbc5a462c	-0.013322394
50	0x3cd3a73c	0.02583658
51	0x3dbd972f	0.092573516
52	0xbcb0326a	-0.021508414
53	0x3e03a386	0.12855348
54	0xbd8a1da1	-0.067439325
55	0x3d920e8e	0.07131682
56	0xbcffba84	-0.031216867
57	0x3d77ac74	0.0604672
58	0xbd0c59e2	-0.034265406
59	0x3d5728a1	0.05252898
60	0x3cb5c779	0.022189843
61	0x3d606a0c	0.054788634
62	0x3ce9f508	0.028559223
63	0x3dd80f7f	0.10549831
64	0xbd1ebe8a	-0.03875593
65	0x3e20a6f6	0.1568869
66	0x3df1f7e5	0.1181486
67	0xbb5fc2e8	-0.0034143273
68	0x3dbde630	0.092724204
69	0x3d0a1818	0.033714384
70	0x39d2961c	0.00040166161
71	0x3d2a7af1	0.041621152
72	0x3bd65eac	0.0065420475
73	0x3d099d33	0.033597182
74	0x3d566070	0.052338064
75	0x3da59d42	0.08086635
76	0x3d4f7fcc	0.050658986
77	0x3e034ad1	0.12821509
78	0xbd4a8578	-0.049443692
79	0x3dd6c0ec	0.10486016
80	0x3db38a1b	0.08766576
81	0x3d885445	0.06656698
82	0xbb2f3c8c	-0.002673897
83	0x3e025f2e	0.1273162
84	0x3dec189a	0.1152813
85	0x3d2461b1	0.04013223
86	0xbc2b33bc	-0.010449346
87	0x3db70ce5	0.08938006
88	0x3e01d34a	0.12678257
89	0x3d6f7fce	0.058471493
90	0x3d060842	0.03272272
91	0x3e2176ff	0.1576805
92	0x3e2f331c	0.1710934
93	0x3d2cc686	0.042181514
94	0x3d4ee868	0.05051461
95	0x3c9d80ad	0.019226396
96	0x3c9da539	0.019243823
97	0x3dd5d3e6	0.10440807
98	0x3e21c17a	0.15796462
99	0x3dd2d386	0.10294251
100	0x3d921bc4	0.07134202
101	0x3d2198dc	0.03945242
102	0x3d9705bf	0.07374143
103	0xbd1a32a8	-0.037645966
104	0x3d555aba	0.052088477
105	0xbd12d8e3	-0.03585137
106	0xbdc0a6ff	-0.09406852
107	0x3dbba2ae	0.09161888
108	0xbb881191	-0.0041524847
109	0x3d5fd53d	0.05464672
110	0x3d0dda0f	0.034631785
111	0x3de0bb9b	0.10973283
112	0x3d895bf6	0.06706993
113	0x3dde3140	0.108492374
114	0xbd3fb286	-0.046801113
115	0x3c978001	0.018493654
116	0x3cfbbecb	0.030730626
117	0x3dfbd1ce	0.122958764
118	0x3dee9c08	0.11650854
119	0x3d1e4bbe	0.038646452
120	0x3dced8e0	0.100999594
121	0x3d172403	0.036899578
122	0x3e0cfad9	0.13767566
123	0x3d69683f	0.056984182
124	0xbcc80275	-0.024415234
125	0x3e187830	0.14889598
126	0x3d50e63a	0.05100081
127	0xbcb4fc6d	-0.022093022
128	0x3c99d4c1	0.018778207
129	0x3d1a8170	0.037721097
130	0x3df7def2	0.1210307
131	0x3d7c45a9	0.06158987
132	0x3d9e25bf	0.07722043
133	0x3e09fe5e	0.1347594
134	0x3d19ec06	0.037578605
135	0x3dfcc0d3	0.12341466
136	0xbc06ecd3	-0.008235174
137	0x3d11dbe4	0.035610095
138	0x3d0729d3	0.03299887
139	0x3db6b51b	0.08921262
140	0x3e03323f	0.12812136
141	0x3df1342f	0.11777531
142	0x3d7e95d7	0.062154617
143	0x3e2a28f0	0.16617179
144	0x3da58532	0.080820456
145	0xbcd59a4b	-0.02607455
146	0x3de8812a	0.11352761
147	0x3de5c6ec	0.11219582
148	0x3e01d4a4	0.12678772
149	0x3dac4c50	0.08412993
150	0x3dc0838c	0.094000906
151	0x3e29cf99	0.16583098
152	0x3db00e96	0.08596532
153	0xbc21f566	-0.009885168
154	0xbd242cd1	-0.040081803
155	0x3de06463	0.10956647
156	0xbccd6d22	-0.025076453
157	0xbd813275	-0.06308452
158	0x3d818746	0.063246295
159	0x3e06d1ae	0.13165924
160	0x3d0f6c46	0.035015367
161	0x3dde7200	0.108615875
162	0x3d1a0e5a	0.037611343
163	0x3d357ae2	0.044306643
164	0x3defdbce	0.11711846
165	0xbdf5edbe	-0.12008236
166	0x3d760a6c	0.060068533
167	0x3cd155c2	0.025553588
168	0x3ccada69	0.02476235
169	0x3da7c862	0.08192517
170	0xbb1cebe8	-0.0023944322
171	0xbd8c9134	-0.06863633
172	0x3d3d6865	0.046242137
173	0x3d9b96ab	0.07597097
174	0xbd7c6053	-0.0616153
175	0xbcf3c7f8	-0.029758438
176	0xbb3ab895	-0.0028491367
177	0x3d02b94c	0.031914994
178	0x3cedf0c4	0.02904547
179	0x3df4be0f	0.11950313
180	0xbe00adc6	-0.1256629
181	0xbd68c008	-0.05682376
182	0x3c5552be	0.013020216
183	0x3d7eed04	0.062237754
184	0x3d8fbb73	0.07018175
185	0x3d05dfb6	0.03268405
186	0x3d92542a	0.07144959
187	0x3c8317cc	0.016002558
188	0xbd82cf70	-0.06387222
189	0x3d6ae9e7	0.057351973
190	0x3d9f678f	0.07783424
191	0x3d8f07c9	0.06983907
192	0x3db7a79f	0.08967518
193	0x3dc8a612	0.097973004
194	0x3ce431b2	0.027855728
195	0x3d0709d9	0.032968376
196	0xbc258127	-0.010101593
197	0x3d668448	0.056278497
198	0x3d2719eb	0.0407962
199	0x3d966ed3	0.07345357
200	0xbbca4d1e	-0.006173744
201	0xbcbc3025	-0.022972176
202	0x3b18bbcc	0.0023305295
203	0xbca5dd00	-0.020246983
204	0x3d78e5bf	0.060765978
205	0x3dca4430	0.09876287
206	0x3de638ca	0.112413004
207	0x3decb1a8	0.11557323
208	0x3dd36ed6	0.10323875
209	0x3cf8d8c1	0.030376794
210	0x3dda08cc	0.10646209
211	0x3d3f6575	0.046727616
212	0x3da175b5	0.07883779
213	0x3cd046e1	0.025424423
214	0x3d001aa9	0.031275425
215	0x3dfd86c7	0.12379222
216	0x3cff1ab8	0.03114067
217	0x3d3b1b5f	0.0456804
218	0xbc4edb93	-0.012625593
219	0x3daf2c4c	0.08553371
220	0x3cb9fa88	0.02270247
221	0x3dafca52	0.085835114
222	0x3d1f23ae	0.038852386
223	0x3e2d2093	0.16906957
224	0x3dbee6ad	0.09321342
225	0xbd94c1d5	-0.07263533
226	0x3de657c1	0.112472065
227	0x3d0afa36	0.033930026
228	0x3dc3f615	0.09568421
229	0xbd40b7b6	-0.0470502
230	0xbbeccb50	-0.007226385
231	0x3d90b8eb	0.0706652
232	0x3d0a34e7	0.033741858
233	0x3aa5a3bd	0.0012637299
234	0x3ca4316f	0.020043103
235	0x3d893382	0.066992775
236	0x3d54e5a1	0.051976804
237	0x3dd84e26	0.10561781
238	0x3d0e76f5	0.034781415
239	0x3c181602	0.009282591
240	0x3e007bcf	0.12547229
241	0x3cc53393	0.024072444
242	0x3d524cf1	0.05134291
243	0xba716cdf	-0.00092096435
244	0xbbf48480	-0.0074620843
245	0xbe0f6b50	-0.1400578
246	0x3d6db2d0	0.058031857
247	0x3e0b77be	0.13619897
248	0x3cdbc874	0.026828982
249	0x3c11b007	0.008892066
250	0x3dbe4549	0.09290559
251	0x3cbabf54	0.02279631
252	0x3dd91a81	0.10600758
253	0x3e0f92de	0.14020869
254	0x3df30d04	0.11867717
255	0x3d3636c4	0.044485822

model.lstm.weight_hh_l0 f4 [416, 104]
0	0x3d147eea	0.036253847
1	0xbd820113	-0.06347861
2	0x3cf2980c	0.029613517
3	0xbd19a9b9	-0.037515376
4	0xbd26f55b	-0.040761333
5	0xbda291a8	-0.07937938
6	0x3c354d30	0.011065766
7	0x3ca601e8	0.02026458
8	0xbc4a86b0	-0.012361214
9	0xbca472c8	-0.020074263
10	0xbd308b2f	-0.043101486
11	0x3c9501dc	0.018189363
12	0xbca5b768	-0.020229056
13	0xbc0c3368	-0.008557178
14	0xbceae238	-0.028672323
15	0x3db1f745	0.08689741
16	0xbd6647df	-0.056220885
17	0xbb4e7cc0	-0.0031507462
18	0xbd686477	-0.056736436
19	0xbd7b0e91	-0.06129319
20	0x3c240bb8	0.01001256
21	0xbc443fa0	-0.01197806
22	0x3cb179b0	0.02166447
23	0xbd442391	-0.04788548
24	0x3d44f736	0.04808732
25	0x38d98000	0.00010371208
26	0x3d8b8e8d	0.06814299
27	0xbd92ab0a	-0.07161529
28	0x3d033c4a	0.032039918
29	0x3c810600	0.015749931
30	0x3d180452	0.037113495
31	0x3ca79f10	0.02046159
32	0xbbbd0a20	-0.0057690293
33	0xbd09a22a	-0.033601917
34	0x3c8bc558	0.017061874
35	0xbd24eb19	-0.04026327
36	0x3d90b6d5	0.070661224
37	0x3d8b5bed	0.06804643
38	0xbd48a110	-0.048981726
39	0x3c93d780	0.018047094
40	0x3d06fbc2	0.03295494
41	0x3d87b445	0.066261806
42	0x3c68e640	0.014215052
43	0xbd432360	-0.047641158
44	0x3d93666b	0.07197269
45	0x3d9f8209	0.07788474
46	0x3ca409b0	0.02002415
47	0x3cff6a24	0.031178541
48	0x3c8f9118	0.01752524
49	0x3d04a5ca	0.03238467
50	0x3d7f9416	0.062397085
51	0x3d0cf74a	0.03441552
52	0x3d02ef3a	0.031966425
53	0xbd89c154	-0.067263275
54	0x3cb4571c	0.022014193
55	0xbcccd4cc	-0.025003813
56	0xbd8507dc	-0.0649564
57	0xbc09dd38	-0.008414559
58	0x3daaa227	0.08331709
59	0x3dc13eb9	0.094357915
60	0x3cf27c64	0.02960033
61	0x3dbbb967	0.09166222
62	0x3d04ec22	0.032451756
63	0xbd35c6c1	-0.044379
64	0xbcfa8858	-0.030582592
65	0xbdb65355	-0.08902613
66	0xbb91c210	-0.004448183
67	0xbda52f39	-0.08065648
68	0xbd03fe2c	-0.03222482
69	0xbd27d643	-0.04097582
70	0x3d5c6672	0.053808637
71	0xbce36628	-0.027758673
72	0xbd66f341	-0.05638433
73	0xbd043520	-0.032277226
74	0xbdaf7870	-0.085678935
75	0xbdc1347f	-0.09433841
76	0x3c0b2260	0.008492082
77	0x3dadd587	0.08487993
78	0x3d99a411	0.07501996
79	0xbc743028	-0.0149040595
80	0x3db871bd	0.09006069
81	0xbd850728	-0.064955056
82	0x3db595e5	0.08866481
83	0xbd1a880e	-0.037727408
84	0x3d39745a	0.045276977
85	0x3dc71cf9	0.09722323
86	0x3d90f46d	0.070778705
87	0x3d142d8e	0.036176257
88	0xbcb3d9a4	-0.021954365
89	0xbd9fd45f	-0.078041784
90	0x3d73337a	0.059375264
91	0x3d42063e	0.047369234
92	0xbd58e434	-0.052952006
93	0xbdbd5ff0	-0.09246814
94	0xbd5562ba	-0.052096106
95	0x3d897a97	0.06712835
96	0xbc8358f8	-0.016033635
97	0x3d81765d	0.06321404
98	0x3ce83994	0.028347768
99	0xbd268ba6	-0.040660523
100	0xbd37d119	-0.044877145
101	0xbc0ef7e0	-0.00872609
102	0x3b934490	0.0044942573
103	0x3db749eb	0.089496456
104	0x3cab528c	0.020913385
105	0x3b9ea6e0	0.0048416704
106	0x3d5684f6	0.052372895
107	0x3d40eafa	0.04709909
108	0xbd8f97de	-0.07011388
109	0x3cac28ac	0.021015488
110	0xbd97dd5d	-0.074152686
111	0xbd986581	-0.07441235
112	0xbcd706f4	-0.026248433
113	0xbd3e6f6e	-0.046492986
114	0xbcb6ff9c	-0.02233868
115	0xbb420080	-0.0029602349
116	0x3d3d84de	0.04626929
117	0xbdb7f399	-0.089820094
118	0x3d0dc112	0.034607954
119	0x3d65b0aa	0.056076683
120	0xbbf5f600	-0.007506132
121	0xbb36e840	-0.0027909428
122	0x3dc017ff	0.09379577
123	0xbcee8b14	-0.029119052
124	0x3cbba120	0.022903979
125	0xbc957608	-0.018244758
126	0x3c3bfb90	0.011473551
127	0x3daba4c1	0.08381034
128	0x3d833cc1	0.06408072
129	0x3d0c8bc2	0.03431297
130	0x3cbe0fe0	0.02320093
131	0x3cbf9a5c	0.023389034
132	0xbdc2e542	-0.09516384
133	0x3d041356	0.032245003
134	0xbd415253	-0.04719765
135	0xbd0cf614	-0.034414366
136	0x3db3b62d	0.08774982
137	0x3daeeba9	0.08541042
138	0xbd9d3345	-0.076757945
139	0xbd0e600c	-0.034759566
140	0x39a5d700	0.0003163144
141	0xbda30792	-0.07960428
142	0x3daedd9b	0.08538362
143	0xbd9d0c38	-0.07668346
144	0x3cec1bbc	0.028821819
145	0x3cbb3b34	0.022855379
146	0x3d208602	0.0391903
147	0x3b670820	0.0035252646
148	0x3ce463ac	0.027879559
149	0x3d7a1b3e	0.061061136
150	0x3d7ae8d6	0.061257206
151	0x3bfa90e0	0.007646665
152	0xbd99043e	-0.07471512
153	0x3cf34fc4	0.029701121
154	0xbd2f37ed	-0.042777944
155	0x3bcfd510	0.0063425377
156	0x3d85db6b	0.06535991
157	0xbd574af9	-0.052561734
158	0xbca73504	-0.020411022
159	0x3da58d71	0.080836184
160	0xbd88eee2	-0.06686188
161	0xbd81afb6	-0.06332342
162	0xbd71ee9d	-0.05906545
163	0x3da74209	0.08166892
164	0xbd94fdea	-0.07274993
165	0x3d8212db	0.06351253
166	0x3db9e1c5	0.09076265
167	0x3db16e1b	0.08663579
168	0x3c45a5d0	0.012063459
169	0x3d33253e	0.04373669
170	0xbdc2cac5	-0.095113315
171	0x3db2c703	0.08729365
172	0xbd8d6f64	-0.06906012
173	0xbcbb52bc	-0.0228666
174	0x3d7d0f6a	0.061782278
175	0xbd735575	-0.05940767
176	0x3dc64363	0.09680822
177	0x3d2b4376	0.041812383
178	0x3ce8e654	0.028430142
179	0x3dbb08cf	0.091325395
180	0x3cf63dfc	0.030058853
181	0xbd1de26f	-0.038546022
182	0x3c57ac78	0.013163678
183	0xbd4f6a1d	-0.050638307
184	0x3c1bfae0	0.0095202625
185	0xbd87d776	-0.06632893
186	0x3cd1e904	0.025623806
187	0x3d9ef7cb	0.077621065
188	0x3971a600	0.00023045391
189	0x3a0e9d00	0.0005440265
190	0x3c479c98	0.012183331
191	0xbd4865d9	-0.048925254
192	0xbc4516e8	-0.012029387
193	0xbd6d9239	-0.058000777
194	0x3c9c19e4	0.019055314
195	0xbd99c405	-0.07508091
196	0x3dc40525	0.09571294
197	0x3d45edaa	0.048322357
198	0x3d11c202	0.03558541
199	0x3d3b7c06	0.045772575
200	0xbd6f5a09	-0.058435474
201	0x3d61931a	0.055071928
202	0x3db0a139	0.08624501
203	0x3d741a8a	0.059595622
204	0xbd11c28d	-0.03558593
205	0x3d68cd56	0.05683645
206	0x3d94bf7d	0.07263086
207	0xbdaad715	-0.08341805
208	0x3d8be9e7	0.06831723
209	0x3c9742a4	0.018464394
210	0x3d95f41b	0.0732195
211	0x3c2e9558	0.0106557235
212	0xbd963320	-0.0733397
213	0xbba9b2f0	-0.0051788017
214	0xbc2788f8	-0.010225527
215	0x3dbeec61	0.093224294
216	0x3db11185	0.0864592
217	0xbd216793	-0.039405417
218	0xba18d780	-0.0005830452
219	0xbb82cfd0	-0.0039920583
220	0xbd9652d7	-0.07340019
221	0xbc9eff94	-0.019408979
222	0x3d8f2357	0.069891624
223	0x3bce7f60	0.0063018054
224	0xbdb4b31a	-0.088232234
225	0xbca74ed4	-0.02042333
226	0xbd4a073f	-0.049323317
227	0x3cbfb824	0.023403235
228	0x3cf2a12c	0.029617868
229	0x3d27ee42	0.040998705
230	0x3cbafd94	0.022825994
231	0xbcde4788	-0.027133718
232	0xbc1b32e0	-0.009472579
233	0x3d1f8c7e	0.038952343
234	0x3d73fd32	0.059567638
235	0x3db47203	0.088108085
236	0x3d4a8942	0.049447306
237	0xbd486ac3	-0.04892994
238	0xbdc4d3c5	-0.09610704
239	0xbc680d70	-0.01416336
240	0x3c11e7a8	0.008905329
241	0x3d8fba45	0.0701795
242	0xbc336f58	-0.010951839
243	0x3d5c44ae	0.053776436
244	0xbd31bc96	-0.04339274
245	0xbdc28f8f	-0.09500038
246	0x3a775000	0.0009434223
247	0x3d4de2fe	0.050265305
248	0xbc4248a8	-0.011858143
249	0xbd822f31	-0.06356657
250	0xbd829059	-0.063751884
251	0x3d9000a1	0.0703137
252	0x3d6ab2b2	0.057299323
253	0x3daec5df	0.08533835
254	0x39de7500	0.0004243031
255	0xbda87fb6	-0.08227484

model.lstm.bias_ih_l0 f4 [416]
0	0x3cd1994a	0.02558579
1	0x3d5635ec	0.052297518
2	0xbdecfea7	-0.115720086
3	0x3d853ab9	0.06505341
4	0x3cc64033	0.024200534
5	0xbd818ea6	-0.06326036
6	0xbd921a15	-0.07133881
7	0xbc934e59	-0.017981695
8	0xbbb6c9d0	-0.005578257
9	0x3d70e5cc	0.0588129
10	0xbd939195	-0.07205502
11	0x3d24551e	0.040120237
12	0x3dbcd96f	0.0922116
13	0x3d91ff41	0.07128764
14	0xbbb466d8	-0.005505424
15	0xbdcd3998	-0.10020751
16	0x3d0209c9	0.031747613
17	0x3da29fad	0.07940612
18	0x3a144efa	0.00056575204
19	0x3d8a5fea	0.067565754
20	0x3c872c9d	0.016500765
21	0x3d779846	0.060447954
22	0x3dd63b67	0.10460549
23	0xbbe31dbe	-0.006931036
24	0x3d8dea0d	0.06929407
25	0x3c26d913	0.01018359
26	0xbcd0d5a1	-0.025492491
27	0xbd8505a3	-0.06495216
28	0x3bae87e7	0.0053262594
29	0x3d8a67a9	0.06758053
30	0x3c828476	0.015932303
31	0x3cdccfa7	0.026954485
32	0x3c809253	0.015694773
33	0x3d88e71f	0.06684708
34	0xbcf20a9a	-0.02954607
35	0xbdbfd651	-0.093670495
36	0xbc2ccf8d	-0.010547531
37	0xbd4b2931	-0.04959983
38	0xbd4bb765	-0.049735446
39	0x3d65e256	0.056124054
40	0x3d94dfe0	0.07269263
41	0xbd9ed5dc	-0.07755634
42	0x3db3d599	0.08780975
43	0x3a80753e	0.0009800566
44	0xbc22fef7	-0.009948484
45	0x3b4b5bf4	0.003103015
46	0xbc515768	-0.012777187
47	0x3c3dd0c4	0.011585418
48	0xbdabf8c8	-0.08397061
49	0x3d88cf10	0.06680119
50	0x3d2210c3	0.039566766
51	0xbd205771	-0.03914589
52	0xbd8a3738	-0.067488134
53	0x3d2bcbc8	0.041942388
54	0xbba8cce9	-0.0051513803
55	0xbd264bb5	-0.040599544
56	0x3d3e499d	0.04645692
57	0xbd2df0d9	-0.04246602
58	0xbd5e54fc	-0.054280266
59	0xbddbe3ab	-0.107367836
60	0x3d2774b9	0.0408828
61	0x3e1ceaeb	0.15323989
62	0xbd06a6a7	-0.032873776
63	0x3d7ea3a9	0.062167797
64	0xbd8193de	-0.063270316
65	0x3d07161f	0.03298008
66	0x3cebe58e	0.028795984
67	0x3b95e556	0.004574458
68	0x399408be	0.00028235273
69	0x3d3ae2a5	0.0456263
70	0x3e026dfc	0.12737268
71	0x3dede69b	0.1161625
72	0xbd908672	-0.070568934
73	0x3bfda9f2	0.0077412063
74	0xbbfe2208	-0.0077555217
75	0xbd8f35c2	-0.06992675
76	0x3d373e38	0.04473707
77	0xbdb1450b	-0.08655747
78	0x3d0517d8	0.032493442
79	0xbc7fec75	-0.015620341
80	0x3c24d1be	0.010059772
81	0xbc9d38e4	-0.019192167
82	0x3db46aa6	0.08809404
83	0x3ccb2c56	0.024801414
84	0x3d2d145e	0.04225575
85	0x3d447b2f	0.04796904
86	0xbcf4c0e5	-0.029877136
87	0x3cd931f0	0.02651307
88	0xbd79b648	-0.060964853
89	0x3dcf0d4e	0.101099595
90	0xbd8f6e31	-0.07003439
91	0x3c3aefd7	0.011409721
92	0xbd5e4a20	-0.05426991
93	0x3e1106c4	0.14162737
94	0x3e274d0f	0.1633799
95	0xbb80b633	-0.00392797
96	0xbc33aa2a	-0.010965863
97	0xbcdd09ea	-0.026982266
98	0xbe03bed1	-0.1286576
99	0xbdd7adb1	-0.10531176
100	0x3d9dc31e	0.07703231
101	0x3cd960e4	0.026535459
102	0x3ad292e0	0.0016065501
103	0x3db7f08e	0.08981429
104	0x3ae8a600	0.0017749667
105	0x3b41ad20	0.0029552653
106	0x3daf4fb1	0.08560122
107	0x3d90bb03	0.0706692
108	0x3d623cbe	0.05523371
109	0xbd919739	-0.071089216
110	0x3db435e7	0.087993436
111	0x3d986183	0.07440474
112	0x3caefb34	0.021360017
113	0xbd9b5422	-0.075844064
114	0x3d9b8545	0.075937785
115	0x3d8fa0cb	0.07013091
116	0x3a5e5b00	0.0008482188
117	0x3d7e4852	0.06208069
118	0xbdc598f2	-0.09648313
119	0x3d222d52	0.039594002
120	0xbd452422	-0.048130162
121	0xbc782df0	-0.015147671
122	0xbcd61d80	-0.026137114
123	0x3d8958a3	0.06706359
124	0xbd9e468a	-0.07728298
125	0xbdaf5dbb	-0.085627995
126	0xbd7b598f	-0.061364707
127	0xbcb74980	-0.022373915
128	0x3d3a80ee	0.045533113
129	0x3c4e56c0	0.012593925
130	0xbd0ce55c	-0.03439842
131	0x3db38633	0.08765831
132	0xbb00d240	-0.0019656569
133	0xbdb0db35	-0.086355604
134	0xbd849384	-0.06473449
135	0x3c28e728	0.010309018
136	0x3d2701a2	0.04077304
137	0xbdb69f1f	-0.08917069
138	0x3d43f646	0.047842287
139	0xbd12b810	-0.035820067
140	0xbc974ed4	-0.018470205
141	0xbd9054af	-0.07047402
142	0x3d87c7e1	0.06629921
143	0xbd82ad21	-0.06380678
144	0xbd0b331a	-0.03398428
145	0x3db86a3b	0.09004637
146	0xbdb9b21f	-0.09067177
147	0xbd97e381	-0.0741644
148	0x3d9c662b	0.076366745
149	0x3da917a7	0.082564645
150	0x3d6f4476	0.0584149
151	0x3db08dd3	0.08620801
152	0xbc4cd240	-0.012501299
153	0xbdadd14b	-0.08487185
154	0xbdaa6c04	-0.083213836
155	0xbb6ad980	-0.0035835207
156	0xbc631d78	-0.013862006
157	0xbd0e8ba8	-0.034801155
158	0x3dbfab83	0.09358885
159	0x3db56117	0.08856409
160	0xbd76dac6	-0.060267232
161	0x3c0a1d78	0.008429877
162	0x3b257fc0	0.0025253147
163	0xbd702457	-0.058628406
164	0x3d2d0a36	0.042246066
165	0x3d9b58ad	0.07585273
166	0x3d9c8145	0.07641844
167	0xbdac637a	-0.08417411
168	0x3b92fb70	0.00448554
169	0xbdb1d502	-0.08683206
170	0x3d9785e3	0.07398584
171	0x3d1608f2	0.036629625
172	0x3d921623	0.071331285
173	0xbd352554	-0.044225052
174	0xbd3207c9	-0.043464456
175	0x3d3d20c2	0.04617382
176	0xbbab3450	-0.005224742
177	0xbd5196b7	-0.051169124
178	0x3bc60cd0	0.006044008
179	0xbdbb6fb9	-0.09152169
180	0xbd10d91a	-0.035363294
181	0xbd8c687c	-0.06855866
182	0xbd193547	-0.037404325
183	0x3d96d171	0.073641665
184	0x3c5e02f0	0.013550505
185	0xbd3e6117	-0.04647931
186	0x3d6fd1c2	0.05854965
187	0x3d1383ca	0.036014356
188	0x3d356ce6	0.044293307
189	0xbc5ca020	-0.013465911
190	0x3d309a3a	0.043115832
191	0x3d850687	0.064953856
192	0xbd36f38f	-0.04466587
193	0xbd6ce16a	-0.05783216
194	0x3d235efe	0.039885513
195	0xbd19ebb1	-0.03757829
196	0xbd6c66dd	-0.057715286
197	0x3da1dad7	0.079030685
198	0x3c8014cc	0.015634917
199	0xbdbe8e12	-0.093044415
200	0x3daa8b35	0.08327333
201	0x3cc259f4	0.023724534
202	0x3b6b3360	0.0035888776
203	0xbdb66d1b	-0.08907529
204	0x3da917e3	0.08256509
205	0x3ba99ef0	0.0051764175
206	0xbd6cf1ec	-0.057847902
207	0x3dc1d45d	0.09464333
208	0xbd9b4631	-0.07581747
209	0x3d4ad0d3	0.049515557
210	0xbb24526e	-0.0025073546
211	0x3cc61d05	0.02418376
212	0x3d523c65	0.051327128
213	0x3ccad82e	0.024761286
214	0x3c3cc0cb	0.011520575
215	0xbc0dcd16	-0.008654853
216	0x3c91b783	0.0177877
217	0x3d6e3012	0.058151312
218	0xbd20e2ce	-0.039278798
219	0xbb3c0ff6	-0.0028696037
220	0xbd964f09	-0.073392935
221	0x3cf18344	0.029481538
222	0x3db23f65	0.08703498
223	0xbd8da8a6	-0.06916933
224	0x3d6d55f6	0.057943307
225	0xbd9729b5	-0.07381002
226	0xbd1602b8	-0.036623687
227	0x3c942e3c	0.018088453
228	0x3b0e23e0	0.0021688864
229	0x3d77d271	0.060503427
230	0xbcf9a054	-0.030471958
231	0x3d034374	0.03204675
232	0xbbdba825	-0.006703394
233	0x3d93d52a	0.07218392
234	0x3bf33389	0.007421915
235	0xbd2996ea	-0.04140369
236	0x3d786ab8	0.06064865
237	0xbdae1cfe	-0.085016236
238	0x3b2b43fa	0.0026133046
239	0xbd87b70b	-0.066267096
240	0xbc600c66	-0.013674831
241	0xbdcb59f1	-0.09929264
242	0xbd641c2f	-0.05569094
243	0x3d4147e1	0.04718769
244	0x3c3df930	0.011595055
245	0xbda35d1d	-0.07976744
246	0xbdde0e9f	-0.108426325
247	0xbda05668	-0.07828981
248	0x3d9b5b00	0.07585716
249	0x3d869099	0.065705486
250	0xbc3ea8f8	-0.011636965
251	0xbdb5abbf	-0.088706486
252	0xbcc8bf23	-0.024505204
253	0xbd98550b	-0.07438096
254	0x3d2a03be	0.041507475
255	0xbd656229	-0.056001816

model.lstm.bias_hh_l0 f4 [416]
0	0x3c153c28	0.009108581
1	0xbd2df1d4	-0.042466953
2	0xbde7a24d	-0.11310253
3	0x3d5c732d	0.053820778
4	0xbd35cff3	-0.04438777
5	0xbbd67e7c	-0.00654584
6	0x3d91ca1f	0.0711863
7	0xbd9bc02e	-0.07605015
8	0xbd525bab	-0.051356953
9	0x3e337a30	0.1752708
10	0xbbb12251	-0.005405702
11	0xbc73ed3c	-0.014888104
12	0x3cb9714b	0.02263703
13	0x3d44d4f6	0.048054658
14	0x39ad5dfc	0.00033067155
15	0xbd7db0e3	-0.06193627
16	0x3c34d977	0.011038176
17	0xbd2be21f	-0.041963693
18	0x3dbe023e	0.092777714
19	0x3d1d8ec5	0.038466234
20	0xbcb58705	-0.022159109
21	0xbd853778	-0.065047204
22	0x3dbd4457	0.092415504
23	0xbb95607b	-0.0045586205
24	0xbc651286	-0.013981467
25	0xbda22f39	-0.07919163
26	0xbd942322	-0.072332636
27	0x3ddf8f8f	0.109160535
28	0x3ca19831	0.01972589
29	0x3d124ef0	0.035719812
30	0x3bbd459c	0.0057761203
31	0xbd670135	-0.056397635
32	0x3d7d2552	0.06180317
33	0x3de680a3	0.11255004
34	0xbd86653e	-0.06562279
35	0xbd9fda7d	-0.07805345
36	0xbc7fe5f8	-0.015618794
37	0xbdb9c5db	-0.09070941
38	0xbd4c7f01	-0.049925808
39	0xbce2af15	-0.027671376
40	0x3e4dc806	0.20095834
41	0x3d84cf68	0.06484872
42	0x3dd36c6c	0.10323414
43	0xbd7ebebc	-0.062193617
44	0x3cafe90b	0.021473428
45	0xbbc5a566	-0.00603168
46	0xbd4ca2da	-0.049959995
47	0x3d40d9e4	0.047082797
48	0xbcc484e3	-0.023989147
49	0xbd06e2f5	-0.032931287
50	0x3ddb07e6	0.10694866
51	0x3c79e674	0.015252698
52	0xbd17cfce	-0.037063412
53	0xbd42db36	-0.047572337
54	0x3c94f3fe	0.01818275
55	0xbb0231b5	-0.0019866053
56	0x3cc03c28	0.023466185
57	0xbd63c9d1	-0.05561239
58	0x3d83d6f2	0.06437482
59	0x3a7619b4	0.00093879853
60	0xbdb48c5f	-0.08815836
61	0x3dafc953	0.085833214
62	0x3d11a407	0.03555682
63	0x3cb7195f	0.022350965
64	0x3df63c5f	0.120232336
65	0x3c9edced	0.019392455
66	0x3d526047	0.05136135
67	0xbdc6c9dd	-0.09706471
68	0x3e2be370	0.1678598
69	0xbd8b1668	-0.06791383
70	0x3c104411	0.008805291
71	0x3dfa9e63	0.12237241
72	0x3d8f16af	0.069867484
73	0x3d3d435b	0.046206813
74	0x3dfcd7f3	0.123458765
75	0xbdc19552	-0.09452309
76	0x3d8f2d1a	0.06991024
77	0x3ddbebc9	0.10738332
78	0x3cbc16ca	0.022960085
79	0xbd8203a8	-0.063483536
80	0x3da3f5fd	0.08005903
81	0x3cd991c4	0.026558764
82	0x3dec5194	0.11538997
83	0xbcc5eb46	-0.024160039
84	0x3e1bb23b	0.15204708
85	0x3d969359	0.07352323
86	0x3dbd798e	0.092517
87	0xbd717d26	-0.05895724
88	0xbda9c827	-0.08290129
89	0x3dd1bbda	0.10240908
90	0x3d636968	0.055520445
91	0x3cdb5141	0.026772143
92	0x3cc18294	0.023621835
93	0x3e29c690	0.16579652
94	0x3e0b1e95	0.13585885
95	0x3b340212	0.0027467054
96	0x3d3b4d3d	0.045727957
97	0xbd37ced7	-0.044874992
98	0x3ca3008f	0.019897727
99	0xbda0ca62	-0.078511015
100	0x3d04cb44	0.03242041
101	0x3d62294b	0.05521516
102	0x3ddc1c07	0.10747533
103	0x3bdde886	0.0067721037
104	0x3d832b35	0.064047255
105	0x3cc7d38c	0.024392866
106	0x3d99d32f	0.07510983
107	0xbd350c11	-0.04420096
108	0xbcf93278	-0.030419573
109	0x3dabd823	0.08390834
110	0x3a915dc0	0.0011090562
111	0xbd006ae2	-0.03135193
112	0x3d5656b2	0.052328773
113	0x3d41b072	0.047287412
114	0xbcf5cf14	-0.03000597
115	0x3b91f410	0.0044541433
116	0xbca881e8	-0.020569757
117	0x3dbbad25	0.09163884
118	0x3c79a4d0	0.015237048
119	0xbdbec6b6	-0.09315245
120	0x3d6dfea2	0.058104165
121	0x3d3a2bee	0.04545205
122	0x3db889ab	0.09010633
123	0x3da12f8b	0.07870396
124	0x3c8f7dbc	0.01751601
125	0x3c162920	0.009165078
126	0x3d9e32fb	0.077245675
127	0xbdb5bd01	-0.0887394
128	0x3dbfd2f3	0.09366407
129	0x38c59c00	9.422749e-05
130	0x3d4a0b56	0.049327217
131	0xbd52fb60	-0.05150926
132	0xbda0695a	-0.07832594
133	0xbd044afe	-0.03229808
134	0xbd3af311	-0.045641962
135	0x39801700	0.000244312
136	0xbd956450	-0.07294524
137	0xbbd127d0	-0.00638292
138	0xbc5340b0	-0.012893841
139	0xbd28596a	-0.041100897
140	0xbbea64e0	-0.0071531385
141	0xbdba4532	-0.09095229
142	0xbd94d621	-0.07267404
143	0x3cfefe6c	0.031127177
144	0x3d5151e2	0.05110348
145	0xbd3562d9	-0.04428372
146	0xbbc32940	-0.005955845
147	0xbd595288	-0.053057224
148	0x3d2a2696	0.041540705
149	0xbd0d5bd6	-0.03451141
150	0xbc605378	-0.0136917755
151	0xbd6a5dd9	-0.057218406
152	0x3b072b60	0.0020625219
153	0xbcb33e78	-0.021880373
154	0x3d9b2975	0.07576267
155	0x3d4d9676	0.05019232
156	0xbd26efc4	-0.040756002
157	0xbd4840bc	-0.04888986
158	0x3d23fbbe	0.040035002
159	0x3c537620	0.012906581
160	0xbcfe4394	-0.031038083
161	0xbd814057	-0.063111
162	0xbd07c636	-0.033148013
163	0x3d65db0a	0.056117095
164	0xbc3e0da0	-0.011599928
165	0x3d1c665a	0.038183548
166	0xbd18bb5b	-0.03728805
167	0x3ca18850	0.01971832
168	0xbd51db7d	-0.05123471
169	0x3c867244	0.016411908
170	0xbd928405	-0.07154087
171	0x3dba0c1b	0.0908434
172	0x3ca8e194	0.020615377
173	0x3d736082	0.05941821
174	0xbd32232b	-0.04349057
175	0xbcba3550	-0.0227305
176	0x3db38dd5	0.08767287
177	0x3d8f3b17	0.06993692
178	0xbd89c274	-0.06726542
179	0xbcfe6bf4	-0.031057335
180	0x3d869bd1	0.06572688
181	0x3d087ce6	0.033322237
182	0x3d8af8cd	0.06785736
183	0x3d585522	0.052815564
184	0x3d610e66	0.054945372
185	0xbd83908b	-0.06424054
186	0x3d9e8ddb	0.077419005
187	0x3d2cac8a	0.042156734
188	0x3d1c499e	0.038156144
189	0xbd3d62b7	-0.04623672
190	0xbdb10740	-0.08643961
191	0x3d8358bb	0.06413408
192	0xbdb00fdd	-0.08596776
193	0xbbe5c4d0	-0.0070119873
194	0xbd5c7f3d	-0.05383228
195	0x3dc00331	0.09375609
196	0x3d5fc7b6	0.05463382
197	0x3c589d00	0.0132210255
198	0xbd329e41	-0.043607954
199	0x3cf3c33c	0.029756181
200	0xbd218a69	-0.03943864
201	0x3ce9953c	0.028513543
202	0x3bc505c0	0.0060126483
203	0xbd99dc3e	-0.07512711
204	0x3d240892	0.040047236
205	0x3d9e614d	0.077334024
206	0x3d252562	0.040318854
207	0x3cc8f0ac	0.024528824
208	0xba40c84b	-0.0007354065
209	0xbcde6e4c	-0.027152203
210	0x3bda6c3b	0.006665734
211	0x3da6e2c5	0.081487216
212	0xbc9766fd	-0.018481726
213	0xbd76d642	-0.060262926
214	0x3d88c589	0.06678302
215	0xbd4a1472	-0.049335904
216	0xbd986458	-0.07441014
217	0x3c93615b	0.017990759
218	0x3ab78cfe	0.0014003811
219	0x3d31b1e3	0.043382537
220	0xbd1a71cc	-0.03770618
221	0xbd978ee7	-0.07400303
222	0x3d7b31cf	0.061326798
223	0xbd89b760	-0.06724429
224	0xbde1d815	-0.110275425
225	0x3dc336cf	0.09531938
226	0xbd8e0d32	-0.069361106
227	0x3ced4d6c	0.028967582
228	0xbd9ec871	-0.07753075
229	0xbd49ca19	-0.049265
230	0x3d2dca93	0.042429518
231	0xbdafbcba	-0.085809186
232	0x3db57c62	0.08861615
233	0x3d8ee946	0.06978087
234	0xbca1b5e5	-0.019740054
235	0x3d15f10e	0.03660684
236	0x3d781c78	0.060574025
237	0x3c1cab8d	0.009562385
238	0xbd9d5a11	-0.076831944
239	0xbd915017	-0.07095354
240	0x3db05a79	0.08611006
241	0x3d32c4f5	0.043644864
242	0x3d59ea6b	0.053202074
243	0xbb94eead	-0.004545054
244	0x3cf68170	0.030091017
245	0xbc118b2e	-0.008883281
246	0x3d2d2068	0.042267233
247	0x3d99d1e9	0.0751074
248	0x3d4dd3d4	0.050250843
249	0xbd3de666	-0.046362303
250	0xbda70f44	-0.081572086
251	0x3ad6fa7c	0.0016401554
252	0x3da032ab	0.07822164
253	0xbc4521be	-0.012031971
254	0x3b7a2972	0.0038171676
255	0x3d8534be	0.065042004

model.fc_layers.0.weight f4 [52, 104]
0	0xbd90bc98	-0.070672214
1	0xbd100782	-0.03516341
2	0xbb64d5db	-0.0034917507
3	0xbd841e10	-0.064510465
4	0x3d4cb81c	0.049980268
5	0x3b3e17ae	0.0029005813
6	0x3de16450	0.11005461
7	0x3d2d95a5	0.04237904
8	0x3bf51854	0.007479707
9	0xbe19f423	-0.15034537
10	0x3d1c4fa9	0.038161907
11	0x3d3561ed	0.044282842
12	0xba421bdc	-0.0007404664
13	0x3cd8d9d5	0.026471058
14	0xbd4862e1	-0.048922423
15	0x3b9cdb1d	0.0047868625
16	0x3b32898e	0.0027242634
17	0xbe03830f	-0.12842964
18	0x3da8f7d9	0.08250398
19	0x3cf08202	0.029358868
20	0xbd4d80be	-0.050171606
21	0xbd065e62	-0.032804854
22	0xbd8331b0	-0.064059615
23	0xbd055d49	-0.032559667
24	0x3da6babe	0.08141087
25	0x3db7a562	0.08967091
26	0x37931e88	1.7537983e-05
27	0xbc6b11a2	-0.014347466
28	0x3d501ac3	0.050806772
29	0x3c59704c	0.013271403
30	0x3e2ce482	0.16884044
31	0x3d16788f	0.036736067
32	0x3de19216	0.11014192
33	0x3de4246d	0.1113976
34	0x3da6d744	0.081465274
35	0xbbb4e4a8	-0.005520422
36	0x3dcad848	0.099045336
37	0x3c9a665a	0.018847633
38	0x3c92539e	0.017862137
39	0x3dec1993	0.115283154
40	0xbca48d21	-0.020086827
41	0x3d26d2e8	0.04072848
42	0x3dbcb22f	0.09213673
43	0xbc9e6f49	-0.019340174
44	0xbd2f4ee4	-0.042799845
45	0xbd264598	-0.040593714
46	0x3de6f94d	0.11278019
47	0xbb66fd88	-0.0035246331
48	0x3d1e136b	0.038592737
49	0xbc798590	-0.015229598
50	0xbbb1152f	-0.0054041366
51	0xbd0ceb72	-0.034404226
52	0xbd70710a	-0.058701552
53	0xbde99064	-0.114044935
54	0x3c4ede48	0.012626238
55	0x3d802b01	0.06258202
56	0x3d32e1e2	0.04367245
57	0xbdbc1ee8	-0.091855824
58	0xbd3bdc2a	-0.04586426
59	0xbdda753c	-0.10666892
60	0xbd14ddf9	-0.036344502
61	0xbd8d8c42	-0.06911518
62	0xbd8da91d	-0.069170214
63	0x3d9455a9	0.07242901
64	0x3d13928f	0.03602844
65	0xbd6d0b40	-0.057872057
66	0x3c41199c	0.011785891
67	0xbd9b1ed9	-0.07574243
68	0x3dfe7ea6	0.124265
69	0x3c7b6fe0	0.015346497
70	0xbd177c09	-0.036983524
71	0xbe1271ca	-0.1430122
72	0x3d12e1fa	0.03586004
73	0xbdb210ea	-0.08694632
74	0xbdc0377e	-0.09385584
75	0x3d2b7360	0.041858077
76	0x3ca1dd2d	0.019758785
77	0x3dd91a0f	0.106006734
78	0xbd8251a0	-0.06363225
79	0xbd0810d4	-0.033219174
80	0x3dedf0d9	0.11618204
81	0xbd43b021	-0.04777539
82	0xbe001d79	-0.12511243
83	0xbcb4796a	-0.022030551
84	0xbdaa8a34	-0.083271414
85	0xbd8d3d21	-0.06896425
86	0xbc9cde35	-0.019148925
87	0x3c15a4c0	0.009133518
88	0xbd96f5ad	-0.07371078
89	0xbd862642	-0.06550266
90	0x3d16bead	0.036802936
91	0xbd5afb5a	-0.053462364
92	0x3dd982fa	0.10620685
93	0x3daa74c4	0.083230525
94	0x3ba49db7	0.005023684
95	0xbba4e9a7	-0.0050327363
96	0xbd6c6fc9	-0.057723794
97	0x3c470d27	0.012149132
98	0x3c9c8929	0.019108372
99	0xbca139d1	-0.01968089
100	0x3c76c5d0	0.015061811
101	0x3d3d561d	0.046224702
102	0x3d036eb8	0.03208801
103	0x3d4d5e32	0.05013866
104	0x3b6972c7	0.003562139
105	0x3c7064ee	0.014672501
106	0x39fa4537	0.00047735285
107	0x3d3e3e08	0.046445876
108	0xbdd097ad	-0.1018518
109	0x3c02aa46	0.007975167
110	0xbd8f9eb1	-0.0701269
111	0x3dd51aba	0.10405488
112	0xbceb8f6f	-0.028754918
113	0xbb65d182	-0.0035067503
114	0xbda5fafe	-0.081045136
115	0x3d0be84c	0.034157082
116	0xbcf580b8	-0.029968604
117	0xbc3065f6	-0.010766497
118	0x3de379d8	0.11107224
119	0x3cef1161	0.029183092
120	0x3dd85587	0.10563188
121	0xbe055f84	-0.13024718
122	0x3da2a678	0.07941908
123	0xbd0241a9	-0.0318009
124	0xbc19fd7e	-0.009398816
125	0x3d401fdd	0.046905387
126	0xbdb4c496	-0.08826558
127	0xbd16b302	-0.03679181
128	0xbd51d3eb	-0.05122749
129	0x3d014df1	0.03156847
130	0x3dc35a4a	0.09538706
131	0xbc8d45c9	-0.01724519
132	0x3b7b1d05	0.0038316858
133	0xbdd1dea7	-0.10247546
134	0x3e2c48dc	0.16824669
135	0x3dbf9013	0.09353652
136	0x3df003be	0.11719464
137	0x3dce6ac7	0.1007896
138	0xbcba1978	-0.022717223
139	0xbd974a6a	-0.0738724
140	0xbd02eade	-0.031962268
141	0xbcdf650f	-0.027269868
142	0xbd628692	-0.055304118
143	0xbcf80664	-0.030276485
144	0xbe128055	-0.14306767
145	0xbd9a53eb	-0.07535537
146	0xbc1e900d	-0.009677899
147	0xbd154240	-0.036440134
148	0xbd1143b3	-0.035464954
149	0x3ce3975a	0.027782131
150	0x3dcfea6a	0.10152133
151	0xbdcd5674	-0.10026255
152	0x3cc79afd	0.024365896
153	0x3d2593d1	0.04042417
154	0x3d88b977	0.066759996
155	0x3d849bf0	0.06475055
156	0x3d87e1eb	0.06634887
157	0xbd04fc17	-0.032466974
158	0xbc86784c	-0.016414784
159	0xbde1e919	-0.11030788
160	0xbd26727d	-0.04063653
161	0xbda7fbbd	-0.08202312
162	0xbdb02d2e	-0.08602367
163	0x3c866e5b	0.016410043
164	0x3d98ed0b	0.07467087
165	0xbe2eb19b	-0.17059939
166	0xbd98c706	-0.07459836
167	0x3d2b4d5f	0.041821834
168	0xbdbc930b	-0.09207734
169	0xbdaa99a4	-0.08330086
170	0x3cc6efcc	0.024284266
171	0xbdc8d9cd	-0.09807167
172	0x3d758275	0.059938867
173	0xbd8c2533	-0.06843033
174	0xbc2c9542	-0.010533633
175	0xbdc6c57c	-0.09705636
176	0xbd9cb17b	-0.07651039
177	0xbdbcc625	-0.092174806
178	0xbdd7082f	-0.10499608
179	0xbd4b4174	-0.049622968
180	0x3db96cbc	0.090539426
181	0x3de44163	0.11145284
182	0xbddbae77	-0.10726636
183	0x3dd83264	0.10556486
184	0x3dde2f8f	0.10848915
185	0x3d382369	0.044955645
186	0xbdee87a3	-0.116469644
187	0x3dcfe0e2	0.10150315
188	0xbe0c0e43	-0.13677315
189	0xbd9ad6ab	-0.07560476
190	0xbda9eeff	-0.08297538
191	0xbc18ec76	-0.00933372
192	0x3d3ac288	0.045595676
193	0xbd9641c9	-0.07336766
194	0x3b294eea	0.002583439
195	0xbc177b13	-0.009245652
196	0x3df92821	0.12165857
197	0x3e37262b	0.17885654
198	0x3d799efc	0.060942635
199	0x3cfefc26	0.031126093
200	0xbdb5d4a0	-0.088784456
201	0xbd240a1f	-0.040048715
202	0x3d8bf2fb	0.06833454
203	0x3dad907b	0.08474823
204	0xbdb250bd	-0.08706806
205	0x3ce7fcb3	0.028318739
206	0xbc97153c	-0.018442743
207	0xbdae37f3	-0.08506765
208	0xbd96c6ad	-0.07362113
209	0xbc82147a	-0.015878905
210	0x3b06e1d2	0.0020581377
211	0x3d0000e2	0.031250842
212	0xbe04a603	-0.12953953
213	0x3dc87428	0.0978778
214	0xbd7b335a	-0.06132827
215	0x3d968a90	0.073506474
216	0x3b6871c5	0.0035468203
217	0x3a2269a2	0.000619555
218	0x3da94f90	0.082671285
219	0x3cb5bb81	0.022184135
220	0x3ca27842	0.019832734
221	0x3cf93ff1	0.030425997
222	0x3dc6add3	0.09701123
223	0x3d11c200	0.035585403
224	0x3c719f8b	0.014747511
225	0xbe0542e1	-0.13013794
226	0xbbdb6ccb	-0.0066963187
227	0x3bd51c2d	0.006503603
228	0xbbbfb658	-0.0058505945
229	0xbd7c6f5f	-0.06162965
230	0x3d3abae9	0.045588408
231	0x3c83af3b	0.016074767
232	0x3d8eba91	0.069691785
233	0x3d9312c8	0.071813166
234	0x3d4d4cee	0.050122194
235	0xbdaaecd6	-0.08345954
236	0x38e22161	0.00010782737
237	0x3d02637d	0.03183316
238	0x3da0d486	0.07853036
239	0xbd1e236a	-0.038607992
240	0x3d06e970	0.032937467
241	0x3d9789c5	0.07399324
242	0x3dc5f18a	0.096652105
243	0xbe08b718	-0.13351095
244	0xbcac4441	-0.02102864
245	0x3d570ff9	0.052505467
246	0x3d66575f	0.056235667
247	0xbd5d040c	-0.053958938
248	0xbcb17398	-0.021661565
249	0xbd519dd5	-0.05117591
250	0xbcc468ec	-0.023975812
251	0x3a0420e2	0.00050403003
252	0xbdd35e05	-0.10320667
253	0xbd9b0366	-0.075690076
254	0x3ca78ca7	0.02045281
255	0x3ccad809	0.024761217

model.fc_layers.0.bias f4 [52]
0	0x3db09c7f	0.08623599
1	0x3d753410	0.059864104
2	0x3dc0b7bf	0.09410047
3	0xbbf25449	-0.0073953015
4	0xbd949866	-0.0725563
5	0x3cc27a27	0.023739887
6	0xbd226743	-0.03964926
7	0xbd9946c2	-0.07484199
8	0x3d99f76a	0.075178936
9	0x3c543bef	0.012953742
10	0x3c4286d8	0.01187297
11	0x3dd4d796	0.10392682
12	0xbd0b8be8	-0.034068972
13	0xbd8cc8d6	-0.06874244
14	0xbd791778	-0.060813397
15	0x3dac1cda	0.084039405
16	0x3c917a8f	0.017758636
17	0x3d237a90	0.039911807
18	0x3d8a2c56	0.06746738
19	0xbd8c0b98	-0.06838149
20	0xbd5d7cc6	-0.05407407
21	0x3d6864c3	0.05673672
22	0x3d757a13	0.059930872
23	0xbd9d1197	-0.076693706
24	0xbc112623	-0.00885919
25	0x3ca31147	0.0199057
26	0xbd12f329	-0.035876427
27	0x3d7456aa	0.05965296
28	0x3daa1de5	0.08306483
29	0xbd99c399	-0.075080104
30	0xbc320132	-0.010864543
31	0xbd8fd022	-0.0702212
32	0xbd491397	-0.049090948
33	0x3d4b3f02	0.049620636
34	0xbd9e987b	-0.07743927
35	0x3dbbaa33	0.09163322
36	0x3da36b39	0.079794355
37	0x3d8e74aa	0.06955846
38	0xbc34ef9d	-0.011043456
39	0xbc771b26	-0.015082156
40	0xbdb86363	-0.090033315
41	0x3ce6a20f	0.028153447
42	0x3d6df930	0.05809897
43	0xbc363e51	-0.011123256
44	0xbd4d9c06	-0.050197624
45	0x39ffd825	0.0004879843
46	0xbcc78f5f	-0.024360357
47	0x3bd9fae6	0.006652224
48	0x3ccc5934	0.02494488
49	0x3db707cc	0.08937034
50	0xbc48b583	-0.012250307
51	0x3d1c7f36	0.038207255

model.fc_layers.1.weight f4 [26, 52]
0	0xbe15091c	-0.14554256
1	0xbd27ba09	-0.0409489
2	0xbdaa6b08	-0.08321196
3	0x3d9647cc	0.07337913
4	0xbbf813da	-0.007570726
5	0x395c735a	0.00021023807
6	0x3b4399e0	0.0029846355
7	0x3dc95c63	0.098320745
8	0xbe092a9b	-0.13395159
9	0x3de63cd3	0.1124207
10	0xbdfd47a1	-0.12367178
11	0xbd9dc13b	-0.077028714
12	0xbd7869ed	-0.060647894
13	0xbb89986f	-0.0041990797
14	0x3e0c825c	0.13721603
15	0xbdce0927	-0.100603394
16	0x3ca4f521	0.020136418
17	0x3dbacc73	0.09121027
18	0x3d5d015c	0.053956375
19	0x3caf6edc	0.021415167
20	0x3c9a5dfa	0.01884364
21	0x3bfad3b3	0.007654631
22	0x3d4da3dd	0.0502051
23	0xbdd31e01	-0.10308457
24	0x3ddb04ec	0.10694298
25	0x3d70541b	0.05867396
26	0x3e106922	0.14102605
27	0x3cf40cae	0.029791202
28	0xbe0aa6e6	-0.13540229
29	0x3deb4982	0.1148863
30	0xbde6877e	-0.11256312
31	0xbd32976f	-0.04360145
32	0x3ce1031a	0.0274673
33	0xbcfc4428	-0.030794218
34	0x3dd15622	0.10221507
35	0xbe1ac368	-0.15113604
36	0xbd0b323a	-0.033983447
37	0xbdebd0e3	-0.11514451
38	0xbccc4c87	-0.024938835
39	0x3df0b256	0.11752765
40	0xbdc98436	-0.0983967
41	0x3d7d8452	0.06189377
42	0xbca36eab	-0.019950232
43	0xbc94e3e5	-0.018175075
44	0xbd8ad63c	-0.06779143
45	0xbdf0e8a1	-0.117631204
46	0xbe20ffae	-0.15722534
47	0x3dd8ead6	0.105916664
48	0xbb8e310b	-0.0043393425
49	0x3a1edbaf	0.0006059957
50	0xbdbb2ebc	-0.09139773
51	0xbcb3add8	-0.021933481
52	0xbdbc2ff6	-0.09188835
53	0x3d181276	0.03712698
54	0x3e1a6c3a	0.15080348
55	0xbdfd527c	-0.12369248
56	0xbd65d956	-0.05611547
57	0x3d65e32d	0.056124855
58	0x3d23556e	0.039876394
59	0xbdacd454	-0.08438936
60	0x3dd328a8	0.10310489
61	0x3ceeb25d	0.029137785
62	0xbc3c8a07	-0.011507518
63	0x3d49eb10	0.04929644
64	0x3de08e1d	0.10964606
65	0xbc596801	-0.013269425
66	0xbd97f8dd	-0.07420514
67	0xbd15d136	-0.036576472
68	0x3cccac44	0.024984486
69	0x3c842ced	0.016134704
70	0xbc966a2d	-0.018361175
71	0x3d1995bb	0.03749631
72	0xbe13c76c	-0.14431542
73	0xbd8b66bd	-0.06806705
74	0xbdc9001f	-0.09814476
75	0xbce19578	-0.027537093
76	0xbe09866c	-0.13430184
77	0xbb2d94ba	-0.0026486353
78	0x3c8ed9d7	0.017437859
79	0x3d2d2063	0.042267215
80	0x3e1adbbb	0.15122883
81	0x3c1f766a	0.009732822
82	0x3d907ee3	0.07055452
83	0xbcca4124	-0.024689265
84	0xbdc4c5f9	-0.09608073
85	0xbd7e6c91	-0.062115256
86	0xbd801d22	-0.06255557
87	0xbd2293b5	-0.039691646
88	0xbd36d0ef	-0.04463285
89	0xbceba6cf	-0.028766064
90	0x3dc811bc	0.097690076
91	0x3dc2d8d3	0.09514012
92	0x3cccf634	0.025019743
93	0x3daf1c17	0.085502796
94	0x3cfdeaa5	0.030995676
95	0xb9cf737c	-0.0003956816
96	0xbdafbbf8	-0.08580774
97	0xbd8d0a0b	-0.06886681
98	0x3e01066f	0.1260011
99	0x3d496062	0.049164183
100	0x3d1a2df6	0.037641488
101	0x3c8f6fa4	0.01750929
102	0xbd7b5024	-0.061355725
103	0x3e0e11d1	0.13873984
104	0xbd7b6edb	-0.061385017
105	0xbcbe3f5f	-0.023223577
106	0x3dbcd196	0.09219663
107	0xbd1fca33	-0.03901119
108	0x3d46d418	0.048542112
109	0x3db2a146	0.08722167
110	0xbe0fbbaf	-0.1403644
111	0x3bb7df40	0.0056113303
112	0xbdd9bf6e	-0.106322154
113	0xbe07e84b	-0.13272206
114	0xbdcd13eb	-0.10013565
115	0x3e153bcd	0.14573593
116	0x3dac6edc	0.08419582
117	0x3d9e994c	0.07744083
118	0xbdec8d5d	-0.115504004
119	0xbde1bf77	-0.11022847
120	0xbd56a156	-0.052399956
121	0xbd61b829	-0.05510727
122	0x3d5f7021	0.054550294
123	0x39f6c3ee	0.00047066755
124	0xbda888d8	-0.08229226
125	0xbdd5d387	-0.10440736
126	0xbd124b63	-0.035716426
127	0x3d98716b	0.07443508
128	0x3dcd73ae	0.1003183
129	0xbcd1dbe8	-0.025617555
130	0x3dbeac82	0.09310247
131	0x3d3de25e	0.04635846
132	0xbd28685a	-0.041115142
133	0xbd4bc75d	-0.049750675
134	0x3cde4086	0.027130377
135	0x3c15532c	0.009114068
136	0x3cedf8f0	0.029049367
137	0x3d18cf3d	0.037307013
138	0x3d969491	0.073525555
139	0xbd373c26	-0.044735096
140	0x3de6626e	0.11249243
141	0xbde334ac	-0.11094031
142	0xbdb78a66	-0.08961944
143	0x3de1e96b	0.11030849
144	0x3dc186b5	0.094495215
145	0x3d42979a	0.04750786
146	0xb8e6e242	-0.000110093984
147	0xbd9247c7	-0.07142597
148	0x3cffd7cb	0.031230828
149	0xbdda646c	-0.10663685
150	0xbd9f9d42	-0.077936664
151	0xbd47b351	-0.048754994
152	0x3da165a3	0.07880714
153	0x3e043420	0.12910509
154	0x3cc4a1f5	0.024003008
155	0xbdbdc654	-0.09266344
156	0x3d3b16e2	0.04567612
157	0x3e228445	0.1587077
158	0x3c905a2f	0.017621128
159	0xbb819780	-0.003954828
160	0x3d3ed8b6	0.04659339
161	0xbdecdf62	-0.115660444
162	0xbda89885	-0.08232216
163	0x3d9fc4ef	0.07801234
164	0x39128b3c	0.00013975514
165	0x3d71074c	0.05884485
166	0xbe033bf6	-0.12815842
167	0xb9c6f7a3	-0.00037950007
168	0xbd8366fa	-0.064161256
169	0xbe080917	-0.13284718
170	0x3da65aec	0.08122811
171	0x3c4db6e7	0.012555814
172	0x3df03977	0.117297105
173	0x3e088448	0.13331711
174	0x3d9f8e36	0.077907965
175	0xbd29aaed	-0.041422773
176	0xbe17c784	-0.14822203
177	0xbdf63680	-0.12022114
178	0xbdd1507d	-0.1022043
179	0xbd1f8841	-0.0389483
180	0xbcabdf8e	-0.020980623
181	0xbcec484f	-0.028843073
182	0xbd0a6495	-0.03378733
183	0x3c01d10c	0.007923376
184	0xbc3e1330	-0.011601254
185	0xbda112e3	-0.078649305
186	0x3e123a0c	0.14279956
187	0xbcac757f	-0.02105212
188	0xbe09f316	-0.13471636
189	0xbdc2cbba	-0.09511514
190	0x3c1a6399	0.00942316
191	0x3debb956	0.115099594
192	0x3bc8b25d	0.006124778
193	0x3e1cbafc	0.15305704
194	0x3dd91177	0.10599034
195	0xbdb8b6bb	-0.09019228
196	0xbdf0559c	-0.11735079
197	0xbcd34baf	-0.025792925
198	0x3dea2c3f	0.114342205
199	0xbdc239cb	-0.094836794
200	0x3daf4250	0.0855757
201	0x3d9f6699	0.07783241
202	0xbcb2e52e	-0.021837797
203	0xbd7c395e	-0.061578147
204	0xbddbe0d6	-0.107362434
205	0x3ddbffd1	0.107421525
206	0x3e13619c	0.14392704
207	0x3d8d15a0	0.0688889
208	0xbe0a7590	-0.13521409
209	0xbd6289f1	-0.055307332
210	0x3d3105ba	0.043218352
211	0xbdaa58a6	-0.083176896
212	0x3d950482	0.072762504
213	0x3da6a375	0.08136646
214	0x3d79ce32	0.06098766
215	0x3dea1c07	0.11431127
216	0x3da2395c	0.07921097
217	0x3dfbb4a6	0.12290315
218	0xbd482c68	-0.048870474
219	0x3c86e157	0.016464872
220	0x3d1c0db2	0.038099
221	0x3d64d669	0.05586854
222	0xbddb484b	-0.10707148
223	0xbd5b59b0	-0.05355233
224	0xbd096d54	-0.03355153
225	0x3d4c061c	0.049810514
226	0x3e095a59	0.13413371
227	0x3d16e87d	0.03684281
228	0x3ca33d42	0.019926671
229	0x3db01f65	0.08599738
230	0x3d863d9d	0.065547206
231	0x3deaf352	0.11472191
232	0xbcf5a61b	-0.029986432
233	0xbd826cd7	-0.06368416
234	0xbde27c4d	-0.11058865
235	0xbdd4bccc	-0.10387573
236	0x3de0f8ec	0.10984978
237	0x3e09504d	0.13409539
238	0xbd391836	-0.045189105
239	0x3cb19dcb	0.021681687
240	0x3c432d02	0.011912586
241	0xbd55fa8a	-0.052240886
242	0x3e1a2307	0.15052424
243	0x3cf6b78f	0.030116824
244	0x3c756057	0.0149765825
245	0x3de32741	0.110914715
246	0x3cc45fb8	0.023971424
247	0x3b7f5926	0.0038963049
248	0x3d009c44	0.031399027
249	0x3b54dc7e	0.0032480056
250	0xbd3c2392	-0.04593236
251	0x3d4f498c	0.05060725
252	0x3dea1f86	0.11431794
253	0x3d8d9a9e	0.069142565
254	0xbdb4818a	-0.0881377
255	0x3c5a5ad5	0.01332732

model.fc_layers.1.bias f4 [26]
0	0xbcf60814	-0.030033149
1	0x3dc20de4	0.09475306
2	0x3d9f0ece	0.07766496
3	0x3ca516d5	0.020152489
4	0xbe01c87f	-0.1267414
5	0x3d66f2a8	0.05638376
6	0x3c92833c	0.017884843
7	0xbd181709	-0.037131343
8	0xbc81e9e6	-0.015858602
9	0xbe056961	-0.1302848
10	0x3d478017	0.04870614
11	0x3d4dd290	0.050249636
12	0x3db69112	0.08914389
13	0x3d32372e	0.043509655
14	0xbd8faf15	-0.07015816
15	0x3dccb8f4	0.099962145
16	0xbdf9dc40	-0.122002125
17	0x3d44aab2	0.04801435
18	0x3caf758d	0.021418357
19	0x3d71f936	0.059075557
20	0x3d622c07	0.05521777
21	0xbde67ffc	-0.1125488
22	0xbe043f78	-0.12914836
23	0x3d191587	0.037374046
24	0xbcc22339	-0.023698436
25	0xbded01ff	-0.11572646

model.fc_layers.2.weight f4 [1, 26]
0	0xbe36df50	-0.17858624
1	0x3e148818	0.1450504
2	0x3b6b5d71	0.003591385
3	0x3e04b5c9	0.1295997
4	0xbe45a4d7	-0.19301163
5	0x3d8ead5e	0.06966661
6	0xbe504ef9	-0.20342626
7	0x3e0d3442	0.13789466
8	0xbe22aac6	-0.15885457
9	0xbde613f0	-0.112342715
10	0x3dd8bc58	0.10582799
11	0x3de9f3f6	0.11423485
12	0x3d1a6269	0.037691507
13	0x3cc37d57	0.023863478
14	0x3d3edecd	0.046599198
15	0xbe0ff7a7	-0.14059316
16	0x3bb6779d	0.0055684582
17	0xbd008e3c	-0.031385645
18	0xbe1f7178	-0.15570629
19	0x3d6f7367	0.058459666
20	0xbdfd37eb	-0.12364181
21	0xbc84bdb5	-0.01620374
22	0xbe1340ee	-0.14380237
23	0xbe352b72	-0.17692354
24	0x3e2b257d	0.1671352
25	0x3e0d242e	0.13783333
