LSTM_TimeSeries/lightning_logs/version_142/checkpoints/epoch=1-step=260.ckpt (torch, 982811 bytes, 27 tensors)

model.lstm1.weight_ih_l0 f4 [416, 9]
00000000: cd43 8e3d 4a84 573d c4c0 38bd f938 9b3c
00000010: 0378 45bc b925 773d 873a b03d c663 43bc
00000020: d3c8 b13d 10af 7fbd e327 11bd a3ae 8c3d
00000030: 517c d2bd ee18 0b3d f4f7 c6bd dc7d 82bd
00000040: 36ea 91bd d95d 973d de41 b73c 99ed 33bd
00000050: dc46 d0bd edc4 503d 03fc 4e3d e46e 8fbb
00000060: ef78 b2bb 7db2 253d c16d b03d de97 b03c
00000070: 80a4 d73d 41b9 bd3d 332d 9a3d feeb c83d
00000080: 087d ce3b 4932 debc 5963 263d 829e cf3c
00000090: 3ad6 a33d 5122 23bd 5cec ff3c 7a92 bc3d
000000a0: 112b 7a3d 5bfa 1fbd 576c 5b3d 39ae 05bc
000000b0: 7343 b33c c714 223d bfd6 1d3d 46bd f53d
000000c0: e0a5 5b3d e034 8b3d 2183 b63d 0522 d73d
000000d0: 408b 99bc 1ca2 bc3d c882 973b 4c10 103e
000000e0: ddd7 c53c e1e0 933d 9af2 f4bc 42ee a43c
000000f0: 9329 323d 6922 893d 3479 0e3b 55a3 eb3d
00000100: 72d6 28bd f534 fc3d 365c 003e c0ff cbbb
00000110: 475f 6b3d 3432 543d 2c0d 1f3c 37f8 293c
00000120: 53eb 0e3c 8a87 d53c 226a f93b c3b5 ca3d
00000130: 4ee7 803d f758 d23d 6bcf a73a 8f71 193e
00000140: 7c00 b43d a861 653d 2a42 cdbc f8d6 843d
00000150: dd93 d33d 5dda a63c 454b 83bd a547 c83d
00000160: c9b1 003e 9488 573c 959e c83b 4e43 e53d
00000170: 6361 f23d 0420 b93d 8118 c53d e7af 7b3d
00000180: 97b6 cb3c 8372 d73d 2aec 153e 01f5 bc3d
00000190: 8f8c 473d 440f 4abc 0b72 a13d 78cd 26bd
000001a0: fcdc 5f3c 972b 1a3d 25aa ecbc ff5c 003e
000001b0: 08b3 b0ba 1c88 413d 1c74 39bc 1549 0a3e
000001c0: 5478 ac3d 3f79 bc3d 2c26 613b 3e9a 823d
000001d0: 5064 1d3d 196d 7b3d 3bfd 3a3d 0f8f 7cbd
000001e0: d5e4 d13b a5ea 87bd 17ef 843c 44ac 6d3c
000001f0: f489 99bd 5201 763d 7421 8d3d 360a 93bc
00000200: 0ed7 783c 839e 573d f78d 033e 32ec 123d
00000210: 77f9 c73d c6d6 143e b88f ba3b 0898 013e
00000220: 1fc3 84bc e656 aebb 1900 1d3d 9d78 b13d
00000230: 823b bb3d 073a 033e 8c2a 813d b635 003e
00000240: 9c92 bf3d 6389 b3bc 072f a53d b63e dc3d
00000250: c945 ea3d f034 0d3d d95a b83d 12d0 1a3e
00000260: 0490 193d 1bbc 2d3c 6097 f8bc 0414 a73d
00000270: 50b7 a7bb 19a8 48bd 5b66 2a3d 4596 123e
00000280: cbeb 1a3d f1b1 883d c83b 613d 3fdc 523d
00000290: 8913 bc3d d1ce 2ebd 6727 0c3e 3ca1 b13d
000002a0: af80 643d 8dd2 d53d c188 a0bc caa7 8bbc
000002b0: 0ea6 b73d a520 ec3d d5f2 d63c 3bae 5e3d
000002c0: 5c85 893d b345 9d3d db16 873d 0029 e43d
000002d0: 35c7 18bd 8ca7 b93c c094 9d3d b27f fd3c
000002e0: 5611 f13c d21e 19bd c49b 203e e637 c53d
000002f0: ed24 83bc d025 b83d 69a6 c23d fd5e a53d
00000300: 5bb4 b93d f7a2 b83d 64da 6bbc 1333 e53d
00000310: 12ab 823d 6e4b ed3d 1861 7c3d 822d b43d
00000320: 0e0b 44bc b681 803b 402d e63c 0ac9 d53b
00000330: 6168 fd3c e2c1 8b3d 090f 923d d219 033e
00000340: f0fd d53d c90a 34bb 0b1b e33d 0ed6 323d
00000350: 8457 243d 195b 1a3c cfd6 883b 332a 723d
00000360: 9e91 863d 5e1b 963d f72a b53a 1fe3 6c3d
00000370: 3fb7 42bc 1598 363c fb08 d6ba 1306 f23d
00000380: 6719 b13b a653 8abd 2ddd d93d 674d 01bc
00000390: 309d db3d 899e 22bd 6b61 3dbc 9265 893d
000003a0: eb18 b03c 2e96 6dbd 5625 8f3c e6f5 5d3d
000003b0: 29c6 a43a 9e9f 023e 56d5 473d 7f41 40bc
000003c0: 7111 0f3e d96b ea3c ba19 3a3c a348 043d
000003d0: fdd8 a93c c368 e2bd 0ed7 263d fd6b df3d
000003e0: ac77 41bc 02d2 c53b 1d95 a73d b962 0ebd
000003f0: ae46 5b3d b676 9c3d 6c36 8c3c 5ea8 ae3c
0.06946526 0.052616395 -0.04510571 0.018948065 -0.012052539 0.06033871 0.08604913 -0.011925643
0.08680882 -0.062422812 -0.03543843 0.06869247 -0.10277618 0.03395932 -0.09715262 -0.06371662
-0.0712475 0.07390947 0.022370275 -0.043927763 -0.10169765 0.050969053 0.050533306 -0.004377233
-0.0054465453 0.040453423 0.08614684 0.02155679 0.10529423 0.0926385 0.07528152 0.09810637
0.006301526 -0.027123587 0.04062209 0.025344137 0.07999845 -0.03982765 0.031240635 0.09207626
0.061076228 -0.039057117 0.053570118 -0.008159214 0.021882748 0.039570596 0.038534876 0.11998992
0.053624988 0.067971945 0.089117296 0.105045356 -0.018743157 0.092106074 0.0046237446 0.14068717
0.024150783 0.072206266 -0.029900838 0.020133141 0.04349668 0.06696016 0.0021739723 0.115057625
-0.041220136 0.12314788 0.12535176 -0.006225556 0.05746391 0.05180569 0.00970773 0.01037412
0.008723098 0.026065607 0.007611529 0.098979495 0.06294118 0.10270875 0.0012802904 0.14984725
0.08789155 0.056001335 -0.025055964 0.064863145 0.10330937 0.020367796 -0.06410841 0.0977929
0.1256782 0.013155121 0.00612242 0.11194478 0.11834981 0.090393096 0.096238144 0.06144705
0.024867339 0.10519888 0.1464087 0.09226418 0.04871803 -0.012332741 0.0788308 -0.040723294
0.013663527 0.037639227 -0.028889725 0.12535475 -0.001348109 0.047248945 -0.011319187 0.13504441
0.08421388 0.09202813 0.0034355028 0.063770756 0.038425744 0.06138334 0.045651656 -0.06165987
0.0064054527 -0.06636552 0.016227288 0.014506403 -0.074970156 0.060059853 0.06891146 -0.017949205
0.015187992 0.052641403 0.12847124 0.035869785 0.097643785 0.14535055 0.005693402 0.12655652
-0.016206322 -0.0053204177 0.03833017 0.08665583 0.091422096 0.12815104 0.06306943 0.12520489
0.093541354 -0.021916097 0.080656104 0.10754149 0.11439092 0.034474313 0.09001703 0.15118435
0.03749086 0.01060393 -0.030345619 0.081581146 -0.005118288 -0.048988435 0.04160152 0.14315136
0.037822526 0.06674565 0.054988652 0.051479574 0.091834135 -0.042677704 0.13686906 0.08673331
0.055786785 0.1044055 -0.01959646 -0.017047781 0.08967219 0.11529664 0.026238838 0.054365378
0.067148894 0.0767931 0.06596156 0.11140633 -0.037299354 0.0226629 0.076943874 0.030944679
0.029427212 -0.03738291 0.1568442 0.096298024 -0.016008819 0.08991587 0.095043965 0.08074758
0.09067603 0.09015458 -0.01439533 0.11191382 0.06380285 0.11586653 0.061616033 0.087977424
-0.011965526 0.0039217127 0.028097749 0.00652421 0.03093356 0.068240896 0.07131774 0.12802818
0.10448825 -0.0027472249 0.110891424 0.04366117 0.040122524 0.009421133 0.004175998 0.059122276
0.06570743 0.073294386 0.0013822009 0.057833787 -0.01188451 0.011144658 -0.0016329581 0.11817565
0.0054046395 -0.06754236 0.10637889 -0.007891989 0.107233405 -0.039701972 -0.011558871 0.06708826
0.021496257 -0.05800455 0.017473858 0.054189585 0.0012571263 0.12756202 0.048787437 -0.0117343655
0.13971497 0.028615879 0.011358673 0.032295834 0.02073335 -0.11055138 0.040732436 0.10909269
-0.011808317 0.006036998 0.08182738 -0.034762118 0.053534202 0.0763983 0.017115794 0.021320518

model.lstm1.weight_hh_l0 f4 [416, 104]
00000000: d18a 903d 781e 9d3c e909 89bd 45a1 b93d
00000010: 9b63 92bd 5a14 a3bd 25b8 a63d dcdc dd3c
00000020: 40d7 82bb 7504 6dbd c8b5 113c a09d 8cbd
00000030: f4d5 48bd f43a 903c de17 0a3d 6014 d53c
00000040: 6354 af3d 73e1 8a3d 46d7 563d 5d58 b2bd
00000050: e2d1 0d3d f9c4 813d 3464 b33c eb86 8b3d
00000060: b875 f9bc 42ed 573d 5b89 2dbd ee43 7b3d
00000070: 2eef 763d 4b58 ba3d dcba eb3c 5e45 673d
00000080: 19a3 43bd 401a 303b 37fe 89bd 8ccb a3bd
00000090: 0414 e3bc 1503 ae3d f4e4 c5bd ea90 64bd
000000a0: 7608 5b3d 2fcc be3d 988b 443c d947 bf3d
000000b0: c008 95ba de3f 0fbd 8096 33bd a47a 8b3c
000000c0: 6118 c13d 1424 a63c b71b af3d 954f 883d
000000d0: 0264 043d b3c8 8a3d 40a7 97bd ce5a 163d
000000e0: 90b5 a5bb e290 56bd 8369 c73d ad21 873d
000000f0: 88a3 c5bc e548 1cbd ca5e 203d 80e4 6cba
00000100: 033e c8bd ceb4 7c3d 0002 b0ba a0d8 c4bc
00000110: d6ae 84bd 61fd 5fbd 20b8 d7bb 309e c33c
00000120: 1e8a 233d 793a b33d d558 883d 6c75 a43c
00000130: c483 b9bd 4074 afbd 635c 8a3d 609c d2bc
00000140: e5d6 863d 2429 adbc 325d 0b3d cc24 ae3c
00000150: 6f38 963d 5eb0 9cbd e695 763d 3ae7 403d
00000160: 1842 2e3c e2ee aabd 57a2 16bd 9c3d c6bc
00000170: 605f 9e3b edb7 873d 1694 673d 7462 993c
00000180: b66f 703d 9613 273d 867a 00bd d00e 633c
00000190: f675 4b3d 5280 a0bd 20d7 7a3c 0cee dfbc
000001a0: a942 b63d bf65 c7bd 1579 813d 6686 58bd
000001b0: a020 f4bb 1ac5 623d 7859 3ebc fe6d 9bbd
000001c0: ce2d babd f939 2fbd 2a3f 6d3d 9660 c4bd
000001d0: 4726 b63d e0ad 603c 95a9 b73d 9cde c93c
000001e0: 8031 f2bc 808f 553c 19cb 20bd 735a bc3d
000001f0: 6c77 fa3c b081 14bd 499e 2abd 50ac 9fbb
00000200: ab24 813d ad00 c83d a3e0 a3bd c03b d5ba
00000210: f896 bbbd 8429 d7bc 9faa 62bd 5029 8ebd
00000220: 8556 7ebd 99dd 9c3d af10 abbd bc9c f63c
00000230: 9176 c53d 085a a1bd 5c77 863c 686d 743c
00000240: 9b32 b53d 56e4 0a3d d0ff 30bd 888b 4bbd
00000250: 431f 8c3d 5414 e23c 41c0 40bd 00f8 30b9
00000260: 64bd 18bd 5440 81bd facf 68bd fb7e b33d
00000270: 6bec 89bd 1256 a7bd a643 84bd dbaa 8cbd
00000280: 19a7 903d 502d 8abc 3990 a3bd 32c1 20bd
00000290: e210 283d 5237 3cbd 2e32 4d3d 8d3b 863d
000002a0: c0b9 5cbc c6df 753d 7050 e9bc c0f1 c5bd
000002b0: 0008 edb8 1032 893b 09e3 b73d cebb 3b3d
000002c0: ea67 7cbd a91f 5bbd e1a0 9fbd 9201 043d
000002d0: 18b4 9ebd 0f18 72bd 1918 62bd 7a6b c7bd
000002e0: 7922 8d3d 09e3 a1bd 3cdf bb3c 06a7 8bbd
000002f0: 1b98 c5bd 34c0 85bd 9cf6 b2bd 7852 1fbc
00000300: bf8e 8a3d e85f 42bc f59d 85bd 6ac4 80bd
00000310: 19e6 35bd 5c08 8f3c 40c4 163b 2ecc b4bd
00000320: 2037 b13c c41e e03c 0785 bd3d 1467 88bd
00000330: d845 82bd dbb4 923d 4139 b93d 0070 86bb
00000340: f932 9fbd a893 16bd d67b acbd 30ae e53b
00000350: a1b8 6bbd e4b9 df3c ceb9 023d 22b4 3d3d
00000360: 7039 ba3c 60f2 82bc 14b0 cc3c 0463 bebd
00000370: f24c 79bd 2762 c53d 763f 583d 9e71 27bd
00000380: 3087 95bd 2b24 c1bd a84f 2cbc 0ccf b6bc
00000390: 9514 bc3d 6213 2c3d f0b5 483c 8154 ba3d
000003a0: afbb 4fbd 7f23 803d 9fe6 c43d 275d bbbd
000003b0: 512b afbd e821 73bc 5c70 c73c 04a3 9dbc
000003c0: 9079 683c 284f bb3c de7f 0dbd 03a4 9ebd
000003d0: f025 28bc 3676 663d 1d37 b53d bff3 c13d
000003e0: 44b3 f8bc 3eba 8abd c040 55bc 99fd adbd
000003f0: 38b7 cdbc 5805 12bc a519 a13d 1cf9 83bd
0.07057727 0.019179568 -0.06691343 0.09063963 -0.071479045 -0.07962866 0.081405915 0.027082853
-0.003992945 -0.05786558 0.008893438 -0.06866002 -0.049032167 0.017606236 0.033714168 0.026010692
0.08561017 0.06781282 0.052451394 -0.0870826 0.034623988 0.06336398 0.021898367 0.06812843
-0.03045164 0.0527165 -0.04236732 0.06134408 0.060286693 0.09098872 0.028775625 0.056462638
-0.047762964 0.0026871115 -0.06737941 -0.07997808 -0.027719505 0.084966816 -0.0966281 -0.055802263
0.053474866 0.09316289 0.011996172 0.09339876 -0.0011370406 -0.034973018 -0.0438447 0.017026253
0.09428478 0.020280875 0.08550208 0.06655804 0.032321937 0.067765616 -0.07404947 0.03670769
-0.0050570443 -0.052384265 0.09736922 0.0659822 -0.02412583 -0.038155455 0.039152898 -0.00090367347
-0.09777453 0.061695866 -0.001342833 -0.024029076 -0.0647866 -0.054685 -0.0065832287 0.02387914
0.03992664 0.08751387 0.06657568 0.020075522 -0.090583354 -0.08567095 0.067559026 -0.025709331
0.06583957 -0.021137781 0.034024425 0.02125778 0.073349826 -0.07650827 0.060201548 0.047095515
0.010635875 -0.083463445 -0.036775913 -0.0241993 0.004833147 0.06626878 0.05653771 0.018723704
0.058700286 0.040790163 -0.031366847 0.013858512 0.049673043 -0.07836975 0.015310079 -0.02733519
0.08899433 -0.097362034 0.06321923 -0.052862547 -0.0074501783 0.055363752 -0.011618011 -0.07589339
-0.09090768 -0.042779896 0.057921566 -0.09588735 0.088940196 0.01371333 0.08967892 0.024642281
-0.029564619 0.013034701 -0.03925619 0.09196939 0.030574523 -0.036256492 -0.04165486 -0.004872836
0.06305822 0.09765754 -0.080018304 -0.0016268417 -0.091596544 -0.026264913 -0.0553385 -0.069414735
-0.06209423 0.07659454 -0.083527915 0.030104034 0.09641755 -0.078785 0.016414337 0.014918663
0.08847543 0.033909164 -0.04321271 -0.049693614 0.068419 0.027597584 -0.047058348 -0.00016877055
-0.037289992 -0.06311098 -0.056838967 0.08764454 -0.06734546 -0.081707135 -0.064582154 -0.068685256
0.07063121 -0.01686731 -0.07986493 -0.039246745 0.041031726 -0.045951195 0.050096683 0.06554327
-0.013472021 0.06002786 -0.028480738 -0.09665251 -0.00011302531 0.004186876 0.089788504 0.0458334
-0.061622538 -0.05349699 -0.07794357 0.03222806 -0.07749194 -0.059104975 -0.055198763 -0.097372964
0.06891341 -0.07904632 0.022933595 -0.068189666 -0.096481524 -0.065308005 -0.08738443 -0.009724252
0.06765508 -0.011863686 -0.065242685 -0.06287463 -0.04440889 0.01746004 0.0023005158 -0.08828007
0.021632731 0.02735842 0.092538886 -0.066602856 -0.06360978 0.07163402 0.090441234 -0.004102707
-0.07773394 -0.03676191 -0.08422057 0.00700929 -0.057549123 0.02731032 0.03191548 0.046314366
0.022732466 -0.015984714 0.024986304 -0.092962295 -0.060864396 0.09637862 0.052794896 -0.04087984
-0.073011756 -0.094307266 -0.010517038 -0.022315525 0.09183613 0.042010672 0.0122504085 0.09098149
-0.0507161 0.0625677 0.096143 -0.09148627 -0.08553184 -0.014839627 0.02434557 -0.019242771
0.014189139 0.022864893 -0.03454577 -0.077461265 -0.010262951 0.05626508 0.08848403 0.09470319
-0.030358918 -0.06773804 -0.013015926 -0.084956355 -0.02511178 -0.008912407 0.078662194 -0.06443998

model.lstm1.bias_ih_l0 f4 [416]
00000000: 6289 9a3d 5a57 883d 63d3 0a3d d893 08bd
00000010: 892a 1cbd 3e51 773d 1b20 823d 2ec0 633c
00000020: e634 32bd 0b5a d73d 4e41 8c3c e43d 27bd
00000030: 86b7 8a3d a37c b23c 0935 993d b1b2 e4bc
00000040: 8680 f53d e0b6 cd3d b6bb c53d f980 eb3b
00000050: b8e1 50bc 3a44 553d 6c76 603d 8303 8e3d
00000060: 9d97 84bd 8fbe 3fbd a4db 35bd 41d4 5bbc
00000070: 1236 6c3d cff1 3a3d 8651 b33d 5f62 48bb
00000080: c53e 11bc a74f 43bd 13c3 913d 81a1 c93d
00000090: 7f6e 213c 676a c03c 0b91 793d 9e55 efbb
000000a0: d441 0e3c 698f 0d3d 81d3 c3bc e3cd d93d
000000b0: 7660 e2bd b5e2 a5bd e09e bbbc ce85 1d3c
000000c0: b777 5b3d e70b f53d 110f 17bd dbcf 35bd
000000d0: 9277 483d ec30 b73d 1912 a93d 1f2d 6abc
000000e0: b5da 723d ee75 eb3d aa98 e73d c6f6 e53d
000000f0: b54d 803d b895 573d 2054 c43c 6c08 583c
00000100: 74aa 80bd 5087 a1bd 20e5 5e3d 1db0 41bd
00000110: d2bc 74bc 239f 8a3d 167c d7bd 8fd3 373d
00000120: b3a2 ea3d fec7 653d 2775 edbc 6143 4fbd
00000130: e4fd f93d dfc5 9fbd f5ab 783d cb31 cc3d
00000140: ab90 c83d f70f 65bd 25f9 d03d 9755 c23d
00000150: 2621 803d d75b 003e bc26 753d fde1 1abd
00000160: 4bd3 b9bd d2d0 58bd ac75 013e a002 a93d
00000170: 76c5 f23d b331 cc3d 0697 6dbc 4efa 013d
00000180: 8a79 d73d 9040 5fbd 925a 933d 1811 97bc
00000190: 12d3 b3bb a9a6 fd3d a4fe 2d3d eb62 d43d
000001a0: 96ab 663d 7df9 a63d c030 96bb 5856 7d3c
000001b0: 2837 debc 0369 29bd deff 653d ee57 8ebd
000001c0: 404a 823c 9c27 9abd e975 953d 6093 2cbd
000001d0: 0ed7 82bd 3845 86bd 2056 be3b 22f0 093d
000001e0: c2e0 583d 4906 4cbd 35e2 c03d 4235 6ebd
000001f0: 18d7 17bc 9eb8 393d 4abf 173d 218d b3bd
00000200: 36bb 183d a947 a8bd 03fb 8a3d f83d a8bc
00000210: b9f2 bd3d 6b06 a93d 3102 c13d 6210 263d
00000220: 6118 883d decb 713d cc17 a9bd a666 acbd
00000230: 4ecf 5f3d c43c 903c 34f3 f13c b45d 84bd
00000240: 58bc b13c ea44 513d e94c 9abd e27c 453d
00000250: 92fd 18bd 121e 92bd 9093 c0bd de01 773d
00000260: d41b 11bd fa02 613d 2832 75bc ce5f 8bbd
00000270: 2166 8dbd d0ed 0d3c 422a 4f3d 3ab8 7b3d
00000280: 18d8 6c3c 3808 49bd cc7d b0bd a596 c7bd
00000290: 536f bfbd 6f5d 863d 4189 8b3d 4dbb 7cbd
000002a0: 80eb 87bb 068f 4d3d 6c36 9f3c 1756 c03d
000002b0: 34e3 c1bc 7d88 9dbd 503c 9bbd 6f71 b33d
000002c0: 99bf 883d 38ca 51bc 53c1 b1bd d73f 9d3d
000002d0: c5c2 c53d 168a 0e3d 0040 5c38 1fa9 a83d
000002e0: 5378 af3d 172d 12bd d82f 86bd c431 18bd
000002f0: c071 e93a 7ea2 99bd dc21 c73c b616 51bd
00000300: ad9b aa3d ff5f b93d 32cc 193d 8410 f73c
00000310: e916 b2bd 20f7 b4bb 1640 85bd ef8d af3d
00000320: 1c09 c7bc 208d 6fbc 28e9 c6bd b080 973c
00000330: 598b 82bd e04c 8fbc 2aa2 0d3d 2f33 bd3d
00000340: 13e5 77bd 086e a4bd 3efd 7ebd f8ac 323d
00000350: 5e1f fa3d 697d 74bc 5b50 61bd 5d90 5f3d
00000360: 36fe e13d bd01 a1bd 9da6 92bd 483d bf3b
00000370: 0662 10bd 625c 8abd a1c5 a9bd a089 683d
00000380: 9b97 c83c 57ea 65bd d489 8a3d a02a 08bc
00000390: 3318 68bc add2 233c 10f8 d53c 22e2 a83d
000003a0: 2c84 05bd 5a38 69bb d95e 7e3d 81f5 a6bb
000003b0: 6f4e 2a3d 3ef8 d0bc 009d 353d f07a 383d
000003c0: 8f69 453d 0374 f4bc c457 c33c 6503 98bd
000003d0: d126 b9ba e7d0 603d f578 873d d39e c7bd
000003e0: 0542 973b 1aa9 7a3d 0d90 333d d06d 4e3d
000003f0: 14db 2a3d 9989 58bd 884b 53bd cffc da3d
0.07545735 0.06657286 0.033893 -0.03334412 -0.038126502 0.060380213 0.0635378 0.0139008
-0.04350748 0.10515221 0.017120983 -0.040830508 0.067732856 0.021787947 0.07480819 -0.027917238
0.119874045 0.10044646 0.09654944 0.0071870056 -0.012749128 0.05206702 0.054800436 0.069342636
-0.064742304 -0.04681259 -0.04439892 -0.0134173045 0.057668753 0.045640763 0.08755784 -0.0030576212
-0.008865063 -0.047683384 0.071172856 0.098452576 0.0098530045 0.023488237 0.06092934 -0.0073039075
0.008682687 0.034560595 -0.023904564 0.10634973 -0.11053555 -0.080998816 -0.022902906 0.009614421
0.053580966 0.11965161 -0.036879603 -0.04438768 0.048942156 0.08944878 0.08255405 -0.014292984
0.059290607 0.11497103 0.11308415 0.11228709 0.062648214 0.052633017 0.023965895 0.013185602
-0.06282511 -0.07887137 0.05441773 -0.047287095 -0.014937596 0.06768634 -0.105217144 0.044879492
0.11456814 0.05609893 -0.028986527 -0.050601367 0.12206629 -0.07801413 0.060710866 0.09970435
0.09793218 -0.05592343 0.102037705 0.09488981 0.062563226 0.12535034 0.059851393 -0.037813175
-0.09073504 -0.05293352 0.12642545 0.08252454 0.11854069 0.09970417 -0.014501339 0.03173285
0.105212286 -0.05450493 0.07195009 -0.018440768 -0.005487808 0.123853035 0.042479172 0.103704296
0.05631598 0.08153055 -0.004583448 0.0154624805 -0.02712591 -0.041359913 0.056152217 -0.06950365
0.015904546 -0.07527086 0.0729788 -0.042132735 -0.06388675 -0.06556171 0.0058086067 0.033676274
0.05294872 -0.04981068 0.094181456 -0.05815626 -0.009267591 0.04534208 0.03704766 -0.087671526
0.037287913 -0.08216793 0.06786158 -0.020537362 0.09274811 0.08253177 0.09424246 0.040542968
0.06645275 0.059032314 -0.08256492 -0.08418016 0.05464106 0.0176071 0.029534914 -0.06463185
0.021696255 0.051091112 -0.07534201 0.0482148 -0.0373512 -0.07134642 -0.09403145 0.060304515
-0.03542693 0.05493448 -0.014965571 -0.06805383 -0.06904245 0.008662656 0.05057741 0.06145499
0.014455818 -0.049080104 -0.08617744 -0.0974553 -0.09347405 0.0656079 0.068132885 -0.06170206
-0.004147947 0.050185226 0.01943513 0.0939142 -0.02366791 -0.07692049 -0.07579863 0.0876187
0.06677169 -0.01280456 -0.08679452 0.07678192 0.0965629 0.034799658 5.2511692e-05 0.08235382
0.08567872 -0.035687532 -0.06552094 -0.037156835 0.0017810389 -0.07501696 0.024308138 -0.05104705
0.08330474 0.09051513 0.03754825 0.030159242 -0.08695776 -0.0055226237 -0.06506364 0.085719936
-0.024296336 -0.014621049 -0.0971244 0.01849398 -0.06374235 -0.017492712 0.03457848 0.09238278
-0.060521197 -0.08028799 -0.06225323 0.043621987 0.12213014 -0.014922478 -0.055008274 0.054581035
0.11034815 -0.0786166 -0.07160685 0.0058361627 -0.035249732 -0.06755902 -0.08289648 0.056771874
0.024486354 -0.056131687 0.0676457 -0.008310944 -0.014165926 0.0099989595 0.026119262 0.082462564
-0.032596752 -0.0035586567 0.062102173 -0.0050951843 0.041578706 -0.025508996 0.04433918 0.045039117
0.04819637 -0.029840475 0.02384556 -0.074225225 -0.0014125948 0.054886725 0.066148676 -0.0974709
0.0046160244 0.061196424 0.04383855 0.050397694 0.041712835 -0.0528656 -0.051585704 0.10692751

model.lstm1.bias_hh_l0 f4 [416]
00000000: 7efb 5dbd 505d 8d3d c084 823c 19cb 97bc
00000010: e9e2 873d 2522 90bc b96f 6cbd 6912 c93d
00000020: 1f0c ba3d 2465 5fbc 2b3d 193e 9874 503b
00000030: 04ac de3d 3cf1 0b3d 9c9d 4f3d 2437 c6bc
00000040: 2bab 7f3b e3dc 543d c920 a4bc 47f8 67bd
00000050: b708 e33d 00ee 243c 18fc 953d 8f25 9d3d
00000060: 1f52 013a 976b 7cbd d6b9 2d3d cb58 833d
00000070: 6e31 bcbc 8f42 6a3d c9bd 883d 6000 1c3d
00000080: 1706 c6bb 9533 2cbd 84b4 e13c 67c9 9fbc
00000090: bfe6 94bd 7ee2 923d a480 69bc 95ec 45bd
000000a0: d0a3 60bc 8b59 71bd 6b21 003e 2e9e 8c3c
000000b0: 3612 f0bd af03 d23d 44b5 c8bb 85e2 9cbc
000000c0: e71c 503d 6522 19bd 93e9 6ebd 07f2 b53d
000000d0: 6b9a a2bd 78af ad3d 2f39 033c 1f41 51bc
000000e0: 408c 023e 9d95 2fbd 4e7e f13d 9c1a 7abc
000000f0: ec7e c23d e8a9 7a3d b6ac 5f3c 256c 2c3d
00000100: 7d52 993d c836 563b d3e8 ecbc ef13 39bd
00000110: 90b2 c13d 36cb f53c 6aa8 e1bc 3fa6 523d
00000120: 1ebb 02bd 773d b4ba d255 363d f493 8b3d
00000130: 61c4 083e 509c 173d 1b8c 6d3d 37ac 0bbd
00000140: cb85 4c3d a3a7 133d c023 b93d 56aa 973c
00000150: 5a41 a03d f864 d33d ecc6 f83c 086d efbc
00000160: e20b eabc 6cae 383d e714 f53d c989 47bd
00000170: 1f7d 99bb 2d9d c03d e7a3 32bd 6ef0 273c
00000180: d292 db3d 3b29 02bc 6db4 0c3d 3b61 a33d
00000190: aa69 ee3d 3764 643d 34d9 a83d b468 2fbd
000001a0: eb20 933d b65d 2b3d d05c 7abc 47e1 56bd
000001b0: 0c2d c73c c054 c7bd ea18 01bd 9cab cc3c
000001c0: 72bf 7b3d f476 b5bc f8c6 0d3c 430b 34bd
000001d0: 33d0 a93d f865 113c 58c6 05bc d42a 43bd
000001e0: fe51 2d3d 8289 7bbd 7c85 3abd 96f8 5abd
000001f0: 88d3 0d3c fe6a 1c3d f3b3 13bd c0af fa3b
00000200: 3eb9 793d 5a13 723d 167c 403d c056 2d3c
00000210: d2e9 05bd 6431 d8bc c4ed fc3c e363 67bd
00000220: ccf8 eabc d9fd aa3d 3c5c bebc 68be b83c
00000230: 33df a7bd 381a 67bd bef5 86bd 77d4 36bd
00000240: e64f 4f3d 6a4a 96bd a87f bebc 1c8b dabc
00000250: e554 56bd cbf7 8abd 954c 873d 1848 f1bc
00000260: 70a5 15bc 12ff b7bd 80bf 93bc 24af f93c
00000270: d9e8 c03d 5007 8cbb 5d01 9ebd 9890 92bd
00000280: feb9 3d3d 32cf 233d b86c c6bc 5664 9bbd
00000290: e8f5 003c f06d ec3b 18a9 16bc 61c9 3fbd
000002a0: 070c 2bbd f68d 233d 9853 b13c 2b15 26bd
000002b0: f8b8 b23c bf42 b13d d82d 59bd 713a 873d
000002c0: a2e4 a1bd 35ec a2bd 272e a23d d57e 963d
000002d0: 094a ba3d 54be eabc fde9 a73d 72e7 553d
000002e0: bf79 5abd f2f4 353d fc61 d5bc ec6c 5ebd
000002f0: 06db 723d 1684 09bd 1488 fc3c f2b3 91bd
00000300: bc12 9fbc 187a b83c cc43 0ebd 0035 bbba
00000310: b8c6 b6bd 2239 0e3d 5339 31bd 1a0e c6bd
00000320: fb1e c53d 60a2 4a3c 66fa 06bd ab71 4bbd
00000330: 1e1e a1bd 1150 ba3d ae40 6e3d a5bd 913d
00000340: c56c db3d 8ccd f43a 3608 333c d5c3 97bd
00000350: c0f4 173c 05c0 e53d b79d ef3d e900 913d
00000360: a0a4 a33c 3907 313d 0bd5 06bd d536 99bd
00000370: 813d e3bd 5505 a33d 89c7 b2bd a3d4 a13d
00000380: 6030 be3d 27f4 d43d c392 6ebd 363f ad3d
00000390: 70e3 6d3d f47f 863b 1bff d13d 3732 f6bc
000003a0: c14b 1c3d 1f77 a6bd 9af7 a33c b35c ea3d
000003b0: 0c08 713d c0fe 4cbd 6f14 b53d 9b91 443c
000003c0: 4a23 06bd 9e66 a9bc 0da0 9cbd 9b55 053d
000003d0: 4230 62bd 2d54 36bd 5b2f 8abd 0278 8c3d
000003e0: 6484 1dbd 6b62 1b3d 625d d3bd cf88 ca3c
000003f0: 8469 043c 358c 953d 0b71 8dbd d17b c73d
-0.05419492 0.069025636 0.01593244 -0.018529462 0.066350766 -0.017594406 -0.057723735 0.098179646
0.09084343 -0.013634954 0.1496474 0.0031807777 0.10872653 0.034165606 0.050687417 -0.024196215
0.0039011936 0.051968466 -0.020035164 -0.05663326 0.110856466 0.010066509 0.07323474 0.07673179
0.00049331965 -0.061626043 0.042413555 0.0641342 -0.022972789 0.05719238 0.06676824 0.038086295
-0.0060432064 -0.04204138 0.027551897 -0.019505216 -0.07270574 0.07172106 -0.014251862 -0.048321325
-0.013710931 -0.058923285 0.12512748 0.01716527 -0.117222235 0.10254609 -0.006125124 -0.019150982
0.050808813 -0.037386317 -0.058328222 0.08884054 -0.07939609 0.08480734 0.008009239 -0.012771874
0.12748814 -0.04286729 0.11791669 -0.015265133 0.09496865 0.06119719 0.013652017 0.042095322
0.074864365 0.003268646 -0.028919613 -0.045185026 0.09457886 0.030004125 -0.027546126 0.051428076
-0.03191673 -0.0013751228 0.04451544 0.06815329 0.13356163 0.037014306 0.057994943 -0.034099784
0.049932282 0.036048543 0.09040022 0.01851384 0.07824965 0.10321993 0.03036829 -0.029226795
-0.02857012 0.045088217 0.119668774 -0.048715387 -0.004684105 0.09404979 -0.04361334 0.010250194
0.10721363 -0.0079444 0.034351755 0.079775296 0.116412476 0.055759635 0.08244553 -0.042824462
0.07184013 0.041837417 -0.015280917 -0.052460935 0.024313472 -0.09732962 -0.0315179 0.024984173
0.061461873 -0.022151448 0.008653395 -0.043956053 0.08291664 0.008874409 -0.008164965 -0.047648266
0.042314522 -0.061410435 -0.045537457 -0.053459726 0.00865639 0.038187973 -0.036060285 0.0076503456
0.060967676 0.059100486 0.046993338 0.010579765 -0.03269369 -0.026390739 0.030875094 -0.056491744
-0.028683089 0.08349199 -0.02323734 0.02255173 -0.08196869 -0.05642149 -0.0658984 -0.044636216
0.050613306 -0.07338412 -0.02325423 -0.02667766 -0.052327055 -0.06785544 0.06606404 -0.029453322
-0.009133682 -0.08984198 -0.01803565 0.030479021 0.09419412 -0.0042733327 -0.07715104 -0.07156485
0.046319954 0.03999252 -0.024221763 -0.07587497 0.007871129 0.007215254 -0.0091955885 -0.04682291
-0.041759517 0.039930306 0.021646306 -0.04054753 0.021816716 0.08655309 -0.053022236 0.06602944
-0.079049364 -0.07955209 0.07918959 0.0734841 0.09096152 -0.028655209 0.081989266 0.052222677
-0.053338762 0.04442305 -0.0260477 -0.054303095 0.05929091 -0.033573233 0.030826606 -0.071144
-0.019418113 0.022519156 -0.034732625 -0.0014282763 -0.08924621 0.034722455 -0.04326756 -0.096706584
0.0962505 0.012367815 -0.032953642 -0.04966895 -0.078670725 0.09097303 0.058167152 0.0711625
0.107141055 0.001867698 0.010927251 -0.07410399 0.009274662 0.112182654 0.117000036 0.07080252
0.01997596 0.04321978 -0.032918017 -0.074811615 -0.11095715 0.079600014 -0.087294646 0.07901885
0.092865705 0.10398131 -0.05824543 0.08459322 0.05807823 0.0041046087 0.10253736 -0.030053241
0.038158182 -0.08128189 0.020015527 0.11443462 0.058845565 -0.050047636 0.08841788 0.011997606
-0.032748498 -0.020678815 -0.07647715 0.032552343 -0.055221803 -0.04451387 -0.067473136 0.06858827
-0.038456336 0.037935656 -0.10320546 0.024723439 0.0080817975 0.07302133 -0.06906327 0.09740413

model.lstm2.weight_ih_l0 f4 [208, 104]
00000000: c8a7 863d 826b bcbc 0c40 be3d 85e5 bb3d
00000010: 93d1 e03c 513e 253e 03f4 a1bd bed3 a83c
00000020: c603 203e 27f2 9cbc a2e1 203e 97a2 dbbd
00000030: f9b7 a3bd 33a8 a0bd f40d 99bd 7a66 913b
00000040: 8dce 963c 6b41 353e 5d41 823c e993 f13d
00000050: b266 313e 6837 553d 1499 153e 27a1 3e3d
00000060: 730a 17be 03f9 d6bd d976 2f3e 589d b13d
00000070: 6c2f ee3d 37c8 aabd 4728 3bbd a371 f5bd
00000080: e3ad 393e 083b 1bbe 6314 bf3d 4c18 a1bd
00000090: 3b0a 08be e0b8 15be 53de fe3c bfb0 0bbe
000000a0: 0e90 2fbd 76df 4c3c 8efc b0bd 7c52 3b3e
000000b0: 09e4 c1bd a7ba 74bd 6b22 7c3d 29dc 3dbd
000000c0: ccf5 163e a413 1c3d a2f1 7c3c 7a42 ff3d
000000d0: c9f3 afbd 3272 c83d 6be6 f6bc 4b8e 253b
000000e0: 000c 003d 6430 38bd 61df 5abd e22f 48bd
000000f0: c41b 9fbd d324 39be b361 303e 8c27 f0bd
00000100: ba8c bb3c aa7e 67bd f67d 7cbd 11e6 6abd
00000110: efbb b63d 9fab 373d fba7 253d aa6d c6bd
00000120: fd12 863c 4313 b23d 7f42 923d b8e0 373c
00000130: 61b3 0e3e 49a7 a53d 7adc b3bd aeb8 0c3e
00000140: 370d f2bd 5523 81bc 2922 793d c3b4 773d
00000150: 954c 1a3e 7293 12be c075 293e 31b8 46bd
00000160: b161 1bbe 9ac8 3c3c e81e aa3d e79e 87bd
00000170: 94bf 84bd bee8 8dbd dcc5 44bb 2c39 b03d
00000180: 66ae 8fbd 1972 27bd 6527 0d3d 467b 77bd
00000190: b266 d9bd 36fc d4bd b693 783d bf4a 763d
000001a0: a42e 273e 37c7 103e 5a39 9abd 58ec 1c3d
000001b0: da7f 5e3d 8739 303e 7aa3 3a3d 6c47 4f3d
000001c0: d2b0 853d 8f51 573d fabf 27bd c796 2abe
000001d0: e25e c3bd 275b c1bd 2adb 0c3d 651e 213d
000001e0: 15ff f63d f2b3 11bd 7c47 513d 7fbb 133e
000001f0: ea5d 563d e909 0f3d 7b53 cd3d 011a 6d3c
00000200: b7e3 8a3b 6ad0 d5bd c9c9 e3bc 5eec a73d
00000210: 46a1 613c b33f 073d 1270 a63d 6ecd ad3c
00000220: 88fc c4bc 9a13 d3bd 8306 a9bb 49c7 683d
00000230: 059c 043d 6973 36bd 108c 65bd 9cd2 fdbd
00000240: b77b 00bd 5b07 9bbd b354 48bc 3b62 1e3e
00000250: 95bd 8abd 4e2e 64bd da0f 86bd 55b2 7cbb
00000260: 3708 d53d 3d67 eabd cfbb 9d3d cd41 3b3e
00000270: d7f9 b33d 899f b03b 26f0 603c 7e75 743d
00000280: bfe4 133e 00be 303d 376b 223e eaa7 503d
00000290: 6801 eabd 6914 28be 6dce 3d3d e271 0bbe
000002a0: 52d7 0fbe c6ba 053e 4eb5 30bd 3e87 243e
000002b0: b83e 983c ef93 213d c2fc 1dbd d879 033e
000002c0: 0c5c 10be 888d a1bd 5354 8abd e04d 2cbe
000002d0: f99a e6bc b856 043e 9a51 d4bd 5edc 4a3c
000002e0: a2d1 3bbe ea00 dd3d 9dbe 263e 7948 743d
000002f0: afec de3d e7af 30be a494 1d3e e54e ec3d
00000300: 2a31 dbbc 20b1 af3d 1951 3a3e 5f7e 16bd
00000310: 4675 8ebd b927 3c3e 5b9e c63d 8ac8 5d3d
00000320: 261f a8bd 37aa 5f3d b1d8 43bd f025 67bd
00000330: 38a5 88bc 09ba 5a3c 5833 7abd 79bb 953d
00000340: 42da 1a3e 8e17 b73d 525e 903c aa0c f0bd
00000350: e3d2 aabd 6d2c 883d cedd f23d 9bc9 b33d
00000360: b749 823d 3675 ee3d ff0e a03d 134b b5bd
00000370: 8924 abbd b038 d83d 3cbf e13d 0e9d 3f3d
00000380: 1fc3 c5bd d94e ef3d ef35 fb3d 0a52 5bbd
00000390: f505 4abd 33e2 253c e4e0 dbbd b037 7ebd
000003a0: 23a0 9c3d a8e2 02bd d12d 35bd d328 25bd
000003b0: 7cea a8bd 38b2 923d 67b7 03be a9db 6e3d
000003c0: f5ec a5bd bc91 99bd 05a1 7cbd 458a 1c3c
000003d0: 7736 94bd 9cb5 debd 47b0 543c 9919 f0bd
000003e0: 4c06 f53d c531 e4bd ce65 fe3c abd3 a63d
000003f0: 9d4d 76bd 6102 2a3d b215 583d e3ae 823d
0.065749705 -0.023000482 0.0928956 0.09174637 0.027443683 0.16137053 -0.0790787 0.020608779
0.1562644 -0.019158436 0.15711072 -0.10724371 -0.079940744 -0.078445815 -0.074733645 0.004437265
0.018409038 0.17700736 0.015900308 0.1179579 0.17324331 0.052054793 0.14609176 0.046540406
-0.1475008 -0.10496714 0.1713518 0.08672589 0.11630139 -0.08338969 -0.04569271 -0.11984565
0.18132739 -0.15159237 0.0933006 -0.078659624 -0.13285153 -0.14621305 0.031111872 -0.13641642
-0.04286199 0.012504449 -0.08641921 0.18293184 -0.094673224 -0.059748318 0.06155626 -0.04635254
0.14742202 0.03810467 0.015438469 0.12463851 -0.0859142 0.09787406 -0.030139169 0.0025261815
0.031261444 -0.044968024 -0.053435687 -0.04887379 -0.07768968 -0.18080454 0.1722477 -0.11726293
0.022894252 -0.05651728 -0.061643563 -0.057348315 0.08922564 0.044841405 0.0404434 -0.096888855
0.016366476 0.0869508 0.071415894 0.011223011 0.13935615 0.08088548 -0.08782287 0.13742325
-0.11818927 -0.015763918 0.060823593 0.060475122 0.15068276 -0.14314058 0.16548824 -0.048515502
-0.15173985 0.0115224365 0.08306676 -0.06622105 -0.06481853 -0.06929158 -0.003002516 0.08604655
-0.07015686 -0.040880296 0.034461398 -0.060420297 -0.10615291 -0.10399668 0.060687743 0.060129877
0.16326386 0.14138494 -0.0753047 0.038311332 0.054321148 0.17209445 0.04556606 0.050605223
0.065278664 0.052568015 -0.040954567 -0.1665908 -0.09539582 -0.09441214 0.0343887 0.039335627
0.12060372 -0.035572 0.051093563 0.14426993 0.052335657 0.03492156 0.10025688 0.014471532
0.0042385715 -0.104401425 -0.02780618 0.0819938 0.013771361 0.033019733 0.081268445 0.02121612
-0.024046198 -0.10306473 -0.005158247 0.056830678 0.032375354 -0.044543657 -0.056041777 -0.12393686
-0.031367984 -0.07569762 -0.012227225 0.1546716 -0.06774441 -0.055708222 -0.06545992 -0.0038558443
0.104019575 -0.114454724 0.07701837 0.1828682 0.087878875 0.005390112 0.013729131 0.05968236
0.14442728 0.043149948 0.15861212 0.050941385 -0.114260495 -0.16414036 0.04633944 -0.13617662
-0.14046982 0.1305953 -0.043141656 0.16067216 0.018584594 0.03944772 -0.038571127 0.12839448
-0.14097613 -0.07888323 -0.06754365 -0.16826582 -0.028150069 0.12923706 -0.10367127 0.012381641
-0.18341687 0.1079119 0.1628365 0.059639428 0.108849876 -0.17254601 0.15388733 0.115384854
-0.026756842 0.08578706 0.18194999 -0.03674161 -0.06955962 0.18374528 0.09698173 0.054146327
-0.08209066 0.05460569 -0.047814075 -0.056432664 -0.016680345 0.013350018 -0.06108412 0.07311148
0.15122321 0.089400396 0.0176231 -0.117211655 -0.08341005 0.066490985 0.11858712 0.087786876
0.06361716 0.1164345 0.0781536 -0.0885221 -0.08356578 0.10557687 0.11022803 0.04678064
-0.09656357 0.11684961 0.122661464 -0.053545035 -0.049322087 0.010124731 -0.10736254 -0.062064826
0.07647731 -0.031954437 -0.044233147 -0.040322136 -0.08247849 0.07162899 -0.12862931 0.058314953
-0.081018366 -0.074985 -0.061676998 0.00955445 -0.07236951 -0.10874483 0.012981481 -0.11723632
0.11964092 -0.11142305 0.031054404 0.08145841 -0.06013261 0.041506175 0.052755065 0.06381013

model.lstm2.weight_hh_l0 f4 [208, 52]
00000000: b859 a53d 8a2d f1bd 08d3 c3bc 9834 fdbc
00000010: f0b7 073c 5a8d 04be 80f4 223c a156 003e
00000020: ab85 0abe 600d a23d 0a75 de3d 802f 5fbc
00000030: b018 99bd 99d0 0abe 64cb 07be dea7 ff3d
00000040: 5c20 67bd d204 20bd 80b5 a8bb caa7 b43d
00000050: 7c7d c0bd 61ef e7bd 0098 013c 4ca0 13bd
00000060: 44ec 9bbc a89a 20bd 7237 8a3d c096 debc
00000070: 0c3a a93d ee07 f93d f64b 5dbd 2db7 99bd
00000080: f8ac adbd f0f9 8fbd 04d9 043d 34bd 6d3d
00000090: fb57 003e 867f 853d 36cb 08bd 2eaa bc3d
000000a0: 0073 b43d 80d0 903b 4387 f8bd f0c5 8a3c
000000b0: e0b5 eb3b 3483 d7bd 8452 5c3d c0a1 e8bc
000000c0: 30b3 513c 3a8f 95bd 740e 03be f807 4c3d
000000d0: de65 0cbe b476 6dbd d050 1cbc 32f9 edbd
000000e0: 8030 683c f8fc 7fbc 20a6 833c c8d6 0cbd
000000f0: 9718 0b3e baad cd3d 947f 413d b4b4 59bd
00000100: 3009 e8bc 5a7b dc3d 44d4 dbbd b5f7 f6bd
00000110: 6bbd 84bd f414 8fbd 70e4 023c 1a92 5dbd
00000120: 02f4 d73d 326e 20bd 44a7 cc3d 816d 023e
00000130: 004a c23c 3c8c 843d e6fa eabd f486 a93d
00000140: 6071 dc3d f0fe c43d f028 b23c 2ef7 1ebd
00000150: 5073 823d fb14 9abd a232 58bd 9ee9 e5bd
00000160: 705a efbc c648 f03d c05a 19bd 5483 14bd
00000170: 28af f63c 73ac 063e 96bc fe3d 4472 acbd
00000180: 988a a63c aa14 fa3d 8a86 ddbd 7412 92bd
00000190: ae93 c23d 9aca a73d 74c0 debd dee5 f13d
000001a0: 10e2 e53c 9c73 07be 103c 863c cc92 3cbd
000001b0: 98d0 a3bd a4e7 6cbd 8efe 993d f609 903d
000001c0: 2065 583c 4ac9 82bd d090 99bc 00de 9a3b
000001d0: a7c4 093e a0a4 7fbd 92c2 883d 3a65 f43d
000001e0: 3172 053e b036 9c3d bace 87bd c249 c3bd
000001f0: 9d55 04be aceb ecbd 00b4 873a 5b2e 04be
00000200: 0437 2f3d 6409 c93d 9880 cfbd 32d7 e1bd
00000210: c0a9 a83d 8056 a33b 8061 8dbb 0610 e0bd
00000220: 006b af3d 741a d4bc 1460 473d 9016 743d
00000230: e412 d83d 3f96 03be 6c8a 003d 6097 b73d
00000240: 0a46 d03d e622 c83d decb e43d 7607 bc3d
00000250: b729 e7bd 0895 65bd 100d 013c 28f4 493d
00000260: 4cd9 92bd c245 d3bd 0fb5 00be e0aa a93d
00000270: 5639 d93d a441 bbbd 9eb6 f53d 8a43 06be
00000280: 30fd df3c 324d ecbd a0ad f5bd ac0c 003d
00000290: 1483 113d f476 a33d 6899 c1bd 4ad4 e73d
000002a0: 6605 7abd a83f b8bd 7028 d6bd 2d6b ddbd
000002b0: f0ab 5ebd 70ab 373c daff bc3d eeac a23d
000002c0: 40c1 cc3d 90d4 b5bd 5484 c23d 6895 693d
000002d0: 186e 7ebd ea41 993d 02d0 ad3d 922d 9e3d
000002e0: c5e7 053e 2c34 ba3d 0829 903d 26a0 96bd
000002f0: d040 6a3d c43d 11bd a06a a5bb 92da ccbd
00000300: c867 a43d d8d5 c23c d255 9c3d 9c6d 403d
00000310: d4d8 a0bd cc14 cbbc e4ae dcbd a0db c6bd
00000320: d807 99bc 187b c63d 6b2d 9ebd fa33 5abd
00000330: 2cd1 443d 1146 0a3e 2029 87bb 483d e93c
00000340: 542b 1a3d acaa 7f3d 7496 fbbc d2cb 08bd
00000350: c013 51bd 24a6 f6bc 6488 78bd a829 cf3d
00000360: 2819 a3bd 04b1 17bd 926e be3d 1e37 c0bd
00000370: 7035 65bd 6a31 ebbd ba3e d73d 4e70 2abd
00000380: 045f 583d 4c45 cd3d 8ed2 e5bd 45a6 a9bd
00000390: ee3b 9a3d 18bf d7bd ae7f a63d f742 073e
000003a0: a0bf e9bb 017e 0a3e fcb5 c9bd d84c 2c3d
000003b0: 9983 043e 01c5 dbbd a861 d5bc c838 8d3d
000003c0: d284 31bd 94ff ae3d 100d 903c be98 b43d
000003d0: c0e5 f93c 5ec6 b1bd fa07 f63d e023 073c
000003e0: d0b1 febc 78b1 c0bd 146c aabc be14 f73d
000003f0: a2c8 f23d e861 ffbc 36db 803d 9012 733c
0.08073753 -0.11776264 -0.023904338 -0.030908868 0.0082836 -0.12944546 0.009945989 0.12533046
-0.13527553 0.07912707 0.10862167 -0.013622165 -0.07475412 -0.13556136 -0.13261181 0.1248319
-0.056427345 -0.039067097 -0.0051485896 0.08821066 -0.09398934 -0.11324955 0.007909775 -0.036041543
-0.019033559 -0.03920999 0.067488566 -0.027171493 0.08263025 0.121597156 -0.05402752 -0.07505641
-0.08480257 -0.07030094 0.032433525 0.058041766 0.12533562 0.06518464 -0.033396922 0.09212147
0.08810997 0.0044193864 -0.12135174 0.016940087 0.007193312 -0.10523072 0.05378963 -0.02839744
0.012799069 -0.07302709 -0.12798482 0.049812287 -0.13710734 -0.057974532 -0.009540752 -0.11619796
0.01417172 -0.015624277 0.016070426 -0.03438452 0.13583599 0.10042901 0.04724081 -0.053150848
-0.028324693 0.10765715 -0.10733846 -0.12058965 -0.06481441 -0.06986418 0.007989034 -0.05409441
0.10544588 -0.03916759 0.09992841 0.12737085 0.023716927 0.0647206 -0.11473636 0.082776934
0.10763812 0.09618938 0.021748036 -0.038809948 0.0636965 -0.07523533 -0.052782662 -0.112261996
-0.029217929 0.117326304 -0.03744006 -0.036258057 0.030112818 0.13151722 0.12438314 -0.08420232
0.020329759 0.122109726 -0.10816677 -0.07132426 0.09500824 0.0819294 -0.10876551 0.11811422
0.028061897 -0.13227695 0.016386062 -0.046038434 -0.079987705 -0.057838097 0.075192556 0.0703315
0.013207704 -0.06386049 -0.01874581 0.0047261715 0.13453923 -0.062412858 0.06677736 0.1193337
0.13031842 0.07627618 -0.06631227 -0.095355526 -0.12923284 -0.11568388 0.0010353327 -0.12908308
0.042777076 0.09816244 -0.10131949 -0.110273734 0.08235502 0.004984677 -0.0043146014 -0.10940556
0.085653305 -0.02589152 0.04867561 0.05959183 0.10550478 -0.12850283 0.03138201 0.08964419
0.10169609 0.09772281 0.11171697 0.091811106 -0.11287253 -0.05605033 0.0078766495 0.04930511
-0.07170352 -0.103160396 -0.12569068 0.08284545 0.10606639 -0.09143379 0.11997722 -0.13111702
0.027342409 -0.11538161 -0.11996007 0.031262085 0.035525396 0.07981673 -0.09453088 0.11319788
-0.061040305 -0.089965165 -0.104569316 -0.10811458 -0.05436319 0.0112103075 0.09228487 0.0794314
0.09997797 -0.08878434 0.09497896 0.05702725 -0.062116712 0.07483275 0.0848694 0.077235356
0.13076694 0.09091982 0.07039076 -0.07354765 0.057190716 -0.035459295 -0.005048111 -0.100026265
0.08027607 0.02378361 0.076335564 0.04697953 -0.07853857 -0.02479019 -0.10775545 -0.09709859
-0.018680498 0.09691447 -0.077235065 -0.053272225 0.048051044 0.1350329 -0.0041247755 0.028471604
0.037638977 0.062418625 -0.03071139 -0.033397503 -0.051044226 -0.030108519 -0.060676947 0.10115367
-0.079637825 -0.03703405 0.09298433 -0.09385513 -0.055959165 -0.11484034 0.10510011 -0.04161101
0.05282499 0.10022983 -0.11221801 -0.082836665 0.07530962 -0.10534495 0.08129822 0.13209139
-0.007133439 0.13524629 -0.09849164 0.04206547 0.12940826 -0.10730935 -0.026047543 0.06895596
-0.043339558 0.085448414 0.017584354 0.08818196 0.030505061 -0.08680414 0.1201324 0.008248299
-0.031090647 -0.094088495 -0.020803489 0.12064503 0.11854674 -0.031174615 0.06291811 0.014835969

model.lstm2.bias_ih_l0 f4 [208]
00000000: 86a3 af3c 1926 86bd 2f03 d13d f87e dbbd
00000010: 6c62 d2bd b1c6 04be 0276 223e c58c 173e
00000020: ad58 ffbd 10df 323e ed05 f53d 5b2b fabd
00000030: bbf3 88bd 0740 9abd cc5e 4a3d 9cbe eb3d
00000040: a5be 3ebd 5cb5 ce3d 677f 6bbd ba4b 743d
00000050: 93b0 f63d 162f 5cbd 5edf 883d 89f0 853d
00000060: b22c 0c3e f279 6d3d 9819 a33d cb2a 9f3d
00000070: 2d36 2fbd 6bbd 5d3d 65bf 81bd 7c00 f83d
00000080: ceda 1e3d c0bf 193e 9d35 953c 6187 8f3d
00000090: c97c b5bd ffe1 e13d 40fa 91bd b1d3 a7bd
000000a0: c0d7 893c c5de 543d 5801 cc39 2083 73bd
000000b0: 76c5 7bbd 7b3a a73c 1dd6 973d 0248 0f3e
000000c0: a5fb ef3d bb8f 2a3e d0d6 bc3d 4394 ebbd
000000d0: 7e0a f13d 36ef b83d 824c 7fbd 185b 4a3d
000000e0: b8c0 cabc fc97 d73d bc8d dd3d 108a debc
000000f0: dce3 4e3d e0b9 643c 90b4 053c 1818 94bd
00000100: 7867 623d 8c1b 543d 44d0 9c3d a1e1 e0bd
00000110: 6c2c 9c3d ad07 96bd 58bb b43d 0ef2 8d3d
00000120: b2ee 843d 8012 daba 9822 183d 0460 833d
00000130: 0009 653d 8815 433d 5eaa 89bd 2fc2 a2bd
00000140: 3eb0 913d d78b d9bd 03cc 083e e7ad 0cbe
00000150: f10e 0a3e f0d9 043d a0be f23b 64f4 803d
00000160: d02f 41bc d2b7 e63d 3c5b 98bd 28bf f5bc
00000170: 774f 073e ec71 0dbe 0e7d b8bd f5a8 a3bd
00000180: 8081 efbd 7acc ee3d 04d6 b1bc 453d 05be
00000190: f419 a33d ee5a 2dbd 06ad f1bd 9c83 833d
000001a0: 224e 043d 3fbd 04be 9a30 dabd 0faf 17bc
000001b0: 7afa 533d e2a3 45bd ccd2 283d 0ee2 dbbd
000001c0: e450 cfbd 07b9 823d bf66 d83d f095 adbd
000001d0: 9bae 0abe 1a15 94bd 4122 253c 09d3 1dbe
000001e0: c0a7 75bd b5c2 fa3d 522a 543d 9216 1b3c
000001f0: 2914 1b3e 07f4 fbba 9774 06be 189c 803d
00000200: 9275 033e ad32 5fbc fc17 23bd be75 c23d
00000210: 7cc4 7f3d 8155 bbbc 6525 c73d 5e86 b2bd
00000220: b758 1ebe 2764 2dbd 5368 d8ba f4eb c4bd
00000230: 3de0 00be 91b6 4d3d 32bc 463d 2021 4a3d
00000240: b7f6 893c 27d5 e6bd 66f1 453c d56e 7f3d
00000250: 576f 073d d9b0 5abd 1075 97bc 16a4 363d
00000260: fd7b f8bc 1074 123d 665a b63d 564b b0bd
00000270: 0c6e 943d 90a8 7abd 0b88 c93d 4b22 3b3b
00000280: dcff 2bbb cf05 73bd a0c1 143e cb00 1e3e
00000290: 3d91 2a3d 93bb 313e 3a56 6f3d b246 883d
000002a0: b2cb 0e3d 4e0b 043d a83f 0cbd c2a2 093e
000002b0: dad5 113d 80c0 25bc ff75 963d a0ca 203e
000002c0: 691c eb3c 496a e63d 4415 1e3e f755 a53d
000002d0: 74e6 193e 1f83 353c a8c6 acbd 8da3 00bc
000002e0: 96d0 66bd 1c7e 8ebd 60ac 17bd 063d 773d
000002f0: 198c 253e 9d35 aebc f58b 9d3d bb44 82bc
00000300: 2a15 633c 9e2d ab3d f561 aebd f3fe 963b
00000310: 7beb ccbd 747b d43d b702 0b3d e850 62bd
00000320: c7c8 e5bd 27a2 67bd 163e ea3d 83ef dfbb
00000330: fa1c c63d 01a5 f83d 2257 94bd e2f9 b7bd
0.021440279 -0.06550235 0.10205685 -0.10717577 -0.10272679 -0.1296642 0.15865329 0.14799793
-0.124680854 0.17467904 0.11964021 -0.12215301 -0.06687113 -0.075317435 0.04940681 0.11510965
-0.04656853 0.10093185 -0.057494547 0.05964253 0.120453976 -0.053755842 0.06683229 0.06540019
0.13688925 0.057977624 0.07963866 0.07771834 -0.042776275 0.05413572 -0.06335334 0.121094674
0.038782887 0.15014553 0.018214041 0.07008243 -0.088616915 0.110294335 -0.071278095 -0.08194674
0.01682651 0.051970262 0.00038910913 -0.059451222 -0.06146761 0.020413628 0.07413886 0.13992313
0.11717919 0.16656391 0.0922066 -0.11502888 0.11769579 0.09030001 -0.062328823 0.04940328
-0.024750099 0.105270356 0.10818049 -0.027165443 0.050510272 0.013960332 0.008160725 -0.07231158
0.055274457 0.051784083 0.07656911 -0.10980535 0.0762566 -0.07325683 0.088247955 0.06930934
0.0649084 -0.0016637594 0.037142366 0.06414798 0.055916786 0.047627956 -0.06721948 -0.07947194
0.07113694 -0.106223755 0.13359074 -0.13738213 0.13482262 0.032434404 0.007407978 0.06296614
-0.011791185 0.1126553 -0.074392766 -0.029998377 0.13213907 -0.13812989 -0.09008227 -0.0799121
-0.11694622 0.116600946 -0.021708496 -0.13011654 0.079639345 -0.042323045 -0.1180058 0.06421587
0.032301076 -0.12962817 -0.10653801 -0.009258046 0.051752545 -0.048251994 0.041216657 -0.10736476
-0.101228505 0.063829474 0.10566472 -0.08475864 -0.13543169 -0.07230587 0.010078968 -0.15412535
-0.059974432 0.12244169 0.051798172 0.00946583 0.15144409 -0.0019222506 -0.13130413 0.062797725
0.12837818 -0.013622922 -0.039817795 0.09495114 0.06244324 -0.02286792 0.09723929 -0.08717035
-0.1546353 -0.04233184 -0.0016510583 -0.09615317 -0.1258554 0.050222937 0.04851932 0.049347997
0.016841276 -0.11271124 0.01208148 0.062361557 0.033065166 -0.05339131 -0.018488437 0.04459008
-0.03033256 0.035755217 0.08903961 -0.08608119 0.07247552 -0.06119591 0.09840401 0.0028554376
-0.0026245033 -0.05933171 0.14526987 0.1542999 0.041642416 0.1735671 0.05843184 0.06654109
0.034862228 0.032237343 -0.034240395 0.13440993 0.035604335 -0.010116696 0.07346725 0.15702295
0.02870007 0.11250741 0.154378 0.08073037 0.15029317 0.011078625 -0.08436328 -0.007851494
-0.056351267 -0.06957647 -0.037029624 0.06036093 0.16166724 -0.0212658 0.0769271 -0.015901914
0.013860026 0.0835831 -0.085147776 0.004608029 -0.10005852 0.10375109 0.033938136 -0.05525294
-0.11219936 -0.056551125 0.11437623 -0.006833972 0.096734956 0.12140847 -0.07243182 -0.08983208

model.lstm2.bias_hh_l0 f4 [208]
00000000: 5bf8 ff3d b336 91bd 13e8 cebd 5418 a3bc
00000010: 5af3 e63d b036 a0bd d41d 06bc 3a60 9c3d
00000020: 713b 56bd 0cd6 903d 5627 333d 7330 81bd
00000030: 5c73 2c3e 3594 8cbd 21fd 92bc 6e67 d63d
00000040: b413 c4bc 46b1 f73c c236 c83d 3227 2cbd
00000050: cd15 1bbd 0c9f 91bd 6924 453c ca10 663d
00000060: 47e1 c83d bbc9 cf3d 4603 973d c018 3dbd
00000070: c1f5 093c c806 9f3d 8e4e 91bd f895 a33d
00000080: f45f 74bd aa61 043e 61ba 153e 3640 863c
00000090: 27d9 513c b9b0 0a3e f193 2d3c 9a89 2f3e
000000a0: 15e7 cc3d 6c91 6d3d fb25 cf3d 5733 d3b9
000000b0: 4566 bf3d f80c c13d e982 563d 6ca1 4fbd
000000c0: dcc5 76bd 8b5e 803c 0a00 50bc 0807 ddbd
000000d0: bce8 933d ccef 94bc 10dc 993c aeee 02be
000000e0: c219 3ebd a858 b23d d162 c3bd d6d8 f23d
000000f0: 6021 fabc 00ec 5f3d 7833 01be 38d1 04be
00000100: 1b22 0a3e a013 e53b 8c2d c4bc decc f33d
00000110: 82c7 b83d ca96 f0bd 2c7c c23d 6292 a5bd
00000120: 208c 0d3c 3ef2 eb3d aacc 15bd cc24 9dbd
00000130: b43a c33d 4e9c eebd c642 04be 04d5 0cbe
00000140: 12bb ee3d 689f b43c 4e5a b63d 7331 b1bd
00000150: 34d9 383d 8a1d c43d f679 2cbd 0595 09be
00000160: 96ec 13bd fc32 bb3d 803b 0dbe a670 d2bd
00000170: 3064 2f3c f649 8c3d c0cd 0c3d a572 073e
00000180: 3d37 033e fde0 e0bd 2850 b23c c50c 093e
00000190: 0c85 d03d 2582 0cbe e012 e73b 80a5 f53b
000001a0: ee70 133d 851d aebd d5e4 50bc df9c 17bc
000001b0: ee7e a3bd f5b5 cfbc a2c5 8c3d 36e7 b8bd
000001c0: 3f21 c5bd af72 22be 6542 acbd 16e0 2ebc
000001d0: dc9c 683d 62aa 96bd 3a64 97bd b58a 563d
000001e0: ea77 6e3d 57ae 263d f213 5d3d 0d6d 9ebd
000001f0: 6e81 51bd 972d 263e 434a 3b3d 08b6 e2bd
00000200: 9094 a0bd 4b4a cdbd 05f8 80bd 2b2d 843d
00000210: abee 4f3d 2ea9 a83d 6965 bd3d 4a68 853d
00000220: 53d5 94bd 0d31 403d 62f0 473d ffb6 303d
00000230: a25e b3bd 0cb0 99bd b9e9 04be 2658 00be
00000240: cb19 a73d 4af6 14be b77d debd 461d 1a3e
00000250: 895c ec3d 456d ec3c 1204 1d3e d7db 03be
00000260: 3466 bcbc dd37 e43d db40 283d c106 42bd
00000270: c2bb f63a 4eec 123e 9ede 9fba 52b7 593d
00000280: 1660 a23d e2d3 a4bd 1a61 323e 499f 2fbd
00000290: 669e 1ebe 888f 963d c925 aabd ab15 f5bd
000002a0: 2671 af3b 6a57 233e 3418 003e 322a 2e3c
000002b0: 9dd2 d2bd 4fa8 c7bd 7ea5 82bc 8b5d 503d
000002c0: 8d16 55bd 0534 aabd b1aa cbbd 2e1a 29bd
000002d0: b480 da3c c565 fb3d e2c4 973d 52a9 b4bc
000002e0: e602 e8bd 7cf3 4dbd 6da9 953d e0fb 4e3d
000002f0: afb3 c83d 6550 e23d ef23 95bd 67d7 9fbc
00000300: 8c28 c5bd 5898 cabd 4d68 a5bd c467 ca3d
00000310: 525d 023e 2bb2 d5bd a02c b1bc 1350 b6bc
00000320: fd24 a8bd aabb c63c 62d3 993d 5981 503d
00000330: 7c55 94bd 33e9 bfbd 1863 c93c 2993 9e3d
0.12498542 -0.07090511 -0.101028584 -0.019909061 0.112768844 -0.07822931 -0.0081858225 0.07635541
-0.05230278 0.07072076 0.043738686 -0.06308069 0.16840881 -0.06864206 -0.017942967 0.104689464
-0.023935176 0.030235898 0.09776069 -0.042029567 -0.037862588 -0.07110414 0.012032607 0.056168355
0.09808593 0.10145899 0.07373671 -0.04616618 0.008420409 0.07764965 -0.07095061 0.07987589
-0.05966182 0.12927881 0.14621879 0.01638804 0.012808121 0.13543977 0.010594354 0.17142335
0.10005013 0.058000013 0.10114666 -0.00040283307 0.09345678 0.09426302 0.05237094 -0.050691053
-0.060247287 0.015670082 -0.012695322 -0.10792357 0.07222125 -0.01818075 0.018781692 -0.12786362
-0.046411283 0.08708316 -0.09540332 0.118577644 -0.030533493 0.054668427 -0.1261729 -0.12970436
0.13489573 0.006990865 -0.0239475 0.1190431 0.09022428 -0.11747511 0.0949634 -0.08084561
0.008639365 0.115208134 -0.036572136 -0.07673034 0.09532681 -0.116509065 -0.12916097 -0.13753134
0.116567746 0.022048667 0.08903943 -0.0865201 0.045129016 0.09575947 -0.0421085 -0.13435753
-0.036114298 0.09140584 -0.13792229 -0.10275392 0.010705039 0.068500444 0.034375906 0.13227327
0.1281404 -0.10980413 0.021766737 0.13383777 0.10181627 -0.13721521 0.0070518106 0.007496536
0.03599637 -0.08501724 -0.01274987 -0.00925371 -0.07983194 -0.025355319 0.06873633 -0.09028475
-0.09625482 -0.15864061 -0.08411101 -0.010673543 0.056790218 -0.07356717 -0.073921636 0.052378375
0.058219828 0.040693607 0.0539741 -0.077356435 -0.051148824 0.16228329 0.04572512 -0.11069876
-0.07840836 -0.10023936 -0.06297306 0.064539276 0.05076472 0.082353935 0.09247858 0.06514032
-0.07267251 0.04692178 0.04881323 0.04314327 -0.08758284 -0.075042814 -0.12979783 -0.12533626
0.081592165 -0.14547077 -0.10863822 0.1505023 0.11541087 0.028860698 0.15333584 -0.12876831
-0.022997953 0.111434676 0.041077476 -0.047369722 0.0018824267 0.14347956 -0.0012197082 0.053153343
0.07928483 -0.08048226 0.17419854 -0.042876516 -0.15490112 0.07351595 -0.08307988 -0.119670235
0.0053540645 0.15951315 0.12509233 0.010630177 -0.102940775 -0.09748899 -0.015948053 0.05087046
-0.05202346 -0.08310703 -0.09944666 -0.041284733 0.026672699 0.122752704 0.07410599 -0.022053394
-0.11328678 -0.050281033 0.07307706 0.050533175 0.09799897 0.1105049 -0.072822444 -0.019511892
-0.09626874 -0.098923385 -0.080765344 0.09883073 0.12730911 -0.104343735 -0.021627724 -0.02225498
-0.0821018 0.024259407 0.07511021 0.050904606 -0.07242867 -0.09370651 0.024583384 0.07742912

model.fc_layers.weight f4 [1, 52]
00000000: d92c e73d 4a9a 10be e485 2f3c 2a94 98bd
00000010: 50c4 123e 7729 2a3d 3d64 e53d 1541 a4bd
00000020: 09d3 b63c 4557 14be c4a4 bbbd eef8 8d3d
00000030: e9d4 13be f50b b7bd be6d a33c 54ed a4bd
00000040: 50c2 e63d f84d 193e 5ec1 86bd b3c1 d7bd
00000050: 7a50 293e eae0 c53d 892b d7bd e72c 643c
00000060: 0ca2 203e 923f 47bd a515 c83b 38ed b73d
00000070: ec29 93bd fbfd 1b3e ea4f 7abd 1416 a5bc
00000080: 050a 2dbd 0dde 0bbe 0988 103e d952 edbd
00000090: 172c 06bd f123 a0bd 4d0a c5bd 4033 05be
000000a0: 8097 6e3d e6ce 03be c6a2 cebd 01ba 823d
000000b0: 0f4b 083d 1e4a f9bd 7c7a 043d b047 86bd
000000c0: ad14 0b3d 0614 e13d d823 c83b 896c fb3d
0.11287851 -0.14121357 0.010713074 -0.07450135 0.143327 0.04154345 0.112007596 -0.08020226
0.022317426 -0.14486416 -0.09162286 0.06932245 -0.14436688 -0.089378275 0.01994979 -0.08053079
0.11267531 0.14971149 -0.065798506 -0.10534992 0.16534606 0.096620396 -0.105063505 0.013926721
0.15686816 -0.04864461 0.006106096 0.08980793 -0.0718573 0.15233605 -0.06111137 -0.02015213
-0.042245883 -0.13658924 0.14114393 -0.115880676 -0.03275689 -0.07819355 -0.09621105 -0.13007832
0.05824995 -0.12871894 -0.1008964 0.06383134 0.033274706 -0.1217234 0.032343373 -0.06556642
0.033955265 0.10990147 0.0061077885 0.12276561
