LSTM_TimeSeries/lightning_logs/version_205/checkpoints/epoch=19-step=340.ckpt (torch, 640155 bytes, 27 tensors)

model.lstm.weight_ih_l0 f4 [416, 3]
0	0x3cb8283a	0.022480119
1	0x3c30a1bf	0.010780751
2	0xbd78c02b	-0.06073014
3	0xbd03d6ec	-0.032187387
4	0xbd705f05	-0.058684368
5	0x3d1e2b93	0.038615774
6	0x3cd6c436	0.026216608
7	0xbd8fb26a	-0.07016452
8	0x3d7ffa5a	0.062494613
9	0xbd4dc150	-0.050233185
10	0xbcc46f87	-0.023978962
11	0x3daa9bce	0.08330499
12	0xbdbca86b	-0.09211811
13	0x3d2ccd39	0.042187903
14	0xbdbd04da	-0.09229441
15	0xbd56aa9f	-0.05240881
16	0xbd7418dc	-0.05959402
17	0x3d8e52b0	0.06949365
18	0x3c7894a7	0.01517216
19	0xbd3ef57b	-0.046620827
20	0xbdb16647	-0.08662086
21	0x3d1704e3	0.036869895
22	0x3d218591	0.03943402
23	0x3b14a191	0.002267931
24	0xbcca9113	-0.02472738
25	0x3cbe45f3	0.023226714
26	0x3dbbc302	0.09168054
27	0xbc69e256	-0.014275154
28	0x3d9b72d3	0.0759026
29	0x3da5de7a	0.08099075
30	0x3d19ebe2	0.03757847
31	0x3d821e86	0.06353478
32	0xbc3af1fe	-0.0114102345
33	0xbd9456d9	-0.072431274
34	0xbb15b519	-0.0022843538
35	0x3adb127f	0.0016713886
36	0x3cfb43b8	0.03067194
37	0xbdab2648	-0.08356911
38	0x3c07aab9	0.00828045
39	0x3d1960cd	0.037445832
40	0x3c07b963	0.008283946
41	0xbd90a41e	-0.07062553
42	0xbc56476d	-0.013078553
43	0xbd914af9	-0.07094378
44	0xbc4aedca	-0.012385795
45	0xbc38a053	-0.011268693
46	0xbbd1cdd6	-0.0064027114
47	0x3dbc0e12	0.09182371
48	0x392f84d6	0.00016738786
49	0x3c8318a2	0.016002957
50	0x3d6a1eaa	0.05715815
51	0x3d23b477	0.039967027
52	0xbda39907	-0.07988172
53	0x3d629aff	0.055323597
54	0xbd3df67c	-0.046377644
55	0x3dc280f7	0.09497254
56	0xbba02af7	-0.0048879343
57	0x3ca2471a	0.019809294
58	0xbda51c42	-0.080620304
59	0xbc3bee73	-0.011470425
60	0xbc94733c	-0.018121354
61	0x3c1ceac4	0.009577457
62	0xbd0406d5	-0.032233078
63	0x3d81084e	0.06300412
64	0xbdb3c0fa	-0.08777042
65	0x3dbec3f6	0.0931472
66	0x3d8fd842	0.0702367
67	0xbd705426	-0.058674
68	0x3cc01216	0.023446124
69	0xbc543bea	-0.012953738
70	0xbd545235	-0.05183621
71	0xbcd25ff7	-0.025680525
72	0xbd0d5f99	-0.034514997
73	0xbc503914	-0.012708921
74	0xbc137cb1	-0.009001897
75	0x3d4ff5a6	0.050771378
76	0x3c895218	0.016762778
77	0x3da2e9cc	0.079547495
78	0xbd73475a	-0.059394218
79	0x3dbe0b5d	0.09279511
80	0x3d7efd8e	0.062253527
81	0x3cd8d134	0.026466943
82	0xbd464c1b	-0.048412424
83	0x3d892804	0.066970855
84	0x3d93b93a	0.072130635
85	0xbc0dd6bb	-0.008657153
86	0xbd978eb9	-0.07400269
87	0x3d59549b	0.0530592
88	0x3daf580a	0.08561714
89	0x3a9e903c	0.0012097429
90	0xbd2e106a	-0.042496122
91	0x3d952cbd	0.07283924
92	0x3db1e810	0.086868405
93	0x3d2bb8ea	0.041924395
94	0x3d526f9b	0.051375967
95	0x3cc92001	0.024551393
96	0xbcb0811b	-0.021545937
97	0x3d6e4a3d	0.058176268
98	0x3dc344a5	0.09534577
99	0x3d248e45	0.04017474
100	0x3af6df70	0.00188349
101	0xbd2ac5da	-0.041692592
102	0x3cbd7cb5	0.023130754
103	0xbdbfffda	-0.09374972
104	0xbca6d1ed	-0.020363772
105	0xbcf499da	-0.029858518
106	0xbdbe6522	-0.09296633
107	0x3db15a27	0.08659773
108	0xbd5324d7	-0.051548805
109	0x3ada8082	0.0016670378
110	0xbd0d01d3	-0.034425568
111	0x3da3188d	0.07963667
112	0x3d02d56d	0.03194182
113	0x3d7a704d	0.061142255
114	0xbd82899d	-0.06373904
115	0xb8b53384	-8.640348e-05
116	0x3bef078b	0.0072946004
117	0x3d8c6747	0.06855636
118	0x3d663df8	0.05621144
119	0xbd13c27d	-0.03607415
120	0x3c2be8d6	0.010492524
121	0xbd7c45d8	-0.061590046
122	0x3d146ea7	0.03623834
123	0x3c16a08e	0.009193553
124	0xbda1180d	-0.078659154
125	0x3da55ff0	0.08074939
126	0x3ca46f60	0.020072639
127	0xbd7cc785	-0.061713714
128	0xbc29a7f9	-0.010354989
129	0x3ad725c8	0.0016414458
130	0x3da35151	0.07974494
131	0x3bca9707	0.0061825546
132	0x3d0907c9	0.03345469
133	0x3dae23da	0.08502932
134	0xbce26fd9	-0.027641224
135	0x3d9bf5ff	0.076152794
136	0xbd7a2c5a	-0.061077453
137	0xbd05915f	-0.03260934
138	0xbc81c0c7	-0.015838994
139	0x3d0e2214	0.03470047
140	0x3d6efc73	0.058346223
141	0x3d811318	0.0630247
142	0x3acfc1af	0.0015850569
143	0x3db558fb	0.08854862
144	0x3d40a23c	0.04702972
145	0xbd82600a	-0.06365974
146	0x3d6d5616	0.057943426
147	0x3d689043	0.056778204
148	0x3d863431	0.065529235
149	0x3ba4f782	0.005034388
150	0x3cda25aa	0.026629288
151	0x3dbbfd29	0.09179146
152	0x3ba281cc	0.0049593206
153	0xbd042cb6	-0.032269202
154	0xbd8993f9	-0.06717677
155	0x3d86c5df	0.0658071
156	0xbd50e238	-0.05099699
157	0xbdbc060e	-0.09180842
158	0x3cb18e52	0.021674309
159	0x3db2af45	0.08724836
160	0xbc7581eb	-0.014984588
161	0x3d361259	0.04445109
162	0x3bc9bc78	0.0061565004
163	0x3c0382dd	0.008026806
164	0x3d868f41	0.06570292
165	0xbdc8ab7f	-0.09798335
166	0x3daaffeb	0.08349594
167	0x3d566244	0.052339807
168	0xbc02f95b	-0.007994021
169	0x3d371a80	0.044703007
170	0xbd67c65f	-0.056585666
171	0xbd81cf67	-0.06338387
172	0x3d41de8b	0.047331374
173	0x3dc0cd05	0.09414104
174	0xbcb53ab0	-0.022122711
175	0x3bd0a478	0.0063672625
176	0x3d2b2ff7	0.04179379
177	0x3c68ab03	0.014200929
178	0x3c053d5b	0.008132304
179	0x3da6e0e1	0.08148361
180	0xbdb4910f	-0.0881673
181	0xbcb21158	-0.021736786
182	0x3d597204	0.05308725
183	0xbcb40678	-0.02197574
184	0xbcad411f	-0.021149216
185	0xbd8049b9	-0.062640615
186	0x3dbc849e	0.09204982
187	0x3d11c2ba	0.035586096
188	0xbd4ba2dd	-0.049715865
189	0x3d1d4046	0.038391374
190	0x3d47c0f9	0.048768017
191	0x3d5fffd1	0.054687325
192	0x3d14526a	0.03621141
193	0x3d1ddcfa	0.038540818
194	0xbd3984b2	-0.045292564
195	0x3d38dd64	0.04513301
196	0x3a404fa9	0.0007336089
197	0x3da68327	0.08130484
198	0x3d595434	0.053058818
199	0x3dae04eb	0.08497032
200	0x3a627218	0.0008638217
201	0xbbd48924	-0.006486075
202	0x3ca45699	0.020060824
203	0x3c1c2e13	0.009532469
204	0x3c243f99	0.0100249285
205	0x3d4baf3b	0.04972766
206	0x3d9c061c	0.07618353
207	0x3da185af	0.07886826
208	0x3d7b3344	0.061328188
209	0xbcd36ce7	-0.025808765
210	0x3d71ff6e	0.059081487
211	0xbbd384ca	-0.0064550387
212	0x3c341fde	0.010993926
213	0xbd5e99b3	-0.054345798
214	0xbd62b3a2	-0.055347092
215	0x3cd886fe	0.026431557
216	0x3d4cb7ad	0.049979854
217	0x3d850108	0.06494337
218	0x3bf874cb	0.007582282
219	0x3d2e04d7	0.042485084
220	0xbccfd110	-0.025368243
221	0x3cae4196	0.021271508
222	0xbce290e4	-0.02765698
223	0x3dc3d84a	0.09562738
224	0x3beef69d	0.007292582
225	0xbdb9f49c	-0.09079859
226	0x3db506f8	0.0883922
227	0xbb327068	-0.0027227644
228	0x3da6aa75	0.08137981
229	0xbd810c4f	-0.06301176
230	0xbc6043af	-0.013688012
231	0x3cff629f	0.031174956
232	0xbc30ebd9	-0.010798418
233	0xbd710e1e	-0.058851354
234	0xbd04f985	-0.032464523
235	0x3c18fca7	0.009337581
236	0xbcbd6acd	-0.023122216
237	0x3d976f0a	0.07394226
238	0xbb38f7a8	-0.0028223787
239	0xbd2b09d9	-0.04175744
240	0x3d9be1db	0.07611438
241	0xbcfd3e2f	-0.03091344
242	0xbca34941	-0.019932391
243	0x3c9006a8	0.017581299
244	0x3c2cbf97	0.010543725
245	0xbdc6b4a0	-0.0970242
246	0x3ca00007	0.019531263
247	0x3dbbc5fc	0.09168622
248	0xbc30cb65	-0.010790681
249	0xbcd560fa	-0.026047219
250	0x3d575228	0.052568585
251	0xbd0294c1	-0.031880144
252	0x3d23995b	0.039941173
253	0x3d8abb33	0.06773987
254	0x3d03d6a0	0.032187104
255	0x3b9e4f33	0.0048312186

model.lstm.weight_hh_l0 f4 [416, 104]
0	0x3d146227	0.036226418
1	0xbd8204d9	-0.06348581
2	0x3cf2f785	0.029659042
3	0xbd19f166	-0.03758373
4	0xbd26d8ef	-0.040734228
5	0xbda29855	-0.07939211
6	0x3c343406	0.0109987315
7	0x3ca58ba5	0.02020819
8	0xbc4a1314	-0.01233365
9	0xbca4b3a1	-0.020105185
10	0xbd307dbe	-0.043088667
11	0x3c9476ce	0.018123057
12	0xbca51262	-0.020150367
13	0xbc0ca1d5	-0.008583506
14	0xbceb7b80	-0.028745413
15	0x3db21847	0.08696037
16	0xbd665a2d	-0.056238342
17	0xbb4d2106	-0.00313002
18	0xbd683080	-0.05668688
19	0xbd7b5ce3	-0.06136788
20	0x3c251d8c	0.010077845
21	0xbc43eb04	-0.011957888
22	0x3cb1933f	0.021676658
23	0xbd43de97	-0.0478197
24	0x3d44aedd	0.048018325
25	0x38604955	5.3474057e-05
26	0x3d8b95c2	0.068156734
27	0xbd92a2c0	-0.07159948
28	0x3d02e065	0.03195228
29	0x3c815e5f	0.01579207
30	0x3d17ff05	0.03710844
31	0x3ca7e777	0.020496113
32	0xbbbe0244	-0.00579861
33	0xbd09a278	-0.033602208
34	0x3c8bc053	0.01705948
35	0xbd24b41c	-0.04021083
36	0x3d90961e	0.070598826
37	0x3d8b689e	0.068070635
38	0xbd488b97	-0.04896125
39	0x3c939cc9	0.018019097
40	0x3d06ea96	0.032938562
41	0x3d87b558	0.066263855
42	0x3c68e204	0.014214043
43	0xbd42f7f7	-0.04759976
44	0x3d937846	0.07200675
45	0x3d9fa946	0.07795958
46	0x3ca3d85a	0.020000625
47	0x3cffbab2	0.031216953
48	0x3c8f46cd	0.017489815
49	0x3d048306	0.032351516
50	0x3d7f7970	0.06237167
51	0x3d0d03e6	0.034427546
52	0x3d02f7e9	0.031974707
53	0xbd89ad4a	-0.067225054
54	0x3cb39dad	0.021925772
55	0xbccc5b5f	-0.024945913
56	0xbd853850	-0.065048814
57	0xbc0a0dab	-0.00842611
58	0x3daaa9a3	0.08333137
59	0x3dc157a8	0.09440547
60	0x3cf22fc7	0.029563798
61	0x3dbba67c	0.09162614
62	0x3d04d2e2	0.032427676
63	0xbd35adfa	-0.04435537
64	0xbcfa57a4	-0.030559368
65	0xbdb66418	-0.0890581
66	0xbb927480	-0.0044694543
67	0xbda537a3	-0.080672525
68	0xbd040029	-0.032226715
69	0xbd27b7bb	-0.040946703
70	0x3d5c70a9	0.05381838
71	0xbce3766f	-0.027766434
72	0xbd66b565	-0.056325335
73	0xbd04201b	-0.03225718
74	0xbdaf7b07	-0.085683875
75	0xbdc142fd	-0.09436605
76	0x3c0b0947	0.008486099
77	0x3dadb74a	0.08482225
78	0x3d999cf3	0.07500639
79	0xbc74e004	-0.014945988
80	0x3db85139	0.08999867
81	0xbd85064f	-0.06495344
82	0x3db57e0b	0.088619314
83	0xbd1ad35f	-0.037799235
84	0x3d397615	0.045278627
85	0x3dc72654	0.097241074
86	0x3d9109a4	0.07081917
87	0x3d144646	0.03619983
88	0xbcb431b2	-0.021996353
89	0xbd9fd6b0	-0.0780462
90	0x3d73251f	0.059361573
91	0x3d41fb40	0.04735875
92	0xbd59069f	-0.05298483
93	0xbdbd68a4	-0.09248474
94	0xbd556e34	-0.05210705
95	0x3d89abea	0.06722243
96	0xbc831487	-0.016001
97	0x3d8161c3	0.06317475
98	0x3ce7c303	0.028291231
99	0xbd26c815	-0.040718157
100	0xbd37db17	-0.044886675
101	0xbc0e418b	-0.008682619
102	0x3b93f98c	0.0045158323
103	0x3db7533d	0.08951423
104	0x3cab4a7b	0.020909538
105	0x3b9e9f64	0.004840778
106	0x3d568a7e	0.05237817
107	0x3d40e4cb	0.047093194
108	0xbd8f9640	-0.0701108
109	0x3cac2675	0.021014431
110	0xbd97e04e	-0.074158296
111	0xbd986904	-0.07441905
112	0xbcd70325	-0.026246617
113	0xbd3e7366	-0.04649677
114	0xbcb6fe71	-0.022338124
115	0xbb4265be	-0.0029662694
116	0x3d3d8c3a	0.04627631
117	0xbdb7f562	-0.0898235
118	0x3d0dba48	0.03460148
119	0x3d65b6bc	0.056082472
120	0xbbf609a5	-0.007508474
121	0xbb36cc89	-0.0027892909
122	0x3dc01aaa	0.09380086
123	0xbcee9a2d	-0.029126251
124	0x3cbbad30	0.02290973
125	0xbc95711f	-0.018242417
126	0x3c3bfe95	0.011474271
127	0x3daba82b	0.08381685
128	0x3d833992	0.06407465
129	0x3d0c87b4	0.034309104
130	0x3cbe11d7	0.023201866
131	0x3cbf9b1a	0.023389388
132	0xbdc2e9b4	-0.095172316
133	0x3d04169a	0.032248117
134	0xbd41538b	-0.047198813
135	0xbd0cf3fb	-0.034412365
136	0x3db3b526	0.08774786
137	0x3daeebc3	0.08541062
138	0xbd9d332c	-0.07675776
139	0xbd0e5a14	-0.034753874
140	0x39a2c406	0.00031045097
141	0xbda306a4	-0.07960251
142	0x3daedf0c	0.085386366
143	0xbd9d0d7d	-0.07668588
144	0x3cec1a41	0.028821113
145	0x3cbb3bb8	0.022855625
146	0x3d2084e1	0.039189223
147	0x3b674317	0.0035287791
148	0x3ce46d40	0.027884126
149	0x3d7a22f6	0.061068498
150	0x3d7ae724	0.06125559
151	0x3bfaafeb	0.0076503656
152	0xbd9905e1	-0.074718244
153	0x3cf34835	0.029697517
154	0xbd2f3b4c	-0.04278116
155	0x3bcfdf3d	0.0063437507
156	0x3d85db87	0.06536012
157	0xbd57483e	-0.05255913
158	0xbca745c8	-0.020419016
159	0x3da590d4	0.080842644
160	0xbd88f379	-0.06687064
161	0xbd81b001	-0.06332398
162	0xbd71ecba	-0.05906365
163	0x3da744c9	0.081674166
164	0xbd94ffba	-0.072753385
165	0x3d821156	0.06350963
166	0x3db9e08a	0.090760306
167	0x3db16f87	0.0866385
168	0x3c45aec6	0.012065595
169	0x3d332107	0.04373267
170	0xbdc2cc3d	-0.095116116
171	0x3db2c6d7	0.08729332
172	0xbd8d6ff9	-0.06906123
173	0xbcbb4d98	-0.022864148
174	0x3d7d113f	0.061784025
175	0xbd735671	-0.05940861
176	0x3dc646f2	0.096815005
177	0x3d2b4538	0.04181406
178	0x3ce8e4d8	0.028429434
179	0x3dbb0741	0.09132243
180	0x3cf63b63	0.030057615
181	0xbd1de7c1	-0.038551096
182	0x3c57a73e	0.013162432
183	0xbd4f6f56	-0.050643288
184	0x3c1be16f	0.009514197
185	0xbd87d7b9	-0.06632943
186	0x3cd1de20	0.025618613
187	0x3d9ef415	0.07761399
188	0x397164ad	0.00023021056
189	0x3a0edddf	0.00054499315
190	0x3c47a848	0.0121861175
191	0xbd48631d	-0.048922647
192	0xbc4529c2	-0.012033882
193	0xbd6d933d	-0.058001745
194	0x3c9c18bf	0.019054769
195	0xbd99c3e3	-0.075080656
196	0x3dc40347	0.095709376
197	0x3d45eb58	0.048320144
198	0x3d11bf9e	0.03558313
199	0x3d3b866f	0.045782503
200	0xbd6f5780	-0.058433056
201	0x3d618f80	0.055068493
202	0x3db09e63	0.0862396
203	0x3d741407	0.059589412
204	0xbd11c282	-0.035585888
205	0x3d68d16f	0.056840356
206	0x3d94c0b7	0.0726332
207	0xbdaad62a	-0.0834163
208	0x3d8bd935	0.06828538
209	0x3c9731c3	0.018456345
210	0x3d960d35	0.07326738
211	0x3c2d97bd	0.010595259
212	0xbd962456	-0.07331149
213	0xbbaa068d	-0.005188769
214	0xbc287a9c	-0.010283139
215	0x3dbecded	0.09316621
216	0x3db11cf2	0.08648099
217	0xbd218be7	-0.039440062
218	0xba1696b1	-0.00057445007
219	0xbb84bd5b	-0.0040508932
220	0xbd962d9b	-0.07332917
221	0xbc9f3be0	-0.01943773
222	0x3d8f0103	0.06982615
223	0x3bd06d0a	0.0063606547
224	0xbdb4bc37	-0.08824962
225	0xbca72cae	-0.020407047
226	0xbd49d4d7	-0.049275246
227	0x3cbf28f3	0.023334956
228	0x3cf31abc	0.029675834
229	0x3d2803fa	0.041019417
230	0x3cbb10e7	0.022835208
231	0xbcddc71e	-0.027072486
232	0xbc1c313f	-0.009533226
233	0x3d1f5eee	0.03890889
234	0x3d740881	0.059578422
235	0x3db47653	0.08811631
236	0x3d4a33e2	0.049365886
237	0xbd484618	-0.04889497
238	0xbdc4d79e	-0.09611438
239	0xbc679e1f	-0.01413682
240	0x3c118646	0.008882111
241	0x3d8fbae0	0.070180655
242	0xbc336fb9	-0.01095193
243	0x3d5c79e1	0.05382717
244	0xbd31f75e	-0.0434488
245	0xbdc284ef	-0.09498011
246	0x3a7d620d	0.0009665795
247	0x3d4dca87	0.050241973
248	0xbc427865	-0.011869525
249	0xbd822e25	-0.063564576
250	0xbd829382	-0.06375791
251	0x3d9013c4	0.0703502
252	0x3d6ad91b	0.057335954
253	0x3daeea74	0.08540812
254	0x39d4b67b	0.0004057175
255	0xbda86e54	-0.082241684

model.lstm.bias_ih_l0 f4 [416]
0	0x3d132010	0.03591925
1	0x3cb61451	0.022226484
2	0xbdb8e708	-0.09028441
3	0x3d7cb4c6	0.061695836
4	0x3cb45011	0.022010835
5	0xbda88648	-0.08228737
6	0xbda84514	-0.082163006
7	0xbc2a290a	-0.010385761
8	0xbc32c337	-0.010910801
9	0xbca5b15a	-0.02022617
10	0xbd6aa938	-0.057290286
11	0x3cb4f64e	0.022090103
12	0x3dcab765	0.09898261
13	0x3d46f8c4	0.048577085
14	0xbc2eee4a	-0.01067693
15	0xbdb52dff	-0.08846664
16	0x3d543224	0.05180563
17	0x3d436c3e	0.04771065
18	0xbbb91ea3	-0.005649404
19	0x3d785379	0.06062648
20	0x3bb3ca4e	0.005486763
21	0x3d36fd8c	0.044675395
22	0x3db32be2	0.08748604
23	0xbcd2bdaf	-0.025725214
24	0x3d796864	0.06089057
25	0x3c58569f	0.013204246
26	0xbc18ceca	-0.009326646
27	0xbd9af955	-0.075670876
28	0xbbc9467d	-0.006142436
29	0x3d8356b3	0.06413021
30	0xbd946e3e	-0.072475895
31	0x3d1ad441	0.037800077
32	0x3bfce6c9	0.0077179414
33	0x3c67cd48	0.014148064
34	0xbd56fb99	-0.052486036
35	0xbdaf3d1e	-0.08556579
36	0xbd001ebb	-0.031279307
37	0xbd4223da	-0.047397472
38	0xbd868fd0	-0.06570399
39	0x3cb41e38	0.021987066
40	0xbd449eb7	-0.048002925
41	0xbdc8bf9d	-0.09802172
42	0x3c998197	0.018738551
43	0xbb4974c2	-0.003073976
44	0xbd14a76d	-0.036292482
45	0xbc716580	-0.014733672
46	0xbd018660	-0.03162229
47	0xbca8ec7f	-0.020620583
48	0xbdade8f7	-0.084917
49	0x3d0aabf0	0.03385538
50	0xbd76bef6	-0.06024071
51	0xbcff9750	-0.031200081
52	0xbd8579dd	-0.06517384
53	0x3ce74287	0.028229965
54	0xbac7499f	-0.0015204436
55	0xbc95f8bb	-0.01830708
56	0x3d460e84	0.048353687
57	0xbd83d1fa	-0.06436534
58	0xbceb4cc1	-0.028723123
59	0xbdc00693	-0.09376254
60	0x3d82b36c	0.06381878
61	0x3d224d22	0.03962434
62	0xbc5dd1af	-0.013538762
63	0x3ca36d0e	0.019949462
64	0xbdbdb637	-0.0926327
65	0x3cab0480	0.02087617
66	0x3d15bdd1	0.036557976
67	0x3c4bf4cc	0.012448501
68	0xbd9ca6eb	-0.076490246
69	0x3d2f23e6	0.042758845
70	0x3dbe5d04	0.09295085
71	0x3cd32008	0.02577211
72	0xbd4f2d1d	-0.050580133
73	0xbb73e0a2	-0.003721275
74	0xbd88a845	-0.0667272
75	0xbd68bdaa	-0.056821503
76	0x3c67ff1c	0.014159944
77	0xbdbeb28c	-0.09311399
78	0xba94ac5d	-0.0011342872
79	0xbcdf79ba	-0.027279723
80	0xbc25972f	-0.010106846
81	0xbd2fb6c5	-0.042898912
82	0x3c891db2	0.016737793
83	0x3cb28782	0.02179313
84	0xbc7f2c5b	-0.01557454
85	0x3d1f2d2a	0.03886143
86	0xbce7af2b	-0.028281769
87	0x3c0a2161	0.00843081
88	0xbd090f24	-0.033461705
89	0x3dc2d775	0.095137514
90	0xbd78f060	-0.060776114
91	0x3d10c52a	0.03534428
92	0xbd74718e	-0.059678607
93	0x3c9a2fbc	0.01882159
94	0x3d5ba041	0.053619627
95	0x3c991d55	0.018690744
96	0xbb87a67e	-0.0041397205
97	0xbc4714de	-0.012150971
98	0xbdc12391	-0.09430612
99	0xbd9b6f2b	-0.07589563
100	0xbc70d092	-0.014698165
101	0x3cdd358b	0.02700307
102	0xbc647df8	-0.013946049
103	0x3db05405	0.086097755
104	0x3a4ab7d3	0.00077330804
105	0x3b3fbdf7	0.0029257515
106	0x3dada3aa	0.08478482
107	0x3d958b59	0.07301969
108	0x3d5ecf16	0.05439671
109	0xbd913331	-0.07089842
110	0x3dba94f1	0.091104396
111	0x3d93867f	0.072033875
112	0x3cc0b0a9	0.023521738
113	0xbd9da927	-0.07698279
114	0x3d9c48f3	0.076311015
115	0x3d941b00	0.07231712
116	0x3b8b7a8f	0.0042565535
117	0x3d7b49b2	0.06134958
118	0xbdc2838c	-0.09497747
119	0x3d22fc87	0.03979161
120	0xbd4589ab	-0.048226994
121	0xbc6530e6	-0.013988709
122	0xbce743ec	-0.02823063
123	0x3d8a3aaa	0.067494705
124	0xbd96b545	-0.07358793
125	0xbdafb431	-0.08579291
126	0xbd7b3a64	-0.061334983
127	0xbcae109d	-0.021248156
128	0x3d46fbc8	0.04857996
129	0x3c68399f	0.014173894
130	0xbd0aa1a4	-0.03384556
131	0x3db69b0c	0.089162916
132	0xb9e7aa26	-0.00044186524
133	0xbdad5340	-0.08463144
134	0xbd84b525	-0.06479863
135	0x3c3cc0b6	0.011520555
136	0x3d2bea65	0.041971583
137	0xbdb61e4c	-0.088924974
138	0x3d446a26	0.047952794
139	0xbd19a6c9	-0.037512574
140	0xbc87d0c6	-0.016579043
141	0xbd900260	-0.07031703
142	0x3d867a5f	0.06566309
143	0xbd7ce91d	-0.06174575
144	0xbd0ae1d2	-0.033906765
145	0x3db86b89	0.09004886
146	0xbdb998c3	-0.0906234
147	0xbd94d802	-0.07267763
148	0x3d9b827f	0.075932495
149	0x3dad5ca3	0.08464935
150	0x3d71a5ed	0.05899613
151	0x3db2b511	0.08725942
152	0xbc25bde5	-0.010116075
153	0xbdad4585	-0.084605254
154	0xbdab51e3	-0.08365228
155	0xbb6648e2	-0.0035138656
156	0xbc5fa5cb	-0.013650368
157	0xbd006840	-0.03134942
158	0x3dc4c51c	0.09607908
159	0x3dae96c7	0.08524852
160	0xbd72fda0	-0.059323907
161	0x3c0c358e	0.00855769
162	0x3b182938	0.0023217928
163	0xbd708ab7	-0.05872604
164	0x3d295cc0	0.04134822
165	0x3d9ba88f	0.076005094
166	0x3d9b1602	0.07572557
167	0xbdaddba6	-0.0848916
168	0x3bb079d9	0.005385619
169	0xbdb49682	-0.088177696
170	0x3d96b0e3	0.07357957
171	0x3d18d229	0.0373098
172	0x3d921064	0.071320325
173	0xbd33d7cc	-0.04390697
174	0xbd32a8c2	-0.04361797
175	0x3d3cd0fe	0.046097748
176	0xbc0ae004	-0.008476261
177	0xbd4fc304	-0.05072309
178	0x3bc94a98	0.0061429255
179	0xbdbb9c9b	-0.091607295
180	0xbd10aae8	-0.03531924
181	0xbd87148f	-0.06595718
182	0xbd19aa6d	-0.037516046
183	0x3d9461e3	0.07245233
184	0x3c7bb538	0.01536303
185	0xbd3d43dc	-0.046207294
186	0x3d667593	0.05626447
187	0x3d13985b	0.03603397
188	0x3d37359b	0.044728857
189	0xbc42bb82	-0.011885526
190	0x3d37c35a	0.044864036
191	0x3d85850b	0.065195166
192	0xbd39424b	-0.045229238
193	0xbd6ce011	-0.057830874
194	0x3d2539d0	0.040338337
195	0xbd1641de	-0.03668391
196	0xbd6e0cc5	-0.058117647
197	0x3da1a9d7	0.078937225
198	0x3c7b4927	0.015337265
199	0xbdc68a26	-0.096943185
200	0x3dac12ed	0.08402047
201	0x3cc1d8f5	0.023663023
202	0x3b5e617d	0.003393262
203	0xbdb932ae	-0.090428695
204	0x3da9139a	0.08255692
205	0x3bbad934	0.005702162
206	0xbd6cd6e6	-0.05782213
207	0x3dc1d7ed	0.09465013
208	0xbd5036a9	-0.050833378
209	0x3d00807a	0.031372525
210	0xbce0bec5	-0.027434716
211	0x3d4365e7	0.047704604
212	0x3ccd9138	0.02509366
213	0x3d49fd63	0.049313914
214	0x3d238f59	0.03993163
215	0x3cb1ed95	0.021719733
216	0xbb01f86b	-0.0019831907
217	0x3d176cf3	0.036969136
218	0xbd6a76b1	-0.0572421
219	0x3cdfb895	0.027309695
220	0xbdc5ebfb	-0.0966415
221	0x3d5a5105	0.053299922
222	0x3dd75610	0.10514462
223	0xbdb4d17a	-0.08829017
224	0x3d9720ba	0.07379289
225	0xbdc8b9cd	-0.09801064
226	0xbca1466b	-0.019686898
227	0x3d313d3f	0.0432713
228	0xbcc7a9d7	-0.024372978
229	0x3d3d0cca	0.046154775
230	0xbd3a9b07	-0.045558
231	0x3c30ed43	0.010798755
232	0x3c97f467	0.018549157
233	0x3db9b239	0.090671964
234	0xbc6a98e3	-0.014318678
235	0xbd8863d3	-0.06659665
236	0x3da3a8f1	0.079912074
237	0xbddc4895	-0.107560314
238	0x3ca2f8fb	0.019894114
239	0xbda73b4d	-0.081656076
240	0x3bedb2d7	0.0072539854
241	0xbd9b0c3b	-0.07570692
242	0xbd1c5c33	-0.038173866
243	0x3c9154d7	0.01774065
244	0x3d15db44	0.03658606
245	0xbdb9557f	-0.0904951
246	0xbd9c532b	-0.076330505
247	0xbd5bf6e3	-0.053702246
248	0x3d80f965	0.06297568
249	0x3d5a7be1	0.053340796
250	0x3be7131c	0.0070518386
251	0xbde52118	-0.11187953
252	0xbd33fd89	-0.04394296
253	0xbdc9655e	-0.098337874
254	0x3d6aab5e	0.057292335
255	0xbd9ba261	-0.07599331

model.lstm.bias_hh_l0 f4 [416]
0	0x3c9f44e1	0.019442024
1	0xbd948ec7	-0.07253795
2	0xbdb38aae	-0.087666854
3	0x3d4eb27e	0.050463192
4	0xbd3ec7fb	-0.046577435
5	0xbcd17e2a	-0.025572855
6	0x3d773e29	0.060362015
7	0xbd8c31b6	-0.06845419
8	0xbd68332e	-0.056689434
9	0x3dc5152d	0.096231796
10	0x3c195661	0.009358973
11	0xbd06d54a	-0.032918252
12	0x3cf0e94c	0.02940812
13	0x3ccf9e73	0.02534411
14	0xbb9e9fc6	-0.004840824
15	0xbd4d99af	-0.050195392
16	0x3cfebd6b	0.03109618
17	0xbd96daa6	-0.07365923
18	0x3db147b3	0.08656254
19	0x3d012270	0.031526983
20	0xbd07e087	-0.03317311
21	0xbda584d5	-0.08081976
22	0x3d9a34d2	0.07529606
23	0xbcbf4e5f	-0.0233528
24	0xbcb76095	-0.022384921
25	0xbd9bff8b	-0.076171
26	0xbd660f20	-0.056166768
27	0x3dc99bd6	0.098441765
28	0x3c074934	0.008257199
29	0x3d042d10	0.032269537
30	0xbda93b02	-0.08263208
31	0xbd3a94cb	-0.045552056
32	0x3d5c7909	0.053826366
33	0x3d752662	0.059851058
34	0xbdb56050	-0.08856261
35	0xbd8f414a	-0.06994875
36	0xbd14e454	-0.036350563
37	0xbdb54340	-0.088507175
38	0xbd86f39e	-0.06589435
39	0xbd7d2ad0	-0.061808407
40	0x3da460d0	0.08026278
41	0x3d35cb4e	0.04438334
42	0x3d0bee7c	0.034162983
43	0xbd87acd2	-0.0662476
44	0xbb9f991b	-0.0048705465
45	0xbcc3879c	-0.023868375
46	0xbd8ce9b0	-0.0688051
47	0x3c73bddf	0.014876812
48	0xbccc4562	-0.024935428
49	0xbd86ea9a	-0.065877154
50	0x3bea0026	0.007141131
51	0x3cbe0ad4	0.023198523
52	0xbd0e5518	-0.03474912
53	0xbd7b05a7	-0.061284687
54	0x3cb2b2a0	0.02181369
55	0x3ca65873	0.020305848
56	0x3ccfc5ee	0.025362935
57	0xbd9ebe77	-0.07751172
58	0x3db82e30	0.089931846
59	0x3c6e4a23	0.014544043
60	0xbd85935d	-0.06522248
61	0xbce39787	-0.027782215
62	0x3d60d644	0.05489184
63	0xbca2c0e2	-0.019867364
64	0x3dba1a07	0.090869956
65	0x3beed4c6	0.007288548
66	0x3d722b51	0.05912334
67	0xbdb6a99a	-0.08919068
68	0x3dba8bed	0.0910872
69	0xbd90f5bc	-0.0707812
70	0xbcd1d9f9	-0.025616633
71	0x3d02ff97	0.03198203
72	0x3db8068a	0.08985622
73	0x3d0e5012	0.03474433
74	0x3d8411ca	0.064487055
75	0xbda6be5f	-0.08141779
76	0x3d211bcd	0.039333154
77	0x3dce7e49	0.10082681
78	0xbc2ec765	-0.010667657
79	0xbd99e480	-0.07514286
80	0x3d7551b8	0.059892386
81	0x3b3ae872	0.0028519896
82	0x3d345cbb	0.044033747
83	0xbcde9022	-0.027168337
84	0x3dc0f4b7	0.09421676
85	0x3d83ec53	0.0644156
86	0x3dc0bdfa	0.09411235
87	0xbd9dc6e2	-0.077039495
88	0xbd62e92f	-0.055398162
89	0x3dc58601	0.096447
90	0x3d84aab8	0.064778745
91	0x3d4fb1d6	0.050706707
92	0x3c9533ab	0.018213114
93	0x3d30171d	0.042990793
94	0x3cd5cc91	0.026098521
95	0x3ccfcb25	0.025365422
96	0x3d5742f2	0.05255408
97	0xbcf61e42	-0.030043725
98	0x3d5e3453	0.05424912
99	0xbd4917ae	-0.04909485
100	0xbd72ef15	-0.059310038
101	0x3d64139a	0.055682756
102	0x3dbc41fe	0.091922745
103	0x3b484037	0.0030555853
104	0x3d811e07	0.063045554
105	0x3cc795a0	0.024363339
106	0x3d982728	0.074293435
107	0xbd2b6b6c	-0.041850492
108	0xbd0006e5	-0.031256575
109	0x3dac3c2b	0.08409914
110	0x3b8a4865	0.004220056
111	0xbd0a20e7	-0.033722784
112	0x3d5f3169	0.05449048
113	0x3d3d0662	0.046148665
114	0xbcf2c063	-0.029632753
115	0x3bd997c4	0.0066404063
116	0xbc8c9617	-0.017161412
117	0x3dba2de3	0.090907834
118	0x3c89281a	0.016742755
119	0xbdbe5f28	-0.09295493
120	0x3d6d9919	0.058007333
121	0x3d3eeb38	0.04661104
122	0x3db4400d	0.08801279
123	0x3da21192	0.079135075
124	0x3cadc2bf	0.021211026
125	0x3c137555	0.009000142
126	0x3d9e4291	0.0772754
127	0xbdb36ec8	-0.08761364
128	0x3dc61062	0.096710935
129	0x3adb70b7	0.0016741966
130	0x3d4c4f0e	0.04988008
131	0xbd4cd1a5	-0.05000462
132	0xbd9d4a78	-0.076802194
133	0xbcfa7607	-0.030573858
134	0xbd3b364c	-0.04570608
135	0x3abed27c	0.0014558579
136	0xbd92efef	-0.0717467
137	0xbbc91a72	-0.0061371857
138	0xbc517126	-0.012783324
139	0xbd2f4823	-0.042793404
140	0xbbac6c98	-0.005261969
141	0xbdb9f2e3	-0.0907953
142	0xbd9623a3	-0.07331016
143	0x3d07f040	0.033188105
144	0x3d51a32a	0.051180996
145	0xbd356038	-0.044281214
146	0xbbc1941c	-0.0059075486
147	0xbd533b90	-0.051570475
148	0x3d285f57	0.04110655
149	0xbd04d1cd	-0.032426644
150	0xbc56cda5	-0.013110553
151	0xbd660f49	-0.05616692
152	0x3b91be5a	0.0044477405
153	0xbcb10f4d	-0.021613741
154	0x3d9a4396	0.07532422
155	0x3d4ddf80	0.050261974
156	0xbd2611d6	-0.040544353
157	0xbd3a1d54	-0.045438126
158	0x3d2e2eff	0.042525288
159	0x3c1d23ca	0.009591052
160	0xbcf68948	-0.030094758
161	0xbd80fd5f	-0.06298327
162	0xbd089b99	-0.033351514
163	0x3d6574aa	0.056019463
164	0xbc4cc36c	-0.012497764
165	0x3d1d0624	0.038335934
166	0xbd1b91d3	-0.037980866
167	0x3c9ba78c	0.019000791
168	0xbd4e2ba2	-0.05033458
169	0x3c76d89d	0.015066293
170	0xbd935905	-0.071947135
171	0x3dbb70b2	0.09152354
172	0x3ca8caa3	0.020604437
173	0x3d74ae0a	0.05973629
174	0xbd32c424	-0.043644086
175	0xbcbad4ca	-0.022806544
176	0x3dace513	0.0844213
177	0x3d9024ed	0.07038293
178	0xbd898e98	-0.06716651
179	0xbcff1f67	-0.031142903
180	0x3d86b2ee	0.06577097
181	0x3d1324c0	0.03592372
182	0x3d8abe41	0.06774569
183	0x3d537606	0.051626228
184	0x3d687b05	0.056757946
185	0xbd8301ed	-0.06396852
186	0x3d99dfc0	0.0751338
187	0x3d2cc11b	0.042176347
188	0x3d1e1253	0.038591694
189	0xbd36e98b	-0.044656318
190	0xbdad72a9	-0.08469135
191	0x3d83d73f	0.06437539
192	0xbdb13734	-0.08653107
193	0xbbe5b9e9	-0.0070106876
194	0xbd5aa46b	-0.053379457
195	0x3dc1d81b	0.09465047
196	0x3d5e21ce	0.054231457
197	0x3c5714ed	0.013127548
198	0xbd33d65e	-0.04390561
199	0x3cd3d2d0	0.02585736
200	0xbd1e7b01	-0.038691524
201	0x3ce9143d	0.028452033
202	0x3bbe9ccc	0.0058170315
203	0xbd9ca1d1	-0.076480515
204	0x3d24001d	0.04003917
205	0x3d9f74ea	0.077859715
206	0x3d254068	0.040344626
207	0x3cc8fee4	0.024535604
208	0x3cc6a506	0.024248611
209	0xbd39877b	-0.04529522
210	0xbc959969	-0.018261628
211	0x3dd70e71	0.10500801
212	0xbd372742	-0.044715174
213	0xbd1244fb	-0.035710316
214	0x3dc2f524	0.09519413
215	0xbc9b54cb	-0.01896133
216	0xbdc0e1ef	-0.094180934
217	0xbb512681	-0.003191382
218	0xbc87aef1	-0.01656291
219	0x3d96a79a	0.07356186
220	0xbd79ab9c	-0.060954675
221	0xbd4d8e6f	-0.050184663
222	0x3da2af8c	0.07943639
223	0xbdb0e034	-0.08636513
224	0xbdc1625a	-0.09442587
225	0x3d91a6b7	0.071118765
226	0xbd56baec	-0.052424356
227	0x3d5dccd7	0.05415043
228	0xbdd52409	-0.10407264
229	0xbd8247d5	-0.06361357
230	0x3cdfff6b	0.027343472
231	0xbddb40cc	-0.107057184
232	0x3de9340a	0.11386879
233	0x3db4c655	0.08826891
234	0xbd29e79e	-0.041480653
235	0x3c3b0162	0.011413904
236	0x3da381d1	0.07983745
237	0xbc54b15d	-0.01298174
238	0xbd73ebf7	-0.059551205
239	0xbdb0d45a	-0.08634253
240	0x3ddb372d	0.10703883
241	0x3d89b043	0.067230724
242	0x3d90d533	0.070719145
243	0xbd0b3b53	-0.033992123
244	0x3d619daf	0.05508202
245	0xbca0a70f	-0.01961091
246	0x3d984b9f	0.074362986
247	0x3dcc2cde	0.09969495
248	0x3d1910b0	0.03736943
249	0xbd708bbd	-0.058727015
250	0xbd80c8e9	-0.062883206
251	0xbcb065bc	-0.021532886
252	0x3d70c75d	0.058783878
253	0xbd136924	-0.03598894
254	0x3ca09480	0.01960206
255	0x3d3886f8	0.04505059

model.fc_layers.0.weight f4 [52, 104]
0	0xbda475bd	-0.08030269
1	0x3be5c879	0.0070124236
2	0xbbafb2bc	-0.005361883
3	0xbd8bceaa	-0.068265274
4	0x3d9778ee	0.073961124
5	0xbcc6d163	-0.024269765
6	0x3dd2a465	0.10285262
7	0x3ccc6cf1	0.024954291
8	0x3c74e9f7	0.01494836
9	0xbda5907f	-0.08084201
10	0x3ce23059	0.027610945
11	0x3cf618cb	0.03004112
12	0xbc1d4201	-0.009598256
13	0xbbce520c	-0.006296402
14	0xbd4f83a1	-0.05066264
15	0x3b21e4d3	0.002470304
16	0x3a4bc30e	0.0007772901
17	0xbdca9d1c	-0.098932475
18	0x3d8915c9	0.06693608
19	0x3ca94fc1	0.020667912
20	0xbd2c64f8	-0.04208848
21	0xbabdbc96	-0.0014475759
22	0xbd1cdba2	-0.038295396
23	0xbc9a70e8	-0.018852666
24	0x3d9a4b45	0.07533888
25	0x3dbab033	0.091156386
26	0xbc1cc24c	-0.009567808
27	0x39d688e6	0.00040919258
28	0x3d316f23	0.04331888
29	0x3c9db3fc	0.019250862
30	0x3dbb218c	0.09137258
31	0x3c8cc104	0.01718188
32	0x3dc860de	0.09784101
33	0x3d7b3fa1	0.061339978
34	0x3d527ef5	0.051390607
35	0x3c5e757c	0.013577815
36	0x3dac04fe	0.0839939
37	0x3cd2db76	0.025739413
38	0xbc20762e	-0.009793801
39	0x3dae5afe	0.08513449
40	0x3da48be0	0.080344915
41	0x3d9bc8f8	0.07606691
42	0x3cfd9440	0.03095448
43	0xbc309a20	-0.010778934
44	0xbc17ad4d	-0.009257627
45	0xbce6f49d	-0.028192813
46	0x3dbae0dc	0.0912492
47	0x3cc26cc0	0.023733497
48	0x3d12ad2f	0.035809692
49	0xbd2f3546	-0.042775415
50	0xbd852e04	-0.065029174
51	0xbca5f717	-0.020259423
52	0xbd581c6f	-0.05276149
53	0xbdccca5f	-0.09999537
54	0x3c3beccf	0.011470034
55	0x3d91d72b	0.07121118
56	0x3d3f319c	0.04667817
57	0xbd4f0f6d	-0.05055182
58	0xbd11ecf8	-0.03562638
59	0xbdd67ba2	-0.104728
60	0xbcb51f81	-0.022109749
61	0x3cf18b4e	0.029485371
62	0xbd94899f	-0.07252812
63	0x3d039899	0.03212795
64	0x3d83e423	0.06439998
65	0xbd273339	-0.040820334
66	0x3b2564b2	0.002523702
67	0xbd45fc06	-0.04833605
68	0x3d7c5efc	0.06161402
69	0x3cc012e8	0.023446515
70	0x3c1e7f2f	0.009673878
71	0xbd8c11aa	-0.06839307
72	0x3d4ea1cb	0.050447267
73	0xbd8c953c	-0.06864402
74	0xbd1bcb36	-0.038035594
75	0x3cf1eded	0.029532397
76	0x3c197e33	0.009368467
77	0x3dccbc09	0.09996802
78	0xbc958205	-0.018250475
79	0xbd763790	-0.060111582
80	0x3dce14cc	0.100625604
81	0xbdcdc9fd	-0.10048292
82	0xbd9b5e5e	-0.075863585
83	0xbcd44744	-0.025912888
84	0xbcfeba51	-0.031094702
85	0xbd61a480	-0.05508852
86	0xbca5f7ac	-0.0202597
87	0x3d0247c8	0.031806737
88	0xbd832f0f	-0.0640546
89	0xbd422908	-0.04740241
90	0x3d41ccc1	0.04731441
91	0xbc8defab	-0.017326197
92	0x3daf7ba0	0.085685015
93	0xbb4ee5e8	-0.003157014
94	0xbd98c4ef	-0.07459437
95	0xbc4d0a50	-0.012514666
96	0xbd770d36	-0.060315333
97	0x3c97e848	0.018543378
98	0x3cc4dc95	0.024030963
99	0xbc14ab5c	-0.009074058
100	0x3dc45de3	0.0958822
101	0x3d48766a	0.048941053
102	0x3d6428ae	0.055702858
103	0x3d7b3ff6	0.061340295
104	0xbc7cdaac	-0.015432995
105	0x3d57ba0c	0.052667663
106	0x3b44e8a6	0.0030045896
107	0x3d16c802	0.036811836
108	0xbd8fe79c	-0.07026598
109	0xbcb2631c	-0.021775775
110	0xbdab925d	-0.08377526
111	0x3d9b6cbd	0.075890996
112	0xbc8f5803	-0.017498022
113	0x3d8d6a5f	0.06905054
114	0xbdb926e0	-0.09040618
115	0x3c502f9f	0.012706666
116	0xbd0aaf0b	-0.03385834
117	0xbd7069be	-0.058694594
118	0x3dd3d023	0.10342433
119	0x3d0446a5	0.032293934
120	0x3dca4e3a	0.09878202
121	0xbdc48b84	-0.09596923
122	0x3d899686	0.06718163
123	0xbd42461d	-0.047430146
124	0x3ba3ff54	0.0050048027
125	0x3da899a5	0.0823243
126	0xbd767fd0	-0.060180485
127	0xbc858ce7	-0.016302539
128	0xbd820576	-0.06348698
129	0x3ce6479c	0.028110318
130	0x3db3c2c0	0.0877738
131	0x399786fe	0.0002890154
132	0xbc28e701	-0.010308982
133	0xbdbb251e	-0.09137939
134	0x3db48326	0.08814077
135	0x3da0a157	0.07843273
136	0x3dcdb803	0.10044863
137	0x3d49908c	0.049210116
138	0xbd55524a	-0.05208043
139	0xbd3065b1	-0.04306573
140	0xbd5d760a	-0.05406765
141	0xbc8d0283	-0.017213112
142	0xbda5fdf9	-0.08105082
143	0xbd88b312	-0.0667478
144	0xbd34e17d	-0.044160355
145	0xbd2970ad	-0.04136722
146	0xbd9a0eb6	-0.07522337
147	0xbcba8331	-0.022767635
148	0x3bc85238	0.006113317
149	0x3d4125b9	0.047155116
150	0x3d9ac73b	0.075575314
151	0xbd871a41	-0.065968044
152	0x3c8ffde2	0.017577115
153	0x3bd36e56	0.006452362
154	0xbc4bb958	-0.012434326
155	0x3da400f2	0.08007993
156	0x3d93b931	0.07213057
157	0xbc52438b	-0.012833486
158	0xbcc07657	-0.023493929
159	0xbdc034c8	-0.09385067
160	0xbd317c51	-0.043331448
161	0xbd2ed30d	-0.042681742
162	0xbd8e34d5	-0.06943671
163	0x3cbdcc5d	0.023168737
164	0x3db03e68	0.08605653
165	0xbd9ae6c0	-0.07563543
166	0xbda7be9b	-0.08190652
167	0xbb480f8b	-0.0030526842
168	0xbd7132e1	-0.058886413
169	0xbd8225a1	-0.063548334
170	0x3bf333ec	0.007421961
171	0xbd97e285	-0.07416252
172	0xbbf719f0	-0.007540934
173	0xbd67c4ff	-0.056584354
174	0x3d1ddaf5	0.03853889
175	0xbca89a81	-0.020581486
176	0xbd52e674	-0.05148931
177	0xbd90f90f	-0.07078754
178	0xbd473a1b	-0.048639398
179	0xbd877965	-0.06614951
180	0x3d904e03	0.070461296
181	0x3dcc4997	0.09974974
182	0xbd8b4733	-0.068006895
183	0x3d8ecdb2	0.06972827
184	0x3db062bd	0.08612583
185	0xbc7e51cb	-0.015522431
186	0xbd815e70	-0.06316841
187	0x3dbb8cc3	0.091577075
188	0xbda72614	-0.0816156
189	0xbd71bb45	-0.059016485
190	0xbda27122	-0.079317346
191	0x3c8c3411	0.017114671
192	0x3d53496a	0.051583685
193	0xbd6f2472	-0.058384366
194	0x3c4d37c5	0.0125255035
195	0x3ccdb8d2	0.025112543
196	0x3dbfe7a3	0.09370353
197	0x3da6b260	0.08139491
198	0xbd0ede36	-0.034879886
199	0x3cf1431d	0.029450947
200	0xbdb2f0dd	-0.08737347
201	0xbd1aad5b	-0.03776298
202	0x3d8888cd	0.06666718
203	0x3dbb4cb6	0.09145491
204	0xbbf34c7a	-0.007424888
205	0x3d1209d3	0.0356539
206	0x3c0ad97a	0.008474702
207	0xbd93d230	-0.072178245
208	0xbdbfe4f0	-0.09369838
209	0x3ca64dc1	0.020300748
210	0x3b962f78	0.0045832954
211	0x3cbc2379	0.022966133
212	0xbdcc72ca	-0.09982832
213	0x3d8f5c7e	0.07000063
214	0xbd962d5e	-0.07332872
215	0x3d3fc0eb	0.04681484
216	0x3c627133	0.013820934
217	0x3d8cdfbb	0.06878611
218	0x3d96b5ec	0.073589176
219	0x3b32feaf	0.0027312448
220	0x3c7b5808	0.0153408125
221	0xbc791e82	-0.015205028
222	0x3db9aefb	0.09066578
223	0x3d1b03cf	0.03784543
224	0x3bfe06bd	0.007752268
225	0xbdc8af0f	-0.09799015
226	0xbc9a34fc	-0.018824093
227	0xbbf3fa80	-0.0074456334
228	0x3be5c668	0.0070121773
229	0xbce705b8	-0.02820097
230	0x3d92e085	0.0717173
231	0x3d0e4209	0.034730945
232	0x3d71ad27	0.05900302
233	0x3d8db5b9	0.069194265
234	0x3d2e8090	0.042603076
235	0xbd89c221	-0.0672648
236	0xbc4a1ed3	-0.012336451
237	0x3d2aeef3	0.041731786
238	0x3b0abff5	0.0021171544
239	0xbd5c4a70	-0.053781927
240	0x3c8fe66c	0.017565928
241	0x3ccc5688	0.024943605
242	0x3d8ceb15	0.06880776
243	0xbdd639cc	-0.10460243
244	0xbd28b914	-0.04119213
245	0x3d7c581d	0.06160747
246	0x3d019006	0.031631492
247	0xbdb471b1	-0.088107474
248	0x3d957e68	0.07299501
249	0xbc9a6f3d	-0.01885187
250	0xbdb1a905	-0.08674816
251	0x3c534808	0.012895592
252	0xbd82d82f	-0.0638889
253	0xbd6e5b91	-0.058192793
254	0xbb716311	-0.003683273
255	0x3d686c72	0.056744047

model.fc_layers.0.bias f4 [52]
0	0x3dd8ae2a	0.10580094
1	0x3da5371b	0.08067151
2	0x3ded3743	0.11582806
3	0xbce7dcf9	-0.02830361
4	0xbdbd105e	-0.092316374
5	0x3b77d80f	0.003781799
6	0xbd5fe70a	-0.054663695
7	0xbda4212a	-0.08014138
8	0x3dc460f2	0.09588803
9	0xbc15dc16	-0.009146711
10	0x3c2c2807	0.01050759
11	0x3dff99f7	0.12480538
12	0xbd5f0fd7	-0.054458465
13	0xbdb282af	-0.08716332
14	0xbd9e5567	-0.07731133
15	0x3dd36e77	0.10323804
16	0x3d0ecbd5	0.034862358
17	0x3d74cad1	0.059763733
18	0x3d5a1bfd	0.053249348
19	0xbdb6d196	-0.08926694
20	0xbd98bd3f	-0.07457971
21	0x3d1be920	0.038064122
22	0x3d2dcb02	0.04242993
23	0xbdc835de	-0.09775899
24	0xbcf4bc38	-0.029874906
25	0x3cc56b09	0.02409889
26	0xbd64ae49	-0.055830274
27	0x3d6080fe	0.054810517
28	0x3dd575f0	0.104228854
29	0xbdc5e921	-0.096636064
30	0xba3c1ca5	-0.0007175899
31	0xbdb6531b	-0.0890257
32	0xbd8e8875	-0.06959621
33	0x3d91ecc4	0.071252376
34	0xbdca61cd	-0.09881935
35	0x3de5fe06	0.11230092
36	0x3dcd270a	0.10017212
37	0x3db3cb75	0.08779041
38	0xba941440	-0.0011297539
39	0xbcef9907	-0.029247774
40	0xbde1b03b	-0.110199414
41	0x3d3d4ac0	0.046213865
42	0x3d8f66e2	0.07002045
43	0x3bc0640f	0.005871303
44	0xbd85d0c6	-0.06533961
45	0x3c24740e	0.010037435
46	0x3b62ae5e	0.0034588794
47	0x398fdca9	0.0002743949
48	0x3bf3b38b	0.0074371747
49	0x3de05cc6	0.10955195
50	0x3c1bb157	0.00950273
51	0x3d6e3359	0.058154438

model.fc_layers.1.weight f4 [26, 52]
0	0xbe1616d8	-0.14657152
1	0xbd1b977e	-0.03798627
2	0xbdaef0c4	-0.08542016
3	0x3d813c08	0.06310278
4	0x3a686361	0.0008864906
5	0x3ae066d5	0.001712049
6	0xbc6df3c3	-0.014523449
7	0x3de93717	0.11387461
8	0xbe0b978c	-0.1363203
9	0x3ddde707	0.108350806
10	0xbe0043d8	-0.1252588
11	0xbda82016	-0.08209245
12	0xbd823307	-0.06357389
13	0xbbdfdc5d	-0.0068316893
14	0x3e0d6415	0.1380771
15	0xbdc84688	-0.09779078
16	0x3d0f315d	0.034959186
17	0x3dc38eb7	0.09548705
18	0x3cf3bc32	0.029752824
19	0x3ca335c2	0.019923095
20	0x3c8951a2	0.016762558
21	0xbc314352	-0.010819273
22	0x3cba5c2c	0.02274903
23	0xbdcf1cdb	-0.101129256
24	0x3dcd965b	0.10038444
25	0x3d8581a5	0.06518868
26	0x3e066d56	0.13127646
27	0x3caa6e80	0.020804644
28	0xbe0fa20d	-0.14026661
29	0x3deca404	0.11554721
30	0xbddda089	-0.10821635
31	0xbd261fa1	-0.040557507
32	0x3cdd8d4d	0.027044917
33	0xbd0c8223	-0.034303796
34	0x3dd06453	0.10175385
35	0xbe19afc8	-0.15008461
36	0xbd1b5659	-0.037924144
37	0xbde9df9f	-0.114196055
38	0xbcc3b732	-0.023891065
39	0x3dd9fd4b	0.10644015
40	0xbdc08d5e	-0.09401964
41	0x3d9e0d5a	0.0771739
42	0xbce4c299	-0.027924823
43	0xbab49611	-0.0013777633
44	0xbd86222f	-0.06549489
45	0xbdfe6c9c	-0.12423059
46	0xbe05738c	-0.13032359
47	0x3dbe6c10	0.09297955
48	0x3bfb8789	0.007676069
49	0xb95da666	-0.0002113819
50	0xbd9b1e1e	-0.07574104
51	0xbc97667d	-0.018481487
52	0xbdbbd15b	-0.09170791
53	0x3d087d68	0.03332272
54	0x3e1bc286	0.15210924
55	0xbde663cc	-0.112495035
56	0xbd826fc6	-0.06368975
57	0x3d5c8e8e	0.05384689
58	0x3d6d2f43	0.0579064
59	0xbdca975e	-0.09892152
60	0x3dd60e34	0.10451928
61	0x3d06e5c0	0.03293395
62	0xbc36081f	-0.011110335
63	0x3d5b3477	0.05351683
64	0x3de840df	0.11340498
65	0xbc1e24a2	-0.009652289
66	0xbd980d88	-0.07424456
67	0xbd253eea	-0.040343203
68	0x3c1c7559	0.009549462
69	0x3c331384	0.010929946
70	0x3b990c18	0.004670631
71	0x3d237991	0.039910857
72	0xbe10de57	-0.14147316
73	0xbd504dfc	-0.05085562
74	0xbd930d48	-0.071802676
75	0xbcea7061	-0.02861804
76	0xbe01ce41	-0.12676336
77	0xbc2297df	-0.009923904
78	0x3ce63c39	0.028104888
79	0x3d4dac93	0.050213408
80	0x3e1efc48	0.15525925
81	0x3c2429fc	0.0100197755
82	0x3d861517	0.06546991
83	0xbcdb7614	-0.026789702
84	0xbdc1e8cb	-0.0946823
85	0xbd73bcb9	-0.05950615
86	0xbd7ad2e5	-0.06123628
87	0xbd2b4d84	-0.04182197
88	0xbd2a0a09	-0.041513477
89	0xbcfaedb8	-0.030630931
90	0x3dc839d5	0.097766556
91	0x3ddb53f0	0.10709369
92	0x3cb0f27e	0.021600004
93	0x3d8e97cb	0.06962546
94	0x3d1b7ae7	0.037959006
95	0xbc8b5916	-0.017010253
96	0xbdb24a7b	-0.08705612
97	0xbd81de7d	-0.063412644
98	0x3dccf3f0	0.10007465
99	0x3d80cbcc	0.06288871
100	0x3cca26f8	0.024676785
101	0x3c8d498c	0.017246984
102	0xbd9bb12a	-0.07602151
103	0x3e09805b	0.1342787
104	0xbd89604f	-0.067078225
105	0xbd03d6f5	-0.03218742
106	0x3db1c0ae	0.08679329
107	0xbcd23efa	-0.025664795
108	0x3d4d9c0d	0.05019765
109	0x3d9b7c65	0.07592086
110	0xbdff26ca	-0.1245857
111	0xbb3bde09	-0.0028666279
112	0xbde52722	-0.111891046
113	0xbe09bb3e	-0.13450333
114	0xbde2835b	-0.1106021
115	0x3e12128a	0.14264885
116	0x3dbe781c	0.09300253
117	0x3db1660a	0.086620405
118	0xbddf6b0d	-0.1090909
119	0xbdf41ee5	-0.11919955
120	0xbd88470c	-0.06654176
121	0xbd84e5c9	-0.064891405
122	0x3d843bdb	0.06456729
123	0x3c08659e	0.008325009
124	0xbd990d23	-0.07473209
125	0xbdd36bb7	-0.10323279
126	0xbcd5b542	-0.026087407
127	0x3da486cf	0.08033525
128	0x3de41e43	0.111385845
129	0xbd13def2	-0.03610129
130	0x3dd7f5ca	0.105449274
131	0x3d45d173	0.04829545
132	0xbd35b91e	-0.044365995
133	0xbd2ef45f	-0.04271352
134	0x3c962010	0.018325835
135	0x3c6fab96	0.014628312
136	0x3d152f34	0.03642197
137	0x3d0380fd	0.032105435
138	0x3da47581	0.080302246
139	0xbd57dc8c	-0.052700564
140	0x3dde34b1	0.10849894
141	0xbdf38bc3	-0.11891892
142	0xbda422ff	-0.080144875
143	0x3dfc28a9	0.12312443
144	0x3dc9bbdb	0.09850284
145	0x3d08c40c	0.03339009
146	0x3a8ebd79	0.0010890207
147	0xbda5d461	-0.08097149
148	0x3d18ea20	0.037332654
149	0xbde6e301	-0.11273766
150	0xbdbd632e	-0.09247433
151	0xbd0ea635	-0.034826476
152	0x3d764a0e	0.060129218
153	0x3dfaf86a	0.122544125
154	0x3c9e82b0	0.019349426
155	0xbdcf7609	-0.10129935
156	0x3d36245d	0.044468272
157	0x3e1d332d	0.15351553
158	0x3c8fac35	0.01753817
159	0x3c0bd4af	0.008534594
160	0x3d24e8ca	0.040261067
161	0xbdf29a79	-0.118458696
162	0xbd826734	-0.06367341
163	0x3d84ceb9	0.06484742
164	0x390f012e	0.00013637982
165	0x3d803c77	0.06261533
166	0xbe04042c	-0.12892216
167	0x3b232fb8	0.0024900269
168	0xbd71b698	-0.059012026
169	0xbe0303b3	-0.1279438
170	0x3da8fb61	0.08251072
171	0x3bf2e14a	0.0074121105
172	0x3dcf3f89	0.1011954
173	0x3e01cf05	0.12676628
174	0x3dcc6939	0.09981007
175	0xbd19f103	-0.037583362
176	0xbe1373a8	-0.14399588
177	0xbdd52248	-0.10406929
178	0xbd9d75ea	-0.07688506
179	0xbd1e76b6	-0.03868743
180	0xbc454316	-0.01203992
181	0xbd169de8	-0.036771685
182	0xbcb298d8	-0.021801397
183	0x3c6e29d8	0.0145363435
184	0xbc122a78	-0.008921258
185	0xbd9db6d1	-0.07700885
186	0x3e0c6186	0.13709077
187	0xbcb2758e	-0.02178457
188	0xbe070f86	-0.13189515
189	0xbdc0160d	-0.09379206
190	0x3c46e0de	0.012138573
191	0x3de49002	0.1116028
192	0x3c0128f2	0.007883297
193	0x3e197c06	0.14988717
194	0x3ddc6418	0.10761279
195	0xbd9e2bcd	-0.07723198
196	0xbdf46fbc	-0.11935374
197	0xbd2d24b4	-0.04227133
198	0x3df5f51e	0.12009643
199	0xbde44dbf	-0.111476414
200	0x3daf46f5	0.08558456
201	0x3da876e3	0.08225801
202	0xbd40e3ca	-0.047092237
203	0xbd4008da	-0.04688344
204	0xbdf8f1ee	-0.121555194
205	0x3dd8b34f	0.105810754
206	0x3e05425a	0.13013592
207	0x3d8140f3	0.06311216
208	0xbe0c5962	-0.13705972
209	0xbd59cd7c	-0.05317448
210	0x3d2497d4	0.040183857
211	0xbdbd972c	-0.09257349
212	0x3da7ce05	0.08193592
213	0x3da8d800	0.08244324
214	0x3d343dd2	0.04400427
215	0x3e05ec13	0.13078336
216	0x3d9ba0bb	0.07599016
217	0x3df3480a	0.11878975
218	0xbd520f57	-0.05128416
219	0x3c2e158c	0.010625254
220	0x3d137424	0.035999432
221	0x3d5d7d55	0.054074604
222	0xbdd7eed1	-0.105435975
223	0xbd5365a4	-0.051610604
224	0xbc9e1a7b	-0.019299736
225	0x3d5a0936	0.05323144
226	0x3ddfb27f	0.10922717
227	0x3d145e0f	0.036222514
228	0x3c98c802	0.018650059
229	0x3d88d6e6	0.066816136
230	0x3d19ae1d	0.037519563
231	0x3df09368	0.117468655
232	0xbd11e7d1	-0.035621468
233	0xbd6c4ae8	-0.057688624
234	0xbdf499eb	-0.1194342
235	0xbde902bd	-0.113774754
236	0x3dd56d40	0.104212284
237	0x3e0ad839	0.13559045
238	0xbd296c45	-0.04136302
239	0x3cd1463b	0.025546184
240	0x3c4aaed0	0.01237078
241	0xbd6782e7	-0.056521323
242	0x3e1a844f	0.15089534
243	0x3cf7da0f	0.030255346
244	0x3c281271	0.010258303
245	0x3de37173	0.11105623
246	0x3cd59201	0.026070597
247	0xbbd2183f	-0.0064115818
248	0x3d1601f1	0.036622945
249	0x3c9335af	0.017969934
250	0xbd6052de	-0.05476653
251	0x3d89f384	0.067359
252	0x3df08640	0.11744356
253	0x3d7d56c7	0.061850335
254	0xbd78a284	-0.060701862
255	0x3a936c8b	0.0011247558

model.fc_layers.1.bias f4 [26]
0	0xbd415206	-0.047197364
1	0x3de5834a	0.11206682
2	0x3dc13573	0.09434023
3	0x3d17a9e6	0.037027262
4	0xbe138172	-0.14404848
5	0x3d966638	0.073437154
6	0x3a89bf1c	0.0010509226
7	0xbcabbf7d	-0.020965332
8	0xbd046534	-0.032323077
9	0xbe173a13	-0.14768247
10	0x3d86d123	0.065828584
11	0x3d8a29b3	0.06746235
12	0x3dd9e49a	0.106393054
13	0x3d765917	0.060143556
14	0xbd63250e	-0.05545526
15	0x3dac20f6	0.08404724
16	0xbdf04409	-0.11731727
17	0x3d101d80	0.035184383
18	0x3b8f8aa6	0.004380542
19	0x3d9b8223	0.07593181
20	0x3d230f89	0.039809737
21	0xbe03e362	-0.12879708
22	0xbe160568	-0.146505
23	0x3cb0a14a	0.021561284
24	0xbc0162c6	-0.007897085
25	0xbdccd212	-0.10001005

model.fc_layers.2.weight f4 [1, 26]
0	0xbe43f84d	-0.19137688
1	0x3e27db65	0.16392286
2	0x3d299629	0.04140297
3	0x3e0e6921	0.13907291
4	0xbe5bafad	-0.21453734
5	0x3db3f21a	0.087864116
6	0xbe53d566	-0.20686874
7	0x3e0b2f90	0.13592362
8	0xbe2c17bd	-0.1680593
9	0xbe096fae	-0.13421509
10	0x3df623c3	0.1201854
11	0x3e03bca4	0.1286493
12	0x3d63913c	0.05555843
13	0x3d2fea78	0.042948216
14	0x3d4ab5ec	0.0494899
15	0xbe0b1451	-0.13581969
16	0xbba1c82b	-0.004937192
17	0xbd23a3a7	-0.039950993
18	0xbe29197c	-0.16513628
19	0x3d978afb	0.07399555
20	0xbdef26b7	-0.11677306
21	0xbd17c84a	-0.037056245
22	0xbe2552fc	-0.16144937
23	0xbe2ebf07	-0.17065059
24	0x3e2660fc	0.16247934
25	0x3e10aadc	0.14127678
