LSTM_TimeSeries/lightning_logs/version_11/checkpoints/epoch=2-step=27.ckpt (torch, 15139 bytes, 12 tensors)

model.fc1.weight f4 [50, 9]
00000000: 14eb a13d a065 203d 6b18 51be f6f3 dfbd
00000010: 2639 4cbe 6e77 063e dcab ba3d f83d 72be
00000020: 6656 5b3e 08ea 33be f030 b1bd 6947 8e3e
00000030: b04a 9fbe 1aff 143e 1a91 9fbe f8ec 36be
00000040: a8ef 4fbe 225e 713e b313 903d ee19 0fbe
00000050: 1367 8dbe b245 213e 5d06 2a3e af06 223d
00000060: 4cbb 80bd 6a08 cd3d 7e5b aa3e 2389 88bd
00000070: 9ca2 753e 927f 833e a046 da3d 0276 473e
00000080: 848f 76bd 0b56 8bbe 7415 0abd 1089 a9bc
00000090: dcbe c63d 7c3f 95be 9031 a73c beca 033e
000000a0: d0e0 f23c f839 74be b8bf 42bd d03d 7abe
000000b0: 4897 3abd 3f1d 81bd 6996 3ebd 9014 933e
000000c0: ba6d c2bc f982 f63c 4b17 2e3e 7801 df3d
000000d0: 82d9 98be 6ddf 243e e0b2 1dbe 4542 a73e
000000e0: 20d1 4bbc 4cdc 873d 13d6 8cbe 68d9 23bd
000000f0: e47e 90bd d07c c13c 3054 f3bd 9e5b 673e
00000100: c7b8 92be b928 a83e a00c 803e 2b9c 40be
00000110: c3ae ba3d 682f 10bd b376 2bbe 8850 a0bd
00000120: 11f2 cabd b682 cdbc 2082 53bc 5737 473e
00000130: 3c5e a13d 4988 953e 7d39 36be 32b8 ad3e
00000140: ab00 713e 3f58 843d ab71 42be 78fd 4e3e
00000150: 7701 613e 70e1 60bd 77ff 8dbe e276 1e3e
00000160: b3df 873e b520 b1bc aa47 29be 4831 683e
00000170: 4b6c 8c3e 5692 f43d 60fe 1a3e 3209 743d
00000180: 5935 c6bd 455e 323e f8aa 993e 90db 0a3e
00000190: 0043 b63b 7e09 12be 909a a03d c74c a3be
000001a0: 0450 8ebd 1c00 c7bd a499 9fbe 9305 993e
000001b0: 73fe 1cbe c30c e23c 0239 c3bd 38fa 973e
000001c0: 35ea 093e a87b 6f3e be77 41be 1656 e13c
000001d0: 0200 573d 6aac 513e a5b5 263e bcbf 1abe
000001e0: 1866 473c a576 6ebe 701d cc3d ba6c 003c
000001f0: b3e3 94be fb92 803e fb11 bf3d 4d29 3dbe
00000200: cdf1 26bc 7755 de3c 48d1 953e 58f8 2c3d
00000210: 0917 0f3e bb4b a13e 2091 8bbd e811 6c3e
00000220: 83a7 71be c8ec 0ebe 1655 a1bd 205d be3d
00000230: 6468 313e 7eb7 403e ed0e a9bc 6ac7 8c3e
00000240: ea79 053e a6f5 7bbe 6041 2b3e f42f 2c3e
00000250: 4bad 4a3e f2c6 fcbb b733 8a3d 76f1 933e
00000260: 03dc c9bb a5f2 eabd fa02 6fbe fae1 5f3e
00000270: 3403 37be c68e a2be 6bd5 8b3d 3587 913e
00000280: a500 82bd 245a 0d3e a954 273d a1cf 403d
00000290: e379 783e 51b8 99be 4a21 a23e 32bf 573e
000002a0: d187 71bb 3491 333e 534b 2dbe a4d4 40be
000002b0: 7687 403e 1aa4 b13e 0db3 42bd f802 4a3d
000002c0: a6bf 2d3e 4575 9b3d e842 623d 32d0 9b3e
000002d0: 9b7e 98be 447b 93bd 4acb 3a3e 4c6a 99bd
000002e0: d0c3 93bd 5357 5abe 5ddb a03e 805a fa3d
000002f0: fe9a 2bbe 204e 223e 2d63 463e 12bb 5a3e
00000300: 4f1b 173e 9228 1f3e 03e4 04be 2918 3b3e
00000310: c667 023d b162 9c3e c737 213e 3122 883e
00000320: d88a a4bc e6ab 40bd 655b 303d 44c8 e93b
00000330: f28a 2b3c c4d7 143e 21fa 703e 61da 793e
00000340: e2bb 3c3e 694e e5bd 61e1 353e 53f4 38bd
00000350: dea5 673c 8fb1 55be eb14 59be 1135 873d
00000360: f109 4f3e da78 813e 5078 6d3d fa7e 2c3e
00000370: 8942 7fbd 65eb c43d c50a 8fbd 43dd b23e
00000380: 3a65 483d 2bf3 9dbe 8dec 993e 0061 15bc
00000390: e5ad 8d3e 6354 5bbe 6894 3ebd 20cd cd3d
000003a0: 08b0 2dbd e311 53be b1cc fcbd 7eea 983c
000003b0: f229 bbbd bc1a 773e 8f8c a1bc 7d6d 1bbe
000003c0: d95d 773e 0a88 fabd 0c51 aebd e840 af3d
000003d0: 71f6 7b3d 68b0 9bbe 5596 c63d 2843 af3e
000003e0: 10c4 c2bb 57ff 7ebd c9d9 513e 3857 a8bd
000003f0: 650b 233e 67ea 813e ab06 083e f519 1b3d
0.07906166 0.039159417 -0.20419471 -0.10935204 -0.19943675 0.13131496 0.09114811 -0.23656452
0.21419677 -0.17569745 -0.08651912 0.27788857 -0.3111167 0.14550439 -0.3116539 -0.17863834
-0.20306265 0.23571065 0.07035007 -0.13974735 -0.27617702 0.15749243 0.1660399 0.039557155
-0.06285724 0.100113705 0.33272928 -0.06666782 0.23987812 0.25683266 0.10658002 0.1947861
-0.06019546 -0.27214083 -0.033711866 -0.02069524 0.09704372 -0.29149997 0.020409375 0.12870309
0.029648215 -0.23850238 -0.04754612 -0.24437642 -0.04555443 -0.063044064 -0.04653016 0.28726625
-0.023733962 0.03009175 0.17001073 0.10888952 -0.29853445 0.16100855 -0.15400267 0.32667747
-0.012439996 0.06633815 -0.27507076 -0.040002257 -0.070554525 0.023619086 -0.11881292 0.22593543
-0.286566 0.3284357 0.25009632 -0.18809573 0.091153644 -0.03520146 -0.16744499 -0.0782786
-0.09909452 -0.025086742 -0.012909442 0.19454704 0.07879302 0.2920554 -0.17795368 0.33929592
0.23535411 0.06462144 -0.18988673 0.20213878 0.21973215 -0.054902494 -0.27733967 0.15475038
0.26537856 -0.021622041 -0.16531244 0.2267505 0.2742637 0.11941974 0.15136099 0.05957908
-0.09678144 0.17418773 0.3001325 0.13560319 0.0055621862 -0.14261433 0.078419805 -0.31894514
-0.069488555 -0.09716818 -0.31171906 0.29887065 -0.1533144 0.027593976 -0.09532358 0.2968309
0.13468249 0.23387015 -0.18893334 0.02750687 0.05249024 0.20475927 0.1628023 -0.15112203
0.012170337 -0.23287447 0.09966552 0.007838422 -0.2907997 0.25112137 0.093296014 -0.18472786
-0.010189486 0.027140362 0.2926123 0.042229027 0.13973631 0.3150309 -0.0681479 0.23053706
-0.23599057 -0.13957512 -0.07877557 0.09295106 0.17324978 0.18819997 -0.020637 0.2749589
0.13034788 -0.24605426 0.16724157 0.16815168 0.19792669 -0.007714146 0.06748145 0.28895158
-0.0061602606 -0.11472062 -0.23340979 0.21863547 -0.17872316 -0.31749552 0.068278156 0.28423467
-0.06347779 0.13803917 0.040852223 0.04707301 0.24265246 -0.30023435 0.31666023 0.21069029
-0.0036854635 0.1753586 -0.16923265 -0.18831116 0.18801674 0.34695512 -0.047534037 0.049319237
0.1696764 0.07590727 0.055239588 0.30432278 -0.29784092 -0.072012454 0.18241611 -0.07490978
-0.07215083 -0.21322374 0.3141736 0.12224293 -0.16758344 0.15850115 0.1937377 0.21360424
0.14756511 0.1554282 -0.12977605 0.18270935 0.031837247 0.30544046 0.15743934 0.26588586
-0.020085737 -0.047038935 0.04305591 0.007134469 0.010470139 0.14535433 0.23532917 0.24399711
0.18431047 -0.11196596 0.17761756 -0.04515488 0.014138667 -0.20868514 -0.21199386 0.066019185
0.20218636 0.25287515 0.057976067 0.16845313 -0.062319312 0.096152104 -0.06984476 0.34934434
0.048924662 -0.30849585 0.30063286 -0.009117365 0.27671733 -0.2141891 -0.04652825 0.1004889
-0.042404205 -0.20612292 -0.12343729 0.018666502 -0.0913886 0.24131292 -0.019720344 -0.15178485
0.24156894 -0.12232979 -0.08511552 0.08557302 0.06151432 -0.30408025 0.09696642 0.34230924
-0.0059437826 -0.06225523 0.20493235 -0.08219761 0.15922315 0.25374147 0.13283794 0.03786655

model.fc1.bias f4 [50]
00000000: b2e5 533e 78d0 7abd 048a 2dbe b9eb 5e3e
00000010: 33b7 07be 11ed 1c3e 10ea c5bd 5c03 493e
00000020: 4822 81ba 4cde 293e 2e36 92be eebc 2cbe
00000030: 1f33 eabd 3660 31be b101 973d 5722 7dbd
00000040: 3e46 1dbe 21a1 823e bdfe 91be 124b 6bbe
00000050: d6be cabd f3db a43e b24f afbe e2d6 72bd
00000060: efc8 00be eeb4 3a3e 4785 75bd c485 273d
00000070: c85a 473e e299 3b3d 09a8 45be 2286 243e
00000080: 8a4f b73b 2334 bfbd 3ada 463e c692 42be
00000090: be20 90be 2507 043c 7fff 96be 4be6 12be
000000a0: 478d 6b3e 5069 8c3d d8d4 31be 68de 55be
000000b0: 558b ac3e 58e9 75be ee4e 97be 4460 4a3e
000000c0: dcd0 91bd 8ffd 9d3e
0.2069309 -0.061233968 -0.1694718 0.21769609 -0.13253479 0.15324809 -0.096637845 0.19630188
-0.0009852136 0.16588706 -0.2855696 -0.16868946 -0.11435532 -0.17321858 0.073733695 -0.061800327
-0.15358827 0.25513557 -0.28514662 -0.22977856 -0.0989968 0.32199058 -0.3424049 -0.05928696
-0.1257665 0.18233082 -0.059941556 0.040899053 0.19468224 0.04580105 -0.19302382 0.16066793
0.0055941986 -0.09336116 0.19419184 -0.19001302 -0.2814998 0.008058344 -0.29491803 -0.14345662
0.23003112 0.06856024 -0.1736635 -0.20885623 0.33700052 -0.24014795 -0.29552406 0.19763285
-0.07119915 0.30857512

model.fc2.weight f4 [3, 50]
00000000: c4e2 a8bd 403f 4e3c 0533 283d da2e 463d
00000010: 8bd4 b2bd e380 503d 7cc7 d6bd e055 0a3e
00000020: 5750 fb3d 3053 eebd f8a1 233d 8a96 d63d
00000030: e6a1 1f3c 3d7a e8bd 3745 263e fc06 d0bd
00000040: 696a 3fbc ca83 6cbd 96fc 49bc ba4c a5bc
00000050: 686c 1bbd 430b 0c3e 5534 013c d658 e4bd
00000060: 97e4 eb3d 96fb 9bbd 6945 1e3d 19ca f43d
00000070: 10f7 033e d028 f1bd 9f48 22bd 1837 b1bc
00000080: 341e 973c 1da7 93bd 2838 a2bd a807 233e
00000090: e439 b13c c15e 20bd 4899 a0bc 08a2 06bd
000000a0: eea5 4aba 5b8b 023e e056 fc3b 0c05 193e
000000b0: b767 4ebc 0ec0 f63d c062 f0bc 2e9f 25bd
000000c0: d1c0 093e 27de ce3d ac79 013d 6a3c d6bd
000000d0: c6e0 29bd e73c 723d 3ebe c43d b825 f73d
000000e0: 7866 03be 6137 c7bd 501d dc3d 39e9 5ebd
000000f0: cb6c f43d 31dd b8bd 9eb1 163d 2971 2a3d
00000100: 6aac 8a3d 83bb fc3d 57f4 ee3d e051 35bb
00000110: 3038 e63d 4145 c0bd 1f5d 103e 6bb2 78bd
00000120: eecb b83c 73fa 08bd 55c9 033e efdd 04be
00000130: 93c4 9dbd 4ab4 ebbb 3a6e f93d eddb ef3d
00000140: 4aec 293d fc5a b3bc 23f3 e83d 3045 ffbb
00000150: a5f5 0b3e f9c7 1b3e 9fdf 4bbc c12d 843c
00000160: 3609 fe3d 4045 e3bc 4de6 a13d 3310 073e
00000170: 4bfc c5bd 60b9 233e 4a81 0cbd edcd 04be
00000180: 3715 74bc b493 02be 7546 f93d 2aac adbd
00000190: 66d6 debd 200d bc3b 6b7e 0b3e 6d6a 10bd
000001a0: b0bb 353c 5b88 debd 119b bbbd cee1 0ebd
000001b0: 884b a83d 6319 233d f370 11bd 97c5 053e
000001c0: d620 ba3d 210b 36bc 2144 87bd 6d3c 5fbc
000001d0: f1e9 b0bd 3171 f4bd 6729 183e f89b 0d3e
000001e0: b481 673d 8764 543c a8bb c5bd 83ae 52bd
000001f0: 8472 1c3e 1124 023e 6636 bbbd efb8 0b3d
00000200: 1ef3 0ebc 506a 1fb9 d3fa c4bd 711c afbd
00000210: 2cc8 0d3e 9698 5f3d a095 b83b ac1c 483d
00000220: dd94 d43d 24e3 0dbd 2bfd ddbd 3037 823c
00000230: c154 af3c 00d8 aa3c 3844 423d d92b 1cbc
00000240: b6a6 203e 9aad e73d 7dbf 173e 9eb1 2b3d
00000250: 7412 06bd a143 86bd
-0.08246377 0.012588322 0.04106428 0.048384525 -0.087319456 0.050904166 -0.104872674 0.13509321
0.12271183 -0.116369605 0.039949387 0.10477932 0.009743189 -0.1135144 0.16237341 -0.10157582
-0.011683085 -0.05774287 -0.012328288 -0.020178188 -0.03794518 0.13676171 0.007886012 -0.111497566
0.115182094 -0.076163456 0.038640413 0.119526096 0.12887216 -0.117753625 -0.039620038 -0.021632716
0.01844702 -0.07209609 -0.07920867 0.1592089 0.02163405 -0.039152864 -0.01960434 -0.03286937
-0.0007730414 0.12748472 0.007700786 0.14943331 -0.01259797 0.1204835 -0.029343963 -0.04043501
0.1345246 0.10100966 0.031610176 -0.10460742 -0.041474126 0.059140112 0.09606598 0.12067741
-0.12832057 -0.097273596 0.107477784 -0.054421637 0.11934813 -0.09026564 0.036790483 0.041611824
0.067711666 0.123404525 0.11667698 -0.002766721 0.11241186 -0.09388209 0.14098023 -0.060717028
0.022558179 -0.033441972 0.12869771 -0.12975286 -0.07703509 -0.007193123 0.12179227 0.117118694
0.04148511 -0.02189397 0.113745 -0.00779023 0.13667925 0.15213002 -0.012443452 0.016135098
0.124041006 -0.027742982 0.079052545 0.13189773 -0.09667262 0.15988684 -0.034302987 -0.1296918
-0.014897636 -0.12751657 0.12171642 -0.08480103 -0.10880737 0.0057388693 0.13622443 -0.035257746
0.0110921115 -0.108658515 -0.09160436 -0.034883313 0.082175314 0.039819133 -0.035508107 0.13063656
0.09088294 -0.011111052 -0.066047914 -0.0136252465 -0.08638371 -0.11935652 0.14859544 0.13829029
0.05652018 0.012963421 -0.09654933 -0.05143596 0.15278059 0.1270907 -0.09141235 0.034111913
-0.008724956 -0.00015203026 -0.096181534 -0.08550347 0.13845891 0.054588877 0.005633071 0.04885547
0.10379956 -0.034640446 -0.108393036 0.015895456 0.021402718 0.02085495 0.04742834 -0.0095319385
0.15688595 0.11312409 0.1481914 0.041917436 -0.032732442 -0.06555868

model.fc2.bias f4 [3]
00000000: 84cd 043e f2b2 163d 2fb8 cd3d
0.12969023 0.03679175 0.10044896

exp_avg f4 [50, 9]
00000000: 0000 0000 0000 0000 0000 0000 0000 0000
00000010: 0000 0000 0000 0000 0000 0000 0000 0000
00000020: 0000 0000 0000 0000 0000 0000 0000 0000
00000030: 0000 0000 0000 0000 0000 0000 0000 0000
00000040: 0000 0000 0000 0000 7d69 adca b278 adca
00000050: 06fd bbca 6970 adca b1a5 adca 3570 b8ca
00000060: 7285 adca f2b3 adca 9146 bbca cd08 e948
00000070: be42 e948 d582 0249 6e20 e948 3d81 e948
00000080: 2701 0449 ee1d e948 aef7 e948 d3a1 0349
00000090: 0000 0000 0000 0000 0000 0000 0000 0000
000000a0: 0000 0000 0000 0000 0000 0000 0000 0000
000000b0: 0000 0000 32d8 3c4a f9ee 3c4a 4465 4e4a
000000c0: aae1 3c4a 9e20 3d4a 7e17 4c4a ddf2 3c4a
000000d0: 4241 3d4a 6555 4e4a 0000 0000 0000 0000
000000e0: 0000 0000 0000 0000 0000 0000 0000 0000
000000f0: 0000 0000 0000 0000 0000 0000 f097 48c9
00000100: 4c43 48c9 6e8c 61c9 dcd3 48c9 1abe 48c9
00000110: cb67 58c9 51fc 48c9 8a34 48c9 b29b 57c9
00000120: d7f0 c3ca 9201 c4ca cace d3ca a80e c4ca
00000130: 713d c4ca 6cb9 ceca 7928 c4ca 0946 c4ca
00000140: d876 d1ca 0742 0c4a 9c4b 0c4a ca01 184a
00000150: 6585 0c4a 9d8c 0c4a ee9b 134a 959a 0c4a
00000160: ba82 0c4a 3b13 144a 2e0e d548 9732 d548
00000170: 57fe f248 c1f7 d448 2667 d548 b691 fa48
00000180: 7cf4 d448 fbbf d548 133c fa48 0000 0000
00000190: 0000 0000 0000 0000 0000 0000 0000 0000
000001a0: 0000 0000 0000 0000 0000 0000 0000 0000
000001b0: f9fc 4dca 0611 4eca 7c9d 5eca a4ff 4dca
000001c0: e341 4eca f2ea 59ca ae18 4eca 6957 4eca
000001d0: 41a7 5dca 5e8c 614a ec9e 614a 8d90 744a
000001e0: 15d5 614a 51f1 614a 4ca5 704a 18fa 614a
000001f0: 1aef 614a 09d8 724a fe69 92c9 815f 92c9
00000200: e113 9cc9 65a8 92c9 35a5 92c9 9d0c 95c9
00000210: d4cc 92c9 3768 92c9 c45d 97c9 6902 444a
00000220: cc0d 444a 8ce0 554a 712f 444a 2556 444a
00000230: ed31 524a 8b49 444a 5c52 444a 9eee 534a
00000240: bf31 6c4a d548 6c4a 5dd0 804a 8c4f 6c4a
00000250: a290 6c4a 21ca 7d4a 4769 6c4a 9ba7 6c4a
00000260: 8830 804a 60bb de45 448b e745 d64b 1646
00000270: d7c6 e545 7884 df45 0ef0 0b46 ec34 e845
00000280: 1e2b e245 ab9c 2146 49a1 aaca b4b4 aaca
00000290: 3575 b8ca 14ad aaca 46e0 aaca 336e b4ca
000002a0: 86c0 aaca 73f6 aaca e81a b7ca c3f3 71ca
000002b0: 560a 72ca 1360 83ca 07e4 71ca f83d 72ca
000002c0: 406b 81ca c3fe 71ca 075c 72ca dfb0 83ca
000002d0: 0000 0000 0000 0000 0000 0000 0000 0000
000002e0: 0000 0000 0000 0000 0000 0000 0000 0000
000002f0: 0000 0000 9b8b 3fca 5191 3fca da7b 4fca
00000300: b49f 3fca 80cd 3fca 8cfe 4aca 44bd 3fca
00000310: 25c0 3fca 8a25 4eca 7f6c 814a 777b 814a
00000320: 29c5 8c4a cf80 814a d8a2 814a 603c 8a4a
00000330: 8b8e 814a 17b3 814a bd98 8b4a 9adf ae4a
00000340: 7def ae4a 62b8 bd4a a808 af4a f42b af4a
00000350: 7d7a b94a e01e af4a 9133 af4a 1135 bb4a
00000360: d99a 0ccb 20a8 0ccb 5321 18cb 53ae 0ccb
00000370: ded1 0ccb a8ab 14cb e2bf 0ccb b6db 0ccb
00000380: 4f9b 16cb 0000 0000 0000 0000 0000 0000
00000390: 0000 0000 0000 0000 0000 0000 0000 0000
000003a0: 0000 0000 0000 0000 c561 1b48 3554 1b48
000003b0: 59d0 1648 0bef 1b48 f383 1b48 2816 0a48
000003c0: 7102 1c48 f98f 1b48 9161 1248 8fd8 5eca
000003d0: 07d1 5eca 61c7 6fca 9be0 5eca 6212 5fca
000003e0: 79db 6aca f5fc 5eca 7a13 5fca 0c19 6eca
000003f0: 6c64 33ca f06e 33ca ecec 40ca 418e 33ca
0.0 0.0 0.0 0.0 0.0 0.0 0.0 0.0
0.0 0.0 0.0 0.0 0.0 0.0 0.0 0.0
0.0 0.0 -5.6823665e+06 -5.684313e+06 -6.160003e+06 -5.6832525e+06 -5.6900725e+06 -6.0436745e+06
-5.685945e+06 -5.691897e+06 -6.1366485e+06 477254.4 477717.94 534573.3 477443.44 478217.9
540690.44 477423.44 479165.44 539165.2 0.0 0.0 0.0 0.0
0.0 0.0 0.0 0.0 0.0 3.0940285e+06 3.0954862e+06 3.381585e+06
3.0946345e+06 3.0986635e+06 3.3438395e+06 3.0957352e+06 3.1007525e+06 3.3805692e+06 0.0 0.0
0.0 0.0 0.0 0.0 0.0 0.0 0.0 -821631.0
-820276.75 -923846.9 -822589.75 -822241.6 -886396.7 -823237.06 -820040.6 -883131.1
-6.4205875e+06 -6.422729e+06 -6.940517e+06 -6.424404e+06 -6.4303925e+06 -6.773942e+06 -6.4277085e+06 -6.4314925e+06
-6.863724e+06 2.2979858e+06 2.298599e+06 2.4904825e+06 2.3022972e+06 2.3027592e+06 2.4184275e+06 2.3036532e+06
2.3021265e+06 2.4260628e+06 436337.44 436628.72 497650.72 436158.03 437049.2 513165.7
436131.88 437759.84 512480.6 0.0 0.0 0.0 0.0 0.0
0.0 0.0 0.0 0.0 -3.3749102e+06 -3.3761935e+06 -3.647327e+06 -3.375081e+06
-3.3793208e+06 -3.5703645e+06 -3.3766835e+06 -3.3806982e+06 -3.6315682e+06 3.6953835e+06 3.696571e+06 4.0069472e+06
3.7000372e+06 3.7018442e+06 3.942739e+06 3.702406e+06 3.7017025e+06 3.9787542e+06 -1.1994238e+06 -1.1990881e+06
-1.2785881e+06 -1.2014206e+06 -1.2013186e+06 -1.2210116e+06 -1.2025865e+06 -1.1993669e+06 -1.2399925e+06 3.2114182e+06
3.212147e+06 3.504163e+06 3.2143002e+06 3.2167772e+06 3.4438352e+06 3.2159708e+06 3.216535e+06 3.4722955e+06
3.8698078e+06 3.8712852e+06 4.2209745e+06 3.871715e+06 3.8758805e+06 4.1580882e+06 3.8733618e+06 3.8773508e+06
4.200516e+06 7127.422 7409.408 9618.959 7352.855 7152.5586 8956.014 7430.615
7237.3896 10343.167 -5.5912045e+06 -5.59369e+06 -6.0443145e+06 -5.592714e+06 -5.599267e+06 -5.9123455e+06
-5.595203e+06 -5.6021055e+06 -5.999988e+06 -3.9641448e+06 -3.9655895e+06 -4.3049055e+06 -3.9631378e+06 -3.968894e+06
-4.2408e+06 -3.9648488e+06 -3.9708178e+06 -4.3152475e+06 0.0 0.0 0.0 0.0
0.0 0.0 0.0 0.0 0.0 -3.1382788e+06 -3.1386442e+06 -3.3994145e+06
-3.139565e+06 -3.142496e+06 -3.325859e+06 -3.141457e+06 -3.1416412e+06 -3.3775065e+06 4.2409595e+06 4.2428755e+06
4.6127565e+06 4.2435595e+06 4.247916e+06 4.529712e+06 4.2453175e+06 4.2499955e+06 4.5743025e+06 5.730253e+06
5.7322865e+06 6.216753e+06 5.735508e+06 5.740026e+06 6.0777585e+06 5.738352e+06 5.7410005e+06 6.1344085e+06
-9.214681e+06 -9.21808e+06 -9.970003e+06 -9.219667e+06 -9.228766e+06 -9.743272e+06 -9.224162e+06 -9.231286e+06
-9.870159e+06 0.0 0.0 0.0 0.0 0.0 0.0 0.0
0.0 0.0 159111.08 159056.83 154433.39 159676.17 159247.8 141400.62
159753.77 159295.89 149894.27 -3.6511078e+06 -3.6506258e+06 -3.9285362e+06 -3.6516228e+06 -3.6548085e+06
-3.8479022e+06 -3.6534372e+06 -3.6548785e+06 -3.900995e+06 -2.939163e+06 -2.939836e+06 -3.160891e+06 -2.9418402e+06

exp_avg_sq f4 [50, 9]
00000000: 0000 0000 0000 0000 0000 0000 0000 0000
00000010: 0000 0000 0000 0000 0000 0000 0000 0000
00000020: 0000 0000 0000 0000 0000 0000 0000 0000
00000030: 0000 0000 0000 0000 0000 0000 0000 0000
00000040: 0000 0000 0000 0000 6db8 9553 eae6 9553
00000050: 9536 b653 7b3c 9653 f863 9653 1aeb af53
00000060: 1668 9653 629b 9653 70f2 ae53 43e9 d350
00000070: ae1e d450 dffe 0351 c7df d350 673c d450
00000080: 695b 0151 7c51 d450 98f8 d450 28e8 fd50
00000090: 0000 0000 0000 0000 0000 0000 0000 0000
000000a0: 0000 0000 0000 0000 0000 0000 0000 0000
000000b0: 0000 0000 10f3 df52 db35 e052 c504 0a53
000000c0: 9080 e052 eeca e052 aa5c 0653 3ad4 e052
000000d0: ba47 e152 33fa 0453 0000 0000 0000 0000
000000e0: 0000 0000 0000 0000 0000 0000 0000 0000
000000f0: 0000 0000 0000 0000 0000 0000 32b0 7450
00000100: 5d3b 7450 b625 a050 523c 7650 a1ff 7550
00000110: c8c7 9450 7568 7650 a836 7550 d54f 8a50
00000120: 393b 0054 5165 0054 c26c 1a54 ddab 0054
00000130: d2c1 0054 90fe 1354 4fda 0054 03f1 0054
00000140: a486 1354 a569 1953 7f9b 1953 3f0a 3753
00000150: 51c4 1953 f1d7 1953 a95c 2f53 fe19 1a53
00000160: fb1b 1a53 c2f3 2e53 3699 3d50 5bf8 3d50
00000170: 6363 7750 f097 3d50 f328 3e50 de39 7b50
00000180: 3ff5 3d50 f0c1 3e50 91c8 7250 0000 0000
00000190: 0000 0000 0000 0000 0000 0000 0000 0000
000001a0: 0000 0000 0000 0000 0000 0000 0000 0000
000001b0: a32a c852 4269 c852 3d9b f252 01d9 c852
000001c0: f70e c952 a628 e952 920c c952 a85b c952
000001d0: da79 e852 b669 7253 84b5 7253 3b21 9253
000001e0: ff1c 7353 7942 7353 8df9 8c53 5e92 7353
000001f0: 34a7 7353 f52d 8c53 3636 ab51 039a ab51
00000200: 45c8 c751 a824 ac51 4a17 ac51 833b bc51
00000210: 486b ac51 44f4 ab51 60f8 bc51 370f 1f53
00000220: 1b40 1f53 0d10 4153 208a 1f53 2da8 1f53
00000230: 1b08 3b53 69d4 1f53 a7e5 1f53 736a 3953
00000240: 16f7 4353 6931 4453 5874 6f53 1783 4453
00000250: fab4 4453 e72a 6853 9ad2 4453 bc12 4553
00000260: 931d 6653 bfd6 394e aad5 484e e13c a94e
00000270: cac7 454e e426 3b4e bcb6 924e 69fc 494e
00000280: 1c9e 3f4e 54ae c34e 41a1 a953 c4d6 a953
00000290: 2c53 cd53 972a aa53 b052 aa53 3ee2 c453
000002a0: 575f aa53 8f9f aa53 2a4f c453 7d06 de52
000002b0: d249 de52 2372 0853 00ba de52 4813 df52
000002c0: 6ec8 0453 abe9 de52 6a68 df52 cff3 0353
000002d0: 0000 0000 0000 0000 0000 0000 0000 0000
000002e0: 0000 0000 0000 0000 0000 0000 0000 0000
000002f0: 0000 0000 8c08 b152 5e42 b152 6c05 d652
00000300: 60cf b152 daec b152 c598 ce52 6105 b252
00000310: 3503 b252 7f48 cd52 f109 8653 a831 8653
00000320: a1da a253 e062 8653 a981 8653 7006 9d53
00000330: d99a 8653 2bc7 8653 9904 9c53 80cb 0954
00000340: 65f6 0954 4f18 2654 872e 0a54 3f46 0a54
00000350: ba9b 1f54 8a6c 0a54 a083 0a54 e2dd 1e54
00000360: b4e1 8354 060c 8454 fd30 9f54 9050 8454
00000370: 9b69 8454 1dbb 9854 3280 8454 d49e 8454
00000380: f72b 9854 0000 0000 0000 0000 0000 0000
00000390: 0000 0000 0000 0000 0000 0000 0000 0000
000003a0: 0000 0000 0000 0000 af85 4351 8fff 4251
000003b0: 60b3 4551 5bbe 4351 bb2c 4251 a8d8 2551
000003c0: 00f1 4451 f47c 4351 f1d0 3551 4aab fb52
000003d0: 0cc2 fb52 7463 1253 2f47 fc52 f15b fc52
000003e0: 24b3 0e53 6866 fc52 95b6 fc52 1101 0d53
000003f0: 381a ef52 3f73 ef52 2e55 0e53 ea04 f052
0.0 0.0 0.0 0.0 0.0 0.0 0.0 0.0
0.0 0.0 0.0 0.0 0.0 0.0 0.0 0.0
0.0 0.0 1.2860886e+12 1.2876484e+12 1.5651996e+12 1.2905196e+12 1.2918446e+12 1.5111273e+12
1.2919827e+12 1.293704e+12 1.5027835e+12 2.8442237e+10 2.8470243e+10 3.5432296e+10 2.8437264e+10 2.8485827e+10
3.4724024e+10 2.849688e+10 2.8584493e+10 3.4078802e+10 0.0 0.0 0.0 0.0
0.0 0.0 0.0 0.0 0.0 4.809278e+11 4.814881e+11 5.927855e+11
4.821148e+11 4.8273863e+11 5.7708026e+11 4.8281662e+11 4.837855e+11 5.711333e+11 0.0 0.0
0.0 0.0 0.0 0.0 0.0 0.0 0.0 1.6420751e+10
1.6390125e+10 2.1494608e+10 1.6524593e+10 1.6508683e+10 1.9968967e+10 1.6536163e+10 1.6456e+10 1.8563901e+10
2.2029976e+12 2.2058225e+12 2.6529985e+12 2.2105568e+12 2.2120303e+12 2.5425242e+12 2.2136737e+12 2.2151973e+12
2.5344763e+12 6.589024e+11 6.597388e+11 7.861509e+11 6.6042364e+11 6.607529e+11 7.5317386e+11 6.6186104e+11
6.618944e+11 7.514139e+11 1.2723739e+10 1.274868e+10 1.6601943e+10 1.2723405e+10 1.2761419e+10 1.6859494e+10
1.2747865e+10 1.2801524e+10 1.6292922e+10 0.0 0.0 0.0 0.0 0.0
0.0 0.0 0.0 0.0 4.298544e+11 4.303797e+11 5.2099328e+11 4.313171e+11
4.3176975e+11 5.0070467e+11 4.3174966e+11 4.3241308e+11 4.9923837e+11 1.0411556e+12 1.0424274e+12 1.2552455e+12
1.0441635e+12 1.0447923e+12 1.2109644e+12 1.0461327e+12 1.04648226e+12 1.2041329e+12 9.1918615e+10 9.212791e+10
1.0725731e+11 9.241867e+10 9.239064e+10 1.0105654e+11 9.256678e+10 9.231719e+10 1.0145261e+11 6.8315506e+11
6.839753e+11 8.29198e+11 6.8521715e+11 6.857213e+11 8.032949e+11 6.8646345e+11 6.867527e+11 7.963549e+11
8.4166404e+11 8.4264255e+11 1.0284491e+12 8.440129e+11 8.448499e+11 9.971522e+11 8.453469e+11 8.464229e+11
9.8833865e+11 7.7946464e+08 8.423615e+08 1.4196696e+09 8.295512e+08 7.84972e+08 1.2307246e+09 8.471906e+08
8.037025e+08 1.641491e+09 1.4571097e+12 1.4589053e+12 1.7637274e+12 1.461718e+12 1.4630634e+12 1.6912186e+12
1.463488e+12 1.4656428e+12 1.6862835e+12 4.767958e+11 4.7736062e+11 5.8603045e+11 4.7830165e+11 4.790506e+11
5.7029834e+11 4.7870152e+11 4.7976474e+11 5.6673115e+11 0.0 0.0 0.0 0.0
0.0 0.0 0.0 0.0 0.0 3.801763e+11 3.8066133e+11 4.5960698e+11
3.818442e+11 3.8209146e+11 4.4366316e+11 3.822972e+11 3.82279e+11 4.408423e+11 1.1513848e+12 1.1527174e+12
1.3989054e+12 1.1543689e+12 1.1554019e+12 1.3488357e+12 1.156247e+12 1.1577342e+12 1.3401841e+12 2.3672987e+12
2.3701773e+12 2.8534896e+12 2.3739443e+12 2.375536e+12 2.7420498e+12 2.378106e+12 2.3796552e+12 2.7293096e+12
4.531419e+12 4.537099e+12 5.4697735e+12 4.5462984e+12 4.5496596e+12 5.247794e+12 4.5526915e+12 4.556803e+12
5.228581e+12 0.0 0.0 0.0 0.0 0.0 0.0 0.0
0.0 0.0 5.248509e+10 5.234445e+10 5.3069873e+10 5.2544516e+10 5.212338e+10 4.451903e+10
5.2866056e+10 5.2475937e+10 4.880591e+10 5.4045527e+11 5.4064618e+11 6.287338e+11 5.41763e+11 5.4193714e+11
6.1289084e+11 5.4202493e+11 5.426975e+11 6.056083e+11 5.1346853e+11 5.1421535e+11 6.1131443e+11 5.154373e+11

exp_avg f4 [50]
00000000: 0000 0000 0000 0000 196b 11c4 a852 4342
00000010: 0000 0000 9055 9e43 0000 0000 d473 a7c2
00000020: 5950 24c4 141a 6b43 1d56 3242 0000 0000
00000030: 54c7 acc3 2f04 bd43 7a5c f5c2 0d3f a443
00000040: 3901 c643 1015 493f 8d21 0fc4 d6e7 cac3
00000050: 0000 0000 378c a0c3 f70c d943 5b9d 1244
00000060: 27d4 6bc4 0000 0000 2254 8241 28d6 bac3
00000070: 5e6e 96c3 1dae 9f43 5c21 e843 0000 0000
00000080: ed9d 19c4 d12c a840 0000 0000 40e6 1fc4
00000090: 4f71 bfc3 132a 3443 0000 0000 0000 0000
000000a0: 7fe0 70c2 0000 0000 0000 0000 d1d8 aec3
000000b0: ee56 04c4 0000 0000 20ae e6c3 775e 8c40
000000c0: 769e 4ac3 aa2e 9142
0.0 0.0 -581.6734 48.83072 0.0 316.66846 0.0 -83.72623
-657.25543 235.10187 44.584095 0.0 -345.55725 378.03268 -122.68062 328.49258
396.00955 0.78547764 -572.52423 -405.81122 0.0 -321.09543 434.1013 586.4587
-943.3149 0.0 16.29108 -373.6731 -300.86224 319.36026 464.26062 0.0
-614.4676 5.2554708 0.0 -639.59766 -382.88522 180.16435 0.0 0.0
-60.219234 0.0 0.0 -349.69388 -529.3583 0.0 -461.36035 4.3865314
-202.61899 72.59114

exp_avg_sq f4 [50]
00000000: 0000 0000 0000 0000 832b 5246 8cdc 9343
00000010: 0000 0000 eae8 9c45 0000 0000 c279 2b43
00000020: a2ef b346 bee8 d645 5f1b 0443 0000 0000
00000030: d48a 8c45 a1dd 2946 08a3 7044 aeef de45
00000040: bc55 0946 a377 1741 cf0b 6e46 29e9 9b45
00000050: 0000 0000 e1ab 7845 1dda 3b46 2e27 c146
00000060: 9707 3947 0000 0000 2400 0744 dc8e b045
00000070: 05d3 a745 c33e de45 6443 8146 0000 0000
00000080: aad1 8e46 ed46 3442 0000 0000 9dbd ba46
00000090: 5578 8945 17fe 9945 0000 0000 0000 0000
000000a0: 3916 c242 0000 0000 0000 0000 8ca9 cc45
000000b0: 5ecc 2146 0000 0000 a914 ef45 019e ad42
000000c0: 9c4e 1245 3c91 9644
0.0 0.0 13450.878 295.72302 0.0 5021.1143 0.0 171.47562
23031.816 6877.093 132.10692 0.0 4497.3535 10871.407 962.54736 7133.96
8789.434 9.466708 15234.952 4989.145 0.0 3978.7424 12022.528 24723.59
47367.59 0.0 540.0022 5649.8574 5370.3774 7111.845 16545.695 0.0
18280.832 45.069263 0.0 23902.807 4399.0415 4927.761 0.0 0.0
97.0434 0.0 0.0 6549.1934 10355.092 0.0 7650.5825 86.8086
2340.913 1204.5386

exp_avg f4 [3, 50]
00000000: 0000 0000 0000 0000 a806 ecca 605c 2acb
00000010: 0000 0000 c2bd 36cb 0000 0000 adfd 03ca
00000020: 93e1 99cb 1bdb 2dcb 685a e8cb 0000 0000
00000030: 5865 c6ca c70f 75ca 08d0 5ecb eec2 69cb
00000040: 23d3 abcb fcfb 8cc2 742e 44cb f123 b6cb
00000050: 0000 0000 c0cc eecb 8f05 b3cb f79f 93ca
00000060: 6003 c2cb 0000 0000 2ead d2c6 b0b5 a8ca
00000070: c319 83cb 5a22 83cb fe83 08ca 0000 0000
00000080: 5513 6bcb de1b 8cc7 0000 0000 8f38 c2cb
00000090: 1cca 4dca 4383 97c9 0000 0000 0000 0000
000000a0: cef3 cbcb 0000 0000 0000 0000 5e68 85ca
000000b0: 9942 09cb 0000 0000 4c3f 64cb 3cb8 6dc6
000000c0: ce40 a6ca de81 e5c9 0000 0000 0000 0000
000000d0: 14ad 93c9 bb1a 0aca 0000 0000 8882 0eca
000000e0: 0000 0000 ec6e 7ec8 a1d9 56ca b7b2 11ca
000000f0: c57a b1ca 0000 0000 1f9e 6fc9 98d5 50c9
00000100: 001b 1fca 6a34 36ca 30e2 87ca d990 cac1
00000110: 8ef8 07ca 8ec2 7eca 0000 0000 e78b adca
00000120: 9eaf 8bca 3947 84c9 1be4 8cca 0000 0000
00000130: 72eb 2ac6 797d 61c9 39e0 36ca 84d4 54ca
00000140: 9c0f 0cc9 0000 0000 93ea 26ca d12b b1c6
00000150: 0000 0000 52a9 8aca 7670 c3c8 e541 a5c8
00000160: 0000 0000 0000 0000 5144 96ca 0000 0000
00000170: 0000 0000 7ec5 07c9 96fe aac9 0000 0000
00000180: bfc8 16ca ee72 adc5 7097 44c9 4dca d5c8
00000190: 0000 0000 0000 0000 7a07 3ecb 16c8 82cb
000001a0: 0000 0000 b3db 8ccb 0000 0000 1aa4 59ca
000001b0: eaf0 f2cb a7c0 84cb 0371 34cc 0000 0000
000001c0: c235 20cb a7ae b9ca 8d7b afcb c8c8 b4cb
000001d0: 869e 04cc 39bd e3c2 2e03 9bcb 2b9b 0fcc
000001e0: 0000 0000 6949 3bcc 1595 0acc 730a deca
000001f0: a840 18cc 0000 0000 ae39 07c7 203a 07cb
00000200: a9e6 cecb 4699 c9cb d9bb 46ca 0000 0000
00000210: c55e b9cb b2c9 b2c7 0000 0000 c8c7 18cc
00000220: da8d aaca d318 dbc9 0000 0000 0000 0000
00000230: d693 1fcc 0000 0000 0000 0000 588b dbca
00000240: 0b16 5ccb 0000 0000 c58b b5cb 769b 9bc6
00000250: aaca 06cb 6a60 29ca
0.0 0.0 -7.7341e+06 -1.1164768e+07 0.0 -1.197613e+07 0.0 -2.1625392e+06
-2.016951e+07 -1.1393819e+07 -3.0454992e+07 0.0 -6.501036e+06 -4.0150898e+06 -1.4602248e+07 -1.531979e+07
-2.2521414e+07 -70.49216 -1.2856948e+07 -2.3873506e+07 0.0 -3.1299968e+07 -2.3464734e+07 -4.8373715e+06
-2.5429696e+07 0.0 -26966.59 -5.52828e+06 -1.7183622e+07 -1.718802e+07 -2.2366715e+06 0.0
-1.5405909e+07 -71735.734 0.0 -2.5456926e+07 -3.371655e+06 -1.2411924e+06 0.0 0.0
-2.6732444e+07 0.0 0.0 -4.371503e+06 -8.995481e+06 0.0 -1.4958412e+07 -15214.059
-5.447783e+06 -1.8801238e+06 0.0 0.0 -1.2097625e+06 -2.2627028e+06 0.0 -2.334882e+06
0.0 -260539.69 -3.5201042e+06 -2.3871178e+06 -5.8156505e+06 0.0 -981473.94 -855385.5
-2.606784e+06 -2.9852425e+06 -4.452632e+06 -25.320726 -2.2277475e+06 -4.1739875e+06 0.0 -5.6867715e+06
-4.577231e+06 -1.0836231e+06 -4.6167175e+06 0.0 -10938.861 -923607.56 -2.9962382e+06 -3.487009e+06
-573689.75 0.0 -2.7347568e+06 -22677.908 0.0 -4.543657e+06 -400259.7 -338447.16
0.0 0.0 -4.9239445e+06 0.0 0.0 -556119.9 -1.4007868e+06 0.0
-2.4704478e+06 -5550.366 -805239.0 -437842.4 0.0 0.0 -1.2453754e+07 -1.7141804e+07
0.0 -1.8462566e+07 0.0 -3.5658305e+06 -3.1842772e+07 -1.7400142e+07 -4.7301644e+07 0.0
-1.0499522e+07 -6.0844355e+06 -2.3000858e+07 -2.369576e+07 -3.4765336e+07 -113.869576 -2.0317788e+07 -3.7645484e+07
0.0 -4.90961e+07 -3.6328532e+07 -7.2758335e+06 -3.9912096e+07 0.0 -34617.68 -8.86224e+06
-2.711893e+07 -2.6423948e+07 -3.2560542e+06 0.0 -2.4296842e+07 -91539.39 0.0 -4.0050464e+07
-5.588717e+06 -1.7948424e+06 0.0 0.0 -4.183228e+07 0.0 0.0 -7.194028e+06
-1.4423563e+07 0.0 -2.3795594e+07 -19917.73 -8.833706e+06 -2.7750665e+06

exp_avg_sq f4 [3, 50]
00000000: 0000 0000 0000 0000 39bb 0654 941d 1955
00000010: 0000 0000 b290 3755 0000 0000 35d1 2b52
00000020: 9aa1 9f55 01e1 1f55 c888 7056 0000 0000
00000030: 9737 b253 ed90 0454 f79d 1955 bcc1 8955
00000040: f5b6 0a56 9fea 9447 3775 eb54 db16 e455
00000050: 0000 0000 1f7e 4956 c3e8 1456 26eb 2854
00000060: d3b2 0256 0000 0000 dd11 0a4f 5a38 6953
00000070: fceb 6155 18d4 a655 20d6 8053 0000 0000
00000080: a33c 2d55 9dcb cb4f 0000 0000 acb1 0356
00000090: cb93 9452 c443 e452 0000 0000 0000 0000
000000a0: 91af 1a56 0000 0000 0000 0000 a8cd 0a53
000000b0: d949 4c54 0000 0000 69c1 2555 1939 824e
000000c0: 546c 6a53 d524 3e53 0000 0000 0000 0000
000000d0: fb7d 2a52 a5d3 8653 0000 0000 d03e 9d53
000000e0: 0000 0000 73ff 4850 dd27 ef53 cfc5 8f53
000000f0: 4d19 c954 0000 0000 586c cb51 1805 7652
00000100: 0e28 6553 e070 ec53 6690 6d54 e3b5 1946
00000110: 0210 2953 f510 2c54 0000 0000 efc6 9d54
00000120: e3da 7d54 a067 9f52 8d03 4b54 0000 0000
00000130: f294 b64d 716c 8b51 4530 a753 386b 1254
00000140: 5144 0052 0000 0000 7563 8153 da5e 524e
00000150: 0000 0000 b74a 4a54 4b9d 4950 02e2 6c51
00000160: 0000 0000 0000 0000 7bf7 7854 0000 0000
00000170: 0000 0000 4eae f450 e23f 8252 0000 0000
00000180: bc70 6a53 183b 0f4d 4c6c 7751 c285 b551
00000190: 0000 0000 0000 0000 b52e 8f54 dbc9 8f55
000001a0: 0000 0000 6c10 ae55 0000 0000 95c6 bf52
000001b0: deac 1f56 bfc1 9455 4192 e656 0000 0000
000001c0: aa8b 4254 b8a5 7154 cbf2 9955 1c4a 0256
000001d0: 0a8f 8356 d549 4248 165b 6f55 f6ee 6356
000001e0: 0000 0000 6474 c656 7a7c 8d56 6b17 9954
000001f0: 470a 8156 0000 0000 c9be 5a4f 7e17 fc53
00000200: 8e01 e355 7ecf 1c56 bac5 e453 0000 0000
00000210: e61c ad55 8a39 2e50 0000 0000 e483 8256
00000220: 7777 3753 220c 4453 0000 0000 0000 0000
00000230: 60e9 9656 0000 0000 0000 0000 a81a a453
00000240: c0bc d854 0000 0000 13a7 a955 ecae d54e
00000250: 0a20 0254 a67e ad53
0.0 0.0 2.3146668e+12 1.052202e+13 0.0 1.2614506e+13 0.0 1.8448733e+11
2.1939553e+13 1.0986796e+13 6.6117565e+13 0.0 1.5308736e+12 2.2774685e+12 1.0556483e+13 1.8933147e+13
3.81296e+13 76245.24 8.090271e+12 3.1348352e+13 0.0 5.538588e+13 4.0931856e+13 2.9019986e+12
3.592614e+13 0.0 2.3164265e+09 1.0016728e+12 1.5525229e+13 2.2928733e+13 1.1066965e+12 0.0
1.1904747e+13 6.8382377e+09 0.0 3.619978e+13 3.1906736e+11 4.9019473e+11 0.0 0.0
4.251971e+13 0.0 0.0 5.961558e+11 3.5096491e+12 0.0 1.1390632e+13 1.09239e+09
1.0068398e+12 8.166617e+11 0.0 0.0 1.8306451e+11 1.1581528e+12 0.0 1.3507274e+12
0.0 1.3488737e+10 2.054332e+12 1.234998e+12 6.909703e+12 0.0 1.0921201e+11 2.6416185e+11
9.842195e+11 2.031012e+12 4.0813194e+12 9837.472 7.2611804e+11 2.9560755e+12 0.0 5.4211793e+12
4.3611961e+12 3.4231917e+11 3.4877517e+12 0.0 3.8290182e+08 7.4852475e+10 1.4361387e+12 2.5154562e+12
1.377255e+11 0.0 1.1114388e+12 8.823579e+08 0.0 3.4753476e+12 1.3530115e+10 6.3587754e+10
0.0 0.0 4.2772157e+12 0.0 0.0 3.2840511e+10 2.7970876e+11 0.0
1.0069137e+12 1.5018842e+08 6.6417115e+10 9.7454146e+10 0.0 0.0 4.9197115e+12 1.976214e+13
0.0 2.3923194e+13 0.0 4.118352e+11 4.38912e+13 2.0444982e+13 1.26757915e+14 0.0
3.3422673e+12 4.1514697e+12 2.1158508e+13 3.5813702e+13 7.2325186e+13 198951.33 1.6448406e+13 6.2653867e+13
0.0 1.091016e+14 7.778288e+13 5.260183e+12 7.094057e+13 0.0 3.6699364e+09 2.1654518e+12
3.1199477e+13 4.3103747e+13 1.9651397e+12 0.0 2.3792454e+13 1.1692026e+10 0.0 7.175149e+13
7.879833e+11 8.4201714e+11 0.0 0.0 8.296454e+13 0.0 0.0 1.4096437e+12
7.447037e+12 0.0 2.331688e+13 1.7925053e+09 2.235533e+12 1.4903083e+12

exp_avg f4 [3]
00000000: 949c 27c5 5ebf ffc3 7a77 82c5
-2681.7861 -511.49506 -4174.9346

exp_avg_sq f4 [3]
00000000: 6e2c e048 d65c 3847 e229 5849
459107.44 47196.836 885406.1
