LSTM_TimeSeries/lightning_logs/version_96/checkpoints/epoch=1-step=260.ckpt (torch, 670043 bytes, 27 tensors)

model.lstm.weight_ih_l0 f4 [416, 9]
000000 f6 f4 34 3d f9 50 f7 3c 6c 13 87 bd 36 44 30 bc
       0.044178925 0.030189978 -0.06595501 -0.01075845
000010 c0 32 1a bd 82 13 e7 3c 0b 7e 6a 3d e3 45 27 bd
       -0.037646055 0.028207544 0.05724911 -0.040838134
000020 0c b6 82 3d 41 c1 ac bc 41 30 4b 3b 4c aa b1 3d
       0.06382379 -0.021088244 0.0031004103 0.0867506
000030 f8 17 75 bd d5 8b 95 3d 27 c2 b2 bd f9 f2 69 bc
       -0.05983731 0.073020615 -0.08728438 -0.014279121
000040 ef 74 be bc 00 09 9d 3d d7 90 86 3d 09 e7 11 ba
       -0.023249118 0.07667732 0.06570595 -0.0005565738
000050 bb 03 5b bd 49 19 bc 3d a2 5e ba 3d 3c 13 f3 3c
       -0.053470355 0.0918451 0.09100081 0.029672258
000060 43 e4 07 3d 19 a1 a3 3d 70 a7 03 3e 24 31 1e 3d
       0.03317667 0.07989711 0.12856841 0.038621083
000070 8d 71 01 3e 15 f4 f1 3d 21 98 ba 3d 3b 0e eb 3d
       0.12640972 0.11814133 0.091110475 0.114773236
000080 74 28 ca 3c d7 2c 57 bc de e0 64 3d 4f cd 0c 3d
       0.024677493 -0.013133249 0.055878513 0.034375485
000090 95 ba 90 3d 4d 0a 3d bd bc 23 c7 3c 11 0f a5 3d
       0.07066838 -0.0461524 0.024309032 0.08059514
0000a0 63 50 4f 3d 1b 0a 4e bd d4 00 1b 3d f7 54 b5 bc
       0.050613772 -0.050302606 0.037842587 -0.022135241
0000b0 cd 46 07 3c 22 49 0a bd 99 6e 17 bd 0e cc 81 3d
       0.008256626 -0.03376115 -0.03697071 0.063377485
0000c0 b0 b9 d0 bc cf 05 1c bc 84 65 92 3c 63 e4 8e 3c
       -0.025479168 -0.009522869 0.017870672 0.017442888
0000d0 39 73 d4 bd 2a 44 b7 3c fe b4 18 bc 86 1b 01 3e
       -0.103735395 0.02237137 -0.009320496 0.12608156
0000e0 6d 0c 46 3c 2c 20 5b 3d 27 01 47 bd 3b 86 98 bb
       0.0120879235 0.05349748 -0.048585083 -0.0046546734
0000f0 42 74 93 3c 42 18 39 3d 8e f5 88 bc b6 7c de 3d
       0.017999772 0.04518915 -0.016718652 0.108636305
000100 0d f7 36 bd 54 21 ea 3d 16 15 f0 3d 8c 6b 69 bc
       -0.0446692 0.11432138 0.11722772 -0.014246833
000110 18 b9 33 3d c5 7f 25 3d aa b3 f1 39 b8 a7 49 bb
       0.04387769 0.040405054 0.00046100962 -0.0030770134
000120 1d 8d 9a ba 7a 55 a1 3c 42 a4 a2 bb 2a 0b b4 3d
       -0.0011791323 0.019694079 -0.0049634287 0.08791192
000130 ee c7 52 3d 36 48 b3 3d b3 2b 6b bc 25 e1 0b 3e
       0.0514602 0.087540075 -0.01435368 0.13660105
000140 4e e0 92 3d ad 7d 80 3d 77 2c 58 bc b1 cc 9e 3d
       0.07171689 0.06273971 -0.013194195 0.077538855
000150 fe db e6 3d ab 79 ea 3c 87 1e 73 bd 06 bd ca 3d
       0.11272429 0.028622469 -0.059355285 0.098993346
000160 03 2f 06 3e 13 b5 44 3c dc 6c 8b bc e3 d5 c6 3d
       0.13103871 0.012006062 -0.017019682 0.097087644
000170 eb aa ac 3d 72 11 8b 3d dc 37 9d 3d 61 a9 b7 3c
       0.084310375 0.06790437 0.0767667 0.022419633
000180 1e 22 3b 3c 70 d7 b7 3d 14 53 c4 3d 0b 90 ae 3d
       0.011421708 0.08976638 0.095861584 0.08523568
000190 a1 e6 37 3d 97 de a6 bc f9 29 94 3d 99 0b 49 bd
       0.04489768 -0.020369811 0.07234568 -0.049083326
0001a0 28 d0 dc ba d9 20 dd 3c 28 f6 18 bd be 79 df 3d
       -0.0016846703 0.026993202 -0.037344128 0.10911892
0001b0 12 71 75 bc 53 ad 18 3d f9 42 cd bc e4 be f6 3d
       -0.014980571 0.03727467 -0.02505635 0.12048128
0001c0 44 69 8f 3d 1e 12 9b 3d 1c cd 7e bc 15 21 40 3d
       0.070025 0.07571815 -0.015551832 0.04690655
0001d0 65 6f a7 3c d5 fc ad 3d c2 aa 96 3d 9c e5 ba bb
       0.02043886 0.084954895 0.07356788 -0.005703641
0001e0 81 0e 0b 3d 8c 4e 39 bd f0 60 84 3d 39 e5 d9 3c
       0.03394938 -0.045240924 0.06463802 0.02659856
0001f0 df 4d 76 bd fd f0 c2 3d cc 02 78 3d 5b d3 be bc
       -0.060132857 0.09518621 0.060549542 -0.023294142
000200 7e 5b c3 3b 1d be 2e 3d bb 53 f4 3d f6 0b c9 3c
       0.0059618345 0.042661775 0.11930033 0.024541836
000210 b9 1a af 3d ce 64 09 3e c5 de 15 bc 95 80 dc 3d
       0.08550019 0.1341736 -0.009147351 0.107667126
000220 2e 87 05 bd 3e 69 d6 bc 01 72 97 3c 0e 55 85 3d
       -0.03259962 -0.02617323 0.018486978 0.065103635
000230 7c cb 87 3d 29 a6 d2 3d 92 96 22 3d 3f 28 cf 3d
       0.066306084 0.10285599 0.039694376 0.10115098
000240 02 45 37 3d d7 58 8f bd f5 8c 89 3d a2 eb 82 3d
       0.044743545 -0.06999367 0.067163385 0.063926
000250 2f 21 87 3d e2 57 19 3c a6 8d f0 3c 34 da c9 3d
       0.06598126 0.009359332 0.029364418 0.09856072
000260 e5 ab 18 3c 19 31 3e 3c 7a 6a ce bc 3b cc b1 3d
       0.009318327 0.0116083855 -0.025197256 0.08681532
000270 52 55 a8 bb f5 e4 45 bd af 65 34 3d 06 88 0d 3e
       -0.005137124 -0.048314054 0.044042286 0.1382142
000280 99 e4 0f 3d 1b 40 82 3d 4b d9 5f 3d b6 97 5e 3d
       0.035130117 0.063598834 0.054650586 0.0543439
000290 44 25 b9 3d c7 b0 36 bd 2b 25 0a 3e 00 fa a5 3d
       0.09040311 -0.04460218 0.13490741 0.08104324
0002a0 d1 a3 48 3d 4e f9 cf 3d 7f 47 d0 bc 20 b9 cc bc
       0.048984352 0.10154973 -0.025424717 -0.024990618
0002b0 1c 02 ac 3d bf dc d1 3d cc fe 85 3c a1 04 37 3d
       0.0839884 0.10247182 0.016356848 0.04468215
0002c0 1f 49 50 3d b3 9f 7d 3d 99 98 5f 3d 2c ff c6 3d
       0.050850984 0.06191988 0.054588888 0.09716639
0002d0 8c 02 6e bd da 20 dd 3b 25 79 61 3d 6b 3c 0e 3c
       -0.058107898 0.006748301 0.055047173 0.008681397
0002e0 0f 98 eb 3b d8 2a 86 bd dc 26 06 3e b1 07 9a 3d
       0.0071897577 -0.065511405 0.13100761 0.07520998
0002f0 a2 ec 3e bd 2b 79 a9 3d 57 9a bb 3d a6 d6 94 3d
       -0.04661239 0.08275064 0.09160297 0.072675034
000300 71 70 a8 3d f5 4e a7 3d a3 45 e6 bc a2 ee ca 3d
       0.082245715 0.08169357 -0.028109377 0.09908797
000310 5b 5b 5f 3d 2d 1f d0 3d 9e 42 59 3d 5a 25 ad 3d
       0.054530483 0.10162196 0.053042047 0.0845439
000320 7d de 30 3c 05 f8 25 bc 5c 76 9d 3c 52 b4 37 3c
       0.010795233 -0.010129933 0.019221477 0.011212425
000330 5e 4b 7c bb 81 15 31 3d 13 66 a9 3d fe d2 f6 3d
       -0.003849707 0.0432334 0.08271422 0.12051962
000340 3f 42 d0 3d 9e f2 e0 bb 97 4b d9 3d b4 36 15 3d
       0.101688854 -0.0068648597 0.10610121 0.036429122
000350 80 78 10 3d d1 77 22 bb 08 1c 81 bb 39 1e 42 3d
       0.035271168 -0.0024790654 -0.003940109 0.047392104
000360 61 f1 a4 3d ae 9c be 3d 67 ac 59 3c 0e 3b 98 3d
       0.08053852 0.09307228 0.013285733 0.07433139
000370 d2 84 cb 3a 16 9d 8b 3c 30 7e 55 3c 9d ec 09 3e
       0.0015527254 0.017042678 0.013030574 0.13469167
000380 97 aa e4 3b 05 ad b7 bd b0 aa b8 3d 2e c9 b5 bc
       0.0069783437 -0.08968548 0.09016931 -0.022190657
000390 95 67 b0 3d 2c 82 75 bd a1 ca e8 bc c1 77 0c 3d
       0.08613507 -0.059938595 -0.028416933 0.034293894
0003a0 32 36 1b bc 7a 95 9e bd 42 80 a0 3b 83 92 37 3d
       -0.00947337 -0.07743354 0.004898102 0.04481746
0003b0 be 26 55 bc c4 26 e8 3d fd 96 0e 3d 5c e5 0c bd
       -0.013009725 0.11335519 0.034811962 -0.03439842
0003c0 7b 4b fb 3d ea a7 5e 3c f5 89 30 bc 58 a4 8a 3d
       0.12270256 0.0135898385 -0.010775079 0.06769627
0003d0 13 82 70 3d 1d ef 8d bd 6d 0b 96 3d 11 72 12 3e
       0.0587178 -0.06930373 0.07326398 0.14301325
0003e0 72 d0 9d 3c 8f ee 04 3d b6 be e1 3d 8f 94 30 bb
       0.019264434 0.03245407 0.11022703 -0.0026944017
0003f0 34 ec 9d 3d 1d d2 d1 3d d1 b4 28 3d 34 90 37 3d
       0.07711068 0.10245154 0.041188065 0.044815257

model.lstm.weight_hh_l0 f4 [416, 104]
000000 d1 8a 90 3d 78 1e 9d 3c e9 09 89 bd 45 a1 b9 3d
       0.07057727 0.019179568 -0.06691343 0.09063963
000010 9b 63 92 bd 5a 14 a3 bd 25 b8 a6 3d dc dc dd 3c
       -0.071479045 -0.07962866 0.081405915 0.027082853
000020 40 d7 82 bb 75 04 6d bd c8 b5 11 3c a0 9d 8c bd
       -0.003992945 -0.05786558 0.008893438 -0.06866002
000030 f4 d5 48 bd f4 3a 90 3c de 17 0a 3d 60 14 d5 3c
       -0.049032167 0.017606236 0.033714168 0.026010692
000040 63 54 af 3d 73 e1 8a 3d 46 d7 56 3d 5d 58 b2 bd
       0.08561017 0.06781282 0.052451394 -0.0870826
000050 e2 d1 0d 3d f9 c4 81 3d 34 64 b3 3c eb 86 8b 3d
       0.034623988 0.06336398 0.021898367 0.06812843
000060 b8 75 f9 bc 42 ed 57 3d 5b 89 2d bd ee 43 7b 3d
       -0.03045164 0.0527165 -0.04236732 0.06134408
000070 2e ef 76 3d 4b 58 ba 3d dc ba eb 3c 5e 45 67 3d
       0.060286693 0.09098872 0.028775625 0.056462638
000080 19 a3 43 bd 40 1a 30 3b 37 fe 89 bd 8c cb a3 bd
       -0.047762964 0.0026871115 -0.06737941 -0.07997808
000090 04 14 e3 bc 15 03 ae 3d f4 e4 c5 bd ea 90 64 bd
       -0.027719505 0.084966816 -0.0966281 -0.055802263
0000a0 76 08 5b 3d 2f cc be 3d 98 8b 44 3c d9 47 bf 3d
       0.053474866 0.09316289 0.011996172 0.09339876
0000b0 c0 08 95 ba de 3f 0f bd 80 96 33 bd a4 7a 8b 3c
       -0.0011370406 -0.034973018 -0.0438447 0.017026253
0000c0 61 18 c1 3d 14 24 a6 3c b7 1b af 3d 95 4f 88 3d
       0.09428478 0.020280875 0.08550208 0.06655804
0000d0 02 64 04 3d b3 c8 8a 3d 40 a7 97 bd ce 5a 16 3d
       0.032321937 0.067765616 -0.07404947 0.03670769
0000e0 90 b5 a5 bb e2 90 56 bd 83 69 c7 3d ad 21 87 3d
       -0.0050570443 -0.052384265 0.09736922 0.0659822
0000f0 88 a3 c5 bc e5 48 1c bd ca 5e 20 3d 80 e4 6c ba
       -0.02412583 -0.038155455 0.039152898 -0.00090367347
000100 03 3e c8 bd ce b4 7c 3d 00 02 b0 ba a0 d8 c4 bc
       -0.09777453 0.061695866 -0.001342833 -0.024029076
000110 d6 ae 84 bd 61 fd 5f bd 20 b8 d7 bb 30 9e c3 3c
       -0.0647866 -0.054685 -0.0065832287 0.02387914
000120 1e 8a 23 3d 79 3a b3 3d d5 58 88 3d 6c 75 a4 3c
       0.03992664 0.08751387 0.06657568 0.020075522
000130 c4 83 b9 bd 40 74 af bd 63 5c 8a 3d 60 9c d2 bc
       -0.090583354 -0.08567095 0.067559026 -0.025709331
000140 e5 d6 86 3d 24 29 ad bc 32 5d 0b 3d cc 24 ae 3c
       0.06583957 -0.021137781 0.034024425 0.02125778
000150 6f 38 96 3d 5e b0 9c bd e6 95 76 3d 3a e7 40 3d
       0.073349826 -0.07650827 0.060201548 0.047095515
000160 18 42 2e 3c e2 ee aa bd 57 a2 16 bd 9c 3d c6 bc
       0.010635875 -0.083463445 -0.036775913 -0.0241993
000170 60 5f 9e 3b ed b7 87 3d 16 94 67 3d 74 62 99 3c
       0.004833147 0.06626878 0.05653771 0.018723704
000180 b6 6f 70 3d 96 13 27 3d 86 7a 00 bd d0 0e 63 3c
       0.058700286 0.040790163 -0.031366847 0.013858512
000190 f6 75 4b 3d 52 80 a0 bd 20 d7 7a 3c 0c ee df bc
       0.049673043 -0.07836975 0.015310079 -0.02733519
0001a0 a9 42 b6 3d bf 65 c7 bd 15 79 81 3d 66 86 58 bd
       0.08899433 -0.097362034 0.06321923 -0.052862547
0001b0 a0 20 f4 bb 1a c5 62 3d 78 59 3e bc fe 6d 9b bd
       -0.0074501783 0.055363752 -0.011618011 -0.07589339
0001c0 ce 2d ba bd f9 39 2f bd 2a 3f 6d 3d 96 60 c4 bd
       -0.09090768 -0.042779896 0.057921566 -0.09588735
0001d0 47 26 b6 3d e0 ad 60 3c 95 a9 b7 3d 9c de c9 3c
       0.088940196 0.01371333 0.08967892 0.024642281
0001e0 80 31 f2 bc 80 8f 55 3c 19 cb 20 bd 73 5a bc 3d
       -0.029564619 0.013034701 -0.03925619 0.09196939
0001f0 6c 77 fa 3c b0 81 14 bd 49 9e 2a bd 50 ac 9f bb
       0.030574523 -0.036256492 -0.04165486 -0.004872836
000200 ab 24 81 3d ad 00 c8 3d a3 e0 a3 bd c0 3b d5 ba
       0.06305822 0.09765754 -0.080018304 -0.0016268417
000210 f8 96 bb bd 84 29 d7 bc 9f aa 62 bd 50 29 8e bd
       -0.091596544 -0.026264913 -0.0553385 -0.069414735
000220 85 56 7e bd 99 dd 9c 3d af 10 ab bd bc 9c f6 3c
       -0.06209423 0.07659454 -0.083527915 0.030104034
000230 91 76 c5 3d 08 5a a1 bd 5c 77 86 3c 68 6d 74 3c
       0.09641755 -0.078785 0.016414337 0.014918663
000240 9b 32 b5 3d 56 e4 0a 3d d0 ff 30 bd 88 8b 4b bd
       0.08847543 0.033909164 -0.04321271 -0.049693614
000250 43 1f 8c 3d 54 14 e2 3c 41 c0 40 bd 00 f8 30 b9
       0.068419 0.027597584 -0.047058348 -0.00016877055
000260 64 bd 18 bd 54 40 81 bd fa cf 68 bd fb 7e b3 3d
       -0.037289992 -0.06311098 -0.056838967 0.08764454
000270 6b ec 89 bd 12 56 a7 bd a6 43 84 bd db aa 8c bd
       -0.06734546 -0.081707135 -0.064582154 -0.068685256
000280 19 a7 90 3d 50 2d 8a bc 39 90 a3 bd 32 c1 20 bd
       0.07063121 -0.01686731 -0.07986493 -0.039246745
000290 e2 10 28 3d 52 37 3c bd 2e 32 4d 3d 8d 3b 86 3d
       0.041031726 -0.045951195 0.050096683 0.06554327
0002a0 c0 b9 5c bc c6 df 75 3d 70 50 e9 bc c0 f1 c5 bd
       -0.013472021 0.06002786 -0.028480738 -0.09665251
0002b0 00 08 ed b8 10 32 89 3b 09 e3 b7 3d ce bb 3b 3d
       -0.00011302531 0.004186876 0.089788504 0.0458334
0002c0 ea 67 7c bd a9 1f 5b bd e1 a0 9f bd 92 01 04 3d
       -0.061622538 -0.05349699 -0.07794357 0.03222806
0002d0 18 b4 9e bd 0f 18 72 bd 19 18 62 bd 7a 6b c7 bd
       -0.07749194 -0.059104975 -0.055198763 -0.097372964
0002e0 79 22 8d 3d 09 e3 a1 bd 3c df bb 3c 06 a7 8b bd
       0.06891341 -0.07904632 0.022933595 -0.068189666
0002f0 1b 98 c5 bd 34 c0 85 bd 9c f6 b2 bd 78 52 1f bc
       -0.096481524 -0.065308005 -0.08738443 -0.009724252
000300 bf 8e 8a 3d e8 5f 42 bc f5 9d 85 bd 6a c4 80 bd
       0.06765508 -0.011863686 -0.065242685 -0.06287463
000310 19 e6 35 bd 5c 08 8f 3c 40 c4 16 3b 2e cc b4 bd
       -0.04440889 0.01746004 0.0023005158 -0.08828007
000320 20 37 b1 3c c4 1e e0 3c 07 85 bd 3d 14 67 88 bd
       0.021632731 0.02735842 0.092538886 -0.066602856
000330 d8 45 82 bd db b4 92 3d 41 39 b9 3d 00 70 86 bb
       -0.06360978 0.07163402 0.090441234 -0.004102707
000340 f9 32 9f bd a8 93 16 bd d6 7b ac bd 30 ae e5 3b
       -0.07773394 -0.03676191 -0.08422057 0.00700929
000350 a1 b8 6b bd e4 b9 df 3c ce b9 02 3d 22 b4 3d 3d
       -0.057549123 0.02731032 0.03191548 0.046314366
000360 70 39 ba 3c 60 f2 82 bc 14 b0 cc 3c 04 63 be bd
       0.022732466 -0.015984714 0.024986304 -0.092962295
000370 f2 4c 79 bd 27 62 c5 3d 76 3f 58 3d 9e 71 27 bd
       -0.060864396 0.09637862 0.052794896 -0.04087984
000380 30 87 95 bd 2b 24 c1 bd a8 4f 2c bc 0c cf b6 bc
       -0.073011756 -0.094307266 -0.010517038 -0.022315525
000390 95 14 bc 3d 62 13 2c 3d f0 b5 48 3c 81 54 ba 3d
       0.09183613 0.042010672 0.0122504085 0.09098149
0003a0 af bb 4f bd 7f 23 80 3d 9f e6 c4 3d 27 5d bb bd
       -0.0507161 0.0625677 0.096143 -0.09148627
0003b0 51 2b af bd e8 21 73 bc 5c 70 c7 3c 04 a3 9d bc
       -0.08553184 -0.014839627 0.02434557 -0.019242771
0003c0 90 79 68 3c 28 4f bb 3c de 7f 0d bd 03 a4 9e bd
       0.014189139 0.022864893 -0.03454577 -0.077461265
0003d0 f0 25 28 bc 36 76 66 3d 1d 37 b5 3d bf f3 c1 3d
       -0.010262951 0.05626508 0.08848403 0.09470319
0003e0 44 b3 f8 bc 3e ba 8a bd c0 40 55 bc 99 fd ad bd
       -0.030358918 -0.06773804 -0.013015926 -0.084956355
0003f0 38 b7 cd bc 58 05 12 bc a5 19 a1 3d 1c f9 83 bd
       -0.02511178 -0.008912407 0.078662194 -0.06443998

model.lstm.bias_ih_l0 f4 [416]
000000 66 39 30 3d 37 2c 87 3d a7 b4 97 3d df 1e b9 bc
       0.04302349 0.0660023 0.074075036 -0.022597728
000010 18 ac 6f bd 03 6d 21 bc 25 3f 18 3d ee 2c d1 bb
       -0.05851373 -0.009852651 0.037169594 -0.00638353
000020 72 60 89 bd b0 ba cd 3d 4e 5f 24 bd c9 03 80 bd
       -0.067078486 0.100453734 -0.040129952 -0.06250722
000030 c5 46 2f 3d 5a 5d 94 3d 2b d3 5e 3d 77 4a 77 bd
       0.0427921 0.07244368 0.054400604 -0.06037375
000040 95 07 ba 3d 6a 74 c1 3d 33 e7 ac 3d 0f 18 84 bc
       0.090834774 0.09446032 0.08442535 -0.016124753
000050 06 64 4c bd f0 4c 00 3d ac 11 99 3d 3a ee 52 3d
       -0.049900077 0.031323373 0.07474074 0.05149672
000060 72 fb 81 bd 5d d2 88 bd 7c e4 96 bd df e6 8f 3c
       -0.063467875 -0.066807486 -0.07367799 0.017566143
000070 42 1d 8e 3d 47 7c d2 3c ef e1 89 3d f1 72 06 3c
       0.06939174 0.025694026 0.067325465 0.008206115
000080 34 e2 46 bd 04 3b 2b bd 93 d4 bf 3d 3a 21 41 3d
       -0.048555568 -0.04180433 0.09366717 0.047150828
000090 5a d1 54 3d 0b fc a8 3c b8 09 37 3d 17 64 a0 bc
       0.051957466 0.020627996 0.044687003 -0.019578977
0000a0 db b3 ae bc 94 ea 77 3d 58 15 41 bd 95 f2 8f 3d
       -0.021325996 0.060526446 -0.047139496 0.07028691
0000b0 51 ff e6 bd 47 b4 eb bd c6 a1 37 bd 74 4a 84 bc
       -0.112791665 -0.115089945 -0.044832014 -0.016148783
0000c0 9e 75 97 3c ce 56 b1 3d 56 3b 3a bd ac 39 89 bd
       0.018488701 0.08659135 -0.045466743 -0.06700453
0000d0 0d e0 67 3d 6d ad 95 3d c6 e6 24 3d 85 c3 3f 3c
       0.056610156 0.07308469 0.040259145 0.01170433
0000e0 b7 1e 33 3b 04 4f 03 3e b0 10 02 3e 5c f5 a7 3d
       0.002733154 0.12823111 0.12701678 0.082010955
0000f0 c8 53 3a 3d 5b a1 5d 3d f4 72 e8 bb b7 d3 98 bb
       0.045490056 0.05410896 -0.0070937816 -0.0046639103
000100 2c 63 4e 3d 8e 9c 71 bd b8 66 29 3c 1e 52 d4 bd
       0.050387546 -0.058987193 0.010339431 -0.10367225
000110 ba 12 70 3a 1b 69 48 3d 4d d5 86 bd 54 f5 1f 3b
       0.0009158064 0.04892836 -0.06583653 0.0024407702
000120 66 17 bf 3d c7 f4 0d 3d a4 b0 98 bd d4 fa b0 bd
       0.09330635 0.034657266 -0.074555665 -0.08641592
000130 c9 f0 db 3d de d5 92 bd e7 a4 62 3d 5f c6 8e 3d
       0.107392855 -0.07169698 0.055333044 0.0697143
000140 4d 8a 4a 3d d5 c5 8e bd ce 90 50 3d 7b 88 d7 3d
       0.0494483 -0.06971327 0.050919347 0.105240785
000150 af 3f 9c 3d 3d dd 0c 3e 44 d4 02 3d d0 83 83 bd
       0.07629334 0.1375627 0.031940714 -0.064216256
000160 fa ef c1 bd 8b 24 ab bd 27 d5 07 3e 8b 59 57 3d
       -0.094696 -0.083565794 0.13264905 0.05257563
000170 3c 44 d0 3d 9a b2 da 3d 05 d7 c5 bb 91 e5 51 3d
       0.10169265 0.10678597 -0.006037595 0.051244322
000180 a7 b9 38 3d 2c 92 62 bd 85 17 4c 3d b6 ce 44 bd
       0.045098927 -0.05531518 0.049827117 -0.048048697
000190 81 16 02 bc b9 74 c8 3d 76 87 83 3c 9a 1f 44 3d
       -0.007939936 0.09787888 0.016055804 0.0478817
0001a0 96 ab 66 3d 7d f9 a6 3d c0 30 96 bb 58 56 7d 3c
       0.05631598 0.08153055 -0.004583448 0.0154624805
0001b0 28 37 de bc 03 69 29 bd de ff 65 3d ee 57 8e bd
       -0.02712591 -0.041359913 0.056152217 -0.06950365
0001c0 40 4a 82 3c 9c 27 9a bd e9 75 95 3d 60 93 2c bd
       0.015904546 -0.07527086 0.0729788 -0.042132735
0001d0 0e d7 82 bd 38 45 86 bd 20 56 be 3b 22 f0 09 3d
       -0.06388675 -0.06556171 0.0058086067 0.033676274
0001e0 c2 e0 58 3d 49 06 4c bd 35 e2 c0 3d 42 35 6e bd
       0.05294872 -0.04981068 0.094181456 -0.05815626
0001f0 18 d7 17 bc 9e b8 39 3d 4a bf 17 3d 21 8d b3 bd
       -0.009267591 0.04534208 0.03704766 -0.087671526
000200 36 bb 18 3d a9 47 a8 bd 03 fb 8a 3d f8 3d a8 bc
       0.037287913 -0.08216793 0.06786158 -0.020537362
000210 b9 f2 bd 3d 6b 06 a9 3d 31 02 c1 3d 62 10 26 3d
       0.09274811 0.08253177 0.09424246 0.040542968
000220 61 18 88 3d de cb 71 3d cc 17 a9 bd a6 66 ac bd
       0.06645275 0.059032314 -0.08256492 -0.08418016
000230 4e cf 5f 3d c4 3c 90 3c 34 f3 f1 3c b4 5d 84 bd
       0.05464106 0.0176071 0.029534914 -0.06463185
000240 58 bc b1 3c ea 44 51 3d e9 4c 9a bd e2 7c 45 3d
       0.021696255 0.051091112 -0.07534201 0.0482148
000250 92 fd 18 bd 12 1e 92 bd 90 93 c0 bd de 01 77 3d
       -0.0373512 -0.07134642 -0.09403145 0.060304515
000260 d4 1b 11 bd fa 02 61 3d 28 32 75 bc ce 5f 8b bd
       -0.03542693 0.05493448 -0.014965571 -0.06805383
000270 21 66 8d bd d0 ed 0d 3c 42 2a 4f 3d 3a b8 7b 3d
       -0.06904245 0.008662656 0.05057741 0.06145499
000280 18 d8 6c 3c 38 08 49 bd cc 7d b0 bd a5 96 c7 bd
       0.014455818 -0.049080104 -0.08617744 -0.0974553
000290 53 6f bf bd 6f 5d 86 3d 41 89 8b 3d 4d bb 7c bd
       -0.09347405 0.0656079 0.068132885 -0.06170206
0002a0 80 eb 87 bb 06 8f 4d 3d 6c 36 9f 3c 17 56 c0 3d
       -0.004147947 0.050185226 0.01943513 0.0939142
0002b0 34 e3 c1 bc 7d 88 9d bd 50 3c 9b bd 6f 71 b3 3d
       -0.02366791 -0.07692049 -0.07579863 0.0876187
0002c0 99 bf 88 3d 38 ca 51 bc 53 c1 b1 bd d7 3f 9d 3d
       0.06677169 -0.01280456 -0.08679452 0.07678192
0002d0 c5 c2 c5 3d 16 8a 0e 3d 00 40 5c 38 1f a9 a8 3d
       0.0965629 0.034799658 5.2511692e-05 0.08235382
0002e0 53 78 af 3d 17 2d 12 bd d8 2f 86 bd c4 31 18 bd
       0.08567872 -0.035687532 -0.06552094 -0.037156835
0002f0 c0 71 e9 3a 7e a2 99 bd dc 21 c7 3c b6 16 51 bd
       0.0017810389 -0.07501696 0.024308138 -0.05104705
000300 ad 9b aa 3d ff 5f b9 3d 32 cc 19 3d 84 10 f7 3c
       0.08330474 0.09051513 0.03754825 0.030159242
000310 e9 16 b2 bd 20 f7 b4 bb 16 40 85 bd ef 8d af 3d
       -0.08695776 -0.0055226237 -0.06506364 0.085719936
000320 1c 09 c7 bc 20 8d 6f bc 28 e9 c6 bd b0 80 97 3c
       -0.024296336 -0.014621049 -0.0971244 0.01849398
000330 59 8b 82 bd e0 4c 8f bc 2a a2 0d 3d 2f 33 bd 3d
       -0.06374235 -0.017492712 0.03457848 0.09238278
000340 aa 48 8b bd a7 d5 aa bd 4d 72 52 bd a8 c2 56 3d
       -0.06800969 -0.08341532 -0.051378537 0.052431732
000350 9a 6f bb 3d a9 e3 8f bd 59 c2 dc bd 8b 65 da 3c
       0.09152146 -0.070258446 -0.107792564 0.026659748
000360 ae 46 aa 3d 3d fd 75 bd 1b 92 8c bd 07 b6 39 3d
       0.08314262 -0.06005596 -0.06863805 0.04533961
000370 49 41 ff bb 62 54 44 bd 3d 16 4e bd 39 fa cf 3b
       -0.007789765 -0.047932036 -0.050314177 0.0063469675
000380 f1 b1 73 bb 61 11 9c bd 56 29 0e 3d b4 89 10 bd
       -0.0037184919 -0.07620502 0.03470739 -0.035287574
000390 07 16 fc bc eb 7d b2 bc 86 8a e8 3c fd 37 62 3d
       -0.030772222 -0.021788558 0.028386366 0.055229176
0003a0 97 f3 34 bd d6 56 96 3c 46 02 e1 3c e3 83 9b bc
       -0.044177618 0.018351953 0.027466904 -0.018983787
0003b0 ba 4d 2e 3d b3 6e c9 3b 8d fb 17 3c b8 f3 a2 3d
       0.042554595 0.0061472296 0.009276283 0.07956642
0003c0 31 d6 25 3d ac e1 8f bc de c5 f4 3c a5 e9 c4 bc
       0.040487472 -0.017563663 0.029879507 -0.024037192
0003d0 00 93 81 3c 0f be a7 3d d6 7b 00 3d 81 4b 89 bd
       0.015817165 0.08190548 0.0313681 -0.06703854
0003e0 be 06 ed 3c 98 3e 8a 3d 02 37 a8 3d b3 51 51 3c
       0.028933879 0.0675022 0.08213617 0.012775826
0003f0 5d 8d 0c 3d 4e 73 1f bd 8c e5 22 bd b8 f1 a9 3d
       0.034314502 -0.038928322 -0.039769694 0.08298057

model.lstm.bias_hh_l0 f4 [416]
000000 6d 6a b1 bd 2b 32 8c 3d 48 d8 65 3d e2 08 ff bb
       -0.08662877 0.06845506 0.056114465 -0.0077830413
000010 4a 44 3c 3d cc de b3 bd 63 38 ac bd 8d 87 9f 3d
       0.045963563 -0.087827295 -0.084091924 0.07789526
000020 24 c6 89 3d 05 30 96 bc 69 3a bd 3d b2 84 97 bc
       0.067272455 -0.018333444 0.092396565 -0.018495891
000030 da 97 ab 3d d7 b6 ad 3d 6f 0d f8 3c b8 0c 68 bd
       0.08378573 0.084821396 0.030279843 -0.056652755
000040 38 ee cd bc ec 57 3c 3d 7c b9 03 bd 2e ba a3 bd
       -0.025138006 0.045982286 -0.032159314 -0.07994495
000050 e2 f2 96 3d 46 ef 2e bc 86 d2 be 3d 4e 32 71 3d
       0.07370545 -0.010677164 0.09317498 0.058885865
000060 08 b4 e7 3a e2 28 a7 bd 1c 32 57 3c 12 cd c2 3d
       0.0017677555 -0.08162095 0.013134506 0.0951177
000070 37 51 38 bc e7 8e 18 3d 4c 9c 3e 3d 3a 23 4a 3d
       -0.011249832 0.037245657 0.046535775 0.04935
000080 44 53 3b bd ea 1e 14 bd 34 fd 4c 3d 44 03 91 bd
       -0.045733705 -0.036162294 0.05004616 -0.07080701
000090 ac af fa bc e6 06 8d 3d ea ce f9 bc dc 33 78 bd
       -0.030601345 0.068860814 -0.030494172 -0.060596332
0000a0 55 13 33 bd 60 fe 06 bd 03 ad d0 3d 02 cf 9a bc
       -0.04371961 -0.032957435 0.10189249 -0.018897537
0000b0 11 b1 f4 bd 1d 32 8c 3d fe d1 e5 bc ef f7 37 bd
       -0.11947835 0.06845496 -0.028054234 -0.044914182
0000c0 fd bf 80 3c 4d 46 90 bd e6 0a 89 bd 47 a0 87 3d
       0.015716547 -0.07044659 -0.06691532 0.06622367
0000d0 37 e6 92 bd f9 2b 8c 3d 31 6f 0c bd 81 af 58 3c
       -0.07172816 0.068443246 -0.034285728 0.013225437
0000e0 1b 44 91 3d d4 8a f2 bc 80 03 07 3e 76 89 3a bd
       0.07093068 -0.029607214 0.13184929 -0.04554125
0000f0 11 5b 9f 3d c5 5a 80 3d 89 9a 8e bc 1d 9f c6 3c
       0.077810414 0.06267313 -0.017407672 0.024245793
000100 47 97 40 3e fb aa bd 3c f5 7f 95 bd 0a 04 d0 bd
       0.18807708 0.023152819 -0.072997965 -0.101570204
000110 55 2a e2 3d 98 41 38 3c 90 e5 41 3c 15 48 13 3c
       0.110432304 0.0112461075 0.011834517 0.008989354
000120 c8 d1 59 bd 68 ea ba bc e1 1b 8a ba 99 75 04 3d
       -0.05317858 -0.022816852 -0.0010536873 0.032338712
000130 95 7b f3 3d 5e 7c 31 3d 0b 85 57 3d 81 41 83 bd
       0.11888806 0.043331496 0.052617114 -0.06408978
000140 68 d8 bd 3a d5 57 b6 3c 14 e6 20 3d d9 75 ec 3c
       0.001448405 0.022258678 0.03928192 0.028864788
000150 e9 5f bc 3d cb 67 ec 3d a2 0f 21 3b 26 dc 63 bd
       0.09197981 0.115432344 0.0024575968 -0.05562987
000160 5b 3f 05 bd 79 d8 6c 3c eb e9 00 3e bd 1a a1 bd
       -0.032531124 0.014455908 0.12589233 -0.07866428
000170 6e 64 b0 bc 12 1e cf 3d 01 f9 0f bd c2 ce f3 3c
       -0.021532264 0.10113157 -0.035149578 0.029761676
000180 35 ec 40 3d bc 6f 0f bc 5f 5b 48 3c 52 7c 4d 3d
       0.047100265 -0.008754667 0.012228816 0.05016739
000190 09 64 e9 3d aa 00 f4 3c 89 77 65 3d 7b 07 ca bd
       0.11396033 0.029785473 0.0560222 -0.09864708
0001a0 eb 20 93 3d b6 5d 2b 3d d0 5c 7a bc 47 e1 56 bd
       0.07184013 0.041837417 -0.015280917 -0.052460935
0001b0 0c 2d c7 3c c0 54 c7 bd ea 18 01 bd 9c ab cc 3c
       0.024313472 -0.09732962 -0.0315179 0.024984173
0001c0 72 bf 7b 3d f4 76 b5 bc f8 c6 0d 3c 43 0b 34 bd
       0.061461873 -0.022151448 0.008653395 -0.043956053
0001d0 33 d0 a9 3d f8 65 11 3c 58 c6 05 bc d4 2a 43 bd
       0.08291664 0.008874409 -0.008164965 -0.047648266
0001e0 fe 51 2d 3d 82 89 7b bd 7c 85 3a bd 96 f8 5a bd
       0.042314522 -0.061410435 -0.045537457 -0.053459726
0001f0 88 d3 0d 3c fe 6a 1c 3d f3 b3 13 bd c0 af fa 3b
       0.00865639 0.038187973 -0.036060285 0.0076503456
000200 3e b9 79 3d 5a 13 72 3d 16 7c 40 3d c0 56 2d 3c
       0.060967676 0.059100486 0.046993338 0.010579765
000210 d2 e9 05 bd 64 31 d8 bc c4 ed fc 3c e3 63 67 bd
       -0.03269369 -0.026390739 0.030875094 -0.056491744
000220 cc f8 ea bc d9 fd aa 3d 3c 5c be bc 68 be b8 3c
       -0.028683089 0.08349199 -0.02323734 0.02255173
000230 33 df a7 bd 38 1a 67 bd be f5 86 bd 77 d4 36 bd
       -0.08196869 -0.05642149 -0.0658984 -0.044636216
000240 e6 4f 4f 3d 6a 4a 96 bd a8 7f be bc 1c 8b da bc
       0.050613306 -0.07338412 -0.02325423 -0.02667766
000250 e5 54 56 bd cb f7 8a bd 95 4c 87 3d 18 48 f1 bc
       -0.052327055 -0.06785544 0.06606404 -0.029453322
000260 70 a5 15 bc 12 ff b7 bd 80 bf 93 bc 24 af f9 3c
       -0.009133682 -0.08984198 -0.01803565 0.030479021
000270 d9 e8 c0 3d 50 07 8c bb 5d 01 9e bd 98 90 92 bd
       0.09419412 -0.0042733327 -0.07715104 -0.07156485
000280 fe b9 3d 3d 32 cf 23 3d b8 6c c6 bc 56 64 9b bd
       0.046319954 0.03999252 -0.024221763 -0.07587497
000290 e8 f5 00 3c f0 6d ec 3b 18 a9 16 bc 61 c9 3f bd
       0.007871129 0.007215254 -0.0091955885 -0.04682291
0002a0 07 0c 2b bd f6 8d 23 3d 98 53 b1 3c 2b 15 26 bd
       -0.041759517 0.039930306 0.021646306 -0.04054753
0002b0 f8 b8 b2 3c bf 42 b1 3d d8 2d 59 bd 71 3a 87 3d
       0.021816716 0.08655309 -0.053022236 0.06602944
0002c0 a2 e4 a1 bd 35 ec a2 bd 27 2e a2 3d d5 7e 96 3d
       -0.079049364 -0.07955209 0.07918959 0.0734841
0002d0 09 4a ba 3d 54 be ea bc fd e9 a7 3d 72 e7 55 3d
       0.09096152 -0.028655209 0.081989266 0.052222677
0002e0 bf 79 5a bd f2 f4 35 3d fc 61 d5 bc ec 6c 5e bd
       -0.053338762 0.04442305 -0.0260477 -0.054303095
0002f0 06 db 72 3d 16 84 09 bd 14 88 fc 3c f2 b3 91 bd
       0.05929091 -0.033573233 0.030826606 -0.071144
000300 bc 12 9f bc 18 7a b8 3c cc 43 0e bd 00 35 bb ba
       -0.019418113 0.022519156 -0.034732625 -0.0014282763
000310 b8 c6 b6 bd 22 39 0e 3d 53 39 31 bd 1a 0e c6 bd
       -0.08924621 0.034722455 -0.04326756 -0.096706584
000320 fb 1e c5 3d 60 a2 4a 3c 66 fa 06 bd ab 71 4b bd
       0.0962505 0.012367815 -0.032953642 -0.04966895
000330 1e 1e a1 bd 11 50 ba 3d ae 40 6e 3d a5 bd 91 3d
       -0.078670725 0.09097303 0.058167152 0.0711625
000340 9e 16 cc 3d 2e 1c a5 ba 0f 9a b2 3c 02 b9 85 bd
       0.099652514 -0.0012596899 0.021801976 -0.06529428
000350 70 c4 ae bc 17 d8 68 3d 8d 83 83 3d 3e a4 2f 3d
       -0.021333903 0.056846704 0.06421576 0.042881243
000360 b8 e5 ec bb 68 0d 7d 3d d1 57 f5 bc 41 9f 10 bd
       -0.007229533 0.061780363 -0.0299491 -0.035308126
000370 96 00 ab bd 85 37 cb 3d 08 1a 60 bd da 3d ea 3c
       -0.08349721 0.09922699 -0.054712325 0.028593946
000380 f2 6c 84 3d f5 d7 ab 3d 82 be ba bd 77 ff 6b 3d
       0.06466092 0.083908 -0.09118368 0.057616677
000390 7c de 29 3d 3d c7 e2 bc b9 a3 d6 3d 65 a5 6a bd
       0.041471943 -0.027682895 0.10480446 -0.05728664
0003a0 aa b8 d9 3c 4d 2f 73 bd ad 87 6f bc 1e eb cd 3d
       0.026577312 -0.05937128 -0.01461975 0.10054611
0003b0 59 07 75 3d 9a a9 96 bc cb 8a 5a 3d e9 90 3e 3d
       0.05982146 -0.01839142 0.05335502 0.046524916
0003c0 ab b6 25 bd 8d a8 09 bc 91 44 90 bd d4 73 a9 3d
       -0.04045741 -0.008402002 -0.07044328 0.082740456
0003d0 92 9d 1b bd d4 51 8f bc 6a 6a d1 bd 55 cb ca 3d
       -0.037992068 -0.017495073 -0.10225375 0.09902064
0003e0 0e a5 67 bc 7d 36 35 3d 60 ee 84 bd 1f 54 53 bc
       -0.014138473 0.044241417 -0.06490779 -0.012898474
0003f0 eb 29 33 3a 5d 17 b2 3d 12 7c 6a bd ba 70 96 3d
       0.00068345544 0.086958624 -0.05724723 0.0734572

model.fc_layers.0.weight f4 [52, 104]
000000 17 21 56 3c 5d 95 21 bd 43 26 e7 3d 4c e9 73 3d
       0.013069413 -0.039449085 0.11286595 0.05954866
000010 e4 83 08 3c 11 f5 b9 3d 13 c8 68 bd cb ae 68 3b
       0.008332226 0.09079946 -0.05683143 0.0035504575
000020 80 19 c2 3d a6 81 c1 3c 4d 79 8d 3d 4c 39 8d bd
       0.0947752 0.023621392 0.06907902 -0.06895694
000030 44 50 24 bd 2c 0f cd bd 1a 57 35 bd d8 27 98 ba
       -0.04011561 -0.100126594 -0.04427252 -0.0011608554
000040 43 31 23 bd 9d ed f1 3d 9b f3 38 3c de ce 8f 3d
       -0.0398419 0.11812899 0.011288549 0.07021879
000050 9d d8 ab 3d cf 91 f2 3c 8b 77 2f 3d f6 73 5a bc
       0.08390925 0.029610543 0.042838614 -0.013333311
000060 fe 63 96 bd 57 f9 59 bd f7 57 de 3d a1 44 78 3c
       -0.07343291 -0.053216305 0.10856622 0.015153081
000070 a2 78 94 3d 24 6f 53 bd 5d 5c 21 bd ac 4e ce bd
       0.072495714 -0.051619664 -0.039394725 -0.10073599
000080 a8 fa ae 3d dc 7e db bd 47 9e 96 3d 85 a0 9e bd
       0.08543903 -0.10717556 0.07354408 -0.077454604
000090 7e c0 9d bd 1b 14 d3 bd 2d b0 86 3c 14 ff be bd
       -0.077027306 -0.10306569 0.016441429 -0.09325996
0000a0 61 b0 07 3c 4f 2c db 3c 75 8a 4b bd 61 d0 fe 3d
       0.008281798 0.026754526 -0.04969259 0.12442089
0000b0 e7 2a a3 bd 7b fb 5d bc 81 bd bb 3d 14 fa 70 bd
       -0.07967167 -0.013548727 0.091670044 -0.058832243
0000c0 5c 2f 79 3d 63 4b 3e 3d e6 fa 81 39 0b 4a a0 3d
       0.06083618 0.046458613 0.0002479173 0.078266226
0000d0 f7 1c 3d bd 16 65 6f 3d 03 cd 02 bc 9a 93 5a 3d
       -0.0461702 0.058446012 -0.007983449 0.05336342
0000e0 33 18 a3 bb f2 4f d8 bc ad 58 a0 bc bf 40 86 bc
       -0.00497725 -0.026405308 -0.019573534 -0.016388295
0000f0 cd 22 7d bc c5 de 0a be c8 60 e4 3d cc 8e 92 bd
       -0.015450192 -0.13561542 0.11151272 -0.071561426
000100 d0 7f c7 3d 0f dc b6 bd 62 1b a6 bc ff b9 4b bd
       0.09741175 -0.089286916 -0.020276729 -0.049737927
000110 60 70 ee bb 82 38 23 3d 7a 9f d3 3c 88 e8 d1 bd
       -0.0072765797 0.039848812 0.02583288 -0.1024943
000120 9f 8c aa 3c b7 20 8a 3d 17 62 a4 3d 73 fb b0 3c
       0.020819006 0.06744521 0.08026522 0.021604275
000130 9b 35 eb 3d 58 ac 65 3d a6 68 97 bc 5b 1d aa 3d
       0.11484834 0.056072563 -0.018482517 0.0830638
000140 4b 2c 68 bd b9 cd 1a bc 69 84 61 3c 20 06 d5 3c
       -0.056682866 -0.009448462 0.013764479 0.026003897
000150 5d 2c be 3d 7c 4f ef bd f4 d9 ce 3d 9f bc 9f bd
       0.092858054 -0.11685082 0.10100165 -0.077996485
000160 8a 91 b9 bd 4e 4c a4 bc b2 4d 7e 3d 39 8f 74 bd
       -0.090609625 -0.020055916 0.062085815 -0.0597069
000170 ab 42 4b bd 07 b5 1e bd bd 40 76 3b fe 5d 89 3d
       -0.049624126 -0.03874686 0.0037575208 0.06707381
000180 66 7f b2 bc e5 9b 7f bc 12 95 72 3c fe 80 95 bd
       -0.021789264 -0.015601133 0.014806049 -0.07299994
000190 49 62 aa bd 81 74 05 bd b4 54 8a 3d c1 22 8c 3d
       -0.08319528 -0.03258181 0.06754437 0.06842566
0001a0 92 5e bc 3d 40 da b6 3d 41 20 95 bd 5a cb 0f bd
       0.09197725 0.08928347 -0.072815426 -0.03510604
0001b0 33 0e 8e bb 78 a3 a8 3d 88 53 9c bc ef 90 60 bc
       -0.004335189 0.08234304 -0.0190828 -0.01370643
0001c0 60 b9 0c 3c 11 0a 2c 3d 61 8e 85 bd ce 87 8c bd
       0.008589119 0.042001788 -0.06521297 -0.0686184
0001d0 30 00 e6 bc 5c 03 f4 bc fe 38 8f 3d 68 91 c4 bc
       -0.028076261 -0.029786758 0.06993292 -0.023995116
0001e0 44 21 69 3d 73 6f 95 bd 12 a1 9c bc c8 b6 8b 3d
       0.05691649 -0.07296648 -0.019119773 0.06821972
0001f0 97 26 0f 3c fa 69 be bc 8c bc cf 3d 60 b4 f6 bb
       0.008737228 -0.023243893 0.10143384 -0.0075288266
000200 1c 95 46 3b 8d a9 46 bd 76 29 77 bd 2d ba 93 3d
       0.0030301278 -0.04850154 -0.060342275 0.072132446
000210 f5 21 db bc d8 2d 98 3d c8 99 1d 3c 57 b1 a7 3d
       -0.02674959 0.07430619 0.009619184 0.08188122
000220 1d 82 15 bd f3 91 d9 bc 0e 07 28 bd 41 9b cd 3d
       -0.03650104 -0.026558852 -0.041022353 0.10039378
000230 95 d5 0b 3b 78 b6 bb 3c 9e d6 b5 bd b2 1a 10 bd
       0.0021337022 0.022914156 -0.088788256 -0.03518171
000240 57 68 69 3c 85 64 86 bd 85 6d 10 3d 6f 0c 69 3d
       0.014246068 -0.06562141 0.035260696 0.056896623
000250 0a 25 a2 bd a9 60 e7 bc 3e 0e 3d bd 11 fd da bc
       -0.07917221 -0.028244333 -0.04615616 -0.026732
000260 cc 74 23 3d b3 fa 35 bd e6 7b a2 3b a0 98 a3 3d
       0.039906308 -0.04442854 0.0049586175 0.07988095
000270 d4 96 b3 3d 71 fd 16 bd 6e ca 4a 3d 9d ae 88 3d
       0.087690026 -0.036862794 0.04950946 0.0667393
000280 11 21 6d 3d e5 67 46 bc 91 3e 35 3d 70 6a 98 3d
       0.057892863 -0.012109731 0.04424912 0.07442176
000290 d1 7b 7f bd 2e bf 60 bd 6c 72 1e bc 2e 10 53 bd
       -0.06237394 -0.054869823 -0.009670835 -0.051529102
0002a0 16 f1 15 be d8 07 f0 3d a1 0e c9 3b 54 07 46 3d
       -0.14642748 0.11720246 0.006135777 0.048346832
0002b0 49 59 ae 3c f7 20 98 3d 5b cf 4d bb fa d4 94 3d
       0.021282809 0.074281625 -0.003140411 0.072671846
0002c0 53 5e 5f bd 28 f2 07 bb fd 1e 0e bc 6e d5 98 bd
       -0.054533314 -0.0020743702 -0.00867438 -0.074625835
0002d0 bc aa db bd 04 4b a8 3d 4c 04 85 bd 25 5a 06 bd
       -0.107259244 0.08217433 -0.0649496 -0.032800812
0002e0 67 e0 b3 bd c9 55 96 3b 1b cf b3 3d 18 69 cd 3d
       -0.08783036 0.004587863 0.087797366 0.10029811
0002f0 c6 9b 26 3d df b6 30 bd 29 d7 8b 3d e9 e4 5d 3d
       0.0406759 -0.04314315 0.06828148 0.054173384
000300 25 15 48 3c 9c 4f df 3c c1 e1 90 3d 99 71 86 bd
       0.0122120725 0.02725964 0.07074309 -0.06564636
000310 50 b3 d7 bd 9b ee 74 3d 02 9e fb 3c bf e4 89 3d
       -0.10532248 0.059797864 0.030714992 0.06733083
000320 1b 0d 8c bc 0b b9 9e 3d 1b c9 ad bd 12 3a 77 bd
       -0.017096093 0.07750138 -0.084856234 -0.060358115
000330 d3 ee 4f 3d fa 4b 1e 3d 36 5a ce bc 66 fd bd 3d
       0.05076487 0.038646676 -0.0251895 0.092768475
000340 b3 16 b1 3d 59 49 3a 3d c8 ec 4f 3d 97 81 2e bd
       0.08646908 0.045480106 0.05076292 -0.042604055
000350 65 96 f6 bc 16 a5 84 3d d6 c3 fc 3d df a0 bf 3d
       -0.03010101 0.064768 0.1234204 0.093568556
000360 7f 68 91 3d 7e 4c e6 3d 1f e6 05 3d 40 f5 c5 bd
       0.07100009 0.112450585 0.032690164 -0.09665918
000370 1e e4 ac bd c8 75 c5 3c 87 e1 3b 3d dd f8 8d 3d
       -0.084419474 0.024104014 0.045869377 0.069322325
000380 05 ea 98 bd c5 79 e4 3d ab 25 03 3e 60 bb 57 bc
       -0.07466511 0.11156038 0.12807338 -0.013167232
000390 f3 e2 30 bd 7a bc 29 3d 17 27 fc bd 7e 8c 68 bd
       -0.043185186 0.04143951 -0.12312143 -0.05677461
0003a0 5c b6 a0 3d 9e 50 1a bd a9 b4 22 bb 53 93 94 bd
       0.07847282 -0.03767454 -0.002482692 -0.07254662
0003b0 87 ff f2 bc 52 42 86 3c 15 2f 70 bd af a2 1e bc
       -0.02966286 0.016389046 -0.05863865 -0.0096823415
0003c0 ee b3 89 bd 75 12 ad bd 96 22 a5 bb 03 72 36 bd
       -0.06723772 -0.08450786 -0.0050395234 -0.044542324
0003d0 e1 13 78 bc c6 1d ed bd 2a 3e 39 3d bf f3 f7 bd
       -0.015141458 -0.115779445 0.0452253 -0.12107038
0003e0 6a 4a 9f 3d e1 1a 56 bd 00 25 bc bb 49 49 b6 3d
       0.07777865 -0.052271727 -0.0057417154 0.08900697
0003f0 8e 9e a3 bc f2 25 42 3d 03 f0 73 3d 56 1e 74 3d
       -0.019973066 0.04739947 0.059555065 0.059599243

model.fc_layers.0.bias f4 [52]
000000 ac dc b7 3d 44 54 29 3d 03 64 a6 3b da da ae bc
       0.08977637 0.041340128 0.0050778403 -0.021344591
000010 74 52 a9 bc 86 22 53 3c 14 1d 98 3d 52 fb 40 3c
       -0.0206692 0.012886649 0.07427421 0.011778669
000020 c5 b7 c2 3b 0c 32 8f ba 6c d9 88 bc 5f c3 a1 bd
       0.005942317 -0.0010924949 -0.016705237 -0.07898592
000030 78 d0 2c bd 47 b7 87 bd 59 db 77 3d 2c e9 1a bd
       -0.042191 -0.06626754 0.06051192 -0.037820026
000040 58 7f 64 3d 06 58 c7 bc 63 73 c7 3d ae 8e 96 3d
       0.055785507 -0.024333965 0.09738805 0.07351433
000050 49 fe 2c 3d 1e 3e 13 bd 8d da 40 3d ff 88 79 bd
       0.042234693 -0.03594791 0.047083426 -0.060921665
000060 9a a5 61 3a 39 96 ba bd 03 3d cf 3c 4d 00 77 3d
       0.00086077454 -0.09110684 0.025297647 0.06030302
000070 dd 34 71 3d 83 da 8a bd b7 be 41 3b 97 b1 ba 3d
       0.058888305 -0.06779959 0.0029563138 0.09115904
000080 63 12 64 bd 48 8b 66 bd 71 a7 bc bb 77 28 b3 3d
       -0.055681597 -0.056285173 -0.0057572653 0.087479524
000090 08 83 7c bc b9 b6 00 3d 84 8a 52 bd 2f 36 aa 3d
       -0.0154121 0.031424258 -0.05140163 0.08311116
0000a0 4f 78 aa 3c 9f 2e 9b ba c2 48 85 bd 48 a6 2a bd
       0.02080932 -0.0011839456 -0.06508018 -0.041662484
0000b0 ed 5d 3a bd 1e 6e cd 3c 74 54 62 bc 4a bc c0 3c
       -0.04549973 0.025076922 -0.0138140805 0.023527283
0000c0 b5 9e 08 3d 05 a5 a2 3b 13 a5 18 bd 8d 39 8f 3d
       0.03335448 0.0049635195 -0.037266802 0.06993399

model.fc_layers.1.weight f4 [26, 52]
000000 89 6f b4 bd e3 24 81 3d cf b9 10 3e bb e2 1b 3d
       -0.08810336 0.06305864 0.1413338 0.038058024
000010 ca 7e 06 3d d9 56 ae bd 3d 19 43 bd b1 3d 26 3d
       0.03283576 -0.085126586 -0.04763149 0.040586177
000020 95 76 c9 3d 3a 6d bc bd 6b d5 14 3e 95 0b d6 bd
       0.09837071 -0.09200521 0.14534537 -0.10451428
000030 5a 2c 2e bd a4 38 e3 3d fd 1d e1 3d d2 64 ee 3d
       -0.042522766 0.11094788 0.10992048 0.11640324
000040 b7 90 c6 bd 37 3a f5 bd c8 aa 79 bd eb ea cd bc
       -0.09695571 -0.11973994 -0.060953885 -0.025136432
000050 1a e3 29 3d b7 47 b6 3d b0 02 f7 3d e2 44 95 bd
       0.041476347 0.08900397 0.120610595 -0.07288529
000060 99 61 5a bd 44 da 29 3c e7 5a ae 3c 2e 84 c1 bc
       -0.053315733 0.01036698 0.02128358 -0.023622598
000070 c2 9b da 3c d5 15 95 3d 0b 96 43 bd 96 28 98 bd
       0.0266856 0.07279555 -0.047750514 -0.07429616
000080 f0 5b b4 bd 21 b6 6d bd a0 90 17 3e 44 55 80 3d
       -0.08806598 -0.05803502 0.14801264 0.06266263
000090 9b 3c da 3d 8d f7 80 3d f1 9b a2 3d 7b cd 0a 3e
       0.10656091 0.062972166 0.079399 0.13554947
0000a0 0c f5 8c bd 48 db 39 3d 02 7d e3 bd 30 90 88 3c
       -0.068826765 0.04537514 -0.11107828 0.016670316
0000b0 29 97 9c bd ab d1 69 bd d5 09 d2 bc cd 11 03 be
       -0.07646019 -0.05708472 -0.025639454 -0.12799759
0000c0 b9 ec ee bd 99 74 07 3d 08 f2 be 3d 37 41 84 3b
       -0.11666245 0.03307018 0.093235075 0.0040360945
0000d0 5b ee e1 bd f2 94 d1 bc 42 26 ae bd e5 b9 c8 3d
       -0.11031791 -0.025583718 -0.08503391 0.098010816
0000e0 77 30 b7 bd 3d 84 18 be 77 9b b1 bd 4b de 2e 3d
       -0.08944791 -0.14894195 -0.08672231 0.042692464
0000f0 5c 51 07 bd 2b fb 16 3d 84 07 10 be 64 76 56 bd
       -0.033036575 0.036860626 -0.14065367 -0.052359
000100 3f a5 eb 3d 3b c5 d3 bd 57 11 9b 3d 13 99 a2 3c
       0.115061276 -0.10340353 0.07571667 0.019848382
000110 23 1b b4 bd 4a 75 91 3c 8e d5 e9 bc da 8a 17 bd
       -0.087942384 0.017756123 -0.028544214 -0.036997654
000120 48 d1 79 3c d4 1b e7 bd 57 ba 0e be 73 85 a9 bd
       0.01524765 -0.11284605 -0.1393827 -0.082774065
000130 5f 8a 43 3d 84 3d e4 bd 0f 99 6b bc 8a fb 24 bc
       0.047739383 -0.11144546 -0.014379754 -0.010069737
000140 f6 9e e8 bc 50 15 a3 3d 60 4d 8a 3d 7e 68 ca 3d
       -0.028396111 0.079630494 0.06753039 0.098832116
000150 1f b4 14 3e c6 96 36 bd 09 a7 1d be 0b a7 a5 bc
       0.14521836 -0.044577383 -0.1539575 -0.020221254
000160 27 83 64 3d d4 8a 66 bd a4 28 b9 3d cb 22 0a be
       0.05578914 -0.05628474 0.09040955 -0.13489835
000170 a4 81 eb 3d 48 5e 11 3e 26 0c 7e bd 76 67 d3 bc
       0.11499336 0.14196122 -0.062023304 -0.02580617
000180 04 e9 79 38 c9 d2 9c bd 27 2c ca bb 74 56 b1 bd
       5.958324e-05 -0.076573916 -0.006169814 -0.08659068
000190 2c 30 ec 3d 8a 5a e8 bd 20 cb 03 be f3 85 de bd
       0.115326256 -0.11345394 -0.12870455 -0.108653925
0001a0 bf 07 ec 3d 07 ac 86 3c b1 fd 6c bc b8 fd e1 bd
       0.11524915 0.01643945 -0.014464782 -0.11034721
0001b0 98 14 97 3d 73 35 c9 bd 67 25 72 bd 68 cb 59 bd
       0.07376975 -0.09824648 -0.0591177 -0.0531725
0001c0 6f 8d 86 bd db 1a 86 bd b3 44 99 bd 71 94 be 3d
       -0.06569945 -0.06548091 -0.074838065 0.09305657
0001d0 0f b9 cc bd bb ed b8 bd 77 69 f1 bb de 78 8d 3d
       -0.099962346 -0.090297185 -0.0073673087 0.06907819
0001e0 40 0e f8 3d ab 82 07 3e 21 44 8b bd 6a 33 dd 3c
       0.12112093 0.1323344 -0.06800104 0.027002055
0001f0 35 33 c3 bc a9 d9 0a be c9 d2 be 3c 34 58 f4 3c
       -0.023828128 -0.13559593 0.02329387 0.029827215
000200 84 ee 0c 3e 02 53 13 3e ca c8 83 3c 99 1a e0 3d
       0.13762861 0.14387134 0.016086955 0.10942573
000210 77 67 16 be 90 b6 01 3e 7f 4f 8a 3d d4 e5 df 3d
       -0.14687906 0.12667298 0.06753444 0.10932508
000220 53 5a d6 3d 2d 09 0a 3e 32 41 85 bd 7f 20 00 bd
       0.10466447 0.13480063 -0.06506576 -0.03128099
000230 d6 f1 79 3d 6d bd 82 bd 1e f5 9e bd 79 73 3b 3d
       0.06102165 -0.06383786 -0.07761596 0.04576442
000240 d6 6c d6 3d d2 25 17 3a 1f 78 0a be 19 c7 73 bd
       0.104699776 0.00057658285 -0.13522385 -0.059516046
000250 d2 8b 13 3e 66 e0 cc 3d c9 7c f7 bd 47 c0 87 3c
       0.14408806 0.10003738 -0.12084348 0.016571177
000260 d1 57 b0 3d 04 83 b1 3d c3 98 d6 3d 7a c5 20 3d
       0.086105 0.08667567 0.10478356 0.03925083
000270 0d 71 fc bc 2a e1 80 bd 77 95 04 3e 6f c2 ff 3c
       -0.030815626 -0.06292947 0.12947641 0.031220643
000280 33 54 bf bd dc b2 2b 3d 31 7c ce bd e3 06 f5 bd
       -0.093422316 0.04191862 -0.100822814 -0.11964204
000290 c3 72 81 3c fe 36 11 be 61 3b 96 bc 9d e8 78 3c
       0.015801793 -0.14181134 -0.018338861 0.015192178
0002a0 e3 3c 7c bd 12 ca c7 3d 2a 45 c0 3d 65 92 b0 bd
       -0.061581504 0.09755339 0.09388192 -0.086216725
0002b0 98 a4 f2 3d f9 ab 3e bd 88 cf a7 3c f1 2e 56 3d
       0.118478 -0.046550725 0.0204847 0.05229086
0002c0 1c d7 e5 3d 25 07 6e bd b5 11 19 bd 26 a6 71 39
       0.112226695 -0.058112282 -0.037370402 0.00023045446
0002d0 07 cb 56 bd 78 3c ff bc 10 bf 0a be 97 b2 be bd
       -0.052439716 -0.031156763 -0.13549447 -0.09311407
0002e0 08 33 78 bd 0c 18 4e bd 23 08 fb bc 68 08 c3 3d
       -0.060595542 -0.0503159 -0.030643528 0.09523088
0002f0 13 79 04 3e 47 14 52 3d 48 20 98 bd b2 84 8e 3c
       0.12936811 0.05128887 -0.07428032 0.017397258
000300 54 9d 8b bd 81 e1 9e bd 8c 56 ad 3d f2 56 74 bc
       -0.06817117 -0.07757855 0.08463773 -0.0149133075
000310 0b 13 9e bc 63 35 bc 3d c3 1e 32 bd 58 a8 13 3d
       -0.01929619 0.0918987 -0.043486368 0.036049217
000320 08 d0 28 bd e6 d1 27 ba 02 58 8d bd d7 2c a6 bd
       -0.04121402 -0.0006401822 -0.06901552 -0.08114021
000330 f8 e4 5e 3d bf 9a b9 bd 98 5a 04 be 7b c9 be 3d
       0.05441758 -0.090627186 -0.12925184 0.09315773
000340 01 b4 65 bd e7 76 4e bd 09 db 38 3d 32 58 29 bd
       -0.05607987 -0.050406363 0.045130763 -0.041343875
000350 bc df 52 3c b6 97 c6 3d f8 98 86 bd 59 18 c4 3c
       0.012870725 0.09696905 -0.06572145 0.023937391
000360 46 88 a7 bd 16 e9 4c bd 7c fa d2 3c f1 a6 54 bd
       -0.08180289 -0.050026976 0.025754206 -0.05191702
000370 5e e9 86 3d 9c 4f 15 be 82 3b 6e 3c bc 3f 36 bc
       0.0658748 -0.1458115 0.014540555 -0.011123594
000380 49 fc 1d be b3 59 f5 bd f5 ce 47 3d 6c 0f 02 be
       -0.1542827 -0.119799994 0.048781354 -0.12701195
000390 a7 f8 bd 3c 93 13 19 3d 64 6c ef 3d cd fa 07 bd
       0.023189856 0.037372183 0.11690596 -0.033198167
0003a0 3f 0b 15 be 72 1d 18 be fe bb fd 3d 90 67 35 3d
       -0.14555071 -0.14854982 0.12389372 0.044288218
0003b0 7d 63 df bc 7f f2 4a bc 02 62 be bc db 76 de bc
       -0.02726912 -0.012386917 -0.023240093 -0.027156284
0003c0 36 76 fe bc c1 5b f0 3d 94 71 da 3c 1f 90 56 3d
       -0.031062227 0.11736251 0.026665486 0.05238354
0003d0 93 df e6 bd 16 85 ac 3d 2a 13 93 bc af c2 a6 bd
       -0.11273112 0.08423822 -0.017953474 -0.08142602
0003e0 b4 a7 82 3d c6 71 b3 bd e6 c9 a1 3d 8e 0f 2c 3d
       0.06379643 -0.08761935 0.07899837 0.04200702
0003f0 41 66 c3 3d fc 7e 3d bd 93 5e e5 3d 73 d1 1d be
       0.09540988 -0.04626368 0.11199679 -0.1541193

model.fc_layers.1.bias f4 [26]
000000 4e 50 b2 bd 3f f6 60 3d 85 44 c3 bd 02 71 91 bd
       -0.08706723 0.05492234 -0.095345534 -0.07101633
000010 9e 83 10 3d 08 23 e2 bd 1b 8b 6f 3c 90 71 87 3d
       0.03528177 -0.11041838 0.014620568 0.06613457
000020 24 ba 02 3e 78 7d 03 be 2f 2d 23 3d e4 ee c9 3d
       0.1276632 -0.12840831 0.039838012 0.09860018
000030 28 3c 8e 3d 2b 21 07 3e 77 a8 02 be 90 83 bf bc
       0.06945068 0.13196246 -0.12759577 -0.023378164
000040 56 50 32 3c 2b 11 ea bc 30 aa ab 3d b5 c5 b7 3c
       0.010883411 -0.02857264 0.0838207 0.022433141
000050 be c5 8e 3c 57 29 41 3c f6 05 c2 bd db 0a d2 3c
       0.017428275 0.011789641 -0.09473793 0.025639942
000060 91 f4 b3 3d 10 c5 29 bd
       0.08786882 -0.0414477

model.fc_layers.2.weight f4 [1, 26]
000000 29 59 73 3d 23 09 ee bd b9 fb ca bd 3e 06 b2 bb
       0.0594112 -0.116228364 -0.099112935 -0.005432873
000010 65 d9 b0 3d 4c 98 a9 bd 59 94 63 bd d8 5a e9 bd
       0.08635215 -0.082810014 -0.055561397 -0.1139428
000020 32 9d ec 3d 64 d1 e7 3c ec 3b d9 bd db c4 c5 bc
       0.1155342 0.028298087 -0.10607132 -0.02414172
000030 cf d9 21 3e 02 92 11 3d ff 64 eb bd 64 cd a9 bd
       0.15805744 0.035539635 -0.11493873 -0.08291128
000040 76 58 f9 3d 1c 45 4b 3c 85 df a0 bd 38 f8 d3 bd
       0.12175076 0.012406614 -0.07855133 -0.10350078
000050 6b a0 b2 bd 70 d8 b3 3d d4 61 05 be d2 15 32 be
       -0.087220035 0.087815166 -0.130256 -0.17391136
000060 ff 81 05 3e b0 ef 30 be
       0.13037871 -0.17278934
