LSTM_TimeSeries/lightning_logs/version_1/checkpoints/epoch=2-step=2346.ckpt (torch, 484387 bytes, 12 tensors)

model.fc1.weight f4 [50, 784]
00000000: 4cfa b0bc 30aa d73b e095 bc3c fde1 0bbd
00000010: f3fc c4bc 60fa f3ba 003d e83b 5040 543b
00000020: 23ed cabc f850 f73b 5b17 0d3d f02a dbbb
00000030: fece a33a 070c 403c 17e0 8f3c 0e5d 7b3c
00000040: 2148 113d 2026 6e3b e3ea e2bc 4a8c 14bc
00000050: dc20 43bc b0d9 86bc 12cc 8d3c e3d0 003d
00000060: 123b 72bc 1cb1 dabb 1e24 a9bc 303c 8a3b
00000070: 403e 573a b84d 783c 7108 fcbc 40d4 bf3b
00000080: 1c7b 4b3b 7f63 68bc 6dc8 02bd 60c4 ebbc
00000090: 0877 33ba 9705 cdbc 3176 64bd 216b 9ebd
000000a0: 3562 5bbd 7c1a 63bd 09cc 563c 1920 093d
000000b0: 4a83 0c3e 848a 343d b453 62bd 4944 f0bd
000000c0: 48d6 82bd 5eb0 3dbd 0716 b0bc c8d4 b03b
000000d0: 54ed 5f3c c4dd 06bc e62f 6fbc 306e 75bb
000000e0: 0076 7bba e301 e1bc a8cc ca3b 2ca6 c93c
000000f0: 4f05 5ebd 359f d3bd 84a4 84bd 574f 1ebd
00000100: 47ab 19bd b0a7 d2ba 7e25 9abc 5f43 023c
00000110: 7f06 cb3d 44e6 a83d 87f4 d43d 8670 063e
00000120: 9115 ef3d 6d60 da3b e734 c3bc 37e0 dfbc
00000130: 93aa c5bb 72cb a2bd f0d3 c2bc ba6d 29bc
00000140: 9197 6e3d e523 af3d b001 d73b 4ab5 4abc
00000150: 9ea0 97bc 8cf5 debc ac38 903d 7e1c 8f3d
00000160: b1e9 10bd b836 053d 1dd7 083d 2076 8b3d
00000170: 3139 313d 410d 8f3d 7a9e c23d 759e 0e3e
00000180: 69c6 523e 6946 3b3e 0184 3b3e 3412 533e
00000190: 38cd e23d f8fa 413d 1044 4d3b 4d5f 15bd
000001a0: 7b97 38bc b1fc 04be 1702 14be 5700 c3bd
000001b0: a6f9 b7bd 4114 53bd 4216 a4bd e6c8 27bc
000001c0: 5378 8abc 96fb 1b3d 0568 d53d 47d9 563d
000001d0: 15ae 7e3d 7d17 0c3e 2a8b 113e 7632 2c3e
000001e0: 0d4b 1b3e d963 153e 70f9 2b3e af2a 683e
000001f0: ebf3 563e f4aa 6e3e 25fa 5b3e def0 1e3e
00000200: ce21 ed3d 3e56 c83d fcdc ca3d 6c0f cc3c
00000210: 716c a1bc e6d8 d9bd da50 dcbd a0b5 56be
00000220: d826 e7bd f1ac 4bbd c5c2 86bc eb68 a2bd
00000230: 5b79 0e3d 08c0 bdbc 0be4 9c3d 2375 c13d
00000240: 1725 043e c66f 573e 7c40 4b3e fe85 033e
00000250: 3faf 8e3d 2006 c93d 40d2 033e 784d eb3d
00000260: be3d 0a3e 762c b43d 6aba 0a3e e80d 083e
00000270: b926 0e3e 5efa 303d 8d1a 543d c55d 353d
00000280: 4c81 c13c a7e2 4dbd 9a31 46bd 3644 efbd
00000290: b7c7 3bbe e729 cebd c89a 89bd 1ce1 9ebc
000002a0: 94f5 203c 061e 133d 78cd cb3c 4ef1 213e
000002b0: 386a f93d 4352 ea3d c146 eb3d ac66 ea3c
000002c0: 3fad dd3c 05d1 563d 2dca a13d 92f9 e53d
000002d0: 6f21 d53d 5e3e a23d 96b4 e23d d96b be3d
000002e0: 43df bf3d d1a2 7f3d df89 9e3d e98a 2dbb
000002f0: febe 3d3d d6b3 283c 44ca bbbd a342 a2bd
00000300: c832 39be 5517 0dbe 93c5 89bd 0285 0fbd
00000310: 8406 73bd 1ee8 9e3d 6c1e b2bd 18e5 1b3d
00000320: 2b67 1f3e 1821 173e 704f 7a3d 73c3 ad3c
00000330: d5ca 13bd 3f4b 76bc 0197 e13c cab9 803d
00000340: 8997 aa3d cbfb be3d 83c2 e53d 3f22 203d
00000350: f8ec 9d3c b626 31bb eda9 033d ae85 803c
00000360: 132c 913c 8343 42bd e109 54bd c53f a3bd
00000370: 797e 84be 03c8 44be a9ae bdbd 2f89 92bd
00000380: 26bf 91bd a3c1 bb3c 19ee e2bd 7a3a b03d
00000390: 1440 0e3e b1f9 913d 2b5a 073d 8b93 3a3d
000003a0: f194 b4bc 7b3b f6bc 4ebd aebc 15c5 9b3b
000003b0: 1da7 9d3d c755 e43d 23f3 d43d 1a4f c53d
000003c0: 8434 643c d796 7f3d ca77 af3d 3371 bf3d
000003d0: 3ff2 af3d 5c3a 7f3c eee0 353d 5a67 10be
000003e0: aed2 7dbe 70df 51be ee43 0ebd d123 083d
000003f0: 2949 58bd 0c61 aebc ad09 2b3c b9c2 de3d
-0.021603726 0.006581567 0.023020685 -0.034151066 -0.024046397 -0.0018614046 0.00708735 0.0032386966
-0.024771279 0.007547494 0.0344461 -0.006688468 0.0012497602 0.011721618 0.017562909 0.01534201
0.035469178 0.0036338642 -0.027699893 -0.009066651 -0.01190969 -0.016461223 0.017309222 0.03144921
-0.014784591 -0.006673945 -0.020647105 0.0042186007 0.0008210875 0.015155248 -0.030765744 0.0058541596
0.003104872 -0.014183878 -0.031929422 -0.028780162 -0.0006846045 -0.02502708 -0.05577678 -0.07735277
-0.053560454 -0.05544518 0.013110169 0.033477876 0.13721958 0.04407741 -0.055255607 -0.11731774
-0.06388527 -0.046310775 -0.021494878 0.0053964593 0.013667423 -0.008231584 -0.014598822 -0.003744971
-0.00095924735 -0.02746672 0.0061889477 0.02461537 -0.05420428 -0.10333101 -0.06476691 -0.038649883
-0.03751686 -0.0016071703 -0.018816706 0.007950633 0.099133484 0.08247045 0.103982024 0.13128862
0.11674035 0.006664327 -0.023828937 -0.027328594 -0.006032297 -0.0794896 -0.0237827 -0.010341102
0.058250014 0.08551768 0.0065614805 -0.012372324 -0.018509205 -0.027216695 0.07042059 0.06987856
-0.035379115 0.032522887 0.033408273 0.0680964 0.043267433 0.0698495 0.09502883 0.13927634
0.205835 0.18288578 0.18312074 0.20612413 0.110742986 0.047358483 0.0031321086 -0.03646784
-0.0112665845 -0.12987019 -0.14453922 -0.09521549 -0.089831635 -0.051532988 -0.08012058 -0.010240769
-0.016903078 0.038081728 0.10420231 0.052453306 0.062177736 0.13680835 0.14213243 0.16816124
0.15165348 0.1458887 0.16794372 0.22672532 0.20991485 0.23307401 0.21482141 0.15521571
0.11578713 0.097820744 0.09905431 0.024909697 -0.01970503 -0.10637073 -0.10757609 -0.20967722
-0.11286706 -0.049725477 -0.016450295 -0.07930168 0.034783702 -0.023162857 0.07660683 0.0944617
0.12904774 0.21038732 0.19848818 0.12844083 0.06967019 0.098156214 0.12873173 0.11489385
0.13500115 0.08797543 0.13547674 0.13286555 0.13881959 0.04320752 0.051783133 0.04427888
0.023621224 -0.05026498 -0.048387147 -0.11682932 -0.18337904 -0.10066586 -0.06718975 -0.01939445
0.009824175 0.035917304 0.024878249 0.15814707 0.12178463 0.114414714 0.114881046 0.02861341
0.02706015 0.05244543 0.0789989 0.112292424 0.104067676 0.07922052 0.110696 0.09297914
0.09368756 0.062411133 0.077411406 -0.0026480502 0.046324722 0.0102967825 -0.091694385 -0.07922866
-0.18085778 -0.13778432 -0.067271374 -0.035038956 -0.059332386 0.077591166 -0.08697209 0.038060278
0.15566699 0.14758718 0.061110914 0.021211362 -0.036082108 -0.0150325885 0.027537825 0.062854365
0.08329684 0.093253694 0.11218741 0.03909516 0.019278035 -0.002703113 0.032144476 0.015688743
0.017721212 -0.047427665 -0.051767234 -0.079711474 -0.2587774 -0.19216923 -0.092618294 -0.07155072
-0.07116537 0.022919482 -0.1108057 0.086049035 0.13891631 0.07127703 0.033044975 0.045550864
-0.022043677 -0.03005766 -0.021330502 0.0047537186 0.0769789 0.11149173 0.10397937 0.09634228
0.013928536 0.06239971 0.0856777 0.09347763 0.08591127 0.015577879 0.044403963 -0.14101925
-0.24787399 -0.20495391 -0.03473275 0.033237282 -0.052804146 -0.02128651 0.010439319 0.10876984

model.fc1.bias f4 [50]
00000000: df64 563c 2a1c 183d 21b7 c8bd 7970 bfbd
00000010: 7b16 7b3e f322 1b3e 79cb 7cbd 0593 08be
00000020: 363b fb3d 2724 d0bd ca16 113e a98b d93d
00000030: 9c49 b1bc d08f f93d b139 4a3e 7255 c8bd
00000040: 6c48 323e d9f6 2cbe 7284 d63d 2dd1 f73d
00000050: 2194 a93b c6b2 36bd 57c1 f23d 29d4 ab3d
00000060: 4515 3e3d 1d85 b9bc 94c6 8d3c 7114 39ba
00000070: 4668 b3bc de3d 433e 59a4 85ba 7581 bebd
00000080: 0843 37bd 0310 acbd c953 5e3e ef25 d43d
00000090: e37b 1cbb 0faf 473d 8271 8d3d 9132 233e
000000a0: ca97 0fbe df7a 93bd d4fb fe3d b842 f43d
000000b0: d56f 403d e561 383e 13e4 833d 8d36 603c
000000c0: 0d7d 8fbc b31f b8bd
0.013085573 0.037136234 -0.09800554 -0.09347624 0.24520294 0.15150051 -0.061717484 -0.13337334
0.12267153 -0.101631455 0.1416885 0.10622341 -0.021641545 0.12185633 0.1974857 -0.097819224
0.17410439 -0.1689104 0.10474481 0.12100444 0.005175129 -0.044604085 0.11853283 0.08390076
0.046407003 -0.022646481 0.017306603 -0.0007060236 -0.021900307 0.19066569 -0.0010196074 -0.09302036
-0.04474166 -0.084014915 0.21711649 0.10358798 -0.0023877553 0.048750933 0.069064155 0.15937258
-0.14022747 -0.0720117 0.12450376 0.11926788 0.04698165 0.18006094 0.06439986 0.013684881
-0.017515684 -0.08990421

model.fc2.weight f4 [10, 50]
00000000: 7dd2 73be cfeb 1abd 14d0 36be 4c6d 883d
00000010: 2dea e5bd bd5d 0ebe 18d1 cc3d ae3c f43d
00000020: 0762 4ebe 8f72 f13d a89d 4d3e 0edb bfbe
00000030: 2f59 80be beb1 17be 7bfc c03d 838d 12be
00000040: a425 5e3e 215c c1bd 7164 acbe 3adf d63d
00000050: 5029 2d3e caef 2cbb 27ff a4be 7d12 4dbd
00000060: a0e2 0d3e dc5f a63d 57eb 1b3e 9ecb 1d3e
00000070: 8f21 263d 377c 1b3e e075 e2bd 831b 393e
00000080: f105 efbd 7202 6b3e 3397 b6be a6cb fabe
00000090: fa15 743d 8acd a93d 7732 d3bc e7b9 05be
000000a0: 35c1 2bbb 7fcc fe3d 5575 a0bb e25c 95be
000000b0: d208 c1be 603f a8be 76d7 8c3e 7c5b 0f3e
000000c0: 7b0d b3bc b384 aebd beb4 213e 26ab 943e
000000d0: 9954 563d 9411 8c3e 2fe7 4e3e 02ba 663e
000000e0: c41f 113e 43e2 dcbc a3f3 44bd 9b43 2c3e
000000f0: 772a 4d3e f757 b3bc c255 6d3e 9133 b33e
00000100: 4c9c 32be 37b9 9cbe 170c d2bd 55ff 5bbd
00000110: cd5b 8ebe 359a 553e 4b8d a7bd 7971 a1be
00000120: 43b2 393e ee2a 85be b373 ccbe f8c1 bcbe
00000130: b770 c03d 2cb1 cf3c dedf f4bd 3a5b e3be
00000140: f3e0 fc3d aa2d 11be 335f 4dbe c856 86be
00000150: e4a9 243e 2a34 c3be f5c0 97be 4c41 91bd
00000160: 1c5a 96be 14a8 b8bd e0fb 3dbe b491 9ebe
00000170: d22f 61be 6e8a 8d3e a656 1d3e 4b05 7b3e
00000180: ea3b a7bd 3521 dabe a854 aabd 7fa5 bfbe
00000190: fdff 0f3d da90 3abf 53ee d23d de45 a3bc
000001a0: 40ff 563e b210 0b3d 256c 943d 56c0 30bf
000001b0: 4c63 603e 386d 19be 7d07 4c3e eda2 16be
000001c0: 80c9 203e 3181 edbe 07e0 59be f3fe 233e
000001d0: 4cfc 61be 8aef 66be 4fb1 17be 31b7 053e
000001e0: 9f6c 063e 1bfd aa3e 8f37 4ebe 7ffb 31bd
000001f0: c24a 9a3d 5022 443d 5d70 02bd 3399 b93d
00000200: 39f8 7ebd b89a e7be 01da c4bd 9fc1 3a3e
00000210: cf47 863e b1f5 663e eae1 893c 1eed 0bbe
00000220: 1ec6 dfbd 6df3 103e f67f 8b3e b61c 913e
00000230: 5704 45be 4f0e 1f3d 0c3b b13e 4a2f 233e
00000240: 2520 003e 7ba6 64bd 493c b53d e555 2abe
00000250: 136f 91bc 1157 9dbe 41f3 2a3e 083e 6c3e
00000260: 74f4 613c e168 02bf 88bd 97bd 2153 19be
00000270: ff23 323e af10 1fbe 8bd5 a4bd 8d0c 8b3d
00000280: 0490 8d3d c38a 383e 6189 07be f54a 3e3e
00000290: 332a b0be 1f8b 003b 59cf 55bd 7833 853d
000002a0: 2c95 05be 840a 5d3e 95ab 023e 0e55 543e
000002b0: a712 9bbe 9abd 643e dc6f 1d3e 507c 35bd
000002c0: 3263 33be 5712 febd 6857 1fbd 5de6 8abc
000002d0: f015 903e bf3f 01be 5b5d 86be cccb 083e
000002e0: 951e ab3d 0f46 0c3e 921d 7cbd dda9 c6bd
000002f0: 8fa1 1abe 604e 29be d6b5 adbe e555 a03d
00000300: d124 bcbd b44d adbe 8133 623e d275 c2be
00000310: 1402 99be ff58 19be 48f7 c4bd 77f8 14be
00000320: 19d5 41be f4af fc3d 3324 923d 5894 a63a
00000330: eb0f 8fbe b4a0 3b3e 21de a3be af28 a43d
00000340: fbe3 743e 7e44 98be cf0f 01bf 6074 4c3e
00000350: 16db afbe e2b6 ef3d 9a95 843d 56a1 6abd
00000360: 9b67 efbd b6c3 653e 05ae 2d3e 1b0a 81be
00000370: bb00 8b3d e3ca 15bf 5042 7bbe 8f57 1fbe
00000380: d78f 8d3c 4837 c2be 81dc 40be c5e7 8b3e
00000390: e2ef 67bd 6372 2b3d de16 093e 3501 dbbd
000003a0: 3afd 1dbd a887 62be b457 fcbd d5e0 123e
000003b0: 08ab d5be 6605 12bf 6886 51be 9e06 953e
000003c0: f16b 1f3e 45d7 fe3d 5fae 5d3e d583 713e
000003d0: 68b6 61be a239 143e 72f2 103e 59ab f2bd
000003e0: a2b5 cebb f39c da3d 07c0 19be 7b06 f0bd
000003f0: 84d5 eebe c6ce 45be 420b 0c3e 6eab dbbe
-0.23810764 -0.03782254 -0.17852813 0.06661472 -0.11226306 -0.13902946 0.10000819 0.11925636
-0.20154582 0.117894284 0.20079672 -0.37471813 -0.25068042 -0.14813897 0.09423157 -0.14311795
0.21694046 -0.094414 -0.3367038 0.10491796 0.1691029 -0.0026388043 -0.32225916 -0.05006646
0.13855982 0.081237525 0.15226494 0.15409705 0.040559348 0.15184103 -0.11057639 0.18076901
-0.11671055 0.22950152 -0.3566223 -0.48983496 0.05959127 0.082911566 -0.0257809 -0.13059197
-0.002620769 0.12441348 -0.0048967996 -0.29172426 -0.37702042 -0.3286085 0.27508134 0.13999742
-0.021857014 -0.08521404 0.15791604 0.29036826 0.052326772 0.2735716 0.20205377 0.22531894
0.14172274 -0.026963359 -0.048083913 0.16822664 0.2003573 -0.02189253 0.23177245 0.3500028
-0.17442435 -0.30610058 -0.10256212 -0.0537103 -0.27804413 0.20859607 -0.08181246 -0.31531885
0.18134408 -0.26009315 -0.39932021 -0.36866736 0.09396499 0.025353037 -0.11956762 -0.44405538
0.12347593 -0.14177576 -0.20055847 -0.26238084 0.16080433 -0.38125736 -0.29639402 -0.070925325
-0.29365623 -0.09016433 -0.18553114 -0.30970538 -0.21990898 0.27644676 0.15365085 0.24513738
-0.081657246 -0.4260346 -0.08316928 -0.3743095 0.03515624 -0.72877276 0.10299363 -0.019930776
0.20995808 0.03395147 0.072471894 -0.6904348 0.21912879 -0.1498307 0.19924732 -0.14710589
0.15701866 -0.46387628 -0.21276866 0.16015224 -0.220689 -0.22552314 -0.14813732 0.13058163
0.13127373 0.3339623 -0.20138381 -0.043452736 0.0753379 0.047884285 -0.03184544 0.090624236
-0.062248442 -0.4523523 -0.096118934 0.18237923 0.2622666 0.22554661 0.016831357 -0.13664672
-0.1092646 0.1415536 0.27246064 0.28342217 -0.19239937 0.038832005 0.34615362 0.15936008
0.12512262 -0.05582283 0.08849389 -0.16634329 -0.01775316 -0.3073049 0.16694357 0.23070538
0.013791192 -0.5094128 -0.07409197 -0.14973117 0.17396544 -0.15533708 -0.080485426 0.06789503
0.069122344 0.18021683 -0.13236 0.18583281 -0.34407195 0.0019614173 -0.052199695 0.065039575
-0.13045186 0.21586043 0.12760766 0.20735571 -0.30287668 0.22337952 0.15374702 -0.044308007
-0.17518309 -0.12405842 -0.038901716 -0.016955549 0.28141737 -0.12621973 -0.262431 0.13358992
0.083554424 0.136986 -0.061551638 -0.097003676 -0.15100692 -0.16533804 -0.33927792 0.07828883
-0.0918671 -0.33848345 0.2208996 -0.37980515 -0.29884398 -0.14975356 -0.09617478 -0.14547907
-0.18928947 0.12338248 0.07135811 0.0012709005 -0.27941832 0.18323022 -0.32005408 0.08015572
0.23915093 -0.29739755 -0.50414747 0.19966269 -0.34346837 0.11704804 0.06473847 -0.05728277
-0.11689683 0.22437939 0.16960914 -0.25203022 0.06787249 -0.58512706 -0.24537015 -0.15560745
0.017280502 -0.379328 -0.18834116 0.27325264 -0.056625254 0.041857135 0.1338763 -0.106935896
-0.038571574 -0.22122061 -0.123214155 0.14343579 -0.4173205 -0.5703949 -0.20461428 0.2910661
0.1556852 0.12443403 0.21648549 0.23585446 -0.22042239 0.1447511 0.14154986 -0.11849088
-0.0063082734 0.10674467 -0.15014659 -0.11719986 -0.46647274 -0.19317159 0.1367617 -0.42904228

model.fc2.bias f4 [10]
00000000: 50a4 13be 6668 053e c860 d0bd 6695 c3bd
00000010: 0c15 f43c b41d 943e 1a8d 04bd 3336 203e
00000020: 9484 49be e019 4ebe
-0.14418149 0.13028106 -0.101747096 -0.0954998 0.029795192 0.28928912 -0.032361127 0.15645675
-0.19679481 -0.20127058

exp_avg f4 [50, 784]
00000000: 0000 0000 0000 0000 0000 0000 0000 0000
00000010: 0000 0000 0000 0000 0000 0000 0000 0000
00000020: 0000 0000 0000 0000 0000 0000 0000 0000
00000030: ff01 4e9c 260e 8b9e 260e 8b9e 3268 399c
00000040: 0000 0000 0000 0000 0000 0000 0000 0000
00000050: 0000 0000 0000 0000 0000 0000 0000 0000
00000060: 0000 0000 0000 0000 0000 0000 0000 0000
00000070: 0000 0000 0000 0000 0000 0000 0000 0000
00000080: 0400 0000 0400 0000 8840 5503 fe29 eca0
00000090: 5195 b3a3 19fe 8aa3 6c4d 07a3 983f e78e
000000a0: cf8a 2a34 64a2 9334 228d c12d 21cd cfb3
000000b0: a0f2 88b5 a140 94b4 95eb 952e d9fd 652c
000000c0: c9a8 1b23 cc56 f51f d4db 161b 0000 0000
000000d0: 0000 0000 0000 0000 0000 0000 0000 0000
000000e0: 0000 0000 0000 0000 0000 0000 0000 0000
000000f0: 595f 0000 7717 8a2c d57e 3034 1039 bc35
00000100: bc69 1c36 1d54 a135 6f37 a935 b866 1c36
00000110: fd5b 0fb6 6e40 76b7 5b00 c136 0ecb 4637
00000120: 1235 5a37 d467 9fb6 170c 5cb6 f019 5034
00000130: e10e 9334 a3e2 ac34 d0b7 9934 051a e72b
00000140: 2263 9527 4178 63a6 0000 0000 0000 0000
00000150: 0000 0000 0000 0000 75ba b811 c320 f6a1
00000160: 3330 dfa3 1c08 8e34 22a0 6d36 f170 4636
00000170: 9f28 86b6 b259 ddb5 3cc5 d537 ce00 9f38
00000180: b6ad b838 60fe 8639 0aa9 d039 419a 8e39
00000190: e5a5 19b8 b3b3 8cb8 06b0 91b7 d110 c9b7
000001a0: 6bcf 7538 a75d 3438 3f66 1c36 3875 2037
000001b0: 6e01 2bb5 8711 7b2f 6629 c21a 0000 0000
000001c0: 0000 0000 b675 1cac b087 a812 0845 8aac
000001d0: 432a ac34 993e 08b7 4297 9bb6 8e0d 8bb7
000001e0: 4498 e1b8 b959 29b9 00e3 0ab9 56e0 30b9
000001f0: a0d7 6b38 cf00 c139 291f 023a 7667 d239
00000200: f9f2 f9b8 cbad dab8 1a82 e036 5693 87b8
00000210: 336a 0cb8 d314 e1b8 00b8 b4b9 4a56 95b9
00000220: 0fe9 39b6 f639 b0b3 e014 79aa ef80 3213
00000230: 0000 0000 0000 0000 d3d7 daac 451a d0b5
00000240: 271b 34b7 172b 1eb8 32d3 16b8 fb38 17b8
00000250: 8ea6 40b9 b2f5 31b9 a658 03b8 f380 adb9
00000260: 2d3b 09ba f18c b4b9 e9aa a9b8 3d2e 1ab9
00000270: d949 a8b9 3529 14b9 417e b538 6dd4 98b9
00000280: 095a 13ba b42a 08ba dec3 e8b9 9e0a a2b9
00000290: d8ec 24b8 8974 87b3 888c a1b3 b2c0 8313
000002a0: 0000 0000 977c 0fb0 fe78 e035 3cfb 4936
000002b0: d093 8136 3143 5736 78e3 42b8 44db edb8
000002c0: 5a92 d2b8 15f0 98b8 12e8 82b9 030a 18ba
000002d0: b693 83ba ab07 62ba ba49 00ba 5a8f d2b9
000002e0: 3cf6 27ba d449 66ba e6bf 63ba 9113 d8b9
000002f0: d860 04ba 7ff8 0fba d6cc 3eb9 b155 14b9
00000300: ae43 bbb8 0410 16b8 b6b1 c7b7 3807 351a
00000310: 5d53 a22c 84bb 38b2 6778 5c36 708b fd36
00000320: 7088 44b6 4284 e1b7 01af 0cb9 11d1 83b9
00000330: 309b d8b9 087a 23ba 0a95 4bba baf4 80ba
00000340: 9738 8cba b3cc 70ba f142 6aba b4d8 a0ba
00000350: dcea 95ba bc7d b0ba b8b6 9dba b798 75ba
00000360: 2159 d9b9 3e39 5837 4535 6037 0552 9ab8
00000370: 83d8 cfb8 f7a5 fdb7 9229 2bb6 b165 9e1a
00000380: 7bea a42d fb8c dc31 d915 c6b5 a002 2c36
00000390: 105d b2b7 2297 cbb7 2840 91b9 a2db e5b9
000003a0: b954 cab9 26dd 2fba dae7 4dba 291b 93ba
000003b0: eaf4 89ba c513 2cba fbc6 62ba 4555 89ba
000003c0: bbf8 87ba db69 a6ba 6eb8 b0ba a19a 47ba
000003d0: d0c0 47b9 e87d fa38 20a4 b838 d6fb cbb6
000003e0: 922a 29b8 8f4e a1b6 7066 85b2 4480 d09d
000003f0: b321 562c 2c72 5e33 c56a 8135 1323 5db5
0.0 0.0 0.0 0.0 0.0 0.0 0.0 0.0
0.0 0.0 0.0 0.0 -6.816226e-22 -1.4723049e-20 -1.4723049e-20 -6.1346035e-22
0.0 0.0 0.0 0.0 0.0 0.0 0.0 0.0
0.0 0.0 0.0 0.0 0.0 0.0 0.0 0.0
6e-45 6e-45 6.2669152e-37 -4.0007743e-19 -1.9470457e-17 -1.5069605e-17 -7.334759e-18 -5.7007135e-30
1.5882982e-07 2.7499038e-07 2.2004235e-11 -9.6765014e-08 -1.0203403e-06 -2.7614172e-07 6.817583e-11 3.268377e-12
8.4383085e-18 1.0390513e-19 1.247874e-22 0.0 0.0 0.0 0.0 0.0
0.0 0.0 0.0 0.0 3.4204e-41 3.924801e-12 1.6437419e-07 1.4023699e-06
2.3307357e-06 1.2019915e-06 1.2607615e-06 2.3305602e-06 -2.1362205e-06 -1.4677744e-05 5.7518896e-06 1.1848997e-05
1.3006169e-05 -4.7506564e-06 -3.2789592e-06 1.9380946e-07 2.739171e-07 3.2202396e-07 2.8632212e-07 1.6420759e-12
4.1463288e-15 -7.891942e-16 0.0 0.0 0.0 0.0 2.9144994e-28 -1.667828e-18
-2.4198122e-17 2.6455461e-07 3.5408962e-06 2.957004e-06 -3.99824e-06 -1.6491888e-06 2.5483423e-05 7.581861e-05
8.80616e-05 0.00025747996 0.00039798795 0.0002719928 -3.6632544e-05 -6.709192e-05 -1.7367314e-05 -2.3968898e-05
5.8605725e-05 4.3002565e-05 2.3305327e-06 9.564035e-06 -6.3704545e-07 2.2834544e-10 8.03034e-23 0.0
0.0 -2.2234276e-12 1.063574e-27 -3.92986e-12 3.2068246e-07 -8.120806e-06 -4.6369687e-06 -1.6576403e-05
-0.00010757198 -0.0001615052 -0.0001324527 -0.0001686824 5.6229183e-05 0.0003681243 0.00049637497 0.00040131406
-0.000119185024 -0.000104274215 6.690866e-06 -6.464745e-05 -3.3477507e-05 -0.00010732715 -0.00034469366 -0.00028483785
-2.7702806e-06 -8.206182e-08 -2.2122885e-13 2.2530328e-27 0.0 0.0 -6.219894e-12 -1.5504853e-06
-1.0735158e-05 -3.7710266e-05 -3.5959478e-05 -3.6054273e-05 -0.00018372593 -0.00016971564 -3.1315394e-05 -0.00033093206
-0.0005234953 -0.00034437285 -8.0903825e-05 -0.0001470381 -0.00032098478 -0.0001412973 8.654269e-05 -0.0002914997
-0.0005621021 -0.00051943515 -0.0004439642 -0.00030906958 -3.9321225e-05 -6.307625e-08 -7.522709e-08 3.325906e-27
0.0 -5.220015e-10 1.6724514e-06 3.0097572e-06 3.8617072e-06 3.2076607e-06 -4.646505e-05 -0.00011341882
-0.000100408404 -7.2926436e-05 -0.00024968438 -0.00057998317 -0.0010038528 -0.00086223584 -0.00048937986 -0.00040161127
-0.0006407236 -0.0008784805 -0.0008687958 -0.0004121331 -0.0005049831 -0.0005492046 -0.0001819612 -0.00014146302
-8.929461e-05 -3.5777703e-05 -2.3805402e-05 3.7435754e-23 4.613572e-12 -1.0752846e-08 3.2852638e-06 7.55622e-06
-2.9285693e-06 -2.6883677e-05 -0.00013416634 -0.00025142034 -0.00041314354 -0.00062361406 -0.0007766044 -0.0009838559
-0.0010698017 -0.0009185776 -0.00089363666 -0.0012271614 -0.0011437791 -0.0013465206 -0.0012032604 -0.00093687646
-0.00041455872 1.2887931e-05 1.3363843e-05 -7.3585696e-05 -9.9108576e-05 -3.0237234e-05 -2.5505183e-06 6.551156e-23
1.8748772e-11 6.4188703e-09 -1.4758508e-06 2.5631525e-06 -2.126259e-05 -2.4269862e-05 -0.00027704355 -0.00043841923
-0.00038591566 -0.0006708674 -0.0007854678 -0.0011223304 -0.0010525261 -0.0006564225 -0.0008650866 -0.0010477683
-0.001037381 -0.0012696342 -0.0013482699 -0.0007614289 -0.00019049947 0.00011944381 8.8043744e-05 -6.079189e-06
-4.0332387e-05 -4.8073193e-06 -1.5529821e-08 -5.5189765e-21 3.0429936e-12 5.179224e-08 9.642323e-07 -8.2379955e-07

exp_avg_sq f4 [50, 784]
00000000: 0000 0000 0000 0000 0000 0000 0000 0000
00000010: 0000 0000 0000 0000 0000 0000 0000 0000
00000020: 0000 0000 0000 0000 0000 0000 0000 0000
00000030: b9a2 a42c 7669 cb2d 1053 442b b782 ae26
00000040: 0000 0000 0000 0000 0000 0000 0000 0000
00000050: 0000 0000 0000 0000 0000 0000 0000 0000
00000060: 0000 0000 0000 0000 0000 0000 0000 0000
00000070: 0000 0000 0000 0000 0000 0000 0000 0000
00000080: 6228 8525 2ea0 0f27 2b90 0d28 1154 112c
00000090: ded8 212f 1429 ea2e 38be a32f ead5 8e30
000000a0: e46b 802d ed55 b52f 13f9 5331 8f7f 9331
000000b0: 2628 b831 5df7 8630 0424 4c2f ded9 062e
000000c0: 4565 9c2c e638 762b 5862 5a28 0000 0000
000000d0: 0000 0000 0000 0000 0000 0000 0000 0000
000000e0: 0000 0000 0000 0000 0000 0000 0000 0000
000000f0: 4fea 0229 d0da 3928 e8ba a82d 9071 1e30
00000100: a0d1 c031 446c 6b33 8970 7133 f94a 1c33
00000110: 4ffa 9433 e63d 4c34 2a47 4434 7ae8 6334
00000120: fff2 0d34 1a54 0434 a36f 2834 91a2 2b33
00000130: d16c 4932 3545 b231 8a68 3231 86d2 cb30
00000140: 212e 4032 10ac 9d31 0000 0000 0000 0000
00000150: 0000 0000 0000 0000 46d0 5f2d 0956 812b
00000160: eff2 3731 9bad 6a32 06eb 5932 8cef 9933
00000170: 8c48 d833 a9be 2934 22c4 8a34 73ff 9d34
00000180: 0230 0135 cebd 5735 de6d 9f35 f561 a535
00000190: dac1 9535 5b74 8335 9272 3e35 103f 1035
000001a0: 8323 d034 1966 5f34 01e1 e733 a102 1333
000001b0: cfd0 ea32 e954 b431 2fb8 c230 0000 0000
000001c0: 0000 0000 a639 a326 1af3 2d2f cfaa 4d2f
000001d0: b978 1232 546c ab33 de7c 2b34 3403 8934
000001e0: 3e95 f834 392c 4935 ad05 8a35 8051 dd35
000001f0: 1103 1c36 68f0 5536 a3f4 8b36 2bdf 9d36
00000200: 3b5b 9236 2d86 7836 faea 3936 624c 0536
00000210: f4fc b935 a8c9 6a35 2d7a fb34 43c1 5934
00000220: 0257 2834 c588 ac32 426b 2231 2080 0331
00000230: 0000 0000 0000 0000 95e8 da2c fef5 df31
00000240: 7832 8133 ebb3 7d34 7392 e234 2148 5735
00000250: 5acb ae35 efbe 0a36 ec8d 5436 af73 a236
00000260: 6472 dd36 9aca 0437 d1ce 1637 af2c 2137
00000270: 7298 1537 cf3f f036 2fc3 b036 9e14 8136
00000280: 4996 3136 e8fe ce35 1185 5f35 cd4d e034
00000290: 6194 1d34 a598 4033 1848 c032 38a9 8d31
000002a0: 0000 0000 9967 3d2c 1d57 9431 1f69 9c32
000002b0: 0b17 b533 a2a8 8834 982d 5035 9869 c235
000002c0: 3ce8 1b36 f252 7c36 9e66 be36 210a 0537
000002d0: 1fc1 2a37 7e8d 4537 139c 5c37 697c 5e37
000002e0: 70bf 5137 734b 2637 9ec2 0137 f6cc be36
000002f0: 8f30 8136 b298 1936 6fab 9735 e681 f934
00000300: 5058 3534 762e 5c33 822c 8432 c861 d631
00000310: 1b53 1c25 2af8 ad30 ece6 5431 40bc ad32
00000320: bed8 1734 7ad7 d334 dc8b 8835 9e10 0236
00000330: f4fe 5036 403d a536 8d7b e836 11c0 1837
00000340: 00ef 3337 c9a8 4737 1656 5537 a6b0 5b37
00000350: 0a89 5237 0a88 3137 8d1c 1337 a515 e236
00000360: 2680 9b36 8ac2 3536 a0e0 b335 1f84 1635
00000370: da26 3434 4f6b 4633 73c9 6032 d4ac 3731
00000380: 7c5a 2127 08b5 052f b743 f430 a93c 0833
00000390: a04f 6e34 bfc7 2635 35fd b535 5109 2436
000003a0: 6123 7c36 d153 b036 47ca eb36 479c 1037
000003b0: e3de 1b37 8681 2437 af67 2c37 43f5 3837
000003c0: 6c92 3a37 bbb9 2737 3a89 1137 c53b e236
000003d0: bcb4 a036 e6ec 3f36 d9d6 c235 e630 1735
000003e0: 1362 f833 2ed7 d432 58f9 0231 8029 682e
000003f0: ae03 8824 c282 222f e4d0 7d31 1f45 1333
0.0 0.0 0.0 0.0 0.0 0.0 0.0 0.0
0.0 0.0 0.0 0.0 4.679226e-12 2.3125262e-11 6.974846e-13 1.2109106e-15
0.0 0.0 0.0 0.0 0.0 0.0 0.0 0.0
0.0 0.0 0.0 0.0 0.0 0.0 0.0 0.0
2.3099187e-16 1.993207e-15 7.858334e-15 2.0652406e-12 1.4719911e-10 1.0648385e-10 2.9784686e-10 1.0392658e-09
1.4599828e-11 3.2984762e-10 3.0846123e-09 4.292765e-09 5.359669e-09 9.820088e-10 1.8566487e-10 3.0661577e-11
4.44503e-12 8.747572e-13 1.2122756e-14 0.0 0.0 0.0 0.0 0.0
0.0 0.0 0.0 0.0 2.906903e-14 1.031701e-14 1.9182392e-11 5.7641447e-10
5.611767e-09 5.481367e-08 5.6214535e-08 3.6389768e-08 6.937318e-08 1.9021499e-07 1.8279812e-07 2.1225597e-07
1.322005e-07 1.2324054e-07 1.5686832e-07 3.9961893e-08 1.1724482e-08 5.1883497e-09 2.5961833e-09 1.4830028e-09
1.1186359e-08 4.5888626e-09 0.0 0.0 0.0 0.0 1.2722328e-11 9.189881e-13
2.6768097e-09 1.3660066e-08 1.2684501e-08 7.168191e-08 1.007148e-07 1.5808713e-07 2.5847208e-07 2.9429393e-07
4.8126105e-07 8.0369944e-07 1.1878399e-06 1.2321967e-06 1.1157783e-06 9.794124e-07 7.094724e-07 5.373595e-07
3.8768857e-07 2.0805636e-07 1.0797704e-07 3.4228496e-08 2.733614e-08 5.2483426e-09 1.4167706e-09 0.0
0.0 1.1326023e-15 1.5820625e-10 1.8705325e-10 8.525768e-09 7.982513e-08 1.5971042e-07 2.552057e-07
4.6302188e-07 7.494269e-07 1.0283453e-06 1.6489503e-06 2.3247596e-06 3.1879408e-06 4.1710023e-06 4.704945e-06
4.3617597e-06 3.703298e-06 2.7703923e-06 1.9863005e-06 1.3857193e-06 8.746524e-07 4.6841288e-07 2.0280008e-07
1.5677873e-07 2.0085631e-08 2.3635072e-09 1.913584e-09 0.0 0.0 6.2217544e-12 6.5181203e-09
6.016211e-08 2.3627915e-07 4.2202336e-07 8.01987e-07 1.3023193e-06 2.067474e-06 3.167307e-06 4.8414436e-06
6.59963e-06 7.914985e-06 8.98885e-06 9.6067515e-06 8.916586e-06 7.1599857e-06 5.267931e-06 3.8468997e-06
2.6462533e-06 1.5422384e-06 8.326761e-07 4.177986e-07 1.4675744e-07 4.4842313e-08 2.2384526e-08 4.122878e-09
0.0 2.6916024e-12 4.3172705e-09 1.8208594e-08 8.432661e-08 2.545467e-07 7.7552386e-07 1.4484858e-06
2.3231978e-06 3.7599207e-06 5.6743875e-06 7.929776e-06 1.0177754e-05 1.1775059e-05 1.3149361e-05 1.3261198e-05
1.2501943e-05 9.911938e-06 7.734312e-06 5.686302e-06 3.8501526e-06 2.2887657e-06 1.130027e-06 4.6474378e-07
1.6889067e-07 5.1264998e-08 1.5387062e-08 6.239336e-09 1.3559e-16 1.2657939e-09 3.0981324e-09 2.0225457e-08
1.4141821e-07 3.9458592e-07 1.0173494e-06 1.9381182e-06 3.1142818e-06 4.9245136e-06 6.928522e-06 9.104625e-06
1.0724878e-05 1.1900623e-05 1.2715833e-05 1.3094546e-05 1.2548882e-05 1.0581696e-05 8.76853e-06 6.7378446e-06
4.6342784e-06 2.7084338e-06 1.3401914e-06 5.6071616e-07 1.677794e-07 4.6198064e-08 1.308432e-08 2.6728246e-09
2.239229e-15 1.2160595e-10 1.7772582e-09 3.1720138e-08 2.2194445e-07 6.213049e-07 1.3559244e-06 2.4443327e-06
3.757152e-06 5.2549663e-06 7.027094e-06 8.619455e-06 9.290615e-06 9.805319e-06 1.027614e-05 1.1024359e-05
1.1120555e-05 9.997219e-06 8.674624e-06 6.742283e-06 4.789412e-06 2.859911e-06 1.4516655e-06 5.632304e-07
1.15662395e-07 2.47779e-08 1.9059225e-09 5.2787552e-11 5.898683e-17 1.4780269e-10 3.6935086e-09 3.428897e-08

exp_avg f4 [50]
00000000: 5f2a adba 4c5d 8f3a cefb adb9 3c2a 733a
00000010: c341 92ba 921b 1aba bae6 b9b9 ec74 3039
00000020: d075 5fba e032 0fba 488f aab9 67f9 92ba
00000030: c87c 0f38 a41d a3ba d29a 9e3a 445b 1d3b
00000040: cb30 31b9 a758 8bba fa1e 3739 8960 6db9
00000050: 98db 673a 039c f63a 6f86 14ba a0f8 af3a
00000060: 9564 913a 5e98 b83a bde1 7cba d05e 2bbb
00000070: 0400 0000 40b8 26ba 9d27 41ba 3ec8 8239
00000080: cf92 ae3a 368f 2d3b bc71 5139 600a 2aba
00000090: 5de7 823a 6ce7 013b b0cc a1b8 9c17 c1ba
000000a0: d19f 2c3a c222 ab3a f0c5 cd38 8855 e3ba
000000b0: c073 7cba 403f 3a37 0afb 203a 43e3 0f3a
000000c0: 0400 0000 e298 9b3a
-0.001321148 0.0010937839 -0.0003318474 0.0009276008 -0.0011158515 -0.0005878742 -0.00035457854 0.00016828225
-0.00085243303 -0.0005462598 -0.0003253168 -0.0011213244 3.421007e-05 -0.0012444747 0.0012100583 0.0024010697
-0.00016898212 -0.0010631279 0.0001746378 -0.00022638043 0.00088446727 0.0018814806 -0.0005665784 0.0013425536
0.0011092598 0.0014083495 -0.0009646675 -0.0026149042 6e-45 -0.0006359853 -0.00073682686 0.00024944724
0.0013318899 0.0026483065 0.00019974163 -0.00064865313 0.0009987165 0.0019821776 -7.715204e-05 -0.0014731768
0.0006585094 0.0013056623 9.8120305e-05 -0.0017344216 -0.0009630285 1.11011905e-05 0.00061409234 0.0005488882
6e-45 0.0011871124

exp_avg_sq f4 [50]
00000000: c414 e437 5663 6238 a0a6 1438 09d3 4f38
00000010: 3171 5938 1d39 1138 17b0 0738 4e5a 4638
00000020: 3f65 3438 3454 ce37 16d1 4238 3652 b737
00000030: 6309 4438 0916 5f38 5862 1938 af01 6b38
00000040: 65a6 0d38 4ddb 1e38 273e cb37 25a1 1238
00000050: fced 0338 ba30 3538 ad10 ff37 8131 1c38
00000060: 9ab5 3138 7c43 4038 6e49 d337 91d7 f737
00000070: 4ca1 0533 b191 6638 33b4 8a38 3f50 9137
00000080: f1ca 3c38 1a02 3538 73c7 0438 644f d337
00000090: 965f 1b38 f013 4138 9895 1038 e6a8 4d38
000000a0: 394a 6038 afb7 ae37 9064 3d38 dfc9 1838
000000b0: fa2b 3538 5b37 3538 2f4e 7d37 dbf6 2338
000000c0: 0300 8730 acce 3038
2.7189388e-05 5.3975113e-05 3.544113e-05 4.9549188e-05 5.184225e-05 3.4623885e-05 3.2350505e-05 4.729098e-05
4.3009637e-05 2.4596324e-05 4.644793e-05 2.1853582e-05 4.6738784e-05 5.3187865e-05 3.6569632e-05 5.6029934e-05
3.3771987e-05 3.7874375e-05 2.4228428e-05 3.495919e-05 3.1454474e-05 4.3199143e-05 3.0406134e-05 3.7239402e-05
4.2369218e-05 4.5839217e-05 2.5187353e-05 2.9545075e-05 3.1113174e-08 5.497196e-05 6.6139175e-05 1.7322714e-05
4.5011697e-05 4.315572e-05 3.1657004e-05 2.519013e-05 3.70439e-05 4.6033354e-05 3.4471595e-05 4.9033108e-05
5.3474887e-05 2.082795e-05 4.5154768e-05 3.642763e-05 4.319472e-05 4.3205317e-05 1.5098179e-05 3.909213e-05
9.822546e-10 4.2154148e-05

exp_avg f4 [10, 50]
00000000: 2cd3 d43a 3015 233a 6d40 843a 9c4d e4b9
00000010: 0689 b63a 594c 0f39 0290 73bb cae4 003a
00000020: 18c3 8237 547d 7ebb 051d fdb8 5dec f939
00000030: 831c c03a be04 16ba 3c71 09bb 59c7 02bb
00000040: 3dff debb 2965 2bba 07c4 fdb9 cef6 a0ba
00000050: 6ee8 38bb aa4f d039 434c 1739 f40f 54bb
00000060: 50b3 2abb b734 0e3a 2d64 98ba baab 44bb
00000070: 0400 0080 3d45 a439 99fa 4639 5cb4 d6bb
00000080: e8d1 593a 4ecd 18bb a6bb efb9 fb7c f639
00000090: 040c 34ba 1641 ef39 fa7d d938 450b bfb9
000000a0: 419d 5fba 0ce0 b4bb 8fe7 dfb8 e4c6 263a
000000b0: f8f0 d63a 11d0 e839 75e6 91bb 348d b4bb
000000c0: 0400 0000 1934 17bb 024b 62bc 9d04 80bb
000000d0: 41f3 24bc e8e1 5138 508d 04bc 745e dcbb
000000e0: e9de 50bc d5c3 25ba 9ac0 f3bb e6da fabb
000000f0: bc14 3bbc 2994 77bb df3f 0dbc c309 3fbc
00000100: 9905 1eba 6c01 44bc 3f70 19ba 6352 f7bb
00000110: 58f4 5b39 ad8b 14bc f03c 09bc 36f0 8ebc
00000120: 8a1a 5fbb f319 90bb 4d4a 82bb e7fb 873a
00000130: 03db 05bc 5e19 8dbb 0400 0080 fd29 0b3a
00000140: 00fe 00bc 12f8 22ba b76e 15bb 573e f8bb
00000150: 1423 3dbc 7b8c f4b9 32a7 1aba f417 6dbc
00000160: 6925 44bb ec52 a3ba 28c2 18bb 243a d1bb
00000170: fc91 f6b9 5ce7 27bc 3cb5 04bc cced a2b9
00000180: a25e f536 bbe4 683a 0400 0000 ff8c 55bb
00000190: 821b 513a 9ba7 9fb8 c0ff e43b 95c6 2dbb
000001a0: 5da2 393b dd6f db3b 9794 843b 9047 bcba
000001b0: 6fd8 7c3b 1893 2c3b 7865 93b9 36b6 0e3c
000001c0: 8c8c 2e3b 377e 923b 4b60 383b 67cf f13b
000001d0: 5ec7 e73a 15a1 b53b cede 9d3b 370a 4c3b
000001e0: 9a2a 1c3b 74a4 933b e774 ae39 9872 bab8
000001f0: 5b2b 143c da63 da3b a85b 5e3b b804 88b8
00000200: 0400 0000 b2c2 9b3a 2faf f03b a91e 9f3a
00000210: 3ad8 903b f2ce e3b9 7e12 073c db0e 1b3c
00000220: d1a4 96ba 0fd6 e23b a430 0d3b 1bfb 7b3b
00000230: dda1 d13b e0e3 1f3b e674 c03b 7183 2b3b
00000240: 5405 1e3a fa34 263a 7dd9 663b a728 a03b
00000250: 0400 0000 6a17 1e3c 2410 af3b 95f6 653a
00000260: 73a5 25bc 91a5 48bb dc2d 1cba b4e0 09bb
00000270: 2977 633b 2472 8fbb fbfe f33b 12da bf3a
00000280: cb6d 953a 20fc 36bc 347a 94bb aea7 10ba
00000290: d1de 0239 5610 bebb 660a 183b 540d 6bb8
000002a0: cdc5 47bb 363c 9f3b 212b 4bbb 39d4 1b3b
000002b0: 17e6 4d3a 51db f63b 8741 50bc d447 20bc
000002c0: a1b1 bd3b 025c a93b 0400 0080 e3d6 0a3a
000002d0: 8d91 90bb 6ec2 c93a cc61 b6bb e91f 083b
000002e0: a004 94bb b297 6dbc 07c9 3fbb ba5f 6f3b
000002f0: 854c 9fbb e321 1a3b c650 bfbb e1de 44ba
00000300: 7532 80bb a2c8 183b b72a a23b 41c0 3bbb
00000310: e4e5 f3ba bbd2 cdbb 0400 0080 2963 1fbc
00000320: df10 ae3a fabb fc3a ea0d 1e3b d6f0 a23a
00000330: 10cf 13bb aede 0a3b 8cb2 773a b2c4 333b
00000340: c132 00bc 4805 f5ba 2666 ff3a 981c edbb
00000350: 1986 873a 3949 993a 7d8e abbb 6ce5 10bc
00000360: 6e98 8bbb 5810 d3bb 00fc 13bc b377 883a
00000370: 0daf 3abb c079 c13a ba0a d53a 4bc0 883a
00000380: 5070 5439 6497 2039 4355 57bb f4c3 b8bb
00000390: 0400 0000 aae3 133b f036 c63b e9f3 34bc
000003a0: e248 e6ba 6ef9 e8ba 7de2 a63b 89cc 30bc
000003b0: 3150 ad3a 36a4 bfba 4b61 9e3a e0fd fbbb
000003c0: 60c8 1ebc 73aa 13bc 5001 bdbb 14b6 9b3a
000003d0: 0bd6 14bb 656e 25bb 6daa 63bb 96c8 d7bb
000003e0: 0400 0080 a810 5dbc d538 5b3a 3953 153a
000003f0: 8edd 123a b5d7 a9b9 1039 2fbb b8a9 16ba
0.001623725 0.0006221114 0.0010090001 -0.00043545372 0.0013926334 0.00013665984 -0.0037164693 0.0004916905
1.5588055e-05 -0.0038832026 -0.000120693854 0.00047669085 0.0014656935 -0.00057227525 -0.0020972034 -0.0019955246
-0.006805329 -0.00065382064 -0.00048401972 -0.0012280585 -0.002821471 0.00039732206 0.00014428892 -0.0032358142
-0.002604682 0.0005424725 -0.0011626534 -0.0030009584 -6e-45 0.00031332104 0.00018976106 -0.006552262
0.00083091715 -0.002331573 -0.0004572544 0.00047013894 -0.00068682455 0.00045634125 0.00010370831 -0.00036438755
-0.00085302076 -0.0055198725 -0.000106766 0.00063620345 0.0016398719 0.0004440551 -0.0044525214 -0.005509997
6e-45 -0.0023071824 -0.013811829 -0.0039068 -0.010067762 5.0039875e-05 -0.008090332 -0.006725127
-0.012748458 -0.0006323432 -0.0074387314 -0.0076554893 -0.011418518 -0.003777752 -0.008621185 -0.011660042
-0.0006028056 -0.01196323 -0.0005853213 -0.007547663 0.00020976493 -0.009066504 -0.008376345 -0.017448526
-0.0034042918 -0.0043976246 -0.0039761425 0.0010374755 -0.008169892 -0.0043060025 -6e-45 0.0005308686
-0.007873058 -0.0006216775 -0.0022801587 -0.007575791 -0.011544008 -0.00046643973 -0.0005899548 -0.014471043
-0.0029929525 -0.0012460626 -0.0023309086 -0.0063851047 -0.00047029543 -0.0102480315 -0.00809985 -0.0003107622
7.3125857e-06 0.0008884181 6e-45 -0.003258526 0.0007976816 -7.61293e-05 0.0069884956 -0.002651607
0.0028325536 0.0066966848 0.0040460336 -0.0014364589 0.0038581153 0.0026332792 -0.00028113625 0.008710435
0.0026634065 0.0044706124 0.0028133567 0.0073794606 0.0017683317 0.005542884 0.00481782 0.0031134018
0.0023829103 0.0045056883 0.00033274965 -8.890516e-05 0.00904354 0.0066647353 0.0033929143 -6.485864e-05
6e-45 0.0011883585 0.0073451023 0.0012139875 0.0044203075 -0.00043451 0.008244155 0.009463991
-0.0011493211 0.0069224904 0.0021543885 0.003844923 0.0063974694 0.0024397299 0.0058733104 0.0026170874
0.00060280156 0.00063402916 0.0035224848 0.0048876586 6e-45 0.009649137 0.0053425003 0.00087724003
-0.010110247 -0.0030616263 -0.00059577613 -0.0021038475 0.0034708476 -0.0043776203 0.0074461675 0.0014637134
0.0011400519 -0.01116851 -0.0045311693 -0.000551815 0.00012480772 -0.0058002872 0.0023199557 -5.604078e-05
-0.0030482889 0.0048594726 -0.0031001049 0.0023777618 0.00078544155 0.007533469 -0.012710935 -0.00978275
0.0057889973 0.005168439 -6e-45 0.0005296303 -0.0044118823 0.0015393028 -0.0055658575 0.0020770973
-0.004517153 -0.014501499 -0.0029264109 0.0036525563 -0.0048614168 0.0023518733 -0.0058384864 -0.0007510018
-0.003912265 0.0023312946 0.0049489397 -0.0028648528 -0.0018607941 -0.0062812245 -6e-45 -0.0097282315
0.0013280174 0.0019282096 0.002411718 0.0012431394 -0.0022553839 0.0021189856 0.0009448908 0.0027430472
-0.007824601 -0.001869359 0.0019485399 -0.0072360747 0.0010339647 0.0011694796 -0.005235492 -0.008843761
-0.0042601144 -0.0064411573 -0.009032249 0.001041165 -0.0028485686 0.0014761016 0.0016253807 0.0010433284
0.00020259735 0.00015315186 -0.0032857216 -0.005638594 6e-45 0.0022566118 0.0060490295 -0.011044481
-0.0017569328 -0.0017774531 0.0050929175 -0.0107909525 0.0013222751 -0.0014621082 0.0012083439 -0.0076901764
-0.009691328 -0.009012806 -0.0057679787 0.0011879825 -0.0022710587 -0.0025242802 -0.0034739033 -0.006585191
-6e-45 -0.013492741 0.00083626556 0.00056963 0.0005602472 -0.00032394906 -0.0026736893 -0.0005747336

exp_avg_sq f4 [10, 50]
00000000: 66f8 0539 6eea 8438 4dc9 0539 7e69 c938
00000010: 18c2 4639 320b 4038 16aa a23a c0df 7a39
00000020: 296b 4439 e009 893a 6383 8439 5292 0739
00000030: 12bc 5d39 1796 f438 64ae f339 6abc 983a
00000040: 950d ce3a 1359 be39 7e9b db38 1dd2 8c39
00000050: 6e3e 363a c14c 5d39 f3d9 3638 7a4a 173a
00000060: cc01 5c3a 60ee 8139 e17d 213a 3042 db39
00000070: 8550 ca30 7d0f 2739 f825 c738 d983 033a
00000080: 9ddf 1939 2fa8 273a a8fc b839 408b 0239
00000090: c63b 4538 9de1 7b39 7bda 0639 e814 0f39
000000a0: 834a ed39 5845 e73a 7216 6c39 ee16 9d38
000000b0: 9e40 7d39 1270 a738 d8a6 403a 4aac b83a
000000c0: 1136 1a2c 307f 823a e362 463a b41a d839
000000d0: a98f 5b3a e1d1 9f39 529e 4c3a f344 5539
000000e0: 5171 833a fcba 283a e306 6839 f53e 133a
000000f0: 3b11 b439 2ca5 6639 c50f 793a 8e49 1239
00000100: 613a 6337 16f5 2d3a 8654 2639 ad33 5a39
00000110: 9ee5 6737 1386 5a39 9fe6 8539 277e 9c39
00000120: 4395 5739 41f3 1039 89a4 3a39 82da e438
00000130: 7645 8939 1dc5 1138 07f9 4331 8beb 8439
00000140: 33e9 0c3a b39b 3f36 33af 5039 1e47 0539
00000150: 7374 753a 4baa 5138 744a d037 82bc 0939
00000160: 6cb1 8038 4d16 ce37 254c 0739 785b a239
00000170: c7a3 3f38 21fa ba39 2387 643a 80ab 213a
00000180: d502 5237 25b7 1339 5ab1 8e2b cb0c 5239
00000190: 099b a73a 3284 1439 c12f a83a 5fd6 5839
000001a0: d9b6 ad3a 8985 2b39 4c9d 123b e033 4839
000001b0: d9ed 693a 5ffc 883a 21ea 653a 6110 f439
000001c0: 7efa 983a cb2f e638 971a 3939 9904 2f3b
000001d0: 26d4 503a 7d48 333a 9b92 1c39 53b2 203a
000001e0: 052e 913a 6a3e b43a 63c2 c038 6eb9 393a
000001f0: 3f37 ce3a 69ab 043a 3d03 193a 266f f839
00000200: e608 2231 dd14 a738 bbf5 093a b8a6 cc39
00000210: 4941 353a c800 8e3a 3d22 b03a 3fb7 fd39
00000220: c378 5638 38b3 183a 7316 af39 469d a439
00000230: 3306 283a a504 153b a5f7 173a fbba ff39
00000240: f834 c83a f77a 9539 a426 e939 d423 933a
00000250: 4138 2b2c 708c 993a ac66 063b 3881 283a
00000260: 5ae0 d73a e2c5 5539 fa18 523a d4ec 9839
00000270: 1381 493b 3b43 7e3a 8137 063a c758 fd3a
00000280: 9502 7f3a 423c e23a ea71 933a 5d91 693a
00000290: 8ed1 8639 dee7 623b 6cca b13a e8f1 8e3a
000002a0: d6de f138 9ce5 7e3a d3a3 1d3b 6b73 0f3b
000002b0: a3bb 4d39 0fa0 df3a 8cee 1f3b c7bf ff39
000002c0: dbb9 e539 71ca 6639 f5b6 8a30 5c6b d339
000002d0: 531d c23a 3d3b 2539 d2c7 b739 b242 7c3a
000002e0: f349 3e3b ef68 6c3a 9ef1 9a39 b914 393a
000002f0: 359c 8639 caf5 a638 88ee eb39 ce89 6c3b
00000300: deb0 da38 cb40 9039 3bb2 d63a 476f a839
00000310: 9e85 9839 7678 983a 2e11 e72d fc3d f33a
00000320: f617 b838 0298 1e39 b999 2e3a ea2c 8239
00000330: 1415 6239 7401 3b3a ac86 da39 d364 2a3a
00000340: eb26 143a 6052 9939 d52e d538 47ef e83a
00000350: 5170 db39 c6f6 6039 cb48 c439 2c7f ad3a
00000360: c90a 403a ca62 613a 656d 223a 6118 3538
00000370: da0a d939 3566 2538 ab20 e738 b06f 5939
00000380: ee8b 7f3a e7a9 9639 b5a4 5c39 fe97 b639
00000390: d33c a730 665a eb39 d49b 423a ae00 1b39
000003a0: d6bf 9b39 6e33 6939 f627 943a 4d8f b23a
000003b0: 3644 3a38 e2fe c838 0506 7438 9d69 0b3a
000003c0: dd74 823a 26f0 933a 7ceb 7a3a 51db 2a3a
000003d0: 76a1 9d39 08ef 103a 3aa8 bc39 caad 943a
000003e0: 7e2d 162f f9f0 113b 555b 443a 1c12 b739
000003f0: 7863 c739 1406 6039 9184 b439 a366 e838
0.00012776404 6.3379164e-05 0.00012758859 9.604076e-05 0.00018955057 4.5786794e-05 0.0012410309 0.00023925211
0.00018731937 0.0010455213 0.00025274893 0.00012929112 0.00021146264 0.00011662783 0.00046478503 0.0011652831
0.00157206 0.0003630599 0.000104716964 0.00026859427 0.0006952052 0.00021104795 4.3595162e-05 0.0005771291
0.0008392602 0.000247824 0.000616042 0.0004182025 1.4720319e-09 0.00015932131 9.496132e-05 0.00050169
0.0001467452 0.0006395606 0.00035283458 0.00012449641 4.702413e-05 0.00024021273 0.00012860626 0.00013645331
0.00045259678 0.0017644567 0.00022515075 7.4906144e-05 0.00024152032 7.984055e-05 0.00073490804 0.0014089432
2.191473e-12 0.0009956118 0.0007567836 0.00041218626 0.0008375594 0.00030483215 0.0007805574 0.00020338949
0.0010028278 0.0006436554 0.0002212781 0.00056169863 0.00034345113 0.0002199604 0.0009500946 0.00013951046
1.3543847e-05 0.0006635947 0.00015862481 0.00020809351 1.3822135e-05 0.00020840047 0.00025539563 0.0002984863
0.00020559602 0.0001382353 0.00017799636 0.000109125875 0.0002618243 3.475427e-05 2.851779e-09 0.00025352495
0.00053753256 2.8551847e-06 0.00019901693 0.00012710362 0.00093633606 4.998808e-05 2.4830202e-05 0.00013135563
6.136563e-05 2.4567498e-05 0.0001290297 0.00030967197 4.5690478e-05 0.00035663045 0.00087176467 0.0006167218
1.2517635e-05 0.00014087239 1.0138932e-12 0.00020031926 0.0012787293 0.00014163626 0.0012831615 0.00020679225
0.0013253345 0.00016357577 0.0022371588 0.00019092811 0.00089236867 0.0010451189 0.00087705447 0.0004655151
0.0011671332 0.00010976157 0.0001765288 0.0026705621 0.0007966183 0.00068391097 0.00014931934 0.0006130088
0.0011076337 0.0013751511 9.191481e-05 0.0007084821 0.0015733017 0.00050609425 0.00058369694 0.00047385058
2.357916e-09 7.9670666e-05 0.0005262752 0.00039034127 0.00069143303 0.0010833973 0.0013437938 0.0004839245
5.1134044e-05 0.00058250455 0.00033395327 0.00031397695 0.0006409615 0.0022738364 0.0005797095 0.000487767
0.0015274575 0.0002851111 0.00044470013 0.0011225888 2.4331789e-12 0.0011714827 0.0020507975 0.00064279465
0.001647006 0.0002038698 0.0008014586 0.0002916815 0.00307471 0.0009699349 0.0005119965 0.0019328826
0.0009727863 0.001726039 0.0011249159 0.00089099054 0.00025714602 0.0034623067 0.0013564355 0.0010905834
0.00011533282 0.00097235455 0.0024053946 0.0021888863 0.00019620224 0.0017061251 0.002440366 0.00048780275
0.00043816757 0.00022009925 1.0092821e-09 0.00040325045 0.0014809765 0.00015757694 0.00035053358 0.00096229755
0.0029035776 0.0009018322 0.00029553188 0.0007060278 0.00025674855 7.9612786e-05 0.00045000413 0.003609288
0.00010427994 0.00027514095 0.0016380021 0.00032126365 0.00029091252 0.001163258 2.6269289e-11 0.0018557901
8.778267e-05 0.00015124682 0.00066604797 0.00024828996 0.00021560892 0.00071337004 0.0004168054 0.00065000093
0.0005651551 0.00029243808 0.000101653546 0.0017771506 0.00041854617 0.00021454235 0.00037438268 0.0013236753
0.0007325826 0.00085977896 0.00061961106 4.3176467e-05 0.0004139755 3.9434253e-05 0.00011021023 0.0002073634
0.0009748329 0.00028736817 0.00021042193 0.00034826988 1.2168136e-09 0.00044890045 0.0007423733 0.00014782205
0.00029706833 0.0002223977 0.0011303413 0.0013623029 4.4409382e-05 9.584219e-05 5.817974e-05 0.0005318167
0.0009953041 0.001128678 0.0009571833 0.0006517666 0.0003006567 0.00055287825 0.00035983493 0.0011343297
1.3658583e-10 0.0022268875 0.0007490416 0.00034917973 0.00038030348 0.00021364569 0.00034431045 0.0001108174

exp_avg f4 [10]
00000000: 5bf1 1bba a23f 7bbb d115 123b 20c0 5ab8
00000010: f823 cbba 649c 933a 15ed 2aba 62af 87b9
00000020: 3c3c b63a 07e8 0f3b
-0.00059487455 -0.0038337489 0.0022290836 -5.215418e-05 -0.001549839 0.0011261818 -0.00065203133 -0.00025879877
0.0013903449 0.0021958367

exp_avg_sq f4 [10]
00000000: dd08 9c38 f112 b738 022c 1b39 4d5a 5239
00000010: 7fe5 0c39 6bb6 4439 8a7a ba38 da33 1739
00000020: d85c 6139 2239 5639
7.4403106e-05 8.729648e-05 0.00014798346 0.000200608 0.00013436934 0.00018759973 8.891996e-05 0.00014419798
0.00021492259 0.00020429914
