LSTM_TimeSeries/lightning_logs/version_89/checkpoints/epoch=0-step=130.ckpt (torch, 670619 bytes, 30 tensors)

model.lstm.weight_ih_l0 f4 [416, 9]
000000 e3 84 aa 3c 11 34 43 3c f5 43 88 bd 81 83 fa bc
       0.020815318 0.011914269 -0.06653587 -0.030580284
000010 81 c7 6a bd fd b0 04 3d 68 85 11 3d fc 42 7c bd
       -0.057319168 0.03239535 0.035527617 -0.06158732
000020 34 a2 66 3d 50 1e d4 bc 7e 21 2d 3b 9f 21 cc 3d
       0.056307033 -0.02589336 0.0026417668 0.0996735
000030 40 2a 76 bd 34 25 96 3d 49 fe a6 bd 15 4d 54 bc
       -0.060098886 0.07331315 -0.0815397 -0.012957831
000040 b4 6b af bc 84 17 b3 3d ce a6 3c 3d fd 74 69 bc
       -0.021413662 0.087447196 0.046057515 -0.014249084
000050 8a 97 86 bd d8 af 9d 3d 24 df a0 3d 41 b3 ad 3c
       -0.065718725 0.07699555 0.07855061 0.021203639
000060 42 6f 99 3c 44 5e 85 3d b1 73 ef 3d d1 93 aa 3c
       0.01872981 0.0651212 0.11691988 0.020822437
000070 56 2d e8 3d ae 4b dd 3d 08 d2 9f 3d 91 8a d2 3d
       0.11336772 0.108054504 0.07803732 0.10280336
000080 4f 4e 2e 3c e1 51 e1 bc 7a ef 29 3d 37 fb ea 3c
       0.010638787 -0.027504863 0.04148815 0.028684242
000090 8b 78 68 3d d4 90 60 bd 49 f0 c3 3c fa 81 93 3d
       0.056755584 -0.05482562 0.023918288 0.072025254
0000a0 c7 f3 2d 3d 0d e4 5e bd 19 41 e7 3c c0 c9 00 bd
       0.042468812 -0.054416705 0.028229283 -0.031442404
0000b0 c0 dd 10 3c c4 8c 6c bc 36 0e 1d bc dc fd a8 3d
       0.008841932 -0.014437858 -0.009585908 0.08251545
0000c0 39 6b bd b8 39 cf 81 3c e6 97 2f 3d 34 55 44 3d
       -9.032194e-05 0.015845882 0.04286947 0.04793282
0000d0 c9 cb 96 bd 29 d8 30 3d d5 4b 34 bd 9b 8d c9 3d
       -0.07363088 0.043174896 -0.04401763 0.09841462
0000e0 06 45 e6 bb 9c 2c c1 3c c1 93 99 bd ff e7 ce bc
       -0.007027271 0.023580842 -0.07498885 -0.025257109
0000f0 4b 51 10 bc 88 7a 90 3c 26 36 3e bd d7 f7 c1 3d
       -0.008808444 0.017636552 -0.04643836 0.094711
000100 bc c9 5c bd 71 0f ec 3d 19 65 dc 3d 2e cf b7 bc
       -0.053903326 0.11526383 0.1076147 -0.022437658
000110 6b 56 23 3d 3a 7a f6 3c 6a 50 20 bc f7 c6 df ba
       0.039877336 0.030087579 -0.009784797 -0.0017072846
000120 1a e2 2c bc e7 79 67 3c 42 af ad 3b 60 81 a8 3d
       -0.010551954 0.014128185 0.0053004334 0.08227801
000130 7e 81 3f 3d 51 2d ba 3d 5d 49 a6 bc a3 de 05 3e
       0.046754353 0.09090675 -0.020298654 0.1307321
000140 47 0a a6 3d 00 d8 59 3d 4b d6 95 bc af e0 aa 3d
       0.08107429 0.05318451 -0.01829066 0.08343636
000150 ca 3a da 3d 75 9d c7 3c cd ea 74 bd 7a 4d c2 3d
       0.106557444 0.024367074 -0.059794236 0.09487434
000160 a5 d7 00 3e 00 3c ae 3c 8a e9 c4 bc 3b 41 c0 3d
       0.12582262 0.021268845 -0.024037141 0.09387442
000170 8f 8b c4 3d 4b b5 86 3d df 90 97 3d 81 8a f6 3c
       0.09596931 0.06577548 0.07400679 0.03009534
000180 0d dd 30 3c 6e df b5 3d 21 ed da 3d 25 5a 89 3d
       0.01079489 0.088805065 0.1068976 0.06706647
000190 e3 56 02 3d d2 f8 c0 bc dd 3d 68 3d d0 ea 78 bd
       0.031821143 -0.023556147 0.056699622 -0.06077081
0001a0 3a 9a 06 bc b1 f0 50 3c 59 8f 51 bd 90 7a dd 3d
       -0.008215481 0.012752698 -0.051162098 0.108143926
0001b0 33 75 d4 bc 28 76 f8 3c 1d b8 90 bc 93 63 e7 3d
       -0.025934791 0.030329779 -0.017665917 0.11298289
0001c0 f4 49 83 3d 65 c4 97 3d 87 f1 b8 bc 01 61 25 3d
       0.0641059 0.07410506 -0.022576107 0.040375713
0001d0 ee 93 e1 3c 40 6e 91 3d d5 86 75 3d 84 29 03 bd
       0.027536359 0.07101107 0.05994304 -0.032022014
0001e0 96 98 90 3c b9 18 63 bd 88 37 15 3d 82 00 8b 3c
       0.017650884 -0.0554435 0.03642991 0.016968016
0001f0 30 26 92 bd 4b d6 ac 3d c9 ec 40 3d c7 6c 05 bd
       -0.0713619 0.08439311 0.047100816 -0.03257444
000200 45 cc 0f 3c 83 a6 08 3d 51 26 e1 3d 07 ad 94 3c
       0.008776729 0.033361923 0.109936364 0.018148912
000210 85 d0 95 3d 93 90 fc 3d 71 e6 f8 bb b2 7d b6 3d
       0.073151626 0.12332263 -0.00759583 0.08910693
000220 45 f7 3d bd 20 97 f7 bc 8e 8c 44 3b 60 bf 5a 3d
       -0.046378393 -0.03022343 0.0029991004 0.053405166
000230 54 0c 63 3d d4 3c b7 3d a9 4d dd 3c 37 45 bd 3d
       0.05543168 0.08947149 0.02701457 0.09241717
000240 ef 8c 00 3d ba 44 a2 bd 2c 00 08 3d e1 52 27 3d
       0.031384405 -0.07923265 0.03320329 0.040850524
000250 ad ed 54 3d 09 56 52 bc 64 34 5e 3c 81 4b a0 3d
       0.051984478 -0.012837895 0.013562296 0.07826901
000260 4f f7 10 bc 1d f7 62 bb bf 90 10 bd 3f 81 b0 3d
       -0.008848025 -0.0034632154 -0.03529429 0.08618402
000270 33 31 82 bc c5 21 6b bd 90 0f 17 3d 21 ed 02 3e
       -0.0158926 -0.057405252 0.036880076 0.1278577
000280 26 57 ca 3c cf 6e 83 3d 0c 06 0f 3d c9 a9 20 3d
       0.024699759 0.064176194 0.034917876 0.03922442
000290 52 1e ab 3d 01 1b 71 bd 60 74 f8 3d 85 e3 93 3d
       0.083553925 -0.058863644 0.12131572 0.0722113
0002a0 c1 9f 0e 3d b3 73 af 3d 51 4a 03 bd 7f bf 46 bd
       0.034820322 0.0856699 -0.032053296 -0.04852247
0002b0 41 7a 85 3d 32 51 d1 3d b6 c4 e4 b9 f9 ec d6 3c
       0.06517459 0.10220565 -0.0004363411 0.026236044
0002c0 5a e2 33 3d c9 1c 34 3d 9c f4 11 3d fd 20 b9 3d
       0.043917038 0.043972764 0.03563367 0.09039495
0002d0 6a cf 90 bd 47 df d3 ba 28 62 81 3d 1b 85 d7 39
       -0.07070811 -0.0016164564 0.0631755 0.00041107167
0002e0 29 63 53 3a eb 77 6f bd 31 3c fd 3d 85 a5 88 3d
       0.0008063787 -0.058463972 0.12364996 0.06672195
0002f0 e3 af 1e bd 1f bd 8b 3d 0b f5 a6 3d b8 d7 98 3d
       -0.038741957 0.06823181 0.08152207 0.0746302
000300 91 43 93 3d 25 c5 94 3d cb 07 f9 bc 59 1b b6 3d
       0.07190622 0.07264165 -0.030399224 0.08891935
000310 d1 7e 31 3d bc ba d6 3d 98 ba 1c 3d fb 74 91 3d
       0.043333832 0.104848355 0.038263887 0.071023904
000320 f1 5e 98 bc d9 c8 a9 bc ba be d1 3b 2e e6 13 bc
       -0.01859996 -0.020725654 0.00640091 -0.009027047
000330 d5 93 e8 39 84 b6 1f 3d 29 b0 76 3d d6 c3 c9 3d
       0.00044360632 0.03899242 0.060226593 0.09851806
000340 29 60 ad 3d 3a 63 5a bc 85 ff b0 3d bd 49 a2 3c
       0.08465607 -0.0133293215 0.086424865 0.019810552
000350 64 ef 8d 3c bc 33 99 bc 78 bb b3 bc 41 3f 21 3d
       0.017326064 -0.018701427 -0.021939978 0.039366964
000360 88 a2 75 3d 84 79 9f 3d f9 74 73 3c 7a 2b 66 3d
       0.059969455 0.07786849 0.014859431 0.056193806
000370 85 23 4d bc 11 26 7e 3c 18 30 91 bb 56 9f f2 3d
       -0.012520676 0.015512005 -0.004430782 0.11846797
000380 ce 25 1b 3c d9 d6 bc bd c1 1f b8 3d 77 5d 42 bc
       0.009469463 -0.092206664 0.089904316 -0.011863104
000390 18 e7 ac 3d 6e 28 74 bd e8 c2 e0 bc 6a bd 27 3d
       0.08442515 -0.05960887 -0.027436689 0.040952124
0003a0 2c 2b 1c bb 6f 7c 91 bd 81 42 1e bc bb e3 10 3d
       -0.0023829443 -0.07103812 -0.00965941 0.03537343
0003b0 94 da 07 bc da 94 d4 3d a1 05 d8 3c bb 84 03 bd
       -0.008291859 0.10379954 0.026369872 -0.032109004
0003c0 0d 1a e6 3d 0b da 84 3b f0 83 b5 bb b2 51 45 3d
       0.112354375 0.004054313 -0.00553941 0.048173614
0003d0 a5 11 33 3d 2f b1 9c bd 0f 76 70 3d e4 63 04 3e
       0.043718 -0.076509826 0.05870634 0.1292873
0003e0 df bf 14 3c 20 c5 92 3c fb 22 c1 3d ec a4 db bb
       0.009078949 0.017916262 0.094305 -0.00670301
0003f0 4b 6e 73 3d 2f 14 b8 3d 6a 34 34 3d a2 e5 f6 3c
       0.059431355 0.08988225 0.0439953 0.030138794

model.lstm.weight_hh_l0 f4 [416, 104]
000000 d1 8a 90 3d 78 1e 9d 3c e9 09 89 bd 45 a1 b9 3d
       0.07057727 0.019179568 -0.06691343 0.09063963
000010 9b 63 92 bd 5a 14 a3 bd 25 b8 a6 3d dc dc dd 3c
       -0.071479045 -0.07962866 0.081405915 0.027082853
000020 40 d7 82 bb 75 04 6d bd c8 b5 11 3c a0 9d 8c bd
       -0.003992945 -0.05786558 0.008893438 -0.06866002
000030 f4 d5 48 bd f4 3a 90 3c de 17 0a 3d 60 14 d5 3c
       -0.049032167 0.017606236 0.033714168 0.026010692
000040 63 54 af 3d 73 e1 8a 3d 46 d7 56 3d 5d 58 b2 bd
       0.08561017 0.06781282 0.052451394 -0.0870826
000050 e2 d1 0d 3d f9 c4 81 3d 34 64 b3 3c eb 86 8b 3d
       0.034623988 0.06336398 0.021898367 0.06812843
000060 b8 75 f9 bc 42 ed 57 3d 5b 89 2d bd ee 43 7b 3d
       -0.03045164 0.0527165 -0.04236732 0.06134408
000070 2e ef 76 3d 4b 58 ba 3d dc ba eb 3c 5e 45 67 3d
       0.060286693 0.09098872 0.028775625 0.056462638
000080 19 a3 43 bd 40 1a 30 3b 37 fe 89 bd 8c cb a3 bd
       -0.047762964 0.0026871115 -0.06737941 -0.07997808
000090 04 14 e3 bc 15 03 ae 3d f4 e4 c5 bd ea 90 64 bd
       -0.027719505 0.084966816 -0.0966281 -0.055802263
0000a0 76 08 5b 3d 2f cc be 3d 98 8b 44 3c d9 47 bf 3d
       0.053474866 0.09316289 0.011996172 0.09339876
0000b0 c0 08 95 ba de 3f 0f bd 80 96 33 bd a4 7a 8b 3c
       -0.0011370406 -0.034973018 -0.0438447 0.017026253
0000c0 61 18 c1 3d 14 24 a6 3c b7 1b af 3d 95 4f 88 3d
       0.09428478 0.020280875 0.08550208 0.06655804
0000d0 02 64 04 3d b3 c8 8a 3d 40 a7 97 bd ce 5a 16 3d
       0.032321937 0.067765616 -0.07404947 0.03670769
0000e0 90 b5 a5 bb e2 90 56 bd 83 69 c7 3d ad 21 87 3d
       -0.0050570443 -0.052384265 0.09736922 0.0659822
0000f0 88 a3 c5 bc e5 48 1c bd ca 5e 20 3d 80 e4 6c ba
       -0.02412583 -0.038155455 0.039152898 -0.00090367347
000100 03 3e c8 bd ce b4 7c 3d 00 02 b0 ba a0 d8 c4 bc
       -0.09777453 0.061695866 -0.001342833 -0.024029076
000110 d6 ae 84 bd 61 fd 5f bd 20 b8 d7 bb 30 9e c3 3c
       -0.0647866 -0.054685 -0.0065832287 0.02387914
000120 1e 8a 23 3d 79 3a b3 3d d5 58 88 3d 6c 75 a4 3c
       0.03992664 0.08751387 0.06657568 0.020075522
000130 c4 83 b9 bd 40 74 af bd 63 5c 8a 3d 60 9c d2 bc
       -0.090583354 -0.08567095 0.067559026 -0.025709331
000140 e5 d6 86 3d 24 29 ad bc 32 5d 0b 3d cc 24 ae 3c
       0.06583957 -0.021137781 0.034024425 0.02125778
000150 6f 38 96 3d 5e b0 9c bd e6 95 76 3d 3a e7 40 3d
       0.073349826 -0.07650827 0.060201548 0.047095515
000160 18 42 2e 3c e2 ee aa bd 57 a2 16 bd 9c 3d c6 bc
       0.010635875 -0.083463445 -0.036775913 -0.0241993
000170 60 5f 9e 3b ed b7 87 3d 16 94 67 3d 74 62 99 3c
       0.004833147 0.06626878 0.05653771 0.018723704
000180 b6 6f 70 3d 96 13 27 3d 86 7a 00 bd d0 0e 63 3c
       0.058700286 0.040790163 -0.031366847 0.013858512
000190 f6 75 4b 3d 52 80 a0 bd 20 d7 7a 3c 0c ee df bc
       0.049673043 -0.07836975 0.015310079 -0.02733519
0001a0 a9 42 b6 3d bf 65 c7 bd 15 79 81 3d 66 86 58 bd
       0.08899433 -0.097362034 0.06321923 -0.052862547
0001b0 a0 20 f4 bb 1a c5 62 3d 78 59 3e bc fe 6d 9b bd
       -0.0074501783 0.055363752 -0.011618011 -0.07589339
0001c0 ce 2d ba bd f9 39 2f bd 2a 3f 6d 3d 96 60 c4 bd
       -0.09090768 -0.042779896 0.057921566 -0.09588735
0001d0 47 26 b6 3d e0 ad 60 3c 95 a9 b7 3d 9c de c9 3c
       0.088940196 0.01371333 0.08967892 0.024642281
0001e0 80 31 f2 bc 80 8f 55 3c 19 cb 20 bd 73 5a bc 3d
       -0.029564619 0.013034701 -0.03925619 0.09196939
0001f0 6c 77 fa 3c b0 81 14 bd 49 9e 2a bd 50 ac 9f bb
       0.030574523 -0.036256492 -0.04165486 -0.004872836
000200 ab 24 81 3d ad 00 c8 3d a3 e0 a3 bd c0 3b d5 ba
       0.06305822 0.09765754 -0.080018304 -0.0016268417
000210 f8 96 bb bd 84 29 d7 bc 9f aa 62 bd 50 29 8e bd
       -0.091596544 -0.026264913 -0.0553385 -0.069414735
000220 85 56 7e bd 99 dd 9c 3d af 10 ab bd bc 9c f6 3c
       -0.06209423 0.07659454 -0.083527915 0.030104034
000230 91 76 c5 3d 08 5a a1 bd 5c 77 86 3c 68 6d 74 3c
       0.09641755 -0.078785 0.016414337 0.014918663
000240 9b 32 b5 3d 56 e4 0a 3d d0 ff 30 bd 88 8b 4b bd
       0.08847543 0.033909164 -0.04321271 -0.049693614
000250 43 1f 8c 3d 54 14 e2 3c 41 c0 40 bd 00 f8 30 b9
       0.068419 0.027597584 -0.047058348 -0.00016877055
000260 64 bd 18 bd 54 40 81 bd fa cf 68 bd fb 7e b3 3d
       -0.037289992 -0.06311098 -0.056838967 0.08764454
000270 6b ec 89 bd 12 56 a7 bd a6 43 84 bd db aa 8c bd
       -0.06734546 -0.081707135 -0.064582154 -0.068685256
000280 19 a7 90 3d 50 2d 8a bc 39 90 a3 bd 32 c1 20 bd
       0.07063121 -0.01686731 -0.07986493 -0.039246745
000290 e2 10 28 3d 52 37 3c bd 2e 32 4d 3d 8d 3b 86 3d
       0.041031726 -0.045951195 0.050096683 0.06554327
0002a0 c0 b9 5c bc c6 df 75 3d 70 50 e9 bc c0 f1 c5 bd
       -0.013472021 0.06002786 -0.028480738 -0.09665251
0002b0 00 08 ed b8 10 32 89 3b 09 e3 b7 3d ce bb 3b 3d
       -0.00011302531 0.004186876 0.089788504 0.0458334
0002c0 ea 67 7c bd a9 1f 5b bd e1 a0 9f bd 92 01 04 3d
       -0.061622538 -0.05349699 -0.07794357 0.03222806
0002d0 18 b4 9e bd 0f 18 72 bd 19 18 62 bd 7a 6b c7 bd
       -0.07749194 -0.059104975 -0.055198763 -0.097372964
0002e0 79 22 8d 3d 09 e3 a1 bd 3c df bb 3c 06 a7 8b bd
       0.06891341 -0.07904632 0.022933595 -0.068189666
0002f0 1b 98 c5 bd 34 c0 85 bd 9c f6 b2 bd 78 52 1f bc
       -0.096481524 -0.065308005 -0.08738443 -0.009724252
000300 bf 8e 8a 3d e8 5f 42 bc f5 9d 85 bd 6a c4 80 bd
       0.06765508 -0.011863686 -0.065242685 -0.06287463
000310 19 e6 35 bd 5c 08 8f 3c 40 c4 16 3b 2e cc b4 bd
       -0.04440889 0.01746004 0.0023005158 -0.08828007
000320 20 37 b1 3c c4 1e e0 3c 07 85 bd 3d 14 67 88 bd
       0.021632731 0.02735842 0.092538886 -0.066602856
000330 d8 45 82 bd db b4 92 3d 41 39 b9 3d 00 70 86 bb
       -0.06360978 0.07163402 0.090441234 -0.004102707
000340 f9 32 9f bd a8 93 16 bd d6 7b ac bd 30 ae e5 3b
       -0.07773394 -0.03676191 -0.08422057 0.00700929
000350 a1 b8 6b bd e4 b9 df 3c ce b9 02 3d 22 b4 3d 3d
       -0.057549123 0.02731032 0.03191548 0.046314366
000360 70 39 ba 3c 60 f2 82 bc 14 b0 cc 3c 04 63 be bd
       0.022732466 -0.015984714 0.024986304 -0.092962295
000370 f2 4c 79 bd 27 62 c5 3d 76 3f 58 3d 9e 71 27 bd
       -0.060864396 0.09637862 0.052794896 -0.04087984
000380 30 87 95 bd 2b 24 c1 bd a8 4f 2c bc 0c cf b6 bc
       -0.073011756 -0.094307266 -0.010517038 -0.022315525
000390 95 14 bc 3d 62 13 2c 3d f0 b5 48 3c 81 54 ba 3d
       0.09183613 0.042010672 0.0122504085 0.09098149
0003a0 af bb 4f bd 7f 23 80 3d 9f e6 c4 3d 27 5d bb bd
       -0.0507161 0.0625677 0.096143 -0.09148627
0003b0 51 2b af bd e8 21 73 bc 5c 70 c7 3c 04 a3 9d bc
       -0.08553184 -0.014839627 0.02434557 -0.019242771
0003c0 90 79 68 3c 28 4f bb 3c de 7f 0d bd 03 a4 9e bd
       0.014189139 0.022864893 -0.03454577 -0.077461265
0003d0 f0 25 28 bc 36 76 66 3d 1d 37 b5 3d bf f3 c1 3d
       -0.010262951 0.05626508 0.08848403 0.09470319
0003e0 44 b3 f8 bc 3e ba 8a bd c0 40 55 bc 99 fd ad bd
       -0.030358918 -0.06773804 -0.013015926 -0.084956355
0003f0 38 b7 cd bc 58 05 12 bc a5 19 a1 3d 1c f9 83 bd
       -0.02511178 -0.008912407 0.078662194 -0.06443998

model.lstm.bias_ih_l0 f4 [416]
000000 0e 90 31 3d 1e 4e a4 3d db 0c 8a 3d 7f 09 e1 bc
       0.043350272 0.08022712 0.06740733 -0.027470348
000010 f3 e1 5c bd b0 5d 2b 3c 0d 37 8a 3c ad 69 c6 ba
       -0.05392642 0.010459349 0.016871953 -0.0015137695
000020 2a b1 5e bd a6 59 e3 3d 60 d6 d4 bc 5e 82 7b bd
       -0.054368176 0.111010835 -0.025981128 -0.061403625
000030 fe c9 59 3d a8 a3 47 3d b9 d5 76 3d eb 7b 7d bd
       0.05317115 0.04874006 0.060262416 -0.061885756
000040 01 30 89 3d 1e 20 c6 3d f4 0d a3 3d 64 92 84 bc
       0.06698609 0.096740946 0.07961646 -0.016183086
000050 8a d4 1c bd bb ff 14 3d 22 b4 2e 3d 83 a3 45 3d
       -0.03828863 0.036376696 0.042652257 0.04825164
000060 42 5c 74 bd b9 90 72 bd b1 cc 84 bd 02 b8 5d 3c
       -0.059658296 -0.05922005 -0.06484354 0.01353264
000070 dc 25 9b 3d 8b d2 fe 3c 5b a2 90 3d 44 d2 88 bc
       0.075755805 0.031106254 0.07062217 -0.016701825
000080 3a b2 ea bc bb 91 28 bd 21 73 bc 3d 02 cd 1c 3d
       -0.028649438 -0.041154604 0.092016466 0.03828145
000090 3f 70 6a 3d e7 ca 79 3c b7 1c 3a 3d 92 ef a9 bc
       0.057235952 0.01524613 0.04543754 -0.020744119
0000a0 01 ba 0f bd e4 4e 90 3d bd 72 25 bd fe 5a 91 3d
       -0.035089497 0.07046297 -0.040392626 0.070974335
0000b0 e7 31 d7 bd 51 fd c2 bd c4 be 30 bd 9d ea a6 bb
       -0.10507565 -0.095209725 -0.04315068 -0.005093886
0000c0 e3 ea e5 bb 4d b8 cf 3d cb 1d 25 bd fc 8f 85 bd
       -0.007016526 0.101425745 -0.040311616 -0.065216035
0000d0 a8 91 90 3d 10 6d af 3d 23 83 3c 3d ac ba 65 bd
       0.07059032 0.08565724 0.0460235 -0.056086227
0000e0 84 24 cc 3b 73 b2 c9 3d 13 d6 ce 3d 87 cd c2 3d
       0.006229939 0.098484896 0.10099425 0.095118575
0000f0 38 15 65 3d 3c ce 26 3d f0 51 a0 3a c5 0e c7 bb
       0.05592844 0.040724024 0.001223145 -0.0060747587
000100 2d f0 33 bd cc d5 b0 bd ac 2b c6 3c 42 3a cc bd
       -0.04393022 -0.086345285 0.024190746 -0.09972049
000110 d4 f8 a4 bc 57 8a 57 3d 83 d2 6a bd 45 cb b4 3c
       -0.020138182 0.052622166 -0.057329666 0.022069583
000120 0c 63 c9 3d b4 69 0e 3d 93 53 94 bd 6a a2 9c bd
       0.09833345 0.034768775 -0.07242503 -0.076481655
000130 3e e6 8e 3d 46 c6 cf bd 5e 71 7e 3d d4 4c ad 3d
       0.06977509 -0.101452395 0.062119834 0.084619194
000140 ba 00 84 3d 6e bc 92 bd 28 04 89 3d 9b 06 91 3d
       0.06445451 -0.07164846 0.06690246 0.07081338
000150 49 b0 b3 3d d5 ff ed 3d 61 ee 34 3d c2 ee 94 bd
       0.08773858 0.11621062 0.04417265 -0.07272102
000160 1a e0 ba bd a1 d1 b7 bd 15 67 fd 3d 64 2f 70 3d
       -0.09124775 -0.089755304 0.12373177 0.058638945
000170 0f 9b cf 3d 04 54 b7 3d 16 7c df bc e0 06 8a 3d
       0.10136997 0.089515716 -0.027280848 0.067395926
000180 fd 66 43 3d 59 51 3a bd 03 3f 57 3d 11 7e 01 bd
       0.04770564 -0.045487735 0.052550327 -0.031614367
000190 ae 50 62 bd 5a 4f ab 3d 76 c0 94 3c 93 9d 3d 3d
       -0.055252723 0.083647445 0.018158179 0.046292853
0001a0 96 ab 66 3d 7d f9 a6 3d c0 30 96 bb 58 56 7d 3c
       0.05631598 0.08153055 -0.004583448 0.0154624805
0001b0 28 37 de bc 03 69 29 bd de ff 65 3d ee 57 8e bd
       -0.02712591 -0.041359913 0.056152217 -0.06950365
0001c0 40 4a 82 3c 9c 27 9a bd e9 75 95 3d 60 93 2c bd
       0.015904546 -0.07527086 0.0729788 -0.042132735
0001d0 0e d7 82 bd 38 45 86 bd 20 56 be 3b 22 f0 09 3d
       -0.06388675 -0.06556171 0.0058086067 0.033676274
0001e0 c2 e0 58 3d 49 06 4c bd 35 e2 c0 3d 42 35 6e bd
       0.05294872 -0.04981068 0.094181456 -0.05815626
0001f0 18 d7 17 bc 9e b8 39 3d 4a bf 17 3d 21 8d b3 bd
       -0.009267591 0.04534208 0.03704766 -0.087671526
000200 36 bb 18 3d a9 47 a8 bd 03 fb 8a 3d f8 3d a8 bc
       0.037287913 -0.08216793 0.06786158 -0.020537362
000210 b9 f2 bd 3d 6b 06 a9 3d 31 02 c1 3d 62 10 26 3d
       0.09274811 0.08253177 0.09424246 0.040542968
000220 61 18 88 3d de cb 71 3d cc 17 a9 bd a6 66 ac bd
       0.06645275 0.059032314 -0.08256492 -0.08418016
000230 4e cf 5f 3d c4 3c 90 3c 34 f3 f1 3c b4 5d 84 bd
       0.05464106 0.0176071 0.029534914 -0.06463185
000240 58 bc b1 3c ea 44 51 3d e9 4c 9a bd e2 7c 45 3d
       0.021696255 0.051091112 -0.07534201 0.0482148
000250 92 fd 18 bd 12 1e 92 bd 90 93 c0 bd de 01 77 3d
       -0.0373512 -0.07134642 -0.09403145 0.060304515
000260 d4 1b 11 bd fa 02 61 3d 28 32 75 bc ce 5f 8b bd
       -0.03542693 0.05493448 -0.014965571 -0.06805383
000270 21 66 8d bd d0 ed 0d 3c 42 2a 4f 3d 3a b8 7b 3d
       -0.06904245 0.008662656 0.05057741 0.06145499
000280 18 d8 6c 3c 38 08 49 bd cc 7d b0 bd a5 96 c7 bd
       0.014455818 -0.049080104 -0.08617744 -0.0974553
000290 53 6f bf bd 6f 5d 86 3d 41 89 8b 3d 4d bb 7c bd
       -0.09347405 0.0656079 0.068132885 -0.06170206
0002a0 80 eb 87 bb 06 8f 4d 3d 6c 36 9f 3c 17 56 c0 3d
       -0.004147947 0.050185226 0.01943513 0.0939142
0002b0 34 e3 c1 bc 7d 88 9d bd 50 3c 9b bd 6f 71 b3 3d
       -0.02366791 -0.07692049 -0.07579863 0.0876187
0002c0 99 bf 88 3d 38 ca 51 bc 53 c1 b1 bd d7 3f 9d 3d
       0.06677169 -0.01280456 -0.08679452 0.07678192
0002d0 c5 c2 c5 3d 16 8a 0e 3d 00 40 5c 38 1f a9 a8 3d
       0.0965629 0.034799658 5.2511692e-05 0.08235382
0002e0 53 78 af 3d 17 2d 12 bd d8 2f 86 bd c4 31 18 bd
       0.08567872 -0.035687532 -0.06552094 -0.037156835
0002f0 c0 71 e9 3a 7e a2 99 bd dc 21 c7 3c b6 16 51 bd
       0.0017810389 -0.07501696 0.024308138 -0.05104705
000300 ad 9b aa 3d ff 5f b9 3d 32 cc 19 3d 84 10 f7 3c
       0.08330474 0.09051513 0.03754825 0.030159242
000310 e9 16 b2 bd 20 f7 b4 bb 16 40 85 bd ef 8d af 3d
       -0.08695776 -0.0055226237 -0.06506364 0.085719936
000320 1c 09 c7 bc 20 8d 6f bc 28 e9 c6 bd b0 80 97 3c
       -0.024296336 -0.014621049 -0.0971244 0.01849398
000330 59 8b 82 bd e0 4c 8f bc 2a a2 0d 3d 2f 33 bd 3d
       -0.06374235 -0.017492712 0.03457848 0.09238278
000340 ea 24 a9 bd 3c c3 d0 bd 42 91 f9 bc f8 71 9c 3d
       -0.08258994 -0.10193488 -0.030464772 0.07638925
000350 75 15 e8 3d cc 96 50 bd 89 ab b4 bd d5 0d 41 3d
       0.113322176 -0.05092506 -0.0882178 0.047132332
000360 a4 77 d2 3d 3e f9 24 bd 09 76 ac bd 8a d2 9f 3c
       0.10276726 -0.04027676 -0.08420951 0.019509573
000370 11 a5 d1 bc 2c 42 8a bd c3 55 97 bd 9e 70 d9 3c
       -0.025591405 -0.067509025 -0.073894046 0.026542958
000380 ed b8 89 bc 3c b2 61 bd 0c f7 6d 3d 15 1b 97 bc
       -0.016811812 -0.05510162 0.05809693 -0.01844553
000390 42 42 54 bd d8 70 0c ba 64 ef a6 3c fc 8b 1f 3d
       -0.051821 -0.0005357391 0.020377822 0.03895186
0003a0 be 69 93 bc d3 bc cc 3b a0 ad 46 3d 52 28 27 bd
       -0.017994758 0.0062480955 0.048505425 -0.040809937
0003b0 55 45 81 3d 59 e8 6c bc 14 b3 01 3d d9 a4 56 3d
       0.06312052 -0.014459693 0.031664923 0.052403305
0003c0 cb a1 3a 3c 31 1f 1f bd a3 4d 59 3d 54 52 ef bc
       0.0113911135 -0.038848106 0.053052556 -0.029214062
0003d0 70 8e 14 3d aa 49 66 3d 5b ec 6a 3d 66 ea b6 bd
       0.03626865 0.056222595 0.057354312 -0.08931427
0003e0 ac 45 4c 3d f4 4e b4 3d 31 19 7d 3d 3b 97 8d 3c
       0.04987113 0.088041216 0.061791603 0.017284026
0003f0 13 95 45 3d 67 1c 1b bd 7a c7 d5 bc 21 0d be 3d
       0.04823787 -0.037868883 -0.026096094 0.09279848

model.lstm.bias_hh_l0 f4 [416]
000000 14 bf b0 bd 12 54 a9 3d b2 88 4a 3d a7 59 4f bc
       -0.08630195 0.08267988 0.04944677 -0.012655652
000010 6f 0e 4f 3d 71 45 8a bd 33 ca d5 bd bd 80 a9 3d
       0.050550874 -0.06751526 -0.10438957 0.08276508
000020 fd cd a3 3d 04 d1 fe bb 7a 34 da 3d 65 7a 8e bc
       0.079982735 -0.0077763814 0.1065454 -0.017392347
000030 81 d9 c0 3d 98 56 7a 3d 43 09 14 3d 23 3e 6e bd
       0.094164856 0.06111774 0.036141645 -0.058164727
000040 38 a6 48 bd 4d af 45 3d e8 6b 17 bd cf d8 a3 bd
       -0.048986644 0.048262883 -0.03696814 -0.08000337
000050 a7 ba ae 3d 01 48 b8 bb da 35 7a 3d 97 e7 63 3d
       0.08531695 -0.005623818 0.061086513 0.055640783
000060 44 c2 b6 3b d8 9e 97 bd 2f f8 b3 3c 5a 8a ba 3d
       0.0055773575 -0.07403344 0.02196893 0.0910842
000070 ab 18 a0 bb 08 ba 2e 3d 35 1d 4c 3d bf 3a c8 3c
       -0.004885753 0.042657882 0.04983254 0.024442075
000080 58 94 d3 bc a3 75 11 bd 5d 3a 46 3d 56 2d a3 bd
       -0.025827572 -0.035512578 0.048395503 -0.079676315
000090 e1 71 cf bc 46 01 82 3d ff a8 f3 bc 9c f9 7c bd
       -0.025322856 0.06347899 -0.02974367 -0.061761484
0000a0 68 73 6b bd 56 96 bc bc 4c 7e de 3d 63 2d 95 bc
       -0.057483107 -0.023020905 0.10863933 -0.018210119
0000b0 a7 e3 e4 bd 13 e9 b4 3d f6 0b d8 bc 0e b0 0a bd
       -0.11176234 0.08833518 -0.02637289 -0.033859305
0000c0 b1 60 20 bc 95 c9 63 bd 58 f8 7c bd ff 49 8b 3d
       -0.009788678 -0.055612165 -0.061760277 0.06801223
0000d0 27 89 6c bd 9c eb a5 3d a7 a5 e9 bc af 7f 5f bd
       -0.057747986 0.081015795 -0.028521372 -0.054565128
0000e0 6d 6d 98 3d 8d 1c 73 bd b7 bb d8 3d 05 d9 04 bd
       0.07442746 -0.0593534 0.10582679 -0.03243353
0000f0 ca bb b4 3d 6c e2 49 3d 5b f1 14 bc 57 10 bb 3c
       0.088248804 0.0492882 -0.009090747 0.02283494
000100 d4 04 c0 3d 2f cc 89 bb c0 43 72 bd 2d ec c7 bd
       0.09375921 -0.004205249 -0.059146643 -0.09761844
000110 00 0c b7 3d 89 c6 74 3c 1b a3 a6 3c a7 70 ea 3c
       0.08937836 0.014939913 0.020341447 0.02861817
000120 61 3a 45 bd 72 00 ba bc 68 27 8d 3a 6c 26 2d 3d
       -0.048151378 -0.02270529 0.001076919 0.04227297
000130 0b 71 a6 3d 51 6e 5e 3c 8a 51 73 3d 2b 76 49 bd
       0.0812703 0.013576106 0.059403934 -0.04918496
000140 b7 cb 86 3c 74 7d a6 3c 91 5d 62 3d ac 46 b6 bb
       0.01645456 0.020323493 0.055265013 -0.005562624
000150 83 d0 d3 3d 1f ad c0 3d 66 ac 70 3c 06 59 83 bd
       0.10342505 0.0940802 0.0146895405 -0.06413464
000160 2c 3f ee bc fd 6f 07 3c a7 90 ef 3d cb af 94 bd
       -0.029082857 0.008266446 0.11697512 -0.07260092
000170 f9 08 b3 bc 7a bf ab 3d 2d fc 66 bd 98 0f 3c 3d
       -0.021854864 0.08386131 -0.056392837 0.04591331
000180 89 99 4b 3d c6 9c 8c 3a 3d f9 74 3c 81 66 88 3d
       0.04970697 0.0010727874 0.014952001 0.06660176
000190 86 7e 88 3d a8 d6 7e 3c 10 14 6e 3d 78 48 cd bd
       0.066647574 0.015554108 0.0581246 -0.10023588
0001a0 eb 20 93 3d b6 5d 2b 3d d0 5c 7a bc 47 e1 56 bd
       0.07184013 0.041837417 -0.015280917 -0.052460935
0001b0 0c 2d c7 3c c0 54 c7 bd ea 18 01 bd 9c ab cc 3c
       0.024313472 -0.09732962 -0.0315179 0.024984173
0001c0 72 bf 7b 3d f4 76 b5 bc f8 c6 0d 3c 43 0b 34 bd
       0.061461873 -0.022151448 0.008653395 -0.043956053
0001d0 33 d0 a9 3d f8 65 11 3c 58 c6 05 bc d4 2a 43 bd
       0.08291664 0.008874409 -0.008164965 -0.047648266
0001e0 fe 51 2d 3d 82 89 7b bd 7c 85 3a bd 96 f8 5a bd
       0.042314522 -0.061410435 -0.045537457 -0.053459726
0001f0 88 d3 0d 3c fe 6a 1c 3d f3 b3 13 bd c0 af fa 3b
       0.00865639 0.038187973 -0.036060285 0.0076503456
000200 3e b9 79 3d 5a 13 72 3d 16 7c 40 3d c0 56 2d 3c
       0.060967676 0.059100486 0.046993338 0.010579765
000210 d2 e9 05 bd 64 31 d8 bc c4 ed fc 3c e3 63 67 bd
       -0.03269369 -0.026390739 0.030875094 -0.056491744
000220 cc f8 ea bc d9 fd aa 3d 3c 5c be bc 68 be b8 3c
       -0.028683089 0.08349199 -0.02323734 0.02255173
000230 33 df a7 bd 38 1a 67 bd be f5 86 bd 77 d4 36 bd
       -0.08196869 -0.05642149 -0.0658984 -0.044636216
000240 e6 4f 4f 3d 6a 4a 96 bd a8 7f be bc 1c 8b da bc
       0.050613306 -0.07338412 -0.02325423 -0.02667766
000250 e5 54 56 bd cb f7 8a bd 95 4c 87 3d 18 48 f1 bc
       -0.052327055 -0.06785544 0.06606404 -0.029453322
000260 70 a5 15 bc 12 ff b7 bd 80 bf 93 bc 24 af f9 3c
       -0.009133682 -0.08984198 -0.01803565 0.030479021
000270 d9 e8 c0 3d 50 07 8c bb 5d 01 9e bd 98 90 92 bd
       0.09419412 -0.0042733327 -0.07715104 -0.07156485
000280 fe b9 3d 3d 32 cf 23 3d b8 6c c6 bc 56 64 9b bd
       0.046319954 0.03999252 -0.024221763 -0.07587497
000290 e8 f5 00 3c f0 6d ec 3b 18 a9 16 bc 61 c9 3f bd
       0.007871129 0.007215254 -0.0091955885 -0.04682291
0002a0 07 0c 2b bd f6 8d 23 3d 98 53 b1 3c 2b 15 26 bd
       -0.041759517 0.039930306 0.021646306 -0.04054753
0002b0 f8 b8 b2 3c bf 42 b1 3d d8 2d 59 bd 71 3a 87 3d
       0.021816716 0.08655309 -0.053022236 0.06602944
0002c0 a2 e4 a1 bd 35 ec a2 bd 27 2e a2 3d d5 7e 96 3d
       -0.079049364 -0.07955209 0.07918959 0.0734841
0002d0 09 4a ba 3d 54 be ea bc fd e9 a7 3d 72 e7 55 3d
       0.09096152 -0.028655209 0.081989266 0.052222677
0002e0 bf 79 5a bd f2 f4 35 3d fc 61 d5 bc ec 6c 5e bd
       -0.053338762 0.04442305 -0.0260477 -0.054303095
0002f0 06 db 72 3d 16 84 09 bd 14 88 fc 3c f2 b3 91 bd
       0.05929091 -0.033573233 0.030826606 -0.071144
000300 bc 12 9f bc 18 7a b8 3c cc 43 0e bd 00 35 bb ba
       -0.019418113 0.022519156 -0.034732625 -0.0014282763
000310 b8 c6 b6 bd 22 39 0e 3d 53 39 31 bd 1a 0e c6 bd
       -0.08924621 0.034722455 -0.04326756 -0.096706584
000320 fb 1e c5 3d 60 a2 4a 3c 66 fa 06 bd ab 71 4b bd
       0.0962505 0.012367815 -0.032953642 -0.04966895
000330 1e 1e a1 bd 11 50 ba 3d ae 40 6e 3d a5 bd 91 3d
       -0.078670725 0.09097303 0.058167152 0.0711625
000340 5d 3a ae 3d 34 08 a2 bc b6 f6 2e 3d ad 50 29 bd
       0.08507226 -0.019779302 0.04271575 -0.041336704
000350 e0 bf f4 39 50 04 9c 3d 5d 9a ab 3d a7 bf 81 3d
       0.00046682265 0.0761801 0.08379052 0.06335383
000360 af 14 4b 3c b8 08 a7 3d e3 73 3a bd f5 6b 7a bd
       0.012395068 0.0815596 -0.045520674 -0.061138112
000370 c0 75 cf bd 8b 1f a3 3d ab 57 a0 bd f7 d7 47 3d
       -0.10129881 0.07965001 -0.07829221 0.048789944
000380 7e 38 53 3d 34 10 d7 3d aa d7 8a bd c8 7d 98 3d
       0.051567547 0.105011374 -0.06779416 0.07445866
000390 66 4e a7 3c 80 b3 d2 bb eb 3c c6 3d bc a8 96 bd
       0.020423125 -0.0064300895 0.09679588 -0.07356402
0003a0 09 1b 58 3d 8f 61 92 bd 91 54 d2 3b e6 37 a1 3d
       0.052760158 -0.07147514 0.0064187725 0.0787199
0003b0 25 a2 a4 3d b3 bc 1f bd 7d 1f 9b 3d a6 9c 9e 3c
       0.08038739 -0.038998317 0.07574365 0.019361805
0003c0 34 72 8e bd f9 30 f3 bc 63 9e 41 bd a3 d9 9e 3d
       -0.06955376 -0.029686438 -0.04727019 0.07756355
0003d0 2c b1 8f bc 6a db 30 bd 20 32 9c bd 72 2c 9d 3d
       -0.017540537 -0.043178 -0.07626748 0.07674493
0003e0 49 c8 de 3b 9b ab 84 3d c9 98 ae bd 5a 77 09 bc
       0.006798778 0.06478044 -0.08525235 -0.008390272
0003f0 80 51 6f 3c d6 42 b4 3d 4b 7a 32 bd 23 8c aa 3d
       0.014606833 0.088018104 -0.04357366 0.0832751

model.fc_layers.0.weight f4 [52, 104]
000000 5c 10 8f 3c bc f4 60 bd ce 9f db 3d 1c 3c 62 3d
       0.017463855 -0.054920897 0.1072384 0.055233106
000010 25 65 47 3c f5 43 c9 3d 7f 97 99 bd f9 c3 05 3c
       0.012170111 0.09827415 -0.07499599 0.008164399
000020 2f 13 d6 3d d6 35 f2 3c 63 27 61 3d 24 f8 8f bd
       0.10452878 0.029566687 0.054969203 -0.07029751
000030 fd 77 49 bd d8 09 b5 bd da 69 44 bd d1 ba 0d bb
       -0.049186695 -0.08839768 -0.04795251 -0.0021626244
000040 02 3d b5 bc 5d b1 f5 3d 7a 10 ce 3b 8f d7 8e 3d
       -0.022123817 0.1199672 0.0062885853 0.06974708
000050 b6 06 9b 3d 35 c7 03 3d 1e 80 96 3d 64 d0 29 bc
       0.075696394 0.0321724 0.07348655 -0.010364626
000060 b4 d6 95 bd b6 2a 88 bd 38 c8 e7 3d 89 4e a0 3c
       -0.07316342 -0.066487715 0.113174856 0.019568698
000070 d1 dd 9f 3d c5 62 61 bd f1 48 1a bd ba fa a8 bd
       0.0780598 -0.055025835 -0.03766722 -0.08250947
000080 87 b3 a3 3d e9 b6 da bd ed d0 92 3d e5 98 7f bd
       0.079932265 -0.106794186 0.07168756 -0.06240167
000090 60 06 95 bd 7b b8 c9 bd cc f8 8d 3c a6 40 bc bd
       -0.072766066 -0.0984964 0.01733055 -0.09192018
0000a0 9c 3b 1d bc e2 4b 10 3d e0 ad 64 bd d8 4c 06 3e
       -0.0095967315 0.035228617 -0.055829883 0.13115251
0000b0 43 76 8d bd 4b fd f4 bc fb 70 bb 3d 57 03 24 bd
       -0.06907322 -0.029905936 0.09152409 -0.040042248
0000c0 85 c5 b0 3d a5 ea 0c 3d 21 36 92 3b f6 67 a4 3d
       0.08631424 0.034403462 0.004462019 0.080276415
0000d0 70 72 74 bd 8b 3b 85 3d cd 6e 5e bc 1e 1d a6 3c
       -0.05967945 0.065054975 -0.013576222 0.020277556
0000e0 2d 88 0c 3c 33 e6 3c bd e1 bd 22 bd a6 05 e6 bc
       0.008577389 -0.046117973 -0.039731864 -0.028078865
0000f0 e1 87 28 bc df ef 01 be 82 ed ee 3d ff aa 8d bd
       -0.010286302 -0.1268916 0.11666395 -0.069173805
000100 17 25 40 3d 2f 11 89 bd 78 1d 12 bd 20 cb 8b bd
       0.04691037 -0.06692731 -0.035672635 -0.068258524
000110 94 ca 21 3c ec 98 17 3d 3f 1e 95 3c 52 ec ab bd
       0.009874959 0.037011072 0.018202899 -0.08394684
000120 5c fc 8b 3c f9 5b 8a 3d 25 37 af 3d 1f f7 69 3c
       0.017088108 0.06755824 0.0855544 0.01428011
000130 f3 24 af 3d 98 20 0a 3d 44 f1 5c bc 89 e4 bd 3d
       0.085519694 0.03372249 -0.013485257 0.09272105
000140 a8 89 2a bd fe fc 6d bc 5c 48 f5 3c 5e d0 3e 3d
       -0.041635185 -0.01452565 0.02994173 0.046585433
000150 b6 54 d4 3d 52 c5 ce bd 81 65 e3 3d 34 01 57 bd
       0.1036772 -0.100962296 0.11103345 -0.05249138
000160 34 9e d2 bd 00 6b 35 bb da 08 66 3d 80 a7 5d bd
       -0.10284081 -0.0027682185 0.056160785 -0.05411482
000170 a8 9b 4f bd c1 f2 51 bd 18 6d 55 bc 6c c0 6a 3d
       -0.050685555 -0.0512569 -0.013026498 0.057312414
000180 d7 18 b9 bc 30 74 c7 bc a2 3c 84 3c 10 8a 4d bd
       -0.022594852 -0.024347395 0.016142193 -0.050180495
000190 51 c1 43 bd 21 1b 27 bd 94 2d 6d 3d b3 98 81 3d
       -0.047791783 -0.040797357 0.057904795 0.06327953
0001a0 ad 09 b2 3d 0e 21 ce 3d 46 4b 6b bd 1b c3 d4 bc
       0.08693252 0.100648984 -0.057444833 -0.02597194
0001b0 53 a7 fe bb e1 b5 a3 3d 71 ba f2 bb ad 42 4c bc
       -0.0077714114 0.07993675 -0.0074074795 -0.012467069
0001c0 34 dc af 3a 05 78 27 3d 38 9b 4f bd 21 7f 92 bd
       0.0013417066 0.040885944 -0.050685138 -0.07153154
0001d0 7d db b4 bc a9 35 40 bd 41 3b 92 3d de f2 98 bc
       -0.022077316 -0.046926174 0.07140208 -0.018670496
0001e0 75 d6 29 3d 65 3e 90 bd 3d 56 2f bc 9b 7c 94 3d
       0.041464288 -0.07043151 -0.010701713 0.07250329
0001f0 64 33 51 3c 4a b1 b1 bc df e2 a6 3d 4d 5d b0 bc
       0.0127686 -0.021690983 0.08148741 -0.021528864
000200 46 70 ba 3b 17 f9 15 bd 49 93 7a bd 52 b6 80 3d
       0.0056896536 -0.036614504 -0.06117562 0.06284775
000210 72 65 f6 bc b1 b6 91 3d 82 91 45 3c 2e fc 72 3d
       -0.03007767 0.07114924 0.012058618 0.05932253
000220 47 d4 23 bd 4a e2 fc bc 83 c1 18 bd bd 30 b3 3d
       -0.039997365 -0.030869622 -0.037293922 0.087495305
000230 d2 a6 ad 3a 5e 81 74 3c ae bc b1 bd a4 3e 27 bd
       0.0013248569 0.014923422 -0.08678566 -0.040831223
000240 92 16 bb 3c 4f c1 92 bd e2 07 06 3d d9 82 76 3d
       0.02283791 -0.07165777 0.03272236 0.06018338
000250 b9 fc a9 bd 59 ff f3 bc c4 3a cd bc 9e 04 36 bd
       -0.08300156 -0.029784845 -0.025052436 -0.044437997
000260 e5 14 d8 3c e4 0a 10 bd 51 5e e3 3b 5c c5 b0 3d
       0.02637715 -0.035166636 0.0069387336 0.08631393
000270 3f cd cb 3d 8d a5 21 bd 84 11 5e 3d 33 18 b0 3d
       0.09951257 -0.039464522 0.054215923 0.08598366
000280 75 5d 62 3d 1c c3 7e 3c 64 70 8d 3d 8f 8a a9 3d
       0.05526491 0.015549447 0.069062024 0.08278381
000290 8a 35 87 bd 76 40 8c bd 75 5f 4c bc 64 90 7e bd
       -0.06602009 -0.068482324 -0.012473931 -0.06214942
0002a0 ce 43 ac bd 78 82 d8 3d 25 c8 78 3c 93 3e 8b 3d
       -0.0841137 0.1057176 0.015184437 0.067990445
0002b0 bc 59 1c bc a6 ca 99 3d 47 94 ac 3a 52 5c 72 3d
       -0.009542879 0.07509355 0.0013166749 0.059170075
0002c0 1c 5b 5a bd 92 03 05 bc e4 00 84 bb 10 71 92 bd
       -0.053309545 -0.008118527 -0.0040284265 -0.07150471
0002d0 3a ae 8d bd bd 2a c2 3d 13 11 88 bd ad 76 1b bd
       -0.06917997 0.09480808 -0.06643882 -0.037954975
0002e0 5d d4 d2 bd 43 72 03 3d a9 e0 97 3d a7 60 b5 3d
       -0.10294411 0.03209139 0.074158974 0.088563256
0002f0 9d ee 0c 3d 2e b2 99 bd f4 7a 80 3d b5 31 1f 3d
       0.034407247 -0.07504688 0.062734514 0.038865764
000300 fe d8 a5 3c 90 74 8c 3c 38 ec a6 3d 4a d0 8e bd
       0.020245072 0.017145425 0.08150524 -0.06973322
000310 a1 0a ca bd 08 c3 b0 3d 02 07 1b 3d 59 38 96 3d
       -0.098653086 0.08630949 0.03784848 0.07334966
000320 c7 2a 57 bc 6f 9a aa 3d 8e 5c a3 bd 23 2a a6 bd
       -0.0131327575 0.08330237 -0.07976638 -0.08113506
000330 09 20 cd 3c 17 de 5f 3d 2d eb 99 bc 15 85 c8 3d
       0.02503969 0.05465516 -0.018788898 0.097910084
000340 33 92 bd 3d 5b 7c 02 3d 76 aa 2f 3d 1c 9f 48 bd
       0.09256401 0.031856876 0.042887174 -0.048979864
000350 af 1b dd bc 98 84 8f 3d 9e be d6 3d c3 fe c4 3d
       -0.02699074 0.07007712 0.10485576 0.096189044
000360 6e 6b a2 3d 04 3c f0 3d 4b 66 9d 3c d1 72 c4 bd
       0.07930647 0.11730197 0.019213816 -0.09592212
000370 1b 77 bc bd 88 ba 28 3d ed 62 32 3d bb 7d 86 3d
       -0.09202405 0.041193515 0.043551374 0.0656695
000380 b5 38 67 bd bd 4a e5 3d 8e d6 f8 3d e5 3c 81 bc
       -0.056450564 0.11195896 0.12150298 -0.015776107
000390 f3 25 4d bd ee 93 2c 3d a4 26 c7 bd 43 2e 51 bd
       -0.05008502 0.042133264 -0.09724167 -0.05106951
0003a0 38 dd 9b 3d 1c 28 4d bd b8 8e 7d 39 ab 1f 88 bd
       0.076105535 -0.05008708 0.00024181127 -0.06646665
0003b0 3b 1f d4 bc 92 dc 79 3c e7 08 70 bd 3b e8 22 3c
       -0.025893798 0.015250342 -0.05860224 0.009943063
0003c0 54 7a 94 bd 50 9f a9 bd eb cb 04 bc b3 f4 e2 bc
       -0.07249895 -0.082823396 -0.008105258 -0.027704572
0003d0 06 88 4a bc 49 ab df bd 9c 55 36 3d a1 bf f1 bd
       -0.012361532 -0.10921342 0.044515237 -0.118041284
0003e0 e5 bb 83 3d 82 9d 38 bd ab aa 24 bc 55 9d b7 3d
       0.064323224 -0.045072086 -0.010050456 0.089655556
0003f0 d0 dd 4d bc e9 cd f2 3c c3 3f 6b 3d 74 f8 9e 3d
       -0.012565091 0.029639201 0.057433855 0.077622324

model.fc_layers.0.bias f4 [52]
000000 8d e1 de 3d 5d 7c cf 3c 41 e7 bb 3c 9b 50 bb bb
       0.10882864 0.025327856 0.022937419 -0.005716396
000010 af 8d 7a bb 21 f1 01 3d 62 f1 bc 3d c1 74 af bb
       -0.0038231423 0.0317241 0.092257276 -0.0053544943
000020 7a 0b 73 bc f9 c8 87 3c 06 e8 22 b8 81 b4 c7 bd
       -0.014834279 0.016575323 -3.88399e-05 -0.09751225
000030 25 a8 71 bd 57 05 74 bd aa 76 a2 3d 3a 7c 3f bc
       -0.058998246 -0.059575405 0.079327896 -0.011687333
000040 57 6a 1e 3d 44 6b 36 bd 86 de a6 3d 83 61 bd 3d
       0.038675632 -0.04453589 0.08147912 0.092471145
000050 42 ab 79 3d ac 4e 98 bc b5 6b 88 3d cd a1 a0 bd
       0.06095434 -0.018592201 0.066611685 -0.07843361
000060 f4 64 86 bc be f5 e1 bd 7d aa 34 3d 13 3d a1 3d
       -0.01640556 -0.110332 0.044107903 0.07872977
000070 48 8c 9f 3d 2c a7 49 bd fa 9e cd 3c e1 b1 9e 3d
       0.077904284 -0.049231693 0.02510022 0.077487715
000080 dd 37 98 bd ec 96 98 bd 13 8c 39 3c d3 19 d9 3d
       -0.0743253 -0.07450661 0.0113249 0.10600629
000090 bd 6a 07 bd bc 9b 46 3d 4b 23 83 bd a3 aa d0 3d
       -0.033060778 0.048488364 -0.06403216 0.10188796
0000a0 96 52 ff 3b 6a aa a9 bc 4b 41 59 bd 98 8a c2 bc
       0.0077918274 -0.020711143 -0.053040784 -0.023747727
0000b0 4f 07 81 bd fe dc 2a 3d b0 14 ec bc d2 49 b1 3b
       -0.06300222 0.04171466 -0.028818458 0.0054104114
0000c0 ad cb 9d 3c f8 61 44 bc fc ea 5c bd 6b 96 74 3d
       0.01926216 -0.011986248 -0.053935036 0.059713762

model.fc_layers.1.weight f4 [26, 52]
000000 ce 2c a5 bd bf c6 9c 3d 8c 58 12 3e 2a bf 16 3d
       -0.080651864 0.07655095 0.1429159 0.036803402
000010 9f 76 a8 3c 89 d4 a5 bd 89 2b 2c bd 67 3e 2a 3d
       0.020564375 -0.080971785 -0.042033706 0.041563418
000020 0e 1d cf 3d 61 2b bf bd 3d 6c 17 3e 24 cf e4 bd
       0.101129636 -0.09334446 0.14787383 -0.111723214
000030 77 0a 4b bd 15 e8 d2 3d 17 5f f8 3d 5e d2 d4 3d
       -0.049570527 0.102981724 0.12127512 0.10391687
000040 d0 2a 9b bd 71 14 f3 bd 2a d4 c9 bc 21 a0 8c bc
       -0.07576525 -0.11869133 -0.0246373 -0.0171662
000050 42 37 4f 3d 92 22 a4 3d 20 0e 03 3e e3 0c a2 bd
       0.050589807 0.08014406 0.12798357 -0.07912614
000060 a8 93 5f bd 37 17 ea 3a 01 a4 d6 3c 77 19 73 bc
       -0.054584175 0.0017859702 0.02620125 -0.014837614
000070 4a a5 11 3d ed 56 4f 3d ad 6e 40 bd 16 fc 70 bd
       0.035558023 0.05062001 -0.04698055 -0.058834158
000080 af 0e bf bd bf c4 83 bd d3 70 19 3e 62 1d 8c 3d
       -0.093289725 -0.06434011 0.14984445 0.06841542
000090 26 22 ce 3d d4 7c 85 3d c3 ed 91 3d d8 d8 10 3e
       0.10065107 0.0651795 0.071254276 0.1414522
0000a0 99 ef 92 bd 9e ad 2b 3d 19 9b 08 be f1 9d 10 bb
       -0.07174606 0.04191362 -0.13340415 -0.0022066797
0000b0 23 9a a8 bd 4c f5 4b bd d3 c2 f8 bc e1 42 e8 bd
       -0.08232524 -0.04979448 -0.030366337 -0.11340881
0000c0 e9 af db bd 9b 66 09 3d d2 13 ab 3d 35 e0 87 3c
       -0.107269116 0.033545118 0.0835339 0.016586402
0000d0 0e 92 f1 bd 0c ea 1d bd 84 73 b2 bd a0 ff c9 3d
       -0.11795436 -0.038553283 -0.08713439 0.0986321
0000e0 24 1f a0 bd fd 24 1d be 28 86 bd bd 99 7f 2d 3d
       -0.078184396 -0.15346141 -0.09254104 0.042358015
0000f0 91 2f 10 bd eb 5d 1a 3d b4 1c 13 be 26 31 38 bd
       -0.035201613 0.037687223 -0.14366418 -0.044968747
000100 a3 76 fa 3d a4 5d c3 bd c7 f1 83 3d ae c3 02 3d
       0.122296594 -0.09539345 0.064426 0.031924896
000110 a5 ae de bd 7f dd 8c 3c 3f ac 82 bd b3 ae 38 bd
       -0.108731546 0.017195461 -0.063805096 -0.04508848
000120 21 25 c4 3b 90 08 d7 bd 79 6a 16 be 3a 42 9c bd
       0.0059858714 -0.1049968 -0.14689054 -0.07629819
000130 3d 44 4a 3d 93 64 d2 bd 19 29 a0 bc f8 89 9b bc
       0.049381483 -0.10273089 -0.019550847 -0.018986687
000140 70 40 19 bd 8e c9 cf 3d a0 77 87 3d 75 03 aa 3d
       -0.037414968 0.101458654 0.066146135 0.083014406
000150 d6 47 1a 3e 1f f0 1b bd ef de 1f be e7 c6 d6 bc
       0.15066466 -0.038070794 -0.15612386 -0.02621789
000160 9f ac 7d 3d 66 29 71 bd 9b 9e c9 3d c4 6d 10 be
       0.061932202 -0.05887737 0.09844705 -0.14104372
000170 0b 64 f3 3d ef 44 15 3e 4a 07 25 bd 0b 8f f9 bb
       0.11884316 0.14577077 -0.040290155 -0.007615929
000180 41 7b c7 3b c7 0f ac bd 4f a0 b2 ba 9c 34 cd bd
       0.006087691 -0.08401447 -0.0013628098 -0.100198
000190 43 8b d9 3d 96 53 e8 bd 96 2f f3 bd 4f e3 f7 bd
       0.10622265 -0.11344068 -0.11874311 -0.121039025
0001a0 0b 8e db 3d 79 2a 4a 3b ab c1 88 bc 19 c6 e1 bd
       0.10720452 0.003084807 -0.01669391 -0.11024112
0001b0 7f 4a ad 3d 84 00 d3 bd 7e 7d 85 bd 79 2b 59 bd
       0.084614746 -0.10302833 -0.06518076 -0.053019974
0001c0 41 ef 8a bd 22 c5 84 bd 8b b2 9f bd c9 62 ce 3d
       -0.06783915 -0.064829126 -0.07797726 0.100774355
0001d0 59 64 bd bd a3 bf a6 bd 23 90 9b bc d4 0f a7 3d
       -0.092476554 -0.081420206 -0.018989628 0.08157316
0001e0 d2 f2 ca 3d 56 0f 07 3e 84 77 d6 bd 58 e5 96 3c
       0.099095955 0.13189444 -0.104720145 0.018419906
0001f0 c4 e6 08 bd 73 51 03 be 1a 18 7d 3c c2 cf 15 3d
       -0.0334232 -0.12824039 0.015447641 0.036575086
000200 71 b6 0e 3e 42 a9 1c 3e e9 3e 2f 3c db 2c cd 3d
       0.13936783 0.15298942 0.010696151 0.10018321
000210 62 ff 1f be a9 8a 19 3e f4 f2 86 3d 24 a5 ba 3d
       -0.15624765 0.14994301 0.065893084 0.09113529
000220 62 07 e2 3d 23 f3 10 3e ea 3e 8a bd 00 19 1a bd
       0.110365644 0.1415525 -0.06750281 -0.037621498
000230 57 fe 89 3d e8 6e 88 bd 22 f9 8c bd 53 15 21 3d
       0.067379646 -0.06661779 -0.06883456 0.039326977
000240 c6 5a df 3d 50 ca 95 3b f0 cc e5 bd 33 8b 24 bd
       0.109059855 0.0045712367 -0.11220729 -0.040171813
000250 6f f1 19 3e a1 29 bd 3d 81 b4 ec bd 69 13 4f 3b
       0.15033506 0.09236456 -0.11557866 0.0031597263
000260 10 7a 9c 3d 5e bb b1 3d 4d 49 ec 3d c7 81 d2 3c
       0.07640469 0.086783156 0.115374185 0.025696648
000270 f6 6a 2b bd 93 fe 89 bd 62 fb 02 3e bc 7d d4 3c
       -0.041850053 -0.06738009 0.12791207 0.025938861
000280 0f ca b9 bd 71 c4 09 3d 00 7c e1 bd b4 d2 ea bd
       -0.09071743 0.033634607 -0.11009979 -0.1146597
000290 6a 7c 8f 3c 45 31 19 be 2e df af bc ce 24 d3 3c
       0.01751538 -0.14960201 -0.021468725 0.025774386
0002a0 b7 c0 4f bd 61 d3 de 3d 18 c1 a3 3d b5 46 8d bd
       -0.050720897 0.10880161 0.07995814 -0.06898252
0002b0 ff 7e bf 3d c4 45 32 bd 3a ba 93 bc cc 10 27 3d
       0.093503945 -0.043523565 -0.018033136 0.040787503
0002c0 ba ae cb 3d 71 1d 6f bd f4 8e 44 bd 97 20 26 3c
       0.09945436 -0.058377687 -0.047987893 0.010139606
0002d0 85 a7 40 bd bf 99 9c bc dc e2 13 be 2e 2f d8 bd
       -0.04703476 -0.01911628 -0.14442009 -0.10555874
0002e0 19 6e 95 bd dc 23 01 bd 8c a5 1d bd 34 84 85 3d
       -0.0729639 -0.03152834 -0.038487956 0.06519356
0002f0 b6 75 0d 3e 6f 19 7a 3d 47 4b b9 bd 66 f6 04 3c
       0.13814434 0.06105941 -0.09047561 0.008115387
000300 42 25 70 bd 8e aa ac bd a1 dd c5 3d 4d 6e c9 bc
       -0.05862928 -0.08430968 0.09661413 -0.024588728
000310 41 38 59 bc 55 bb d0 3d 61 23 8c bc 95 32 48 3d
       -0.013258041 0.10191981 -0.017106714 0.048876364
000320 da d1 02 bd 35 14 90 bc b8 2b 78 bd 54 97 b5 bd
       -0.03193841 -0.01758776 -0.06058857 -0.08866754
000330 43 bb 4f 3d 6f 1d b0 bd 83 ae ed bd cb b7 a0 3d
       0.050715696 -0.08599364 -0.11605551 0.07847556
000340 ed 88 44 bd e3 b6 17 bd 86 1d 42 3d 9b 85 29 bd
       -0.047982145 -0.03703965 0.047391437 -0.04138718
000350 a0 6e 08 3b 5e 74 d0 3d 05 34 74 bd aa 55 c2 3c
       0.002081789 0.10178445 -0.059619922 0.023722488
000360 71 31 a3 bd 77 70 4f bd bf f2 ec 3c 65 70 74 bd
       -0.079684146 -0.050644364 0.028924344 -0.0596775
000370 fa ff 6e 3d c7 81 1e be 14 a2 d6 3c 10 4f c2 bc
       0.058349587 -0.15479194 0.026200332 -0.02371934
000380 c0 5c 07 be 3b 82 f4 bd 5d 58 af 3d d5 6d f2 bd
       -0.13218975 -0.11938902 0.08561776 -0.11837355
000390 81 77 06 3d 0d 69 f6 3c 4c 95 ff 3d ee c7 23 bd
       0.03282881 0.030079389 0.12479648 -0.03998559
0003a0 da d9 16 be bb 80 21 be c7 6c 04 3e 80 71 5b 3d
       -0.14731541 -0.15771763 0.1293212 0.05357504
0003b0 48 47 92 bc 11 88 12 bd f5 9e b0 bc 3b d9 0e bc
       -0.017856255 -0.035774294 -0.021560172 -0.008718784
0003c0 7a bd 16 bd 29 74 e2 3d de c2 ee 3c a2 b9 70 3d
       -0.036801793 0.11057312 0.029145654 0.058770783
0003d0 ff f6 f3 bd 50 47 b2 3d a1 8f db bc 5b 7d 99 bd
       -0.11912345 0.08705008 -0.026801886 -0.07494613
0003e0 e1 64 73 3d 20 b2 bb bd b0 e0 64 3d 97 e3 b8 3c
       0.059422377 -0.09164834 0.05587834 0.02256946
0003f0 8b 87 b6 3d 5a ef 1d bd 2c 81 da 3d 0a 1e 10 be
       0.089125715 -0.03855834 0.10669169 -0.14073959

model.fc_layers.1.bias f4 [26]
000000 63 94 94 bd af db 25 3d fe 92 e2 bd 4f 43 b6 bd
       -0.07254865 0.04049271 -0.11063193 -0.08899557
000010 9c 8a 4f 3d 28 e4 00 be ee 20 3b 3a 6d 7c 53 3d
       0.050669298 -0.12587035 0.0007138391 0.051632334
000020 52 2b 12 3e 1d b3 ed bd b3 49 d1 3c 1d f6 b0 3d
       0.14274338 -0.11606429 0.025547838 0.086406924
000030 43 1f ad 3d b6 7f 17 3e 1c 3c 12 be f4 1b 1f bd
       0.08453228 0.14794812 -0.14280742 -0.038845018
000040 53 df d5 3c 94 8e 95 bc b6 b6 8e 3d 9d 66 04 3c
       0.026107466 -0.018256463 0.06968443 0.008081106
000050 31 ab 29 3b 97 6c df 3c a3 93 e0 bd 03 70 34 3c
       0.0025889392 0.02727346 -0.109656595 0.011013034
000060 59 f5 d2 3d d8 6d 67 bd
       0.103007026 -0.05650124

model.fc_layers.2.weight f4 [3, 26]
000000 02 67 30 3d a4 62 eb bd d0 3d df bd 73 05 87 bc
       0.043066986 -0.114934236 -0.10900462 -0.01648209
000010 d2 d5 c0 3d 40 67 bc bd 5a e6 59 bd 6c de cd bd
       0.09415783 -0.09199381 -0.053198196 -0.10052189
000020 ba b4 02 3e 8a da 4f 3c 43 2f c2 bd ee b5 01 bc
       0.12764254 0.012686381 -0.09481671 -0.007916911
000030 e1 a5 29 3e cf 3a 44 3d 0e 40 fe bd 93 6d b9 bd
       0.16567184 0.047907647 -0.12414561 -0.09054103
000040 9e 0c 03 3e a1 ef 81 3c 16 c7 78 bd 2f 8d b9 bd
       0.12797782 0.015861334 -0.06073674 -0.09060132
000050 5a bd b6 bd 88 0d c2 3d 8a 43 13 be c2 aa 27 be
       -0.08922835 0.09475237 -0.14381233 -0.16373733
000060 0a 83 0e 3e 67 00 38 be 3a b8 c1 3d 03 37 ec bd
       0.13917175 -0.17968903 0.094589666 -0.1153393
000070 b6 69 ff 3d ba 68 ed 3d 20 44 f3 bb 5a 2e 0c be
       0.12471335 0.11592241 -0.0074238926 -0.13689557
000080 35 4c 07 3e ee 9e c4 3d b6 cb 95 3d 7f ca 03 be
       0.13212664 0.09600626 0.073142454 -0.12870215
000090 34 32 40 bd e1 98 2d 3e 5a a7 3c be 54 e2 35 3d
       -0.046922877 0.1695285 -0.18423215 0.044405296
0000a0 87 0b 01 3e 8c ad 5e 3d eb 64 31 3e 44 63 37 be
       0.12602054 0.054364726 0.17323653 -0.1790896
0000b0 fa fb 35 be 12 77 de bd a4 08 be bd 31 92 1e 3e
       -0.17771903 -0.108625546 -0.09278992 0.15485455
0000c0 78 ef b3 3c 5b 56 bc bd 5a 23 1a be c0 c2 04 bd
       0.021964774 -0.091961585 -0.15052548 -0.03241229
0000d0 f6 c7 f0 3d fc 5f 21 bd 5a cf af 3d 89 73 27 3e
       0.117568895 -0.03939818 0.08584471 0.16352667
0000e0 3f e4 f1 bd 70 23 98 3c 76 83 db 3d 83 3c 13 3e
       -0.118111126 0.018571585 0.107184336 0.14378552
0000f0 7f 83 31 3e 64 4f 55 3d b0 b2 59 3c 95 dd b3 bd
       0.17335318 0.052077666 0.013287231 -0.08782498
000100 e0 d4 b5 bd 5b a8 31 3e c6 49 e4 bd bd 26 18 3e
       -0.08878493 0.17349379 -0.11146884 0.14858527
000110 15 d0 0b be 1a fe 89 bd 87 c9 12 3e 62 2f cf 3d
       -0.13653596 -0.06737919 0.14334689 0.101164594
000120 e2 1b c2 3d 80 42 8f bc 88 87 fa bc 0a 25 9c 3d
       0.094779745 -0.017487764 -0.030582204 0.07624252
000130 93 f8 22 3e de 60 da 3d
       0.15915136 0.10663007

model.fc_layers.2.bias f4 [3]
000000 26 ae 28 be 1a 12 29 be 42 3b 98 3d
       -0.16472682 -0.16510811 0.074331775
