LSTM_TimeSeries/lightning_logs/version_120/checkpoints/epoch=14-step=1950.ckpt (torch, 982811 bytes, 27 tensors)

model.lstm1.weight_ih_l0 f4 [416, 9]
0	0x3d881ac6	0.06645732
1	0x3d2d5eb7	0.042326655
2	0xbd6adecd	-0.057341386
3	0x3d5a4997	0.053292837
4	0xbc428d84	-0.01187456
5	0x3d4827c3	0.048866045
6	0x3e05de0b	0.13072984
7	0x3d1eb4e9	0.038746748
8	0x3d83a860	0.06428599
9	0xbdaa628c	-0.083195776
10	0xbdba7590	-0.091044545
11	0xbca928d7	-0.020649357
12	0xbe119df4	-0.1422041
13	0x3b9db69e	0.0048130294
14	0xbe515794	-0.20443565
15	0xbde78b1b	-0.11305829
16	0xbdd2b1cb	-0.102878176
17	0x3d60bdbb	0.05486844
18	0x3c77dfba	0.015129024
19	0xbd6a7cb5	-0.057247836
20	0xbdeffc85	-0.11718086
21	0x3d1a53db	0.037677627
22	0x3d248d67	0.040173914
23	0xbcf79c8b	-0.030226013
24	0xbc54f43c	-0.012997683
25	0x3d0f2cb2	0.034954734
26	0x3dab5ce5	0.083673276
27	0x3cd1ea35	0.025624374
28	0x3db993e4	0.09061411
29	0x3d96a679	0.07355971
30	0x3dddbcd7	0.10827034
31	0x3dd808da	0.10548563
32	0xbcf5190c	-0.02991917
33	0x3c8aad9d	0.016928488
34	0x3dc50686	0.09620385
35	0x3d0d70ac	0.03453128
36	0x3d6cebb2	0.057841964
37	0xbd917a7d	-0.07103441
38	0xbafbe652	-0.0019218421
39	0x3daf2e15	0.08553711
40	0x3d1046f0	0.0352239
41	0xbda4807a	-0.080323175
42	0x3dafdcfc	0.08587071
43	0x3cbd767c	0.023127787
44	0xbbd2354c	-0.006415045
45	0x3ccffdc6	0.025389563
46	0x3c800dac	0.01563152
47	0x3ddfaccd	0.10921631
48	0x3d79d1c5	0.060991067
49	0x3d5c0d4a	0.05372361
50	0x3d829a08	0.063770354
51	0x3e22f4b7	0.15913664
52	0x3d064a2d	0.032785583
53	0x3dc6c826	0.09706144
54	0xbc19a754	-0.009378273
55	0x3dec13a4	0.11527184
56	0x3b3ca324	0.0028783763
57	0x3d958e87	0.073025756
58	0xbd39e3da	-0.04538331
59	0xbc40e085	-0.01177228
60	0x3da9a314	0.08283058
61	0x3ddf0179	0.10888953
62	0xbc08f2dd	-0.008358684
63	0x3ddee869	0.108841725
64	0xbd5e6ba8	-0.054301888
65	0x3df542a0	0.11975598
66	0x3e1686a5	0.146998
67	0xbc59759b	-0.013272668
68	0x3d392fa4	0.04521145
69	0x3de5bdb5	0.11217824
70	0x3d89bddf	0.06725668
71	0x3c21efb4	0.00988381
72	0xbc845b83	-0.016156917
73	0x3ace2fb0	0.0015730765
74	0xbc1dbdb8	-0.009627752
75	0x3dcb101d	0.09915183
76	0x3d0c5f26	0.034270428
77	0x3da87f69	0.082274266
78	0x3d353a71	0.044245187
79	0x3e3e4df8	0.1858443
80	0x3d904b5d	0.070456244
81	0x3d096cb3	0.03355093
82	0xbd6ec99b	-0.058297735
83	0x3d0e7704	0.03478147
84	0x3dc1bae8	0.09459478
85	0xbc38664f	-0.011254861
86	0xbde8e3b6	-0.113715574
87	0x3e08ee8a	0.13372245
88	0x3e1ec535	0.15504916
89	0x3c943ba8	0.018094853
90	0x3cc7373b	0.024318328
91	0x3dc9fbfd	0.09862516
92	0x3dc1a359	0.09454984
93	0x3e155f16	0.14587054
94	0x3dfde419	0.12397022
95	0x3c970be8	0.018438295
96	0x3d41cdd0	0.04731542
97	0x3e193155	0.14960225
98	0x3e49efbf	0.19720362
99	0x3d9f526a	0.07779391
100	0x3cf112aa	0.029427845
101	0xbcca5278	-0.024697527
102	0x3dbd8ac3	0.09254982
103	0xbd5d8fec	-0.054092333
104	0xbbcc9d80	-0.0062443614
105	0x3db3cac0	0.08778906
106	0x3ca85f2e	0.020553198
107	0x3dfebffe	0.12438963
108	0xbcb659d9	-0.02225964
109	0x3cdf028e	0.027222898
110	0xbd01e397	-0.031711187
111	0x3e0fc91d	0.14041562
112	0x3d741b83	0.05959655
113	0x3d9577a5	0.07298211
114	0x3d3951b9	0.045243952
115	0x3dce24ce	0.10065614
116	0x3c42f790	0.011899844
117	0x3d48ea4f	0.04905158
118	0x3cdb82c8	0.02679576
119	0xbdaf5706	-0.0856152
120	0xbc289da3	-0.01029149
121	0xbdaa83c8	-0.083259165
122	0xbc3d3a3d	-0.01154953
123	0x3c0b1912	0.008489864
124	0xbda3bc82	-0.079949394
125	0x3d300097	0.042969313
126	0x3d51c4e6	0.051213168
127	0xbd246810	-0.040138304
128	0xbc0da8df	-0.008646219
129	0x3d677be7	0.056514647
130	0x3dddc070	0.1082772
131	0x3c1cb867	0.009565449
132	0x3e14908d	0.14508267
133	0x3e4130c6	0.18866262
134	0xbc82839e	-0.0159319
135	0x3de9612a	0.11395486
136	0xbd0b72b9	-0.034044955
137	0xbc9e81fc	-0.01934909
138	0x3d4977b1	0.049186412
139	0x3d9716a6	0.07377367
140	0x3d893b48	0.0670076
141	0x3e3869f5	0.1800917
142	0x3de401da	0.11133166
143	0x3df46039	0.119324155
144	0x3d921523	0.07132938
145	0xbd3d010f	-0.046143588
146	0x3d6c0d48	0.057629853
147	0x3dd4e6a2	0.10395552
148	0x3db6d1eb	0.089267574
149	0x3ba2464c	0.0049522277
150	0x3e05bd9a	0.13060609
151	0x3e3f7ebe	0.18700692
152	0x3c89ed44	0.01683677
153	0xbc25d9ad	-0.010122699
154	0xbd774164	-0.060365096
155	0x3d5ca749	0.053870473
156	0xb927c9c7	-0.00016001529
157	0xbd94d86a	-0.0726784
158	0x3c099af6	0.008398762
159	0x3e37fbf2	0.17967203
160	0x3d9bd33a	0.07608648
161	0x3d42a3a9	0.04751936
162	0x3d2f6320	0.042819142
163	0x3cfd7a55	0.030942122
164	0x3d9de49c	0.077096194
165	0xbd131e0d	-0.03591733
166	0x3dff8d24	0.12478092
167	0x3d70a8ec	0.058754846
168	0x3dd0ae09	0.101894446
169	0x3e1a7d3b	0.15086834
170	0xbc960ba3	-0.018316096
171	0xbd1cce54	-0.038282707
172	0x3d843f35	0.06457368
173	0x3dbd2077	0.09234708
174	0x3c91e44c	0.017809056
175	0x3cd72842	0.026264314
176	0x3d1032c1	0.035204653
177	0x3de9a4e6	0.11408405
178	0x3dc6741e	0.09690116
179	0x3dc2e558	0.095164
180	0xbd4abe17	-0.04949769
181	0x3b2ac06f	0.002605464
182	0x3d7c19a9	0.06154791
183	0x3d41be34	0.047300532
184	0x3ca14feb	0.019691428
185	0xbd830f59	-0.06399412
186	0x3e5412ee	0.20710346
187	0x3e11fc65	0.14256437
188	0xbc5f9787	-0.013646967
189	0x3d8c3c5e	0.068474516
190	0x3d8fc2f9	0.0701961
191	0x3d8759d8	0.06608933
192	0x3dcacbf9	0.09902186
193	0x3d951fe5	0.07281474
194	0xbd12353f	-0.03569531
195	0x3e2206ae	0.1582286
196	0x3de29f21	0.11065508
197	0x3de1626a	0.11005099
198	0x3d19f5aa	0.0375878
199	0x3d78de03	0.060758602
200	0xbd2a13a3	-0.041522633
201	0xbc832ead	-0.016013468
202	0x3b3d403c	0.0028877398
203	0xbcca1665	-0.024668882
204	0x3c504f81	0.012714268
205	0x3d4cf25a	0.050035812
206	0x3d2c7767	0.04210606
207	0x3dea985a	0.1145484
208	0x3da730c7	0.081636004
209	0xbc9e235f	-0.019303976
210	0x3debb65b	0.11509391
211	0x3cbe38b8	0.023220405
212	0x3c5eec20	0.013606101
213	0x3d50eb1e	0.051005475
214	0x3d2b6286	0.041842006
215	0x3d77fac7	0.060541894
216	0x3d423641	0.04741502
217	0x3ccd0645	0.025027404
218	0xbd291023	-0.041275155
219	0x3d648f47	0.055800702
220	0xbcaf5614	-0.02140335
221	0xbd49317a	-0.04911945
222	0x3ac888c0	0.0015299544
223	0x3e02b9d3	0.12766199
224	0xbcb5ad9e	-0.022177514
225	0xbdccd33f	-0.100012295
226	0x3d95aae5	0.07307986
227	0xbd3554e9	-0.04427043
228	0x3db16261	0.086613424
229	0xbd95823b	-0.0730023
230	0xbd4ade2d	-0.04952829
231	0x3d88a8be	0.0667281
232	0x3c9486f0	0.01813075
233	0xbdcb2aee	-0.099202976
234	0xbc0cc867	-0.0085927015
235	0x3cc73abc	0.024319999
236	0xbcd9487c	-0.026523821
237	0x3df3e5b3	0.11909046
238	0x3c8ef227	0.017449452
239	0xbd3e64b3	-0.046482753
240	0x3e2c470a	0.16823974
241	0x3d5afe6e	0.0534653
242	0xbbcb9cc0	-0.0062137544
243	0x3af60cf4	0.0018772171
244	0xbc8ae78c	-0.016956113
245	0xbe145b8c	-0.14488047
246	0x3cfe6da9	0.03105815
247	0x3d99ed15	0.07515923
248	0xbd66cb3d	-0.056346167
249	0x3cc40ec4	0.023932822
250	0x3dc35836	0.09538309
251	0xbd8ef17c	-0.06979653
252	0x3ce004d8	0.02734606
253	0x3d209861	0.03920782
254	0xbc8df921	-0.017330708
255	0x3bfdfbda	0.0077509703

model.lstm1.weight_hh_l0 f4 [416, 104]
0	0x3d908ad1	0.07057727
1	0x3c9d1e78	0.019179568
2	0xbd8909e9	-0.06691343
3	0x3db9a145	0.09063963
4	0xbd92639b	-0.071479045
5	0xbda3145a	-0.07962866
6	0x3da6b825	0.081405915
7	0x3cdddcdc	0.027082853
8	0xbb82d740	-0.003992945
9	0xbd6d0475	-0.05786558
10	0x3c11b5c8	0.008893438
11	0xbd8c9da0	-0.06866002
12	0xbd48d5f4	-0.049032167
13	0x3c903af4	0.017606236
14	0x3d0a17de	0.033714168
15	0x3cd51460	0.026010692
16	0x3daf5463	0.08561017
17	0x3d8ae173	0.06781282
18	0x3d56d746	0.052451394
19	0xbdb2585d	-0.0870826
20	0x3d0dd1e2	0.034623988
21	0x3d81c4f9	0.06336398
22	0x3cb36434	0.021898367
23	0x3d8b86eb	0.06812843
24	0xbcf975b8	-0.03045164
25	0x3d57ed42	0.0527165
26	0xbd2d895b	-0.04236732
27	0x3d7b43ee	0.06134408
28	0x3d76ef2e	0.060286693
29	0x3dba584b	0.09098872
30	0x3cebbadc	0.028775625
31	0x3d67455e	0.056462638
32	0xbd43a319	-0.047762964
33	0x3b301a40	0.0026871115
34	0xbd89fe37	-0.06737941
35	0xbda3cb8c	-0.07997808
36	0xbce31404	-0.027719505
37	0x3dae0315	0.084966816
38	0xbdc5e4f4	-0.0966281
39	0xbd6490ea	-0.055802263
40	0x3d5b0876	0.053474866
41	0x3dbecc2f	0.09316289
42	0x3c448b98	0.011996172
43	0x3dbf47d9	0.09339876
44	0xba9508c0	-0.0011370406
45	0xbd0f3fde	-0.034973018
46	0xbd339680	-0.0438447
47	0x3c8b7aa4	0.017026253
48	0x3dc11861	0.09428478
49	0x3ca62414	0.020280875
50	0x3daf1bb7	0.08550208
51	0x3d884f95	0.06655804
52	0x3d046402	0.032321937
53	0x3d8ac8b3	0.067765616
54	0xbd97a740	-0.07404947
55	0x3d165ace	0.03670769
56	0xbba5b590	-0.0050570443
57	0xbd5690e2	-0.052384265
58	0x3dc76983	0.09736922
59	0x3d8721ad	0.0659822
60	0xbcc5a388	-0.02412583
61	0xbd1c48e5	-0.038155455
62	0x3d205eca	0.039152898
63	0xba6ce480	-0.00090367347
64	0xbdc83e03	-0.09777453
65	0x3d7cb4ce	0.061695866
66	0xbab00200	-0.001342833
67	0xbcc4d8a0	-0.024029076
68	0xbd84aed6	-0.0647866
69	0xbd5ffd61	-0.054685
70	0xbbd7b820	-0.0065832287
71	0x3cc39e30	0.02387914
72	0x3d238a1e	0.03992664
73	0x3db33a79	0.08751387
74	0x3d8858d5	0.06657568
75	0x3ca4756c	0.020075522
76	0xbdb983c4	-0.090583354
77	0xbdaf7440	-0.08567095
78	0x3d8a5c63	0.067559026
79	0xbcd29c60	-0.025709331
80	0x3d86d6e5	0.06583957
81	0xbcad2924	-0.021137781
82	0x3d0b5d32	0.034024425
83	0x3cae24cc	0.02125778
84	0x3d96386f	0.073349826
85	0xbd9cb05e	-0.07650827
86	0x3d7695e6	0.060201548
87	0x3d40e73a	0.047095515
88	0x3c2e4218	0.010635875
89	0xbdaaeee2	-0.083463445
90	0xbd16a257	-0.036775913
91	0xbcc63d9c	-0.0241993
92	0x3b9e5f60	0.004833147
93	0x3d87b7ed	0.06626878
94	0x3d679416	0.05653771
95	0x3c996274	0.018723704
96	0x3d706fb6	0.058700286
97	0x3d271396	0.040790163
98	0xbd007a86	-0.031366847
99	0x3c630ed0	0.013858512
100	0x3d4b75f6	0.049673043
101	0xbda08052	-0.07836975
102	0x3c7ad720	0.015310079
103	0xbcdfee0c	-0.02733519
104	0x3db642a9	0.08899433
105	0xbdc765bf	-0.097362034
106	0x3d817915	0.06321923
107	0xbd588666	-0.052862547
108	0xbbf420a0	-0.0074501783
109	0x3d62c51a	0.055363752
110	0xbc3e5978	-0.011618011
111	0xbd9b6dfe	-0.07589339
112	0xbdba2dce	-0.09090768
113	0xbd2f39f9	-0.042779896
114	0x3d6d3f2a	0.057921566
115	0xbdc46096	-0.09588735
116	0x3db62647	0.088940196
117	0x3c60ade0	0.01371333
118	0x3db7a995	0.08967892
119	0x3cc9de9c	0.024642281
120	0xbcf23180	-0.029564619
121	0x3c558f80	0.013034701
122	0xbd20cb19	-0.03925619
123	0x3dbc5a73	0.09196939
124	0x3cfa776c	0.030574523
125	0xbd1481b0	-0.036256492
126	0xbd2a9e49	-0.04165486
127	0xbb9fac50	-0.004872836
128	0x3d8124ab	0.06305822
129	0x3dc800ad	0.09765754
130	0xbda3e0a3	-0.080018304
131	0xbad53bc0	-0.0016268417
132	0xbdbb96f8	-0.091596544
133	0xbcd72984	-0.026264913
134	0xbd62aa9f	-0.0553385
135	0xbd8e2950	-0.069414735
136	0xbd7e5685	-0.06209423
137	0x3d9cdd99	0.07659454
138	0xbdab10af	-0.083527915
139	0x3cf69cbc	0.030104034
140	0x3dc57691	0.09641755
141	0xbda15a08	-0.078785
142	0x3c86775c	0.016414337
143	0x3c746d68	0.014918663
144	0x3db5329b	0.08847543
145	0x3d0ae456	0.033909164
146	0xbd30ffd0	-0.04321271
147	0xbd4b8b88	-0.049693614
148	0x3d8c1f43	0.068419
149	0x3ce21454	0.027597584
150	0xbd40c041	-0.047058348
151	0xb930f800	-0.00016877055
152	0xbd18bd64	-0.037289992
153	0xbd814054	-0.06311098
154	0xbd68cffa	-0.056838967
155	0x3db37efb	0.08764454
156	0xbd89ec6b	-0.06734546
157	0xbda75612	-0.081707135
158	0xbd8443a6	-0.064582154
159	0xbd8caadb	-0.068685256
160	0x3d90a719	0.07063121
161	0xbc8a2d50	-0.01686731
162	0xbda39039	-0.07986493
163	0xbd20c132	-0.039246745
164	0x3d2810e2	0.041031726
165	0xbd3c3752	-0.045951195
166	0x3d4d322e	0.050096683
167	0x3d863b8d	0.06554327
168	0xbc5cb9c0	-0.013472021
169	0x3d75dfc6	0.06002786
170	0xbce95070	-0.028480738
171	0xbdc5f1c0	-0.09665251
172	0xb8ed0800	-0.00011302531
173	0x3b893210	0.004186876
174	0x3db7e309	0.089788504
175	0x3d3bbbce	0.0458334
176	0xbd7c67ea	-0.061622538
177	0xbd5b1fa9	-0.05349699
178	0xbd9fa0e1	-0.07794357
179	0x3d040192	0.03222806
180	0xbd9eb418	-0.07749194
181	0xbd72180f	-0.059104975
182	0xbd621819	-0.055198763
183	0xbdc76b7a	-0.097372964
184	0x3d8d2279	0.06891341
185	0xbda1e309	-0.07904632
186	0x3cbbdf3c	0.022933595
187	0xbd8ba706	-0.068189666
188	0xbdc5981b	-0.096481524
189	0xbd85c034	-0.065308005
190	0xbdb2f69c	-0.08738443
191	0xbc1f5278	-0.009724252
192	0x3d8a8ebf	0.06765508
193	0xbc425fe8	-0.011863686
194	0xbd859df5	-0.065242685
195	0xbd80c46a	-0.06287463
196	0xbd35e619	-0.04440889
197	0x3c8f085c	0.01746004
198	0x3b16c440	0.0023005158
199	0xbdb4cc2e	-0.08828007
200	0x3cb13720	0.021632731
201	0x3ce01ec4	0.02735842
202	0x3dbd8507	0.092538886
203	0xbd886714	-0.066602856
204	0xbd8245d8	-0.06360978
205	0x3d92b4db	0.07163402
206	0x3db93941	0.090441234
207	0xbb867000	-0.004102707
208	0xbd9f32f9	-0.07773394
209	0xbd1693a8	-0.03676191
210	0xbdac7bd6	-0.08422057
211	0x3be5ae30	0.00700929
212	0xbd6bb8a1	-0.057549123
213	0x3cdfb9e4	0.02731032
214	0x3d02b9ce	0.03191548
215	0x3d3db422	0.046314366
216	0x3cba3970	0.022732466
217	0xbc82f260	-0.015984714
218	0x3cccb014	0.024986304
219	0xbdbe6304	-0.092962295
220	0xbd794cf2	-0.060864396
221	0x3dc56227	0.09637862
222	0x3d583f76	0.052794896
223	0xbd27719e	-0.04087984
224	0xbd958730	-0.073011756
225	0xbdc1242b	-0.094307266
226	0xbc2c4fa8	-0.010517038
227	0xbcb6cf0c	-0.022315525
228	0x3dbc1495	0.09183613
229	0x3d2c1362	0.042010672
230	0x3c48b5f0	0.0122504085
231	0x3dba5481	0.09098149
232	0xbd4fbbaf	-0.0507161
233	0x3d80237f	0.0625677
234	0x3dc4e69f	0.096143
235	0xbdbb5d27	-0.09148627
236	0xbdaf2b51	-0.08553184
237	0xbc7321e8	-0.014839627
238	0x3cc7705c	0.02434557
239	0xbc9da304	-0.019242771
240	0x3c687990	0.014189139
241	0x3cbb4f28	0.022864893
242	0xbd0d7fde	-0.03454577
243	0xbd9ea403	-0.077461265
244	0xbc2825f0	-0.010262951
245	0x3d667636	0.05626508
246	0x3db5371d	0.08848403
247	0x3dc1f3bf	0.09470319
248	0xbcf8b344	-0.030358918
249	0xbd8aba3e	-0.06773804
250	0xbc5540c0	-0.013015926
251	0xbdadfd99	-0.084956355
252	0xbccdb738	-0.02511178
253	0xbc120558	-0.008912407
254	0x3da119a5	0.078662194
255	0xbd83f91c	-0.06443998

model.lstm1.bias_ih_l0 f4 [416]
0	0x3d8a95f1	0.0676688
1	0x3d652014	0.055938795
2	0x3ca23fb7	0.019805772
3	0xbcd1c47d	-0.025606388
4	0xbd74bbea	-0.05974952
5	0x3d7e42e2	0.062075503
6	0x3d64cd6e	0.055859976
7	0x3ca1f185	0.019768486
8	0xbd5cb7ec	-0.05388634
9	0x3dd45e29	0.10369522
10	0x3d50f159	0.051011417
11	0xbd32890e	-0.043587737
12	0x3d530892	0.051521845
13	0x3bd2ee48	0.0064370967
14	0x3d751161	0.059831027
15	0xbcf3bf83	-0.029754406
16	0x3dd7bb96	0.10533826
17	0x3dad9386	0.084754035
18	0x3dce3973	0.10069551
19	0xbac64048	-0.0015125358
20	0xbc4553f4	-0.012043942
21	0x3d3eb5cb	0.04656009
22	0x3ce124d4	0.027483381
23	0x3d91e735	0.07124177
24	0xbd8df491	-0.06931413
25	0xbda8515a	-0.082186416
26	0xbd7dd61d	-0.061971772
27	0xbd2a55aa	-0.041585602
28	0x3d0be237	0.034151282
29	0x3d3f6dc3	0.046735536
30	0x3da75c7d	0.081719376
31	0x39db87d2	0.0004187213
32	0xbcd8cadd	-0.02646392
33	0xbd48e4bd	-0.049046267
34	0x3d460cd5	0.04835208
35	0x3dbbfb8f	0.0917884
36	0x3cc9a3a5	0.024614165
37	0x3c998b76	0.018743258
38	0x3d7b8ff9	0.0614166
39	0xbc00f7f6	-0.0078716185
40	0x3b1a42ba	0.0023538307
41	0x3cceadd4	0.025229372
42	0xbceaf47a	-0.028681029
43	0x3deacbcd	0.11464653
44	0xbdf6d0c2	-0.12051536
45	0xbdc229c0	-0.094806194
46	0xbd0d1628	-0.034444958
47	0xbc73430c	-0.014847528
48	0x3d5344b8	0.051579207
49	0x3dd76493	0.1051723
50	0xbd31ea07	-0.043436076
51	0xbd44c9e3	-0.048044097
52	0x3c806eb0	0.01567778
53	0x3d9da30d	0.07697115
54	0x3d862ed4	0.065519005
55	0xbcf76020	-0.030197203
56	0x3d5f1e2c	0.054472134
57	0x3e0f1bff	0.13975523
58	0x3de6d715	0.112714924
59	0x3de9fe5f	0.114254706
60	0x3d7b3b48	0.061335832
61	0x3d56efe5	0.052474875
62	0x3c3a46b3	0.011369395
63	0x3c0e193a	0.008673007
64	0xbd9b53fc	-0.07584378
65	0xbdc1f06c	-0.09469685
66	0x3d500f16	0.050795637
67	0xbd2b152e	-0.041768245
68	0xbd133be7	-0.0359458
69	0x3d67639d	0.056491483
70	0xbdff7fe5	-0.12475566
71	0x3d37b8c3	0.044853937
72	0x3dd29eca	0.10284193
73	0x3d5d24c3	0.053990137
74	0xbd29afe4	-0.041427508
75	0xbd582f65	-0.052779574
76	0x3dfd9723	0.12382343
77	0xbd913123	-0.0708945
78	0x3d5be6fe	0.05368709
79	0x3dbca448	0.09211022
80	0x3e0a690e	0.13516638
81	0xbd80c1ea	-0.06286986
82	0x3db1867b	0.08668228
83	0x3dbd57cd	0.09245262
84	0x3d7d554a	0.061848916
85	0x3e129da9	0.14317955
86	0x3d77171d	0.060324777
87	0xbd431eaa	-0.047636665
88	0xbde9563e	-0.113934025
89	0xbd8cb08d	-0.06869612
90	0x3e0e3f4f	0.13891338
91	0x3d8db533	0.06919327
92	0x3e01a05f	0.12658833
93	0x3ddc5e48	0.1076017
94	0xbd2e7a4b	-0.042597096
95	0x3c4bf9b9	0.012449675
96	0x3dca1191	0.09866632
97	0xbd91f365	-0.07126502
98	0x3d8cfda9	0.06884319
99	0xbcf3bfb3	-0.029754495
100	0xbc2e1148	-0.010624237
101	0x3dfd483f	0.123672955
102	0x3cef82cc	0.029237173
103	0x3dc2b38d	0.09506903
104	0x3d66ab96	0.05631598
105	0x3da6f97d	0.08153055
106	0xbb9630c0	-0.004583448
107	0x3c7d5658	0.0154624805
108	0xbcde3728	-0.02712591
109	0xbd296903	-0.041359913
110	0x3d65ffde	0.056152217
111	0xbd8e57ee	-0.06950365
112	0x3c824a40	0.015904546
113	0xbd9a279c	-0.07527086
114	0x3d9575e9	0.0729788
115	0xbd2c9360	-0.042132735
116	0xbd82d70e	-0.06388675
117	0xbd864538	-0.06556171
118	0x3bbe5620	0.0058086067
119	0x3d09f022	0.033676274
120	0x3d58e0c2	0.05294872
121	0xbd4c0649	-0.04981068
122	0x3dc0e235	0.094181456
123	0xbd6e3542	-0.05815626
124	0xbc17d718	-0.009267591
125	0x3d39b89e	0.04534208
126	0x3d17bf4a	0.03704766
127	0xbdb38d21	-0.087671526
128	0x3d18bb36	0.037287913
129	0xbda847a9	-0.08216793
130	0x3d8afb03	0.06786158
131	0xbca83df8	-0.020537362
132	0x3dbdf2b9	0.09274811
133	0x3da9066b	0.08253177
134	0x3dc10231	0.09424246
135	0x3d261062	0.040542968
136	0x3d881861	0.06645275
137	0x3d71cbde	0.059032314
138	0xbda917cc	-0.08256492
139	0xbdac66a6	-0.08418016
140	0x3d5fcf4e	0.05464106
141	0x3c903cc4	0.0176071
142	0x3cf1f334	0.029534914
143	0xbd845db4	-0.06463185
144	0x3cb1bc58	0.021696255
145	0x3d5144ea	0.051091112
146	0xbd9a4ce9	-0.07534201
147	0x3d457ce2	0.0482148
148	0xbd18fd92	-0.0373512
149	0xbd921e12	-0.07134642
150	0xbdc09390	-0.09403145
151	0x3d7701de	0.060304515
152	0xbd111bd4	-0.03542693
153	0x3d6102fa	0.05493448
154	0xbc753228	-0.014965571
155	0xbd8b5fce	-0.06805383
156	0xbd8d6621	-0.06904245
157	0x3c0dedd0	0.008662656
158	0x3d4f2a42	0.05057741
159	0x3d7bb83a	0.06145499
160	0x3c6cd818	0.014455818
161	0xbd490838	-0.049080104
162	0xbdb07dcc	-0.08617744
163	0xbdc796a5	-0.0974553
164	0xbdbf6f53	-0.09347405
165	0x3d865d6f	0.0656079
166	0x3d8b8941	0.068132885
167	0xbd7cbb4d	-0.06170206
168	0xbb87eb80	-0.004147947
169	0x3d4d8f06	0.050185226
170	0x3c9f366c	0.01943513
171	0x3dc05617	0.0939142
172	0xbcc1e334	-0.02366791
173	0xbd9d887d	-0.07692049
174	0xbd9b3c50	-0.07579863
175	0x3db3716f	0.0876187
176	0x3d88bf99	0.06677169
177	0xbc51ca38	-0.01280456
178	0xbdb1c153	-0.08679452
179	0x3d9d3fd7	0.07678192
180	0x3dc5c2c5	0.0965629
181	0x3d0e8a16	0.034799658
182	0x385c4000	5.2511692e-05
183	0x3da8a91f	0.08235382
184	0x3daf7853	0.08567872
185	0xbd122d17	-0.035687532
186	0xbd862fd8	-0.06552094
187	0xbd1831c4	-0.037156835
188	0x3ae971c0	0.0017810389
189	0xbd99a27e	-0.07501696
190	0x3cc721dc	0.024308138
191	0xbd5116b6	-0.05104705
192	0x3daa9bad	0.08330474
193	0x3db95fff	0.09051513
194	0x3d19cc32	0.03754825
195	0x3cf71084	0.030159242
196	0xbdb216e9	-0.08695776
197	0xbbb4f720	-0.0055226237
198	0xbd854016	-0.06506364
199	0x3daf8def	0.085719936
200	0xbcc7091c	-0.024296336
201	0xbc6f8d20	-0.014621049
202	0xbdc6e928	-0.0971244
203	0x3c9780b0	0.01849398
204	0xbd828b59	-0.06374235
205	0xbc8f4ce0	-0.017492712
206	0x3d0da22a	0.03457848
207	0x3dbd332f	0.09238278
208	0xbd9c582d	-0.07634006
209	0xbdaf7bcf	-0.085685365
210	0xbd43b045	-0.047775526
211	0x3cce76f5	0.025203208
212	0x3dd328a7	0.10310488
213	0xbcabe5fd	-0.02098369
214	0xbd8098f0	-0.062791705
215	0x3d2ba8f4	0.041909173
216	0x3dc4e6d0	0.096143365
217	0xbd8c2eca	-0.06844862
218	0xbda0ccd7	-0.0785157
219	0x3cb611cf	0.022225289
220	0xbcacee51	-0.021109732
221	0xbdae1fc7	-0.08502155
222	0xbd8f2ee1	-0.06991363
223	0x3d2d90cb	0.042374413
224	0x3c8e11ce	0.017342474
225	0xbd91205d	-0.07086251
226	0x3d6afd49	0.057370458
227	0xbc94f1f4	-0.018181778
228	0xbcc00ff6	-0.02344511
229	0xbb0aa3c1	-0.0021154734
230	0xbb23e3f1	-0.002500769
231	0x3d8ac118	0.06775111
232	0xbc8d17fa	-0.017223347
233	0x3c9ef46a	0.019403655
234	0x3d4bdc9f	0.049770948
235	0xbcddaad5	-0.027058998
236	0x3c8ee9fd	0.017445559
237	0xbc7e0b5f	-0.015505641
238	0x3d0ce45e	0.034397475
239	0x3d70eebd	0.05882143
240	0x3d14b608	0.03630641
241	0xbc61ee5a	-0.013789738
242	0x3c8871a7	0.016655756
243	0xbd773803	-0.06035615
244	0xbc34ba8c	-0.011030804
245	0x3d950c8f	0.07277786
246	0x3d6ab32a	0.05729977
247	0xbda63bcd	-0.08116875
248	0x3c80ac6b	0.015707215
249	0x3d827fc9	0.06372029
250	0x3d6ce4bc	0.057835326
251	0x3cf928b6	0.03041492
252	0x3cc061ac	0.023484074
253	0xbd192a83	-0.037394058
254	0xbd29abe1	-0.041423682
255	0x3dc40e34	0.095730215

model.lstm1.bias_hh_l0 f4 [416]
0	0xbd7de27d	-0.061983574
1	0x3d6f2bf6	0.058391534
2	0x3af1dd04	0.0018452709
3	0xbc30cfe1	-0.01079175
4	0x3d37346a	0.04472772
5	0xbc823f11	-0.015899213
6	0xbd85f145	-0.06540159
7	0x3dd516bd	0.104047276
8	0x3da4caa5	0.08046464
9	0xbc7743b3	-0.015091824
10	0x3e3bf15c	0.1835379
11	0x39de1656	0.0004235978
12	0x3dbd78b4	0.09251538
13	0x3c9a2166	0.018814754
14	0x3d1244d3	0.035710167
15	0xbcd543f3	-0.026033377
16	0xbc2e3c81	-0.010634542
17	0x3d149600	0.036275864
18	0xbc8229fe	-0.015889164
19	0xbd85cd32	-0.065332785
20	0x3de47a86	0.11156182
21	0x3b9568a3	0.004559593
22	0x3d3c142a	0.045917667
23	0x3da10941	0.07863093
24	0xbb85a5a4	-0.004078584
25	0xbdc6a7e2	-0.0969999
26	0x3ccb7ec5	0.024840722
27	0x3d1350fe	0.035965912
28	0xbd3e6c93	-0.046490263
29	0x3d6ebe83	0.058287155
30	0x3d799196	0.060929857
31	0x3d2a3d93	0.041562628
32	0xbcc1ad0b	-0.023642084
33	0xbd31c8ab	-0.043404263
34	0x3b9b07bb	0.004731146
35	0xbcd66129	-0.026169376
36	0xbd6d5731	-0.05794448
37	0x3d892ad4	0.06697622
38	0xbc6184ea	-0.013764599
39	0xbd483fe9	-0.048889074
40	0xbca42a78	-0.020039782
41	0xbd8bc90c	-0.06825456
42	0x3df67a87	0.12035089
43	0x3cd095b1	0.025462003
44	0xbe02414b	-0.1272022
45	0x3db5bca4	0.08873871
46	0xbc90bab3	-0.01766715
47	0xbd32a397	-0.043613043
48	0x3d47e9e8	0.048807055
49	0xbd54710d	-0.051865626
50	0xbd84e238	-0.0648846
51	0x3dae750a	0.08518417
52	0xbde6ba70	-0.11266029
53	0x3d942199	0.07232971
54	0xbc13e0c2	-0.009025754
55	0xbceaea1a	-0.028676081
56	0x3dfb3a55	0.12266985
57	0xbc9422ca	-0.018082995
58	0x3df0bcb9	0.11754746
59	0xbc59de1f	-0.013297587
60	0x3dbfcef5	0.09365646
61	0x3d7a0425	0.06103911
62	0x3a8a57ee	0.001055477
63	0x3d19f05a	0.037582733
64	0x3d7d51e8	0.06184569
65	0xbc4dbad7	-0.012556753
66	0xbd054a77	-0.03254172
67	0xbd227900	-0.039666176
68	0x3d96ac31	0.07357062
69	0x3c9a15ce	0.018809225
70	0xbd40dbee	-0.04708474
71	0x3d528b73	0.05140252
72	0xbd32c2ef	-0.043642934
73	0xbb6451c2	-0.003483877
74	0x3d036071	0.032074396
75	0x3d871e0b	0.06597527
76	0x3e0a9107	0.13531886
77	0x3d34c5bc	0.044133887
78	0x3d50c726	0.050971173
79	0xbd2ac6ff	-0.041693684
80	0x3db2844a	0.087166384
81	0x3cee6782	0.02910209
82	0x3d99b117	0.0750448
83	0x3c83b2dd	0.0160765
84	0x3d9ecad4	0.0775353
85	0x3df7e89b	0.12104913
86	0x3cfca7af	0.030841677
87	0xbd1ff332	-0.03905029
88	0xbd540be6	-0.05176916
89	0x3cf03c5f	0.029325662
90	0x3e07541f	0.13215683
91	0xbd7e2499	-0.06204662
92	0x3b5c711b	0.0033636752
93	0x3dd0c9c2	0.10194732
94	0xbd92dc2f	-0.07170903
95	0xbc13fee1	-0.009032936
96	0x3dce2ad9	0.10066766
97	0xbcca60fc	-0.024704449
98	0x3cfff554	0.031244911
99	0x3d8c35b4	0.068461806
100	0x3de3e4b7	0.11127608
101	0x3d63a763	0.055579554
102	0x3d8dbaa5	0.06920365
103	0xbd52c76f	-0.051459726
104	0x3d9320eb	0.07184013
105	0x3d2b5db6	0.041837417
106	0xbc7a5cd0	-0.015280917
107	0xbd56e147	-0.052460935
108	0x3cc72d0c	0.024313472
109	0xbdc754c0	-0.09732962
110	0xbd0118ea	-0.0315179
111	0x3cccab9c	0.024984173
112	0x3d7bbf72	0.061461873
113	0xbcb576f4	-0.022151448
114	0x3c0dc6f8	0.008653395
115	0xbd340b43	-0.043956053
116	0x3da9d033	0.08291664
117	0x3c1165f8	0.008874409
118	0xbc05c658	-0.008164965
119	0xbd432ad4	-0.047648266
120	0x3d2d51fe	0.042314522
121	0xbd7b8982	-0.061410435
122	0xbd3a857c	-0.045537457
123	0xbd5af896	-0.053459726
124	0x3c0dd388	0.00865639
125	0x3d1c6afe	0.038187973
126	0xbd13b3f3	-0.036060285
127	0x3bfaafc0	0.0076503456
128	0x3d79b93e	0.060967676
129	0x3d72135a	0.059100486
130	0x3d407c16	0.046993338
131	0x3c2d56c0	0.010579765
132	0xbd05e9d2	-0.03269369
133	0xbcd83164	-0.026390739
134	0x3cfcedc4	0.030875094
135	0xbd6763e3	-0.056491744
136	0xbceaf8cc	-0.028683089
137	0x3daafdd9	0.08349199
138	0xbcbe5c3c	-0.02323734
139	0x3cb8be68	0.02255173
140	0xbda7df33	-0.08196869
141	0xbd671a38	-0.05642149
142	0xbd86f5be	-0.0658984
143	0xbd36d477	-0.044636216
144	0x3d4f4fe6	0.050613306
145	0xbd964a6a	-0.07338412
146	0xbcbe7fa8	-0.02325423
147	0xbcda8b1c	-0.02667766
148	0xbd5654e5	-0.052327055
149	0xbd8af7cb	-0.06785544
150	0x3d874c95	0.06606404
151	0xbcf14818	-0.029453322
152	0xbc15a570	-0.009133682
153	0xbdb7ff12	-0.08984198
154	0xbc93bf80	-0.01803565
155	0x3cf9af24	0.030479021
156	0x3dc0e8d9	0.09419412
157	0xbb8c0750	-0.0042733327
158	0xbd9e015d	-0.07715104
159	0xbd929098	-0.07156485
160	0x3d3db9fe	0.046319954
161	0x3d23cf32	0.03999252
162	0xbcc66cb8	-0.024221763
163	0xbd9b6456	-0.07587497
164	0x3c00f5e8	0.007871129
165	0x3bec6df0	0.007215254
166	0xbc16a918	-0.0091955885
167	0xbd3fc961	-0.04682291
168	0xbd2b0c07	-0.041759517
169	0x3d238df6	0.039930306
170	0x3cb15398	0.021646306
171	0xbd26152b	-0.04054753
172	0x3cb2b8f8	0.021816716
173	0x3db142bf	0.08655309
174	0xbd592dd8	-0.053022236
175	0x3d873a71	0.06602944
176	0xbda1e4a2	-0.079049364
177	0xbda2ec35	-0.07955209
178	0x3da22e27	0.07918959
179	0x3d967ed5	0.0734841
180	0x3dba4a09	0.09096152
181	0xbceabe54	-0.028655209
182	0x3da7e9fd	0.081989266
183	0x3d55e772	0.052222677
184	0xbd5a79bf	-0.053338762
185	0x3d35f4f2	0.04442305
186	0xbcd561fc	-0.0260477
187	0xbd5e6cec	-0.054303095
188	0x3d72db06	0.05929091
189	0xbd098416	-0.033573233
190	0x3cfc8814	0.030826606
191	0xbd91b3f2	-0.071144
192	0xbc9f12bc	-0.019418113
193	0x3cb87a18	0.022519156
194	0xbd0e43cc	-0.034732625
195	0xbabb3500	-0.0014282763
196	0xbdb6c6b8	-0.08924621
197	0x3d0e3922	0.034722455
198	0xbd313953	-0.04326756
199	0xbdc60e1a	-0.096706584
200	0x3dc51efb	0.0962505
201	0x3c4aa260	0.012367815
202	0xbd06fa66	-0.032953642
203	0xbd4b71ab	-0.04966895
204	0xbda11e1e	-0.078670725
205	0x3dba5011	0.09097303
206	0x3d6e40ae	0.058167152
207	0x3d91bda5	0.0711625
208	0x3dbb0729	0.09132225
209	0xbb675155	-0.003529628
210	0x3cd01e1b	0.02540498
211	0xbdbd7c8f	-0.09252273
212	0xbc1fc117	-0.009750626
213	0x3dd9562c	0.10612139
214	0x3ddfacf9	0.10921664
215	0x3d6e1a78	0.05813071
216	0x3bbd1bf6	0.0057711555
217	0x3d5aad23	0.053387772
218	0xbd2321a4	-0.039827004
219	0xbd6f4c8f	-0.05842262
220	0xbdc64805	-0.096817054
221	0x3d7e83d5	0.062137444
222	0xbd9830c9	-0.0743118
223	0x3d84582b	0.06462129
224	0x3daf8ef8	0.08572191
225	0x3db6c8ed	0.08925042
226	0xbd8c54a5	-0.06852082
227	0x3d9907fe	0.074722275
228	0x3d47e19f	0.048799153
229	0xbc033b97	-0.008009813
230	0x3d9761ed	0.07391725
231	0xbd375b32	-0.044764705
232	0x3d5b440b	0.053531688
233	0xbd6ee082	-0.058319576
234	0x3bfbcc46	0.0076842634
235	0x3dbd6150	0.092470765
236	0x3d0e2e8a	0.03471235
237	0xbd240585	-0.040044326
238	0x3da0b839	0.07847638
239	0x3cd3307c	0.025779955
240	0xbd36d6d2	-0.044638462
241	0xbb97a703	-0.0046280636
242	0xbdab5995	-0.08366696
243	0x3d3e2455	0.046421368
244	0xbd84cacd	-0.06483994
245	0xbcda17cf	-0.026622681
246	0xbd9c4ebe	-0.076322064
247	0x3daddb07	0.08489042
248	0xbce02d03	-0.027365213
249	0x3d25b8d7	0.04045948
250	0xbdb6b311	-0.08920873
251	0x3b9b57bd	0.004740684
252	0xbc263f6c	-0.010146957
253	0x3db53bdb	0.08849307
254	0xbd714271	-0.058901254
255	0x3db08d36	0.08620684

model.lstm2.weight_ih_l0 f4 [208, 104]
0	0x3d905358	0.070471466
1	0xbce04fb2	-0.027381752
2	0x3dc066ae	0.093945846
3	0x3dd187a7	0.10230952
4	0x3c89cdc3	0.016821748
5	0x3e20218d	0.15637799
6	0xbdb7ff24	-0.08984211
7	0x3cccd937	0.02500592
8	0x3e1928ed	0.14957018
9	0xbc2a489c	-0.010393288
10	0x3e370d37	0.17876135
11	0xbddaf2c9	-0.10690839
12	0xbd92d9ca	-0.07170446
13	0xbdd0be9b	-0.10192605
14	0xbd923be6	-0.07140331
15	0x3b67daef	0.0035378297
16	0x3bc34564	0.0059591997
17	0x3e307894	0.17233497
18	0x3c289d38	0.01029139
19	0x3dcdca70	0.100483775
20	0x3e35912a	0.17731157
21	0x3d49367a	0.04912422
22	0x3e02e098	0.12780988
23	0x3d1e6858	0.03867373
24	0xbe137398	-0.14399564
25	0xbda4b8f3	-0.08043089
26	0x3e21b284	0.15790755
27	0x3d942f6e	0.07235609
28	0x3dd26947	0.10273986
29	0xbdb34e14	-0.087551266
30	0xbd49c7e0	-0.04926288
31	0xbdeec2a7	-0.11658221
32	0x3e322b01	0.17399217
33	0xbe1ad803	-0.15121464
34	0x3dc8e83b	0.098099194
35	0xbda0103b	-0.07815596
36	0xbe1c52c4	-0.15265948
37	0xbe114e14	-0.1418994
38	0x3cf17862	0.029476348
39	0xbe074491	-0.1320975
40	0xbd214864	-0.039375678
41	0x3c5649e3	0.013079139
42	0xbdb21244	-0.0869489
43	0x3e4a6841	0.19766332
44	0xbdcd1256	-0.10013263
45	0xbd538115	-0.051636774
46	0x3d887694	0.06663242
47	0xbd752362	-0.059848197
48	0x3e1635ce	0.14668962
49	0x3d39ca93	0.045359205
50	0x3cd2b3b0	0.025720447
51	0x3dfe63d2	0.12421383
52	0xbd8c410c	-0.06848344
53	0x3db7a49c	0.089669436
54	0xbca3f30e	-0.020013358
55	0x3c3a2f17	0.011363766
56	0x3d08b88a	0.033379115
57	0xbcdf6a8c	-0.027272485
58	0xbd70ebff	-0.058818813
59	0xbd457c52	-0.048214264
60	0xbd9bd063	-0.07608106
61	0xbe368964	-0.17825848
62	0x3e2caa72	0.16861895
63	0xbdf78afd	-0.12087057
64	0x3d08c951	0.033395115
65	0xbd70430c	-0.05865769
66	0xbd82815d	-0.0637233
67	0xbd5b3e53	-0.053526234
68	0x3da3a323	0.079901
69	0x3d514512	0.05109126
70	0x3d3f8857	0.046760883
71	0xbdbcac5b	-0.09212562
72	0x3caf3f3b	0.021392455
73	0x3db213db	0.086951934
74	0x3d9f90e0	0.077913046
75	0x3be7a46d	0.0070691616
76	0x3e150943	0.14554314
77	0x3dc3eb99	0.09566421
78	0xbdad72dc	-0.08469173
79	0x3e0ed1e8	0.1394726
80	0xbe0d778e	-0.13815138
81	0xbc9a3d40	-0.018828034
82	0x3d562db9	0.0522897
83	0x3d77189c	0.060326204
84	0x3e239eeb	0.15978591
85	0xbe236b41	-0.15958883
86	0x3e2bec97	0.1678947
87	0xbd50a3c7	-0.05093744
88	0xbe102554	-0.1407674
89	0x3ba02dc4	0.004888268
90	0x3daf5f64	0.08563116
91	0xbda0e843	-0.078568004
92	0xbd73414c	-0.059388444
93	0xbd748289	-0.0596948
94	0xbc7fb928	-0.0156081095
95	0x3da3cb28	0.07997733
96	0xbd8628bb	-0.065507375
97	0xbd1c9c26	-0.038234852
98	0x3ce3c696	0.027804654
99	0xbd8056bf	-0.062665455
100	0xbdc59ed2	-0.09649433
101	0xbdc6cf1f	-0.09707474
102	0x3d8f6de4	0.07003382
103	0x3d892bf6	0.06697838
104	0x3e30d1a1	0.17267467
105	0x3e128b68	0.14310992
106	0xbd9443c5	-0.072394885
107	0x3d5cf25f	0.05394208
108	0x3d49f99e	0.04931032
109	0x3e335285	0.17511947
110	0x3d2dd4aa	0.04243914
111	0x3d803c22	0.062614694
112	0x3d88c18d	0.06677542
113	0x3d540dc0	0.051770926
114	0xbc47ddee	-0.012198908
115	0xbe312ff7	-0.17303453
116	0xbdc025d7	-0.093822174
117	0xbde69649	-0.11259133
118	0x3d012e21	0.031538133
119	0x3d3c163a	0.045919634
120	0x3decefba	0.11569162
121	0xbd0be670	-0.03415531
122	0x3d5e99ac	0.05434577
123	0x3e0ac430	0.13551402
124	0x3d836b73	0.06416979
125	0x3d21f9c1	0.039544825
126	0x3db00462	0.08594586
127	0x3c80f924	0.0157438
128	0xb9fdc7ba	-0.00048404728
129	0xbdadfb7b	-0.08495232
130	0xbd08d80c	-0.033409163
131	0x3d8ff072	0.07028283
132	0x3bcafe2f	0.006194852
133	0x3caaebd8	0.020864412
134	0x3dacd467	0.0843895
135	0x3c88809b	0.016662886
136	0xbcca6b5e	-0.0247094
137	0xbde21ffc	-0.11041257
138	0x3b9a3214	0.004705677
139	0x3d4fd6ca	0.05074195
140	0x3ced6dfe	0.028983112
141	0xbd42b77a	-0.047538258
142	0xbd4cc68a	-0.04999403
143	0xbe03d8e1	-0.12875701
144	0xbd12285c	-0.03568302
145	0xbdad814a	-0.084719256
146	0xbca0b8f5	-0.019619444
147	0x3e341190	0.17584825
148	0xbd87d3a9	-0.06632168
149	0xbd5ddef1	-0.05416769
150	0xbd89fcca	-0.06737669
151	0xbc2a0762	-0.010377737
152	0x3de3da90	0.11125672
153	0xbde7dd33	-0.11321487
154	0x3dbde307	0.09271818
155	0x3e41edd0	0.18938375
156	0x3dcfb2d2	0.10141529
157	0x3ba2a3ac	0.004963359
158	0x3c8a9c16	0.01692013
159	0x3d7870f8	0.06065461
160	0x3e1d973f	0.15389727
161	0x3d8c4ebe	0.068509564
162	0x3e23cca4	0.15996033
163	0x3d325c76	0.04354521
164	0xbdf6c8aa	-0.120499924
165	0xbe2c6d92	-0.16838673
166	0x3d49d208	0.049272567
167	0xbe15a793	-0.14614706
168	0xbe046e19	-0.12932624
169	0x3e005ebe	0.12536141
170	0xbd55ad76	-0.05216738
171	0x3e301f36	0.17199406
172	0x3c7e6aab	0.015528361
173	0x3d1ff757	0.03905424
174	0xbd0928e0	-0.033486247
175	0x3e100df0	0.14067817
176	0xbe11ceb6	-0.1423901
177	0xbdb047b8	-0.08607429
178	0xbd8b3afb	-0.06798359
179	0xbe37a350	-0.17933393
180	0xbc74fa99	-0.014952325
181	0x3e16350d	0.14668675
182	0xbdde9490	-0.1086818
183	0x3cb027e5	0.021503398
184	0xbe5a95b1	-0.21346165
185	0x3de659f5	0.11247627
186	0x3e247510	0.16060281
187	0x3d537125	0.051621575
188	0x3dff1a4a	0.12456186
189	0xbe49fe9a	-0.19726029
190	0x3e2756aa	0.16341653
191	0x3df51bd6	0.119682
192	0xbcbcc9f9	-0.023045527
193	0x3daedc69	0.08538134
194	0x3e461cbd	0.193469
195	0xbd2ccfb5	-0.042190272
196	0xbd66eee5	-0.05638017
197	0x3e4d9d39	0.20079507
198	0x3dae5964	0.08513144
199	0x3d3dff66	0.046386145
200	0xbdac8fe9	-0.08425886
201	0x3d506370	0.05087608
202	0xbd3d257d	-0.04617833
203	0xbd54651d	-0.05185424
204	0xbc812774	-0.015765883
205	0x3c3fbd2e	0.011702819
206	0xbd73ebeb	-0.05955116
207	0x3d93dd92	0.072199956
208	0x3e0859f9	0.13315572
209	0x3db5888b	0.08863934
210	0x3ccc9967	0.024975492
211	0xbe01a532	-0.12660673
212	0xbde253c0	-0.1105113
213	0x3cf8b805	0.030361185
214	0x3dad6955	0.08467356
215	0x3d6bd7fe	0.057579033
216	0x3ce32fa7	0.027732683
217	0x3e1a5d22	0.1507459
218	0x3d937a3a	0.07201047
219	0xbd742061	-0.05960119
220	0xbd540a1d	-0.051767457
221	0x3db43a78	0.088002145
222	0x3e0b135a	0.13581601
223	0x3c90b3a4	0.017663784
224	0xbe0746fd	-0.13210674
225	0x3db63963	0.088976644
226	0x3db4da2a	0.08830674
227	0xbdbea3b6	-0.09308569
228	0xbd9fc2d0	-0.078008294
229	0xbcbbd965	-0.02293081
230	0xbe065d5f	-0.13121556
231	0xbdc83c57	-0.09777134
232	0x3dc09ebe	0.09405278
233	0xbbb3555e	-0.005472823
234	0xbda3ea1f	-0.080036394
235	0xbd737e7e	-0.059446804
236	0xbdcfd679	-0.10148329
237	0x3dd36e4e	0.10323773
238	0xbe21f08e	-0.1581442
239	0x3db12855	0.08650271
240	0xbde7451e	-0.1129248
241	0xbd4f5f68	-0.050628096
242	0xbd862880	-0.065506935
243	0x3d1085bb	0.035283785
244	0xbdae9422	-0.08524348
245	0xbda7a8e0	-0.08186507
246	0xbc9b6f2b	-0.018973907
247	0xbdaafc03	-0.08348849
248	0x3e1fd0f5	0.15607055
249	0xbdddac6e	-0.10823904
250	0x3d7c2f8b	0.061568778
251	0x3d741c63	0.059597384
252	0xbd8af3d7	-0.0678479
253	0x3d95309c	0.07284662
254	0x3db28711	0.08717168
255	0x3cd5286f	0.026020257

model.lstm2.weight_hh_l0 f4 [208, 52]
0	0x3da559b8	0.08073753
1	0xbdf12d8a	-0.11776264
2	0xbcc3d308	-0.023904338
3	0xbcfd3498	-0.030908868
4	0x3c07b7f0	0.0082836
5	0xbe048d5a	-0.12944546
6	0x3c22f480	0.009945989
7	0x3e0056a1	0.12533046
8	0xbe0a85ab	-0.13527553
9	0x3da20d60	0.07912707
10	0x3dde750a	0.10862167
11	0xbc5f2f80	-0.013622165
12	0xbd9918b0	-0.07475412
13	0xbe0ad099	-0.13556136
14	0xbe07cb64	-0.13261181
15	0x3dffa7de	0.1248319
16	0xbd67205c	-0.056427345
17	0xbd2004d2	-0.039067097
18	0xbba8b580	-0.0051485896
19	0x3db4a7ca	0.08821066
20	0xbdc07d7c	-0.09398934
21	0xbde7ef61	-0.11324955
22	0x3c019800	0.007909775
23	0xbd13a04c	-0.036041543
24	0xbc9bec44	-0.019033559
25	0xbd209aa8	-0.03920999
26	0x3d8a3772	0.067488566
27	0xbcde96c0	-0.027171493
28	0x3da93a0c	0.08263025
29	0x3df907ee	0.121597156
30	0xbd5d4bf6	-0.05402752
31	0xbd99b72d	-0.07505641
32	0xbdadacf8	-0.08480257
33	0xbd8ff9f0	-0.07030094
34	0x3d04d904	0.032433525
35	0x3d6dbd34	0.058041766
36	0x3e0057fb	0.12533562
37	0x3d857f86	0.06518464
38	0xbd08cb36	-0.033396922
39	0x3dbcaa2e	0.09212147
40	0x3db47300	0.08810997
41	0x3b90d080	0.0044193864
42	0xbdf88743	-0.12135174
43	0x3c8ac5f0	0.016940087
44	0x3bebb5e0	0.007193312
45	0xbdd78334	-0.10523072
46	0x3d5c5284	0.05378963
47	0xbce8a1c0	-0.02839744
48	0x3c51b330	0.012799069
49	0xbd958f3a	-0.07302709
50	0xbe030e74	-0.12798482
51	0x3d4c07f8	0.049812287
52	0xbe0c65de	-0.13710734
53	0xbd6d76b4	-0.057974532
54	0xbc1c50d0	-0.009540752
55	0xbdedf932	-0.11619796
56	0x3c683080	0.01417172
57	0xbc7ffcf8	-0.015624277
58	0x3c83a620	0.016070426
59	0xbd0cd6c8	-0.03438452
60	0x3e0b1897	0.13583599
61	0x3dcdadba	0.10042901
62	0x3d417f94	0.04724081
63	0xbd59b4b4	-0.053150848
64	0xbce80930	-0.028324693
65	0x3ddc7b5a	0.10765715
66	0xbddbd444	-0.10733846
67	0xbdf6f7b5	-0.12058965
68	0xbd84bd6b	-0.06481441
69	0xbd8f14f4	-0.06986418
70	0x3c02e470	0.007989034
71	0xbd5d921a	-0.05409441
72	0x3dd7f402	0.10544588
73	0xbd206e32	-0.03916759
74	0x3dcca744	0.09992841
75	0x3e026d81	0.12737085
76	0x3cc24a00	0.023716927
77	0x3d848c3c	0.0647206
78	0xbdeafae6	-0.11473636
79	0x3da986f4	0.082776934
80	0x3ddc7160	0.10763812
81	0x3dc4fef0	0.09618938
82	0x3cb228f0	0.021748036
83	0xbd1ef72e	-0.038809948
84	0x3d827350	0.0636965
85	0xbd9a14fb	-0.07523533
86	0xbd5832a2	-0.052782662
87	0xbde5e99e	-0.112261996
88	0xbcef5a70	-0.029217929
89	0x3df048c6	0.117326304
90	0xbd195ac0	-0.03744006
91	0xbd148354	-0.036258057
92	0x3cf6af28	0.030112818
93	0x3e06ac73	0.13151722
94	0x3dfebc96	0.12438314
95	0xbdac7244	-0.08420232
96	0x3ca68a98	0.020329759
97	0x3dfa14aa	0.122109726
98	0xbddd868a	-0.10816677
99	0xbd921274	-0.07132426
100	0x3dc293ae	0.09500824
101	0x3da7ca9a	0.0819294
102	0xbddec074	-0.10876551
103	0x3df1e5de	0.11811422
104	0x3ce5e210	0.028061897
105	0xbe07739c	-0.13227695
106	0x3c863c10	0.016386062
107	0xbd3c92cc	-0.046038434
108	0xbda3d098	-0.079987705
109	0xbd6ce7a4	-0.057838097
110	0x3d99fe8e	0.075192556
111	0x3d9009f6	0.0703315
112	0x3c586520	0.013207704
113	0xbd82c94a	-0.06386049
114	0xbc9990d0	-0.01874581
115	0x3b9ade00	0.0047261715
116	0x3e09c4a7	0.13453923
117	0xbd7fa4a0	-0.062412858
118	0x3d88c292	0.06677736
119	0x3df4653a	0.1193337
120	0x3e057231	0.13031842
121	0x3d9c36b0	0.07627618
122	0xbd87ceba	-0.06631227
123	0xbdc349c2	-0.095355526
124	0xbe04559d	-0.12923284
125	0xbdecebac	-0.11568388
126	0x3a87b400	0.0010353327
127	0xbe042e5b	-0.12908308
128	0x3d2f3704	0.042777076
129	0x3dc90964	0.09816244
130	0xbdcf8098	-0.10131949
131	0xbde1d732	-0.110273734
132	0x3da8a9c0	0.08235502
133	0x3ba35680	0.004984677
134	0xbb8d6180	-0.0043146014
135	0xbde01006	-0.10940556
136	0x3daf6b00	0.085653305
137	0xbcd41a74	-0.02589152
138	0x3d476014	0.04867561
139	0x3d741690	0.05959183
140	0x3dd812e4	0.10550478
141	0xbe03963f	-0.12850283
142	0x3d008a6c	0.03138201
143	0x3db79760	0.08964419
144	0x3dd0460a	0.10169609
145	0x3dc822e6	0.09772281
146	0x3de4cbde	0.11171697
147	0x3dbc0776	0.091811106
148	0xbde729b7	-0.11287253
149	0xbd659508	-0.05605033
150	0x3c010d10	0.0078766495
151	0x3d49f428	0.04930511
152	0xbd92d94c	-0.07170352
153	0xbdd345c2	-0.103160396
154	0xbe00b50f	-0.12569068
155	0x3da9aae0	0.08284545
156	0x3dd93956	0.10606639
157	0xbdbb41a4	-0.09143379
158	0x3df5b69e	0.11997722
159	0xbe06438a	-0.13111702
160	0x3cdffd30	0.027342409
161	0xbdec4d32	-0.11538161
162	0xbdf5ada0	-0.11996007
163	0x3d000cac	0.031262085
164	0x3d118314	0.035525396
165	0x3da376f4	0.07981673
166	0xbdc19968	-0.09453088
167	0x3de7d44a	0.11319788
168	0xbd7a0566	-0.061040305
169	0xbdb83fa8	-0.089965165
170	0xbdd62870	-0.104569316
171	0xbddd6b2d	-0.10811458
172	0xbd5eabf0	-0.05436319
173	0x3c37ab70	0.0112103075
174	0x3dbcffda	0.09228487
175	0x3da2acee	0.0794314
176	0x3dccc140	0.09997797
177	0xbdb5d490	-0.08878434
178	0x3dc28454	0.09497896
179	0x3d699568	0.05702725
180	0xbd7e6e18	-0.062116712
181	0x3d9941ea	0.07483275
182	0x3dadd002	0.0848694
183	0x3d9e2d92	0.077235356
184	0x3e05e7c5	0.13076694
185	0x3dba342c	0.09091982
186	0x3d902908	0.07039076
187	0xbd96a026	-0.07354765
188	0x3d6a40d0	0.057190716
189	0xbd113dc4	-0.035459295
190	0xbba56aa0	-0.005048111
191	0xbdccda92	-0.100026265
192	0x3da467c8	0.08027607
193	0x3cc2d5d8	0.02378361
194	0x3d9c55d2	0.076335564
195	0x3d406d9c	0.04697953
196	0xbda0d8d4	-0.07853857
197	0xbccb14cc	-0.02479019
198	0xbddcaee4	-0.10775545
199	0xbdc6dba0	-0.09709859
200	0xbc9907d8	-0.018680498
201	0x3dc67b18	0.09691447
202	0xbd9e2d6b	-0.077235065
203	0xbd5a33fa	-0.053272225
204	0x3d44d12c	0.048051044
205	0x3e0a4611	0.1350329
206	0xbb872920	-0.0041247755
207	0x3ce93d48	0.028471604
208	0x3d1a2b54	0.037638977
209	0x3d7faaac	0.062418625
210	0xbcfb9674	-0.03071139
211	0xbd08cbd2	-0.033397503
212	0xbd5113c0	-0.051044226
213	0xbcf6a624	-0.030108519
214	0xbd788864	-0.060676947
215	0x3dcf29a8	0.10115367
216	0xbda31928	-0.079637825
217	0xbd17b104	-0.03703405
218	0x3dbe6e92	0.09298433
219	0xbdc0371e	-0.09385513
220	0xbd653570	-0.055959165
221	0xbdeb316a	-0.11484034
222	0x3dd73eba	0.10510011
223	0xbd2a704e	-0.04161101
224	0x3d585f04	0.05282499
225	0x3dcd454c	0.10022983
226	0xbde5d28e	-0.11221801
227	0xbda9a645	-0.082836665
228	0x3d9a3bee	0.07530962
229	0xbdd7bf18	-0.10534495
230	0x3da67fae	0.08129822
231	0x3e0742f7	0.13209139
232	0xbbe9bfa0	-0.007133439
233	0x3e0a7e01	0.13524629
234	0xbdc9b5fc	-0.09849164
235	0x3d2c4cd8	0.04206547
236	0x3e048399	0.12940826
237	0xbddbc501	-0.10730935
238	0xbcd561a8	-0.026047543
239	0x3d8d38c8	0.06895596
240	0xbd3184d2	-0.043339558
241	0x3daeff94	0.085448414
242	0x3c900d10	0.017584354
243	0x3db498be	0.08818196
244	0x3cf9e5c0	0.030505061
245	0xbdb1c65e	-0.08680414
246	0x3df607fa	0.1201324
247	0x3c0723e0	0.008248299
248	0xbcfeb1d0	-0.031090647
249	0xbdc0b178	-0.094088495
250	0xbcaa6c14	-0.020803489
251	0x3df714be	0.12064503
252	0x3df2c8a2	0.11854674
253	0xbcff61e8	-0.031174615
254	0x3d80db36	0.06291811
255	0x3c731290	0.014835969

model.lstm2.bias_ih_l0 f4 [208]
0	0x3c85c34c	0.016328476
1	0xbd836496	-0.064156696
2	0x3d9eaa2a	0.077473
3	0xbdef6caf	-0.116906516
4	0xbdd62e95	-0.104581036
5	0xbe1d1ca6	-0.1534296
6	0x3e240bce	0.16020128
7	0x3e1514cc	0.14558715
8	0xbe1291e0	-0.1431346
9	0x3e381297	0.17975841
10	0x3de943b6	0.11389868
11	0xbe11f9d8	-0.14255464
12	0xbd82baba	-0.063832715
13	0xbda239e9	-0.07921202
14	0x3ca8d12a	0.02060755
15	0x3decc474	0.11560908
16	0xbd5c3597	-0.053762045
17	0x3dd1ae7a	0.10238357
18	0xbda2817b	-0.07934853
19	0x3d60fe04	0.05492975
20	0x3de86584	0.113474876
21	0xbd6ad7f6	-0.057334863
22	0x3d7ddf20	0.061980367
23	0x3d3fc0a8	0.04681459
24	0x3e12a1a8	0.1431948
25	0x3d4146fb	0.047186833
26	0x3d910f96	0.07083051
27	0x3d97e10e	0.07415973
28	0xbd736b6e	-0.059428625
29	0x3d5fbece	0.054625325
30	0xbd9c5b6d	-0.076346256
31	0x3dc18fbd	0.09451244
32	0x3ccdfbae	0.025144424
33	0x3e191e1d	0.14952894
34	0x3c7af92c	0.015318196
35	0x3d8f24b0	0.069894195
36	0xbde0eff8	-0.109832704
37	0x3dceb569	0.10093195
38	0xbd9bc42b	-0.076057754
39	0xbda737db	-0.081649505
40	0x3c534810	0.012895599
41	0x3d617d10	0.05505091
42	0x3ade63e0	0.0016967021
43	0xbd8e3ea2	-0.0694554
44	0xbda93ce4	-0.08263567
45	0x3ca3596c	0.0199401
46	0x3d4e4fb3	0.050368976
47	0x3e062599	0.1310028
48	0x3dbfe9c0	0.09370756
49	0x3e2b881c	0.1675114
50	0x3d9d64b4	0.07685223
51	0xbdfd9a03	-0.12382891
52	0x3df10a7e	0.11769579
53	0x3db8ef36	0.09030001
54	0xbd7f4c82	-0.062328823
55	0x3d4a5b18	0.04940328
56	0xbccac0b8	-0.024750099
57	0x3dd797fc	0.105270356
58	0x3ddd8dbc	0.10818049
59	0xbcde8a10	-0.027165443
60	0x3d4ee3dc	0.050510272
61	0x3c64b9e0	0.013960332
62	0x3c05b490	0.008160725
63	0xbd941818	-0.07231158
64	0x3d626778	0.055274457
65	0x3d541b8c	0.051784083
66	0x3d9cd044	0.07656911
67	0xbde0e1a1	-0.10980535
68	0x3d9c2c6c	0.0762566
69	0xbd9607ad	-0.07325683
70	0x3db4bb58	0.088247955
71	0x3d8df20e	0.06930934
72	0x3d84eeb2	0.0649084
73	0xbada1280	-0.0016637594
74	0x3d182298	0.037142366
75	0x3d836004	0.06414798
76	0x3d650900	0.055916786
77	0x3d431588	0.047627956
78	0xbd89aa5e	-0.06721948
79	0xbda2c22f	-0.07947194
80	0x3d91b03e	0.07113694
81	0xbdd98bd7	-0.106223755
82	0x3e08cc03	0.13359074
83	0xbe0cade7	-0.13738213
84	0x3e0a0ef1	0.13482262
85	0x3d04d9f0	0.032434404
86	0x3bf2bea0	0.007407978
87	0x3d80f464	0.06296614
88	0xbc412fd0	-0.011791185
89	0x3de6b7d2	0.1126553
90	0xbd985b3c	-0.074392766
91	0xbcf5bf28	-0.029998377
92	0x3e074f77	0.13213907
93	0xbe0d71ec	-0.13812989
94	0xbdb87d0e	-0.09008227
95	0xbda3a8f5	-0.0799121
96	0xbdef8180	-0.11694622
97	0x3deecc7a	0.116600946
98	0xbcb1d604	-0.021708496
99	0xbe053d45	-0.13011654
100	0x3da319f4	0.079639345
101	0xbd2d5aee	-0.042323045
102	0xbdf1ad06	-0.1180058
103	0x3d83839c	0.06421587
104	0x3d15e24b	0.036592763
105	0xbe0b8900	-0.1362648
106	0xbddcbf36	-0.10778658
107	0xbc110da7	-0.008853353
108	0x3d60bcbf	0.054867502
109	0xbd61bcc3	-0.055111658
110	0x3d3f0dd7	0.046644058
111	0xbde2e7f8	-0.11079401
112	0xbdd7a2a0	-0.10529065
113	0x3d6f499e	0.058419816
114	0x3dd54e2b	0.104153
115	0xbdb433d7	-0.0879895
116	0xbe10a816	-0.1412662
117	0xbd983e0f	-0.07433712
118	0xbc0bddef	-0.0085368
119	0xbe21e95b	-0.15811674
120	0xbd6ea21d	-0.058260072
121	0x3e03303a	0.12811366
122	0x3d641a13	0.05568893
123	0x3bd3ec14	0.0064673517
124	0x3e20c252	0.15699127
125	0x3ae55eb2	0.0017499535
126	0xbe0987c7	-0.13430701
127	0x3d51e23e	0.051241152
128	0x3e090826	0.13382015
129	0xbc314bcd	-0.010821295
130	0xbd12a631	-0.035803024
131	0x3dc90006	0.098144576
132	0x3d84bbe5	0.064811505
133	0xbc9244ae	-0.017855015
134	0x3dbeb1e8	0.09311277
135	0xbd8a80af	-0.06762826
136	0xbe198294	-0.14991218
137	0xbd3f5287	-0.046709564
138	0x3b806be6	0.0039191125
139	0xbdd15ab8	-0.10222381
140	0xbdecbb6f	-0.115591876
141	0x3d4b2ffc	0.04960631
142	0x3d3a362d	0.045461822
143	0x3d30d3de	0.043170802
144	0x3c855cdd	0.016279632
145	0xbdf3d352	-0.119055405
146	0x3be42fde	0.006963714
147	0x3d79c5b2	0.060979553
148	0x3cc3e36e	0.023912158
149	0xbd654b3b	-0.05597995
150	0xbcfbea31	-0.03075132
151	0x3d3ba6b4	0.045813277
152	0xbd2a9f16	-0.041655622
153	0x3d23e406	0.040012382
154	0x3d8bd82f	0.06828343
155	0xbdad1326	-0.08450918
156	0x3d8554cc	0.06510314
157	0xbd78af59	-0.0607141
158	0x3d96b41f	0.07358574
159	0xbc06c639	-0.008225971
160	0xbbc003dd	-0.0058598355
161	0xbdac0eae	-0.084012374
162	0x3e148510	0.14503884
163	0x3e1a04a6	0.15040836
164	0x3cc1070b	0.023562929
165	0x3e3610d0	0.17779851
166	0x3d4fff8d	0.05078082
167	0x3d3d9fc6	0.04629495
168	0x3d12cb20	0.035838246
169	0x3ce3ae47	0.027793063
170	0xbd8165de	-0.06318258
171	0x3e076397	0.13221584
172	0x3cdff4bc	0.027338378
173	0xbc3af0e8	-0.011409976
174	0x3d52190d	0.05129342
175	0x3e1b3ce9	0.15159954
176	0x3c9f64e2	0.019457284
177	0x3ddcca9c	0.10780832
178	0x3e15461c	0.14577526
179	0x3d7f1916	0.062279783
180	0x3e1f20a0	0.15539789
181	0xbabf29e7	-0.0014584631
182	0xbdbed037	-0.093170576
183	0xbc59f5d3	-0.013303238
184	0xbd97fbea	-0.07421096
185	0xbd933b8e	-0.071890935
186	0xbd4e461f	-0.05035984
187	0x3d0bf320	0.03416741
188	0x3e17466a	0.14772955
189	0xbcc7f73e	-0.024409886
190	0x3d91b977	0.07115453
191	0xbc980b16	-0.018559974
192	0xbc0d0079	-0.00860607
193	0x3d92dd7b	0.0717115
194	0xbdbce2b5	-0.092229284
195	0x3b42563f	0.0029653457
196	0xbdd9c75d	-0.10633729
197	0x3dd618b1	0.10453928
198	0x3d09408f	0.033508833
199	0xbd88dbba	-0.066825345
200	0xbe0ab468	-0.13545382
201	0xbd6f7f3c	-0.05847095
202	0x3db80a3c	0.08986327
203	0xbc953da9	-0.018217878
204	0x3d915796	0.07096784
205	0x3df5dbeb	0.12004837
206	0xbdb39e51	-0.08770431
207	0xbdcebb7b	-0.10094353
