LSTM_TimeSeries/lightning_logs/version_39/checkpoints/epoch=0-step=5.ckpt (torch, 670043 bytes, 27 tensors)

model.lstm.weight_ih_l0 f4 [416, 9]
00000000: 88de a83c 8e40 123c 7870 80bd f570 0ebd
00000010: f82f 7bbd 1cdf 133d 1809 c63c 19d0 93bd
00000020: 6aff 763d a37b 3fbd 3643 a8bc 079d b13d
00000030: 2e51 b1bd 758c 433d fd8a b1bd f0f7 42bd
00000040: 626f 60bd 3f35 983d d926 933c a2a7 33bd
00000050: f9f2 abbd 58a3 323d 69e8 3c3d 0f7b 123c
00000060: 87e9 adbc 95d9 da3c edfc c23d 428c 0dbc
00000070: f7f0 a63d 7953 b13d 3d72 2d3d 08d5 8b3d
00000080: ba88 d9bb 1976 8dbd 9d00 8a3a 455e a23b
00000090: 6bfc 083d c3a0 a5bd dc84 323c 1f26 2f3d
000000a0: 0412 5f3c e5a1 85bd 6d38 15bc c83d 89bd
000000b0: 343f 0bbc 1882 66bc cb78 15bc fda4 b63d
000000c0: 28b9 21bb f042 5a3c 7c82 603d 537b 153d
000000d0: 75aa aabd 792a 543d d965 49bd 32e5 bc3d
000000e0: 4a81 f5bb 0d2b 803c bfb7 adbd d494 80bc
000000f0: 1000 cabc 8e5b 483b f489 1ebd b669 8b3d
00000100: af63 a9bd 7322 c93d 38fb 993d e718 5cbd
00000110: 029e e83c 9aa0 0fbc 9634 43bd 9ba5 b0bc
00000120: e8ff 00bd b974 1fbc 1196 c9bb 84d0 603d
00000130: fa9c aa3c c82f ab3d da16 60bd 7595 c73d
00000140: 9b11 893d 6dc4 f33c 20e3 38bd 63a1 8a3d
00000150: 33aa 9a3d fc81 afbb 852f 95bd 40f6 663d
00000160: 9920 b63d 062c 023b 926b 19bd cc6f 9f3d
00000170: 4e49 bc3d 2db2 3d3d 8322 643d 6a5d ec3c
00000180: 0c95 8dbc 7aae 7f3d baea cb3d b0d4 223d
00000190: bcb8 c63a 52ac 2dbd 4dc4 bb3c 1073 c0bd
000001a0: 3449 a9bc 784d ebbc 9b08 bcbd 5451 b33d
000001b0: 9227 44bd aa2d ae3b 2256 fcbc 6f1f ad3d
000001c0: 28d2 163d a045 873d 9a1a 6fbd 2c3e ad3b
000001d0: 6913 503c 31d4 7f3d 3456 4d3d 1462 2cbd
000001e0: b4a4 be3b abb3 87bd 604d 013d bfe5 943b
000001f0: e697 aabd 5df7 9b3d 1d6f cd3c 5855 68bd
00000200: 514d b0bb 00f7 b73b fa6a ab3d 188b 253c
00000210: 80a9 1e3d 7bed b83d 6555 b7bc c509 913d
00000220: 21ff 87bd 185b 1bbd 47f4 a4bc 3dc2 f83c
00000230: 1951 5d3d d818 6f3d b88f 47bb 700d ac3d
00000240: 6a55 273d 6921 8fbd a32f 543d 76e0 543d
00000250: 68cc 783d ccad 7e39 ee14 b73c e732 b33d
00000260: f6b4 4e3a 6424 e0bc 1828 7fbd 43be 903d
00000270: 432a 3dbd 9b35 b2bd ece4 d83c e94b b83d
00000280: e7a8 49bc 7a75 403d 43da 173c da77 353c
00000290: 9f70 8c3d 2987 babd 7320 b93d 9c71 723d
000002a0: 82b5 7bbb 7d00 483d 382e 57bd f8e2 6fbd
000002b0: 157f 553d 7794 ca3d 7fc5 8cbc c660 393c
000002c0: 1a91 3f3d a955 9c3c fc4a 553c 64e6 b03d
000002d0: 9484 b9bd 4e0b c6bc 67e5 503d 8363 cdbc
000002e0: 184d c6bc 308c 82bd 0a0c b73d 80ee 063d
000002f0: f7e2 54bd 3490 333d 0504 5e3d f7e6 753d
00000300: bf6b 263d 09db 2f3d f8bb 27bd faaf 503d
00000310: 2715 d73b 465c b23d 4e70 473d 0f18 a53d
00000320: e038 64bb fc2c 3bbc 73a6 763c 4c38 933b
00000330: 8ba9 b23b 05f9 383d 7f80 923d 39be aa3d
00000340: aec3 863d 11c7 aebc eaee 823d a8b4 d0ba
00000350: 285e 3d3c 64b9 4bbd 50d4 4fbd 98fb fd3c
00000360: f094 453d b166 813d aa63 c23b e8f6 1c3d
00000370: 700e f2bc 5079 8b3c 7457 02bd da76 bb3d
00000380: 37ee 533b fbf0 c2bd 1e05 ac3d ee33 e6bb
00000390: 3b9d 9d3d cd17 8abd ab5d 94bc bfb3 cd3c
000003a0: b99d 8abc 8204 85bd d3eb e3bc e14f 643c
000003b0: 0dc2 97bc 3b7c a23d 3b9b 283b c010 14bd
000003c0: aeb4 a23d b90b e2bc f832 87bc 16a8 b73c
000003d0: ac7c 7b3c 92f2 bcbd 2119 d33c d091 c83d
000003e0: cc39 95bb 5ec4 acbc a690 6b3d c799 dcbc
000003f0: 3cc3 1c3d a76c 873d 5c75 f73c 58cf 293b
0.020613924 0.008926524 -0.06271452 -0.034775693 -0.061325043 0.036101446 0.024174258 -0.07217426
0.060302176 -0.04674877 -0.020539861 0.08672529 -0.08658062 0.047741372 -0.08669088 -0.047599733
-0.054793723 0.07432031 0.01796286 -0.04386104 -0.08395953 0.043612808 0.04612008 0.008940472
-0.021229519 0.02671508 0.09520898 -0.008639397 0.08151429 0.08658499 0.042345274 0.06827742
-0.0066386135 -0.06907291 0.0010528747 0.0049550855 0.03344385 -0.080873035 0.010895934 0.042760964
0.013615135 -0.065250196 -0.009107691 -0.06701237 -0.0084989555 -0.014069103 -0.009123038 0.08918188
-0.0024677012 0.013321623 0.05481194 0.036494564 -0.08333293 0.051798318 -0.049169395 0.09223403
-0.007492219 0.015645528 -0.084823124 -0.015695967 -0.024658233 0.003057215 -0.03870578 0.06807272
-0.08270966 0.09821024 0.07518619 -0.053734686 0.028395656 -0.008766318 -0.04765757 -0.021563342
-0.03149405 -0.009732419 -0.0061519225 0.054886356 0.020826805 0.08358723 -0.054709293 0.097453035
0.06692811 0.029756749 -0.04513848 0.06769063 0.07551994 -0.0053560715 -0.07284454 0.056387186
0.08892936 0.0019862666 -0.037456103 0.077849954 0.09193669 0.0463125 0.055696975 0.028853137
-0.017282985 0.062422253 0.0995688 0.039753616 0.0015161256 -0.042400666 0.022920752 -0.093969464
-0.020664789 -0.028723463 -0.09181329 0.087557465 -0.0478893 0.005315502 -0.03080279 0.08453261
0.036821514 0.06605077 -0.05837498 0.0052869525 0.01269994 0.06245822 0.050131038 -0.042085722
0.005817974 -0.06626066 0.03156793 0.0045439894 -0.083297536 0.0761554 0.025077397 -0.056722015
-0.0053803106 0.0056141615 0.083700135 0.010103963 0.038735867 0.09029671 -0.022379586 0.070819415
-0.06640459 -0.03792867 -0.020136012 0.030366058 0.05403242 0.058373302 -0.0030450653 0.084010005
0.04085294 -0.06988794 0.051803242 0.051971875 0.060741812 0.00024288072 0.022348847 0.08749943
0.00078852416 -0.027361102 -0.062294096 0.070675395 -0.046182882 -0.08701631 0.026476346 0.08998854
-0.012308336 0.046987034 0.009268346 0.011075938 0.06857418 -0.09107811 0.09039392 0.059190378
-0.0038407748 0.04882859 -0.052534312 -0.058566064 0.052123148 0.09891599 -0.017184017 0.0113145765
0.04676924 0.019083815 0.013018366 0.086376935 -0.090584904 -0.024175312 0.051000025 -0.025071865
-0.024206683 -0.06374395 0.08937843 0.032942295 -0.051974263 0.043838695 0.054203052 0.06003472
0.0406301 0.042933498 -0.040950745 0.050949074 0.006563801 0.08709006 0.048691086 0.080612294
-0.003482394 -0.011424299 0.015054333 0.004492795 0.00545234 0.04515936 0.07153415 0.08337063
0.06580292 -0.021335157 0.063932255 -0.001592298 0.011558093 -0.04973735 -0.050739586 0.031003758
0.04823774 0.06318415 0.005932291 0.038321406 -0.0295479 0.01702562 -0.031821683 0.091535285
0.0032338032 -0.095186196 0.083994135 -0.0070252335 0.07696005 -0.06742821 -0.01811107 0.025110124
-0.016920911 -0.064950004 -0.02782241 0.01393506 -0.018525148 0.07933851 0.002572729 -0.036148787
0.07944618 -0.02759348 -0.016503796 0.022419017 0.015349548 -0.09225954 0.025768818 0.097934365
-0.004554009 -0.021089729 0.057510994 -0.026928796 0.038272128 0.06612521 0.030207328 0.002591094

model.lstm.weight_hh_l0 f4 [416, 104]
00000000: 3e92 963d b6a7 b13c 18e1 8dbd ff83 b43d
00000010: 928a 97bd 663e a9bd 12f5 9f3d 47f0 ca3c
00000020: bec3 d7bb 109e 76bd b6e7 3a3c b705 87bd
00000030: 67b3 3ebd 4cd8 a73c 02de 143d 6389 bd3c
00000040: 624f a93d 6647 863d 85be 4c3d 37cc b6bd
00000050: f505 003d 7307 793d aec8 ca3c fa13 8e3d
00000060: 8f0d 09bd 7465 633d 3ed8 34bd af69 823d
00000070: 07b7 6b3d 984f bf3d 708d d43c 69ce 583d
00000080: 35a6 3abd 5efa a03b 4250 8fbd a204 9ebd
00000090: b67e f5bc 70d2 b33d 4f03 cbbd d54b 5abd
000000a0: e741 693d 48aa b93d 3f63 613c 72a0 b93d
000000b0: f227 81bb 4d49 19bd 5dda 3dbd 0b89 6c3c
000000c0: 6552 bb3d 4895 ba3c 15dc a93d 3252 8f3d
000000d0: bd1f 0f3d 83ef 853d 9a9b 91bd f132 223d
000000e0: d03e 05bc 663a 4bbd 6468 c43d 1259 8c3d
000000f0: 49c8 d8bc 1e44 11bd 226a 153d cd11 8abb
00000100: 760e c2bd 8bb8 843d 3b04 c63a 2c6a debc
00000110: 8625 8bbd ef84 55bd 4ee9 84bb 415b af3c
00000120: 9a0a 2f3d 205f b83d 9988 8e3d 7d03 bb3c
00000130: a044 c0bd 7ab4 a9bd cf6e 853d f084 e7bc
00000140: 3b5f 823d e50a 9bbc 04ef ff3c 0419 c73c
00000150: 4ee6 903d 285e a4bd bd3f 6c3d 13b8 343d
00000160: ed4b 5c3c 57a5 b0bd efc4 1dbd f4d8 dabc
00000170: f502 1a3b 450d 833d d15a 5a3d 5964 ae3c
00000180: fa7a 7d3d 04ae 313d 3e79 04bd dd3e 373c
00000190: b069 573d 8b25 98bd e513 903c 06f8 c8bc
000001a0: 5940 ac3d ca5b d1bd 3939 8b3d 36bf 44bd
000001b0: 2218 2cbb f821 773d 268a e7bb a2b7 91bd
000001c0: 7c2c b0bd 3bdc 1bbd 7c78 593d ab75 cebd
000001d0: d34c ac3d 4440 113c cba1 ad3d 6666 f23c
000001e0: fbd9 c9bc 86a4 913c 4014 0dbd fdfa c53d
000001f0: 24ca 023d 3aa2 00bd a69a 3dbd 6507 11bc
00000200: c63b 8b3d 52ef bd3d f859 9abd f842 d2bb
00000210: 8284 b1bd f9ae febc 364e 4ebd da8f 8cbd
00000220: 97ad 88bd 4339 933d 8811 a1bd 4b62 ce3c
00000230: ec49 cf3d 2876 abbd b46e ae3c 5136 253c
00000240: 09f6 b23d 2dcd 1e3d eb57 40bd a077 37bd
00000250: c339 963d 9793 043d ebf4 3fbd c39c 993b
00000260: 7ca5 04bd 6714 8bbd 8d00 55bd 405d b33d
00000270: bfed 93bd 2286 9dbd 4b67 8ebd 76d5 96bd
00000280: cbba 9a3d d7a6 b1bc 7298 9abd 3499 34bd
00000290: 4e8d 3b3d fc5a 4fbd 6f48 613d 6ca9 853d
000002a0: af71 95bc fcd6 613d b3b0 08bd 2d8b bdbd
000002b0: 8c6d 983b 7dd9 2cba c1e8 ad3d e932 4f3d
000002c0: 2153 88bd 6ae6 6ebd db7c a9bd 74d2 df3c
000002d0: c83e 96bd 3e20 83bd 535c 4ebd 8181 bdbd
000002e0: 51e6 963d 7067 abbd e23f e43c fcb6 95bd
000002f0: 74ad bbbd 8ba2 83bd d40c a9bd 75c1 9cbb
00000300: 3a78 803d 040d e4bb 809a 78bd a4a2 6dbd
00000310: 1933 22bd 9031 b53c 9055 e43a 61bc bebd
00000320: 045e 893c 7e4a b83c e04a c63d aad4 7cbd
00000330: b051 81bd 4aae 8e3d 3fe2 af3d ca32 13bc
00000340: a337 a9bd 4a5a 2abd c8db a2bd dcc4 403c
00000350: 3c3f 58bd 8534 043d 891f 153d 88f0 503d
00000360: 20da e13c 50cc 38bc 1376 a53c e55c c8bd
00000370: b75d 86bd bfb2 bb3d 4681 443d 1084 13bd
00000380: 1c94 8bbd 237e b7bd 1e87 bcbb 9acf 90bc
00000390: e5b9 bf3d cecf 3f3d 99f7 fb3b 0c95 b13d
000003a0: 91e0 3bbd 5963 6c3d 8c57 ce3d 8813 c5bd
000003b0: 7a39 a5bd a0c6 a0bc 668c ef3c 2787 98bc
000003c0: 603f 1d3c da56 953c 3f4e f3bc 947e a8bd
000003d0: b747 b3bb ac88 523d 8e21 bf3d 931c b83d
000003e0: 3708 00bd 7ef5 80bd 44b1 8bbc da11 a4bd
000003f0: 9bc9 a5bc 0c3d 8bbb 762f a33d dd2f 74bd
0.07352112 0.021686416 -0.06927699 0.08814239 -0.07399477 -0.08263855 0.07810415 0.024772776
-0.0065846136 -0.060209334 0.011407783 -0.06592887 -0.04655781 0.02048888 0.036344536 0.0231368
0.08267094 0.06556587 0.04998638 -0.0892567 0.03125568 0.06079812 0.024753895 0.06937404
-0.033460196 0.055516675 -0.044151537 0.06367814 0.057547595 0.09341353 0.025946349 0.052931223
-0.045568664 0.0049126586 -0.0699773 -0.077157274 -0.029967647 0.08780372 -0.099127404 -0.053294975
0.056947615 0.09065682 0.013756572 0.09063806 -0.0039415294 -0.03742342 -0.046350826 0.01443697
0.09146575 0.022776261 0.082939304 0.069980994 0.034942377 0.06539824 -0.07109757 0.039599363
-0.008132651 -0.04961624 0.095902234 0.06852926 -0.02646269 -0.035465352 0.03647817 -0.004213548
-0.094754145 0.06480511 0.0015107462 -0.027150236 -0.067942664 -0.05212873 -0.0040561324 0.021405818
0.04273472 0.09002519 0.06959648 0.022828812 -0.09388089 -0.08286376 0.06515276 -0.028261632
0.0636582 -0.018926093 0.031241901 0.02430392 0.07075177 -0.080257714 0.057677973 0.04412086
0.0134458365 -0.08625286 -0.03851789 -0.02671478 0.0023500298 0.06399015 0.053309266 0.021288084
0.061884858 0.043378845 -0.032342188 0.011184421 0.052591026 -0.07429036 0.017587611 -0.02453233
0.08410711 -0.102225855 0.06798024 -0.048033915 -0.0026259501 0.06033513 -0.007066029 -0.07115103
-0.08602235 -0.038051825 0.05309342 -0.10081037 0.084130906 0.00886542 0.08478125 0.029589843
-0.024640074 0.017778646 -0.03444314 0.09667013 0.031931058 -0.03140471 -0.046290062 -0.008851861
0.0679851 0.09274162 -0.075366914 -0.0064166747 -0.08667852 -0.031089293 -0.050367557 -0.06863375
-0.06673735 0.07188656 -0.07864672 0.025193354 0.10121521 -0.08372146 0.021293022 0.010083751
0.08738334 0.03876989 -0.046958845 -0.044791818 0.07335236 0.032367315 -0.04686443 0.004687877
-0.03238438 -0.06791001 -0.05200248 0.087580204 -0.07223081 -0.076915994 -0.06953295 -0.07364933
0.07555159 -0.021686 -0.07548608 -0.04409142 0.045789056 -0.05062388 0.05500072 0.06526455
-0.018242685 0.055136666 -0.03337164 -0.09255061 0.004651731 -0.00065936876 0.0849166 0.05058566
-0.066564806 -0.05832521 -0.082757674 0.027322032 -0.07336193 -0.06402634 -0.050381016 -0.092532165
0.07368148 -0.083693385 0.027862493 -0.07310292 -0.09163943 -0.06427487 -0.082544 -0.004783804
0.062729314 -0.0069595594 -0.060694218 -0.058016434 -0.03959951 0.02211836 0.0017420519 -0.09313274
0.016768463 0.022496458 0.0968225 -0.06172625 -0.06314409 0.06966837 0.08588075 -0.008984277
-0.08262565 -0.041590013 -0.07952076 0.011765685 -0.05279468 0.03227665 0.036407027 0.05101064
0.02756983 -0.011279181 0.020197904 -0.09783343 -0.065608434 0.091649525 0.047974847 -0.036014616
-0.06815359 -0.089596055 -0.005753412 -0.017677117 0.093616284 0.046829037 0.007689428 0.086710066
-0.04586846 0.057711933 0.10075292 -0.09622866 -0.080676034 -0.019625962 0.029241752 -0.018619133
0.009597629 0.01822989 -0.029700397 -0.08227268 -0.0054711956 0.05139987 0.09332572 0.08989825
-0.031257834 -0.06296824 -0.0170523 -0.080112174 -0.020237735 -0.0042492207 0.07968037 -0.05961596

model.lstm.bias_ih_l0 f4 [416]
00000000: 18a3 473d cf13 8d3d b0de 453d 8fec 51bd
00000010: dfdb 8cbd 06cf a23c 38c2 b03c 08a5 9fbc
00000020: e4be 88bd 7830 bf3d 62bf f8bc f462 a4bd
00000030: c3d4 1f3d ed9a 193d 066c 3a3d b999 8fbd
00000040: 9889 a73d 2498 a43d 391c 7f3d a393 97bc
00000050: e02c 49bd 0e86 a73c f9c4 6a3d 311b 223d
00000060: 98cb 82bd 1f7e 59bd e3ab 97bd 4bfb 97bb
00000070: 695d 813d f3cc 523c 9663 4a3d 96e5 29bd
00000080: 87b5 01bd 123c 6ebd e5f9 ae3d 1b49 573d
00000090: 98f0 2c3d f9b0 fcbb ac49 e83c fd67 1cbd
000000a0: 868b d3bc 83bc 643d 76b8 65bd 4e07 a03d
000000b0: c4c0 bdbd f4ca bcbd e2e3 4cbd da1f 4abc
000000c0: 2bcf 613c a4f7 b53d be40 56bd 588a a8bd
000000d0: e739 6a3d e831 9a3d c8fd 303d 0882 05bd
000000e0: 2f62 a53c 7d98 a93d d7e7 9d3d 73aa a53d
000000f0: d523 3f3d 58c6 3e3c a56d e7bb b858 c0bc
00000100: 75b3 58bd b561 8cbd 7dd3 973c 7e04 c1bd
00000110: 2628 3ebd 3964 163d 048f 95bd 0f99 9f3c
00000120: 32d8 973d a2bb bc3c 4047 92bd 43dd b1bd
00000130: 4d02 953d 02ec a3bd 660b 443d 809c 923d
00000140: fdd1 813d b313 bcbd 21c3 8d3d 6575 8f3d
00000150: 80cf 903d b557 aa3d ac29 f13c 0f65 74bd
00000160: df99 9bbd 3179 98bd d52c cf3d 131f 573d
00000170: dde3 a93d d264 803d 63df 72bc cdcc 6e3d
00000180: 823f 7e3d 13e0 77bd d003 1c3d 6f3b 3bbd
00000190: 11cb 27bd ff9b b53d a544 bf3c b2ad 803d
000001a0: 1fd8 5b3d cc08 b13d 4064 8439 ed6f a63c
000001b0: b3ec b6bc 6043 34bd a816 563d 9f62 84bd
000001c0: 0361 aa3c fd07 96bd 87ac 9f3d 039e 2ebd
000001d0: f8bb 71bd 0589 8fbd 6ddd 2f3c 0aa1 f33c
000001e0: 3049 463d a135 38bd ae00 ca3d 939b 5abd
000001f0: d43d 43bc 2eb7 4d3d f16d 053d 47a8 aabd
00000200: fa49 083d 0c3d b1bd 4f4c 943d 2df8 80bc
00000210: 738e ba3d c9ec b23d c745 bf3d 64b6 1c3d
00000220: 10f4 913d 10c5 823d fdb7 a4bd b82a b6bd
00000230: f1c9 733d f61b 5c3c 9174 0d3d a3da 7fbd
00000240: b518 a43c 8f4b 653d 4e39 9abd 7c4f 323d
00000250: 2454 2cbd b479 88bd 47f5 c7bd e38d 853d
00000260: 503f 24bd 42d2 743d 929b 56bc 4b69 8dbd
00000270: d551 83bd 67d0 5c3c 6dea 3e3d c48d 673d
00000280: da8d 263c 7d07 5abd 4f42 a7bd e290 bdbd
00000290: c901 b6bd f443 823d 79dd 8f3d df2c 80bd
000002a0: 2b26 0abc ad41 3b3d e9fc 883c 217c b73d
000002b0: 3e3c e4bc e97d 93bd 9a25 91bd b558 bd3d
000002c0: dca8 803d c5d9 09bc bf10 bbbd 7753 9b3d
000002d0: 5822 bd3d e69c f73c 8ccb a23b ed9d b23d
000002e0: 4874 b93d 001d 01bd cd90 88bd 949e 23bd
000002f0: 6049 d03b d7fa 9ebd aedf ee3c ef0a 64bd
00000300: 25fd a03d 5035 b03d 09d0 223d fe4f 0f3d
00000310: 2c3d a8bd 6c07 66ba 4db3 86bd bd8c b93d
00000320: c742 ecbc a259 1fbc ed22 bebd 33f8 9e3c
00000330: 0749 83bd 4313 a5bc 9bcb 203d 8bf7 b33d
00000340: 227e a4bd ab0d bbbd 8269 2abd 12e0 893d
00000350: 2a93 d23d 3195 37bd 9699 afbd b350 153d
00000360: e279 b93d 9c0a 5dbd f0c8 96bd 4604 ee3c
00000370: 7419 5abc 6730 a9bd 1bf0 87bd 26b3 e33c
00000380: fe64 0cbc c428 88bd 943f 443d 15b7 f5bc
00000390: d927 31bd 9f09 3ebc 547e 053c 52b3 4d3d
000003a0: a70b debc a426 823b d2ce 1c3d 23d5 f4bc
000003b0: a08b 5a3d 8add 57bb d0db 8b3c 030f 783d
000003c0: 775e 6f3c 91b2 e6bc 24cb 523d 1cfd 36bd
000003d0: 560d cf3c 07f6 8d3d 65fd 4a3d 0724 9dbd
000003e0: 6611 143d 5fb1 9e3d 0195 8a3d e1e2 213d
000003f0: b7c0 7f3d 61d9 c6bc f7bf a7bc 5a0e a83d
0.048739523 0.06888544 0.048308074 -0.05125099 -0.068778746 0.019874107 0.021576986 -0.019487873
-0.066770345 0.093354166 -0.030364696 -0.08026686 0.039021265 0.037501264 0.045513175 -0.07011742
0.08180541 0.08036831 0.062282775 -0.018503016 -0.04911506 0.020449664 0.057316754 0.039576713
-0.06386489 -0.053098794 -0.07405832 -0.0046381108 0.06316645 0.0128662465 0.04941138 -0.041478716
-0.03166726 -0.058162756 0.08543757 0.052559953 0.042221636 -0.0077115265 0.028355442 -0.03818511
-0.025823366 0.05584384 -0.05608412 0.07813893 -0.09265283 -0.09218398 -0.050022013 -0.012336696
0.013782303 0.08885124 -0.052307837 -0.08229512 0.057184126 0.0752905 0.043210775 -0.03259471
0.02018842 0.08281038 0.077102356 0.08089151 0.04666503 0.0116439685 -0.007062631 -0.023479804
-0.05290552 -0.06854574 0.018533463 -0.09424685 -0.046425007 0.036716674 -0.07302669 0.019482164
0.07414283 0.023038689 -0.07142496 -0.086847804 0.072758295 -0.08003999 0.047862433 0.07158756
0.0633888 -0.09183445 0.069219835 0.07004813 0.070708275 0.0831751 0.029438816 -0.05966669
-0.07597708 -0.074449904 0.10115973 0.05251987 0.082954146 0.0626923 -0.014823767 0.058300782
0.062072285 -0.06051643 0.038089573 -0.045710977 -0.040965144 0.088676445 0.023348162 0.0628313
0.053672906 0.08644256 0.00025251694 0.020317042 -0.022329664 -0.044009566 0.0522677 -0.06464123
0.020798212 -0.073257424 0.07796579 -0.04263116 -0.05901715 -0.07008556 0.010733944 0.029739875
0.04840964 -0.04497302 0.09863411 -0.053371023 -0.011916596 0.050223522 0.03257555 -0.083328776
0.033273675 -0.08654222 0.07241117 -0.01574334 0.09109201 0.087365694 0.09339481 0.03825988
0.07126629 0.06385243 -0.080429055 -0.08894867 0.05951876 0.013434401 0.034534995 -0.062464368
0.020031312 0.05598026 -0.07530461 0.043532833 -0.04207243 -0.06663838 -0.0976358 0.06521203
-0.040099442 0.05977083 -0.013098614 -0.06904849 -0.064120926 0.013477421 0.046610285 0.056531683
0.010165656 -0.053229798 -0.08166944 -0.0925615 -0.08887059 0.06360617 0.070246644 -0.062585585
-0.0084319515 0.04571693 0.01672216 0.089592226 -0.027860757 -0.0720175 -0.0708725 0.09245435
0.06282207 -0.008413737 -0.091340534 0.07584279 0.09235066 0.030226182 0.0049681123 0.08721528
0.09055382 -0.031521797 -0.066682436 -0.039946154 0.006356403 -0.07762688 0.029159393 -0.05567449
0.078607835 0.086039186 0.03974918 0.034988396 -0.082147926 -0.00087749097 -0.06577168 0.09060047
-0.028840436 -0.00972596 -0.09284005 0.01940546 -0.06410413 -0.020150786 0.039256673 0.087874494
-0.080318704 -0.09133466 -0.041604526 0.06732191 0.102819756 -0.044820014 -0.08574216 0.036453914
0.090564504 -0.053965196 -0.073625445 0.029054772 -0.013311733 -0.08261185 -0.06637593 0.027795386
-0.008569 -0.066484004 0.047912195 -0.029994527 -0.043250892 -0.011598974 0.008147795 0.05021984
-0.027105166 0.0039718915 0.038283177 -0.029886788 0.053355813 -0.0032938444 0.017072588 0.06056119
0.0146099245 -0.028161319 0.05146326 -0.044674978 0.025274914 0.069316916 0.049558062 -0.07672887
0.036149405 0.077486746 0.067667015 0.03952301 0.062439647 -0.024273576 -0.020477278 0.08205862

model.lstm.bias_hh_l0 f4 [416]
00000000: 98b5 a5bd c319 923d 599b f83c 3a3e 15bd
00000010: a138 123d d3fa 6dbd 6827 ccbd 1db1 843d
00000020: af67 8a3d e358 d0bc 363a d13d be80 14bd
00000030: dfde a33d dd4d 4c3d 263f af3c d6fa 87bd
00000040: 16f3 0bbd 5e9f 023d 9d6b 5ebd 1c99 a8bd
00000050: 7c8e 983d 728b b0bc 5823 9b3d 455f 403d
00000060: 14ab b33a 9115 8bbd c5f6 503c a753 953d
00000070: f027 8fbc f807 c83c 2b78 ea3c e089 afb9
00000080: 2e4d ecbc f91f 57bd e547 2b3d 4bef 85bd
00000090: 9838 25bd acf9 253d 60cc 3fbd eb34 a2bd
000000a0: 2a7f 45bd 712c 1abd 765b be3d 2df8 34bc
000000b0: 8572 cbbd 701b bb3d 1d2b 08bd b05a 28bd
000000c0: eb63 343c 72a5 8bbd a10d 97bd 3e9f 503d
000000d0: 45b9 91bd 74b0 903d 3158 00bd 138e febc
000000e0: b203 b53d 3ca8 99bd 7bcd a73d 421f 3fbd
000000f0: 20c3 a13d 8c8b a53c 3659 8ebc 51ed b13b
00000100: 35a3 ad3d 8aba 5e3c eab7 84bd 69b6 bcbd
00000110: 1e36 813d be1e 7dba 0830 983b 733e d53c
00000120: 0d28 94bd 1e0c 0dbd 1e1e 083b bdb0 023d
00000130: 198d ac3d 1950 0f3d 8aeb 383d c5d6 7ebd
00000140: b321 7c3c f42a 1039 78db 6b3d fd59 cfbb
00000150: baef b03d fe09 7a3d e0cd 39b8 9339 51bd
00000160: 734c 62bc be19 c13c 6756 c13d f337 a1bd
00000170: eaf2 24bd 95a0 693d f6f5 33bd 99ce 163d
00000180: 0939 833d 4ba7 64bc 27c7 003a 9d0f 573d
00000190: 52c1 a53d e39d a83c 12ab 813d 9469 abbd
000001a0: 31b7 8d3d 577c 3f3d 4f21 2bbc e7fe 42bd
000001b0: 8177 ee3c edc1 ccbd 2002 11bd d980 f43c
000001c0: 6ae5 873d 75f8 a4bc e37b 5f3c e615 36bd
000001d0: 44c9 b33d 2a8f 8e3b ec4f 54bb 724a 53bd
000001e0: 6cba 1a3d dab8 67bd 8c48 28bd e75e 47bd
000001f0: 9ad9 c43b 8e69 303d 4c05 26bd b07e 443c
00000200: 0248 693d 9328 603d af1e 533d 57e2 7b3c
00000210: 5bb2 0cbd eb97 b0bc 1dfc f53c e1bd 70bd
00000220: 128a c3bc fbdc b43d fddc acbc 21ae 913c
00000230: e1e1 9dbd 9c31 78bd 8570 79bd b2f3 2dbd
00000240: 157e 483d 1747 8cbd 3d31 bebc f572 00bd
00000250: 77ab 69bd 6d53 81bd bcd5 7f3d 4a14 c9bc
00000260: 6033 62bc 6e17 aebd 3474 84bc 3189 f13c
00000270: 25fd ca3d edee 0d3a 4a21 a6bd d3a5 9cbd
00000280: 6f27 2c3d edcf 123d c67e a1bc 935e 91bd
00000290: 3b62 4c3c 45d6 aa3b ad0e e8bb d067 43bd
000002a0: 2398 3cbd 9d40 113d 151a 9b3c 16c9 37bd
000002b0: ee5f 903c 534d bb3d 6d00 45bd b721 913d
000002c0: 5ffb a9bd 27ee 99bd bbde 983d 7592 943d
000002d0: 9ca9 b13d ce1a 08bd 2efb b13d 10d1 693d
000002e0: d481 46bd 0905 473d cfe5 debc bcd9 69bd
000002f0: 52cc 823d c734 14bd f422 123d 0e2e 9bbd
00000300: da8c c5bc 55cf 933c f53f 05bd 43e1 5e3b
00000310: fbec acbd e83f 213d c21f 34bd 4c0f bcbd
00000320: 91d0 bb3d ee6a 8d3c e0db eabc e9b5 47bd
00000330: ccdb a1bd 79de b43d 0fb5 803d 0182 883d
00000340: 25e1 b23d b863 16bc d855 013d 7c74 4ebd
00000350: 516c 24bc 1985 a83d 51ac b03d 33c2 573d
00000360: a8b3 4939 0200 8b3d b019 0fbd 1f53 53bd
00000370: a94f b6bd 5131 843d 03f2 90bd 36f9 4c3d
00000380: bafb 743d 8ec0 bf3d 6ab3 9fbd c9d6 803d
00000390: 3d83 ed3c 284e 8fbc e530 ad3d 182a 7fbd
000003a0: 16ca 323d f10a 97bd 7c43 79bb c896 b73d
000003b0: a1a2 903d fe00 e4bc d079 7a3d f470 e13c
000003c0: a3da 87bd 2ea5 9bbc e220 48bd 5d5f 7e3d
000003d0: cac0 e9bc 1672 f6bc 9f29 acbd d0f2 b63d
000003e0: ffd9 e2bb 091c 5e3d 5f90 a2bd abe5 623c
000003f0: 0e00 ec3c b11a d03d 8876 1bbd 5c8d 943d
-0.08091277 0.0713382 0.030347513 -0.036436297 0.035698537 -0.058100533 -0.09968454 0.06479094
0.06758057 -0.02543301 0.10216181 -0.03625559 0.08001494 0.049878944 0.021392416 -0.0663964
-0.03416737 0.031890266 -0.054301847 -0.08232328 0.07449052 -0.021550868 0.07575101 0.046965856
0.0013707601 -0.06791223 0.012754147 0.07291346 -0.017475098 0.024417862 0.028621754 -0.00033481326
-0.028845396 -0.052520726 0.04181661 -0.06539782 -0.040337175 0.04052131 -0.046825767 -0.079202496
-0.048216976 -0.03764004 0.092947885 -0.011045498 -0.09933952 0.09136093 -0.03324424 -0.04110211
0.01101015 -0.068186656 -0.073756464 0.050933115 -0.071154155 0.07064906 -0.031334106 -0.031073606
0.088385954 -0.07502791 0.08193489 -0.04666067 0.07898545 0.020208143 -0.017376523 0.0054299016
0.08478395 0.013594279 -0.06480391 -0.092144795 0.0630915 -0.0009655765 0.0046443976 0.026030755
-0.072342016 -0.034435384 0.0020769904 0.031906832 0.0842535 0.034988496 0.045146503 -0.06221654
0.015388894 0.00013748911 0.05758235 -0.006327866 0.08639474 0.061044686 -4.4299173e-05 -0.051080298
-0.013812172 0.023571845 0.09440308 -0.078719996 -0.040270723 0.05703791 -0.04393574 0.03681812
0.06407363 -0.013955901 0.00049124885 0.052505124 0.080935135 0.020583099 0.06331457 -0.08369747
0.069197066 0.04674944 -0.010444953 -0.047606375 0.029109718 -0.09997926 -0.035402417 0.029846596
0.06635554 -0.020138005 0.013640377 -0.044454478 0.08778623 0.0043505626 -0.003239627 -0.05158467
0.037775442 -0.056572773 -0.04108481 -0.04867449 0.0060073854 0.043069415 -0.040532395 0.011993095
0.056953438 0.054726195 0.051542934 0.015373788 -0.03434978 -0.021556815 0.030027444 -0.058774833
-0.023869548 0.08831211 -0.02110147 0.017783226 -0.077090986 -0.060594186 -0.060898323 -0.042468734
0.048948366 -0.06849497 -0.023216838 -0.03135963 -0.057048287 -0.0631474 0.062459692 -0.024545807
-0.013806194 -0.085005626 -0.016168691 0.029484363 0.09911565 0.0005414326 -0.08111818 -0.07648816
0.042029794 0.035842825 -0.01971377 -0.07098117 0.012474592 0.005213531 -0.0070818276 -0.047706425
-0.046043526 0.03546201 0.018933335 -0.044869505 0.017623868 0.09145608 -0.04809611 0.07086509
-0.08299898 -0.07516127 0.074643575 0.07254497 0.086749285 -0.033228688 0.08690487 0.057084143
-0.048463657 0.048588786 -0.02720919 -0.057092413 0.06386627 -0.036183145 0.035677865 -0.075771436
-0.024115015 0.0180432 -0.032531697 0.0034008778 -0.08443638 0.039367586 -0.0439756 -0.09182605
0.0917064 0.017262902 -0.028669298 -0.048757467 -0.07903251 0.08831496 0.06284534 0.06665421
0.08734349 -0.009179048 0.031576008 -0.050404057 -0.01003559 0.08228511 0.08626617 0.052675437
0.00019235781 0.06787111 -0.034936607 -0.051592942 -0.08901913 0.06454719 -0.0707741 0.050042354
0.059810378 0.09362899 -0.077978924 0.06290967 0.028993243 -0.017493322 0.084565915 -0.062296003
0.043649755 -0.07375134 -0.0038034609 0.08964306 0.07062269 -0.027832504 0.061151326 0.02751968
-0.066334985 -0.018999662 -0.048859484 0.062102664 -0.028534312 -0.030083697 -0.08406376 0.089330316
-0.00692296 0.054225955 -0.07937693 0.013848702 0.02880862 0.10161341 -0.037954837 0.07253525

model.fc_layers.0.weight f4 [52, 104]
00000000: e1c0 363c f93c 28bd 5b17 ad3d 6c04 ee3c
00000010: 1eb4 b0bb d49a b73d f476 a6bd 08c2 4abc
00000020: 02a9 b43d 8993 0e3c 1e11 833d d831 4cbd
00000030: de68 03bd dae9 66bd e5b8 dcbc f5f0 c5bc
00000040: 39a4 37bc 08a9 ce3d 297d 69bc c7ae 823d
00000050: 629b bc3d 54d8 3c3c 672e b53d 7626 243b
00000060: f6b9 abbd a94d 67bd a0f7 c83d 81de 2b3d
00000070: 0975 7a3d e2e7 02bd 7dd9 6dbd 7081 63bd
00000080: df3a bd3d bde9 b0bd 3544 583d d6df e1bc
00000090: b655 babd cbc2 9cbd f274 68bb 51f9 92bd
000000a0: 349c 7fbb 2d1e 8d3c b449 0bbd 3792 cf3d
000000b0: 4c9f aabd 41a9 78bc c382 993d cb9d 55bd
000000c0: b2ac a53d 4733 533d ba42 90bc 484f 6b3d
000000d0: d16c 32bd da2e 423d ab17 2a3b e8dd ae3c
000000e0: a068 66bb 0463 85bd 237b 84bd f7c3 2dbc
000000f0: e097 bebc c55d ccbd 2cd1 c73d eec2 48bd
00000100: 3904 5e3c e75b 59bd 46d4 9bbc 00e9 8fbd
00000110: cde3 273d c79d 6b3d 3aff 153d 1d98 babd
00000120: c756 183d 3f79 b43d e0d7 9d3d 788c 0c3d
00000130: d82d 8a3d 20ac 043d a2cf fdbc f378 953d
00000140: 739e 43bd f4d9 47bd 773b a83c c820 8a3d
00000150: 5a6d ac3d f316 85bd 701b be3d 5932 68bd
00000160: 58cd b4bd 37dd 5ebc f5d2 043d cd2b 90bd
00000170: 0170 97bd 411e a3bd 05f9 b4bc e695 9b3d
00000180: dcc5 b8bc 16fb bdbb 80f3 00bb 2003 7ebd
00000190: ebdd 42bd 8bef 45bd 1f32 7b3d 5729 873d
000001a0: 6588 c63d ce86 be3d 8471 56bd 7393 87bc
000001b0: e195 153b 6f5a ae3d 087a 83bb d62e 39bb
000001c0: d8ae 363c 8e1f 4c3d 2c58 68bd ab7b a4bd
000001d0: 489a fcbc e2de 5fbd 83e9 793d 4353 2abc
000001e0: 2ceb 493d a775 7fbd 6a7b a9ba ddf4 8d3d
000001f0: fa83 953b ec8d 4ebc 96f9 913d 0787 77bc
00000200: 3477 033c 63d2 3abd 100e 63bd a191 5f3d
00000210: 2de2 adbc 1e20 7d3d a05a a93c 5c9a 403d
00000220: f03e 21bd 9169 26bd 3e97 ecbc ff86 a13d
00000230: a978 2f3c 3fc7 cd3b cb86 9dbd 2f66 4dbd
00000240: 39c5 2d3c 3a8c 7ebd c178 c93c 8312 913d
00000250: 766a 97bd a43d e2bc 82e7 d9bc 7f69 0ebd
00000260: b27a 1b3d 5119 38bd 0837 7d3c 8d45 c73d
00000270: 95b2 b63d 8737 fdbc d639 373d c2ad 973d
00000280: b71b 853d 5e36 1b3c 3f22 983d 0f57 933d
00000290: 76a4 83bd a1df 9ebd a3a8 32bb 3328 86bd
000002a0: de43 bdbd 4870 c43d 9267 ad3b 59c1 973d
000002b0: 6373 99bc 343a 843d 4749 09bc 7dfc 663d
000002c0: b654 81bd 9c2e 8ebc 58f7 26bc e3e1 a6bd
000002d0: 050d 78bd 12a0 b03d 72b2 6fbd d6ef dcbc
000002e0: 3108 d1bd 9439 423d 9877 a43d 26ea 9f3d
000002f0: 32f9 3a3d 145d b0bd 6caf 943d ebfd 403d
00000300: 4254 193c 21eb e33c 1a51 b93d 0662 7bbd
00000310: 5e8b b5bd c7ad bb3d 88c9 333d 2f0a 7e3d
00000320: f43a a4bc 8597 943d f742 94bd 3745 93bd
00000330: 4b0e b23c 1ba3 2e3d 6333 85bc a78e b23d
00000340: b74c b03d d03d 3b3d 5481 ad3c fe6d 95bd
00000350: e3b9 37bd c827 803d 52a8 c83d 5e96 9b3d
00000360: 85eb 803d 5094 c53d b81d ee3c 8be2 9cbd
00000370: 8757 99bd 2fc3 803d 3c3b 823d a855 3c3d
00000380: 5ad7 56bd cc5f be3d 7469 cf3d 617d adbc
00000390: 9608 07bd 1978 b73c eda4 a5bd 5720 23bd
000003a0: d2d4 873d aa85 23bd 5f9b 70bc 3e3f 37bd
000003b0: 4fc4 2cbd 993c 183d be70 a0bd 6895 153d
000003c0: 6d08 77bd 49e2 7fbd c4a0 d7bc 8e02 70bb
000003d0: 7945 fabc 69a1 b5bd f84c c93c b1dc c8bd
000003e0: 309e 903d 5afa 80bd 8fcb 3c3c 2395 8b3d
000003f0: 4c31 d1bc 1a49 353d 0293 293d 1abf 843d
0.011154384 -0.041073773 0.0845172 0.029054843 -0.0053925654 0.08965078 -0.08128157 -0.012375362
0.08821298 0.008702167 0.06399749 -0.049852222 -0.03208243 -0.056375362 -0.026943633 -0.024162749
-0.011208587 0.10090834 -0.014251032 0.063809924 0.092093244 0.011526186 0.08846741 0.0025047339
-0.083850786 -0.056470547 0.09812856 0.041960243 0.06114677 -0.031959422 -0.05806874 -0.055543363
0.092397444 -0.08638332 0.052799422 -0.027572554 -0.09098379 -0.07654341 -0.0035470095 -0.071764596
-0.0039003016 0.017226303 -0.034005836 0.1013531 -0.08331165 -0.015177072 0.07495644 -0.052152436
0.0808958 0.051562574 -0.017609943 0.057448655 -0.043560807 0.047407962 0.0025954049 0.021346048
-0.0035157576 -0.06513026 -0.06468799 -0.010605804 -0.023265779 -0.099788226 0.09756693 -0.049014024
0.013550811 -0.05306616 -0.019022118 -0.07026863 0.040988732 0.057523515 0.036620356 -0.091110446
0.037192132 0.08812188 0.077071905 0.03431365 0.06747025 0.032390714 -0.030982796 0.0729846
-0.04775853 -0.04879184 0.020536168 0.06744534 0.08419295 -0.06498518 0.09282577 -0.05668864
-0.08828229 -0.013602546 0.032427747 -0.07039604 -0.0739441 -0.07964755 -0.022091398 0.0759695
-0.022555284 -0.005797754 -0.0019676387 -0.0620147 -0.04757492 -0.04832415 0.061327096 0.06599682
0.09693984 0.09303056 -0.05235435 -0.016549801 0.002282493 0.085133426 -0.00401235 -0.0028256676
0.011150084 0.04983478 -0.056724712 -0.080314 -0.030835286 -0.054655917 0.06101371 -0.010395828
0.049296543 -0.06236806 -0.0012930457 0.069314696 0.004562852 -0.012607079 0.07127683 -0.015107877
0.008024026 -0.045610797 -0.055433333 0.054582242 -0.021226013 0.061798207 0.020673096 0.04702221
-0.039366663 -0.04062802 -0.028880712 0.078870766 0.01070992 0.0062798555 -0.07691725 -0.050146278
0.010606104 -0.06214545 0.024593713 0.07083609 -0.07393353 -0.027617283 -0.02659965 -0.034768578
0.03795881 -0.04494602 0.015455015 0.09730063 0.089207806 -0.030910267 0.04473289 0.074061885
0.06499427 0.009473411 0.07428407 0.071943395 -0.06427853 -0.077574976 -0.002726116 -0.06550636
-0.0924146 0.095917284 0.0052918876 0.07409925 -0.018731778 0.06456414 -0.008379287 0.056393135
-0.063149855 -0.01735621 -0.010190807 -0.08148553 -0.06055929 0.08624281 -0.058519788 -0.026969831
-0.102066405 0.047418192 0.08030623 0.07808332 0.045647807 -0.08611503 0.072600216 0.047117155
0.0093584675 0.02782208 0.09048672 -0.06137278 -0.08864473 0.09164005 0.043893367 0.06202143
-0.020047642 0.072554626 -0.07239335 -0.07190936 0.021735331 0.04263602 -0.016259855 0.08718615
0.08608382 0.045713246 0.021179833 -0.0729637 -0.04485501 0.06257588 0.097977296 0.0759704
0.06294922 0.09647429 0.029066905 -0.07660397 -0.07487398 0.06287228 0.06358954 0.045980126
-0.05245147 0.092956156 0.101275355 -0.02117795 -0.032967173 0.022396134 -0.08088098 -0.039825764
0.06632389 -0.039922394 -0.014685481 -0.044738047 -0.042179402 0.037167165 -0.07834004 0.036519438
-0.06031077 -0.06247166 -0.026321776 -0.0036622616 -0.030550705 -0.08868677 0.024572834 -0.098077185
0.07061422 -0.06297751 0.0115231415 0.06815555 -0.025536202 0.04425917 0.041399963 0.06481762

model.fc_layers.0.bias f4 [52]
00000000: 6ff3 c13d e4e7 163d 785e 0a3c ad2e 7fbc
00000010: bb2d 8dbc d326 923c 1dce 9e3d 704c 013c
00000020: 24de fdba 729b 183b 660e 78bc fae7 aabd
00000030: 95cf 34bd 1535 9dbd 4333 8a3d f13f efbb
00000040: 210a 1d3d 87df fcbc 46fa a93d dbde b23d
00000050: 4fc0 403d 9ff0 fcbc 958a 5c3d 2056 83bd
00000060: a5db d6ba 2e66 c6bd 6841 f43c 2a71 843d
00000070: faf4 833d 4995 7bbd 7e51 613c 5e4f be3d
00000080: 1088 75bd f4f1 75bd f2fa 19bb af57 bb3d
00000090: c015 98bc edb3 093d 0d96 84bd 02b7 b33d
000000a0: cdde 563c 7a44 f3bb 90af 50bd 25e2 09bd
000000b0: 186c 45bd c173 e23c fa10 17bd 7bd6 903c
000000c0: 3adb f83c b2cd 4c3b f48c 3cbd 2aa0 9d3d
0.094702594 0.036842242 0.008445375 -0.015575093 -0.01723372 0.017840778 0.07754157 0.007891759
-0.0019368571 0.0023286012 -0.015140152 -0.08345027 -0.04414328 -0.0767614 0.06748059 -0.0073013236
0.038339738 -0.030868305 0.08299689 0.087339126 0.0470584 -0.030876456 0.0538431 -0.064129114
-0.0016392363 -0.09687458 0.029816344 0.06466897 0.0644321 -0.061421666 0.013752339 0.09292482
-0.059944212 -0.060045198 -0.0023495522 0.09147584 -0.018565059 0.033618856 -0.064739324 0.0877514
0.013114643 -0.0074239345 -0.05094868 -0.033662934 -0.04819879 0.027643086 -0.036881424 0.017680397
0.030377973 0.0031250534 -0.04603286 0.076965645

model.fc_layers.1.weight f4 [26, 52]
00000000: ac48 c7bd 2601 893d a51c 013e 3eed 163d
00000010: 22fd 8b3c 9e00 c9bd 28fc 73bd 7046 503d
00000020: 6e48 f33d 4bb3 e2bd 13dd 043e a283 c1bd
00000030: d68a 04bd 8262 f23d 1de4 d93d 61d3 be3d
00000040: 0fdc 9fbd 33f5 c3bd 7d35 debc e84f 02bd
00000050: 57ed 0c3d 98b0 9d3d 9e1a e63d 5658 7bbd
00000060: f00d 13bd f835 933c 552f 1b3c 5626 fdbc
00000070: 5611 993c 07a0 6e3d 9937 84bd ba7c 96bd
00000080: 32b0 9bbd e776 40bd e02d 0c3e d4f7 503d
00000090: cf31 f13d d985 403d 5304 a33d ec11 fe3d
000000a0: 27d3 8bbd 6203 6c3d 61a1 0bbe 7f04 b43b
000000b0: 375d 85bd 9335 8abd 109b 96bc fea9 d7bd
000000c0: 82b8 eebd 70f0 583d aba2 c43d e4a8 2b3b
000000d0: 42d1 cebd 47ee efbc c56e 8fbd 749f cb3d
000000e0: 9dd7 96bd 3643 0bbe 2d13 99bd 4f2b 053d
000000f0: a1c9 59bd b698 623d e245 00be 8ee6 7fbd
00000100: 3cd3 d63d 7969 e3bd dc83 a23d 7f01 303d
00000110: 174d ddbd 0913 c9bb b018 82bd 0683 f7bc
00000120: 14f4 b63c b4c2 cebd 9d3d 06be 4948 c1bd
00000130: e513 f93c a3f5 f3bd 44b4 2bbb 4268 35bb
00000140: 0784 a6bc e08b c13d b304 ac3d c1ff c73d
00000150: 444c 083e 0829 64bd 5b68 12be ea09 0abc
00000160: dc82 363d 3fa1 25bd c577 b93d 66a0 fcbd
00000170: aabd ea3d 9803 053e 14fa 10bd 5d89 71bc
00000180: 3605 3abc 2b94 87bd fc6c 5abc 37c2 dfbd
00000190: 86c9 eb3d 3764 08be 869f 06be db9c dbbd
000001a0: 42a4 fe3d b8e1 493c c86f 7839 f876 debd
000001b0: a595 b83d 3a3d afbd e921 42bd e76c 81bd
000001c0: d591 afbd 8ed9 41bd d8be 74bd 0a74 aa3d
000001d0: ffc7 e0bd 80dc c7bd 93eb 89bb 0da8 bd3d
000001e0: 9617 c83d 487b de3d 95ba dabd 7409 093d
000001f0: d582 8cbc 82e4 fcbd b298 ff3c 5d17 973c
00000200: 10c6 f63d 3adb 0b3e 935f e13c aa3b ee3d
00000210: ad83 0ebe d491 123e d05e ab3d db6b d93d
00000220: a605 be3d 6bbf fd3d 033d 5fbd 88ba a0bc
00000230: 5806 4d3d 30cf 45bd 682f 9cbd debf 693d
00000240: b52e d53d e89f 35bc 0775 d7bd b190 41bd
00000250: 8420 083e 6621 e13d dfa1 02be 76f0 d8bb
00000260: f9de ae3d 0379 893d 81e1 d13d 8cb6 213d
00000270: e307 00bd 0503 87bd 707e 0f3e 4d08 0d3d
00000280: 9bf9 9fbd 96be 373d cadd cabd e3ef 01be
00000290: 4543 c63b 2938 0abe 8ee9 03bc a3b8 743c
000002a0: 9d3c 79bd a000 c83d 1e92 b43d b71b 68bd
000002b0: 6ed4 973d a921 4cbd e167 05bd 8b7f 4a3d
000002c0: bf6c df3d 14a4 3fbd 2bf3 1fbd 735d baba
000002d0: 968b 74bd 8011 ecbc 8353 09be 0885 c4bd
000002e0: b32a 80bd 5f8e 04bd 52e8 dfbc 877a a03d
000002f0: c246 023e b269 4d3d 4e7d 97bd cc78 a13c
00000300: 16cb 8dbd 0b67 94bd edc7 c43d c6ab 5ebc
00000310: 4fc2 bebc 7889 b83d 5e91 abb9 89b9 423d
00000320: 4c1b 2ebd 1749 07bc a0ef 86bd aa4e d2bd
00000330: 68d3 5d3d 803a cdbd ab12 fbbd 7928 ab3d
00000340: 6c31 85bd 9ee7 3dbd 8698 fa3c 5c08 30bd
00000350: 5419 5fbb fde9 ac3d 414f 9ebd 1d83 0a3d
00000360: 689c 7dbd be4e 8bbd ee72 313c 1efa 2cbd
00000370: 65a6 9a3d d5ec 0dbe 90d4 3c3c c4eb 0dbd
00000380: a1b7 05be cc1d c5bd f902 b43d 3489 08be
00000390: 2f83 883c 2be0 cf3c ce87 df3d 36d7 b3bc
000003a0: b2a6 03be c1cb 10be fba6 e63d 94c1 193d
000003b0: 9da9 0ebd 118a ecbc 04b2 20bd 3019 c3bc
000003c0: 384e 9ebc 9532 033e c139 853c 5051 273d
000003d0: f6b5 d0bd 2f00 8d3d 2d83 9fbc 379f bdbd
000003e0: fecb 833d cde3 9bbd 2575 473d 9caa f33c
000003f0: f2f0 d93d ae57 65bd c3ee f23d 842a 06be
-0.09730658 0.06689672 0.12608583 0.036847346 0.017088477 -0.09814571 -0.059566647 0.050848424
0.11879049 -0.11069354 0.12974958 -0.09448935 -0.032358967 0.11835195 0.10639212 0.09317661
-0.07805645 -0.095682524 -0.027125115 -0.031814486 0.034406032 0.07699698 0.112355456 -0.06136354
-0.035901964 0.01797007 0.009471734 -0.030902069 0.018685024 0.058258083 -0.06455917 -0.073480085
-0.07601966 -0.046988394 0.13689375 0.051017597 0.11777078 0.047002647 0.07959809 0.12405762
-0.068273835 0.057620414 -0.1363578 0.0054937 -0.0651192 -0.067485 -0.018384486 -0.1053047
-0.11656286 0.052963674 0.09601339 0.0026193196 -0.100985065 -0.029288424 -0.070035495 0.09942523
-0.07365344 -0.13599858 -0.074743606 0.032512005 -0.053170804 0.055321418 -0.12526658 -0.062475733
0.104895085 -0.11104102 0.079353064 0.042970177 -0.10805719 -0.0061363024 -0.06352365 -0.030213844
0.022333182 -0.100957304 -0.13109441 -0.094376154 0.030404994 -0.11912086 -0.0026199976 -0.002768055
-0.020326627 0.09450507 0.08399334 0.09765578 0.13310343 -0.055703193 -0.14297621 -0.008425215
0.04455839 -0.04043698 0.09056047 -0.12335281 0.11461957 0.12989652 -0.035394743 -0.014742223
-0.011353781 -0.06620058 -0.013331648 -0.109257154 0.11513047 -0.13319479 -0.13146791 -0.10723277
0.124336734 0.012321882 0.00023692765 -0.10862535 0.090129174 -0.085566 -0.04739562 -0.063195996
-0.08572737 -0.047326617 -0.059752315 0.08322914 -0.10975646 -0.09758854 -0.004208991 0.09260569
0.09770124 0.10863358 -0.10680119 0.03345628 -0.01715223 -0.12348272 0.03120074 0.018443758
0.12049496 0.13657847 0.027511394 0.11632474 -0.13917418 0.14313442 0.083676934 0.10616275
0.09278421 0.12390026 -0.054501545 -0.019620195 0.050054878 -0.048293293 -0.076262295 0.057067744
0.10409299 -0.011085488 -0.10520368 -0.04725713 0.13293654 0.10992698 -0.12757061 -0.006620462
0.085386224 0.06712534 0.102480896 0.03948073 -0.03125752 -0.06592373 0.14013076 0.034431744
-0.0781128 0.04485949 -0.09905584 -0.12689166 0.0060504996 -0.13497986 -0.008051289 0.014936599
-0.06084882 0.09765744 0.08816932 -0.056667056 0.074135646 -0.04983679 -0.03256977 0.04943804
0.109094135 -0.046787336 -0.039050262 -0.0014218524 -0.059703432 -0.028816938 -0.13410763 -0.09595686
-0.06258144 -0.03236234 -0.027332459 0.0783587 0.12722304 0.050149627 -0.07396947 0.01971092
-0.06923501 -0.072462164 0.09608445 -0.013590759 -0.023286013 0.09010595 -0.0003272397 0.04754022
-0.0425065 -0.008257172 -0.065886736 -0.1026891 0.05415669 -0.100209236 -0.1225942 0.08357329
-0.06503567 -0.046363465 0.030590307 -0.042976722 -0.0034042196 0.08443067 -0.0772996 0.033816446
-0.06191674 -0.06802128 0.010830624 -0.042230718 0.075512685 -0.13859876 0.011525288 -0.03464867
-0.1305833 -0.09624824 0.087896295 -0.13333589 0.016664116 0.025375446 0.109145746 -0.021953207
-0.12856558 -0.14140226 0.11262318 0.037538126 -0.034829725 -0.028874429 -0.03923227 -0.023815721
-0.019324407 0.12812264 0.01626289 0.04084903 -0.10190956 0.06884801 -0.01947173 -0.092588834
0.06435393 -0.07611809 0.048695702 0.029744439 0.1064166 -0.05599182 0.118619464 -0.13102156

model.fc_layers.1.bias f4 [26]
00000000: 08a3 b4bd 5868 663d cc10 c2bd f6cd a3bd
00000010: f2bd 0e3d 8e61 e1bd 91fa 853c 4d66 8a3d
00000020: ded5 013e e1d7 07be 6303 2a3d 3762 d13d
00000030: 7d59 8c3d cdb0 073e 49ec 01be c8d8 bcbc
00000040: 21f4 263c e437 06bd f840 af3d 58e1 c43c
00000050: a75a 933c cee9 3b3c efd6 bfbd 490a dd3c
00000060: b13e b23d ebda 25bd
-0.08820158 0.056251854 -0.0947586 -0.07998268 0.034849115 -0.11004935 0.016354831 0.067577936
0.1267924 -0.13265945 0.041507136 0.10223811 0.06853006 0.13251038 -0.12687792 -0.023052588
0.010190041 -0.032768145 0.08557314 0.024033234 0.017987562 0.011469318 -0.09367167 0.026982443
0.08703364 -0.04049198

model.fc_layers.2.weight f4 [1, 26]
00000000: 568e 6a3d 4d24 fcbd bf02 bdbd 0822 3cbb
00000010: 168a a13d ef78 9abd 62a6 89bd e148 ecbd
00000020: aba8 e53d 6d79 ff3c 550a e4bd 87d7 e5bc
00000030: b47e 183e a89d 053d cbdf dbbd c9a4 98bd
00000040: 0268 e63d 2734 f93c 50b4 a0bd ed57 d9bd
00000050: f9ad b0bd 3cfc 9f3d be97 04be c75e 34be
00000060: 0dac fb3d 77c2 26be
0.05726465 -0.12311611 -0.092290394 -0.0028706808 0.07887666 -0.075425975 -0.06721188 -0.11537338
0.112138115 0.03118583 -0.11134783 -0.028056873 0.14892083 0.032621056 -0.107360445 -0.07453305
0.11250307 0.030420376 -0.07846892 -0.10612474 -0.08626933 0.07811782 -0.1294851 -0.1761428
0.122886755 -0.1628512

exp_avg f4 [416, 9]
00000000: 4fbb 8735 faf6 1335 5b9d b435 6615 2835
00000010: a1a2 b235 70ff e7b4 d16f b535 f250 4a35
00000020: a9e4 d735 3a55 8cb8 2041 91b8 97d1 54b8
00000030: 9f94 91b8 e190 90b8 2cbd 8bb8 3782 89b8
00000040: ea1e 90b8 4bb5 89b8 fa75 adb8 bc44 b2b8
00000050: 3926 83b8 7807 b4b8 9466 b4b8 2655 a2b8
00000060: 11fb adb8 b2fb b4b8 f562 8ab8 94bd 11b9
00000070: 61cd 14b9 a97b c7b8 6586 14b9 7a94 17b9
00000080: 0a5d e3b8 aae1 10b9 f7ba 14b9 f9ae 00b9
00000090: fe11 81b8 1e40 82b8 96cd 48b8 96da 82b8
000000a0: 2dc4 82b8 7805 57b8 5565 7cb8 5434 82b8
000000b0: b4a4 5bb8 e450 5e34 d079 78b3 3c3f 3a34
000000c0: 78b1 e933 be35 9634 7e45 feb4 4ef4 e934
000000d0: 109a 9234 cab9 9234 44c9 7d36 b012 6d36
000000e0: 1250 6036 3f7c 6536 3c18 7736 7aa8 5336
000000f0: e19a 6136 13b7 7836 f50d 0736 0fa9 03b9
00000100: c0c0 03b9 c958 ceb8 6dd1 06b9 83c3 06b9
00000110: 3c5e e8b8 23ca 06b9 a946 08b9 3a85 edb8
00000120: 02c9 feb8 e90b 01b9 c5c0 d9b8 ac7a ffb8
00000130: 8135 ffb8 e652 f1b8 1a47 f9b8 f74f ffb8
00000140: dd23 eeb8 5ec6 00b7 0b62 01b7 bbe2 acb6
00000150: 5755 00b7 474e 0cb7 dfbd 9cb6 7a0d 06b7
00000160: 8c36 07b7 5b1a 00b7 b256 91b7 e548 95b7
00000170: d194 5ab7 f42b 94b7 7677 96b7 64f4 6db7
00000180: f09c 8fb7 82ce 93b7 9b2f 7ab7 d56e 8fb7
00000190: 85dd 95b7 b14d 45b7 989e 96b7 f285 93b7
000001a0: 2865 83b7 773b 8cb7 f7ce 93b7 3b13 82b7
000001b0: 6684 f7b8 c0c4 f9b8 deea b6b8 f2f8 f6b8
000001c0: c37c fcb8 b81a cab8 2f99 f7b8 8186 f8b8
000001d0: a30b ebb8 410c f337 5f4f f537 c225 b837
000001e0: 2a97 f737 99c7 0038 c62e b637 68c2 0038
000001f0: 50ee fc37 1d45 f337 0c8e 30b9 b068 33b9
00000200: df3f 02b9 1ea0 32b9 c178 34b9 2dfb 0fb9
00000210: 4ee9 2bb9 a61a 32b9 fcac 18b9 1c46 8037
00000220: 8e62 7637 5da3 5737 34f1 7e37 ebc9 8437
00000230: 4384 3d37 6307 8637 f8a5 8337 2ee6 5337
00000240: 5fa1 6a38 4c56 6938 e82a 5338 ac56 6538
00000250: ba5f 6a38 3a37 5b38 58b9 6338 b2fd 6538
00000260: 9570 4d38 fdcd 84b8 46b4 83b8 9cc0 43b8
00000270: 2bd8 85b8 4df1 85b8 9b04 5bb8 be61 83b8
00000280: 2394 85b8 50dc 72b8 380b eeb7 deb3 f3b7
00000290: 6eb4 bbb7 eaea efb7 32de f4b7 b9d7 c9b7
000002a0: 0370 eab7 2ee7 f3b7 d19c c5b7 a235 33b8
000002b0: 32d8 34b8 6df6 2db8 b803 2fb8 3e97 2db8
000002c0: 913e 2bb8 09c6 2bb8 5f0c 2fb8 68fe 09b8
000002d0: 7be0 8335 e8dd 9a35 553c 1035 da52 a235
000002e0: 0fa3 9b35 1fc5 33b5 62d8 ab35 0a10 a335
000002f0: 0262 0535 b678 bcb8 02c6 bcb8 bea1 a1b8
00000300: a0de bdb8 2ed8 c0b8 0bd5 abb8 b80e bdb8
00000310: 2615 c1b8 9369 b3b8 3b37 3e38 e3fa 3538
00000320: 5dd5 0438 58ed 3c38 cb30 4338 d116 ce37
00000330: a60f 4538 43c8 4238 4017 2138 fa20 5cb8
00000340: 1767 54b8 6823 39b8 8420 65b8 502b 76b8
00000350: 45e5 b6b7 b0ea 71b8 b51f 6cb8 efaf 64b8
00000360: 247d 7f36 9d58 6536 3642 7336 983b 7a36
00000370: fe73 7436 a522 8d36 3cb9 8336 3e55 7236
00000380: 664f 9536 0bff 1a38 616e 1738 073f 1438
00000390: 8c34 1538 42f0 1838 aaa4 0538 2f0a 1638
000003a0: 5b19 1838 44ad 1138 bccb 81b7 1e91 8bb7
000003b0: d5cc 2fb7 3f95 81b7 de13 7fb7 eb64 8fb7
000003c0: cc86 65b7 d75f 79b7 2a9a 61b7 d2f7 48b8
000003d0: e799 4ab8 ebe7 2db8 f9b2 44b8 d58b 4cb8
000003e0: 7c4f 31b8 104d 45b8 cd6a 4eb8 5254 35b8
000003f0: 9aac 63b7 7a0b 78b7 1b24 05b7 7522 73b7
1.0112798e-06 5.5121166e-07 1.3456842e-06 6.2616016e-07 1.3309365e-06 -4.3212958e-07 1.3518094e-06 7.5368655e-07
1.6085297e-06 -6.691595e-05 -6.926269e-05 -5.0739935e-05 -6.9418216e-05 -6.893441e-05 -6.6632725e-05 -6.5569235e-05
-6.872213e-05 -6.5664375e-05 -8.271258e-05 -8.500504e-05 -6.253686e-05 -8.58446e-05 -8.6021755e-05 -7.740622e-05
-8.2960476e-05 -8.629951e-05 -6.598785e-05 -0.00013898901 -0.0001419089 -9.512093e-05 -0.00014164446 -0.00014455794
-0.000108415334 -0.00013816977 -0.0001418403 -0.00012272214 -6.154551e-05 -6.210826e-05 -4.7875183e-05 -6.239598e-05
-6.235424e-05 -5.1265088e-05 -6.0175855e-05 -6.20863e-05 -5.236706e-05 2.0704789e-07 -5.7852787e-08 1.7345604e-07
1.08821894e-07 2.797878e-07 -4.736175e-07 4.3577387e-07 2.7306714e-07 2.7329799e-07 3.781709e-06 3.532663e-06
3.3425208e-06 3.419598e-06 3.6819974e-06 3.1539516e-06 3.3617764e-06 3.7061443e-06 2.0124692e-06 -0.00012556113
-0.00012564939 -9.839383e-05 -0.00012857253 -0.0001285207 -0.000110801746 -0.00012854538 -0.00012996294 -0.00011325856
-0.000121491044 -0.00012306836 -0.000103832725 -0.00012182197 -0.000121693134 -0.000115072165 -0.00011886489 -0.00012174242
-0.000113554044 -7.6755805e-06 -7.711827e-06 -5.1523944e-06 -7.649264e-06 -8.362876e-06 -4.671266e-06 -7.99016e-06
-8.059327e-06 -7.635531e-06 -1.7325718e-05 -1.7796128e-05 -1.3028462e-05 -1.7663442e-05 -1.7937022e-05 -1.4183202e-05
-1.7120008e-05 -1.7619928e-05 -1.4912245e-05 -1.7098539e-05 -1.7865337e-05 -1.1760204e-05 -1.7955244e-05 -1.7586139e-05
-1.5663521e-05 -1.6716991e-05 -1.7620141e-05 -1.5506163e-05 -0.00011802539 -0.00011909893 -8.722184e-05 -0.00011776564
-0.00012039535 -9.637087e-05 -0.000118064105 -0.00011850615 -0.00011207841 2.8973564e-05 2.9243236e-05 2.1952092e-05
2.9515086e-05 3.0703468e-05 2.1717871e-05 3.0698633e-05 3.0151714e-05 2.900004e-05 -0.00016837585 -0.0001710977
-0.0001242156 -0.00017035051 -0.00017211122 -0.00013731113 -0.00016394744 -0.0001698533 -0.00014560291 1.5291436e-05
1.4685689e-05 1.2853035e-05 1.5195739e-05 1.5829652e-05 1.1296072e-05 1.5977485e-05 1.5693702e-05 1.2630173e-05
5.5940236e-05 5.56319e-05 5.034628e-05 5.4678574e-05 5.58791e-05 5.2265103e-05 5.4293632e-05 5.4834127e-05
4.898066e-05 -6.332619e-05 -6.280145e-05 -4.6671004e-05 -6.3821986e-05 -6.38688e-05 -5.2217958e-05 -6.264773e-05
-6.369527e-05 -5.7902478e-05 -2.8377035e-05 -2.9051615e-05 -2.2376156e-05 -2.860041e-05 -2.9190534e-05 -2.406152e-05
-2.7947133e-05 -2.9075509e-05 -2.3557253e-05 -4.2726875e-05 -4.311669e-05 -4.1475916e-05 -4.1726715e-05 -4.138727e-05
-4.0827847e-05 -4.095401e-05 -4.1734773e-05 -3.290028e-05 9.825593e-07 1.1538477e-06 5.3731975e-07 1.2094054e-06
1.1595856e-06 -6.6969545e-07 1.2803469e-06 1.2149114e-06 4.968898e-07 -8.987023e-05 -9.0014204e-05 -7.707205e-05
-9.0536894e-05 -9.19554e-05 -8.193598e-05 -9.014964e-05 -9.206896e-05 -8.55505e-05 4.5350967e-05 4.338742e-05
3.1669962e-05 4.5043736e-05 4.6537065e-05 2.4567738e-05 4.6983034e-05 4.6439713e-05 3.8407044e-05 -5.24828e-05
-5.064075e-05 -4.414041e-05 -5.4628137e-05 -5.869131e-05 -2.1802853e-05 -5.7677447e-05 -5.6296314e-05 -5.4523287e-05
3.8070802e-06 3.4175239e-06 3.6248362e-06 3.728759e-06 3.642635e-06 4.2061606e-06 3.9256684e-06 3.6110428e-06
4.4497892e-06 3.695399e-05 3.6104004e-05 3.534465e-05 3.5573306e-05 3.646338e-05 3.1863026e-05 3.577227e-05
3.6263238e-05 3.473206e-05 -1.547287e-05 -1.6637667e-05 -1.0478504e-05 -1.5447496e-05 -1.520381e-05 -1.7093922e-05
-1.36808485e-05 -1.4863871e-05 -1.3446939e-05 -4.7914516e-05 -4.8303886e-05 -4.1462405e-05 -4.6896723e-05 -4.876762e-05
-4.2274114e-05 -4.704023e-05 -4.9213693e-05 -4.3232292e-05 -1.3570441e-05 -1.4784624e-05 -7.935824e-06 -1.4491951e-05
